nnwf/nets/state_dicts/dataset01.pt (torch, 50963 bytes, 9 tensors)

linearSequential.0.weight f4 [128, 6]
-0.2505257 -0.18312888 0.40720683 -0.050657123 -0.1343883 0.37520188 0.023864398 -0.112431794
-0.123657875 0.4078081 0.5819158 0.26819733 0.3093593 -0.23953474 -0.19538517 -0.070495486
0.15168506 -0.29308382 0.2458142 -0.38526404 0.0014859438 -0.12254459 0.1659596 -0.28336918
-0.23002794 -0.24668519 -0.12832654 -0.31205177 -0.027848125 0.33235955 -0.14998841 -0.16544752
-0.1669616 -0.32829773 0.13818294 0.027848661 -0.13393892 -0.25125095 0.17364456 0.3234713
0.0115400385 -0.009249948 0.001986866 0.046267677 -0.14038458 0.1574729 0.053747922 -0.07749926
0.3421728 -0.008435739 -0.22652024 0.10589329 0.15770718 0.15212145 0.43049115 -0.26042074
-0.22840053 -0.024337804 -0.30591586 -0.1688546 0.32928276 -0.26535007 0.30735818 0.12500916
-0.108367324 -0.3595429 -0.21417403 -0.14012492 -0.08737594 -0.2698666 -0.18738592 -0.101174474
0.2863519 -0.005679007 0.28925532 0.102978215 -0.3394033 -0.24311732 -0.14966428 -0.24957415
0.34824103 -0.26937485 0.21495211 0.22953755 -0.13199085 0.044133276 -0.03671089 -0.107792765
-0.11332789 -0.23456502 0.2680246 -0.042361893 0.14238133 0.23521669 -0.30030861 -0.2526968
0.16834249 -0.36431426 0.2395982 0.06717892 0.0490124 -0.34929237 -0.09621799 -0.04667738
0.33679295 -0.25517428 -0.34823936 0.38861442 -0.02235505 -0.15449 0.022463173 -0.3538221
-0.33714613 -0.22727562 -0.26984245 0.06821132 -0.027913779 -0.33294013 -0.12367889 -0.028724223
0.14606062 -0.31906793 0.0051768636 0.18117535 0.0537033 0.20461828 -0.42972103 -0.13877492
0.061639562 0.013161094 -0.21422578 -0.30785555 -0.22351643 -0.062022954 -0.16271059 -0.16856849
-0.3963119 -0.19729832 -0.23161654 -0.38182828 -0.39852807 0.19933538 -0.06524675 0.25354108
0.403832 -0.30886465 -0.0019421548 0.06377759 -0.49243233 0.30139434 -0.31047165 0.3510617
-0.35757697 0.21893407 0.0316233 0.029645711 -0.101939924 -0.24510309 -0.0130905155 0.3681966
0.18864076 -0.3911764 -0.27839214 0.18389976 -0.3364855 -0.09187642 0.14248645 0.058858335
-0.113097824 -0.17635182 0.13804957 0.3945652 -0.01440885 0.20626438 -0.16560823 -0.10887608
0.02066791 -0.40198106 0.05104375 -0.16499506 0.004927933 -0.23494856 -0.3488554 -0.18263306
-0.2249653 -0.120949 0.17362219 -0.35273308 0.13952672 -0.3240177 0.20998389 -0.096193165
0.38071066 -0.39997342 0.37443027 0.15248635 -0.3525531 0.111219734 -0.0070960224 0.22363013
0.052450806 -0.3370793 -0.24383885 -0.006118417 0.22840434 -0.32597616 0.281245 -0.36392573
0.19737458 0.29198253 -0.051228806 0.009894437 -0.04828241 0.2784137 -0.26959512 -0.08758446
-0.27194268 0.3442071 0.21936476 -0.13387531 -0.08065069 -0.20860551 -0.0026824772 0.0055170357
-0.2840349 -0.10148716 -0.057127953 -0.0114376545 -0.17824046 0.28629684 -0.28595567 -0.033663243
0.16115457 -0.363671 -0.20971648 0.36638767 -0.09613615 -0.32257128 -0.4074225 -0.15468729
0.31271794 0.2971914 -0.2877788 0.27850026 0.3622482 -0.14780936 0.01615733 -0.020351708
0.19915342 -0.38441715 -0.19329166 0.11026257 0.18964714 -0.18697102 -0.17812064 0.21754657
00000000: e844 80be 2386 3bbe 6a7d d03e d87d 4fbd
00000010: 169d 09be 761a c03e 457f c33c a442 e6bd
00000020: 5740 fdbd 39cc d03e 6ff8 143f 2951 893e
00000030: 5864 9e3e 9848 75be 0d13 48be f05f 90bd
00000040: 5453 1b3e 150f 96be b8b6 7b3e 5441 c5be
00000050: 00c4 c23a a8f8 fabd 50f1 293e c415 91be
00000060: 728c 6bbe 0b9b 7cbe 0868 03be 40c5 9fbe
00000070: c021 e4bc 082b aa3e 9096 19be 136b 29be
00000080: fbf7 2abe a416 a8be d47f 0d3e e022 e43c
00000090: 4927 09be f7a3 80be e1cf 313e 089e a53e
000000a0: 6e12 3d3c 188d 17bc 1436 023b 2d83 3d3d
000000b0: fac0 0fbe 9340 213e c826 5c3d efb7 9ebd
000000c0: 4631 af3e 0e36 0abc ecf4 67be 95de d83d
000000d0: fe7d 213e bac5 1b3e 5669 dc3e de55 85be
000000e0: d4e1 69be 1360 c7bc 01a1 9cbe 38e8 2cbe
000000f0: c097 a83e f7db 87be 0d5e 9d3e 6702 003e
00000100: b0ef ddbd 0216 b8be 7050 5bbe e87c 0fbe
00000110: 28f2 b2bd f42b 8abe 18e2 3fbe 9034 cfbd
00000120: b79c 923e f716 babb 4619 943e 3ee6 d23d
00000130: 45c6 adbe bff3 78be 9841 19be 5e90 7fbe
00000140: a64c b23e 80eb 89be 681c 5c3e e40b 6b3e
00000150: 9c28 07be 18c5 343d 285e 16bd 74c2 dcbd
00000160: 7418 e8bd d031 70be 853a 893e aa83 2dbd
00000170: 69cc 113e a5dc 703e 0dc2 99be 7a61 81be
00000180: f961 2c3e 6687 babe 3b59 753e 1a95 893d
00000190: 3ac1 483d 73d6 b2be f00d c5bd c830 3fbd
000001a0: 2070 ac3e 34a6 82be 6e4c b2be 78f8 c63e
000001b0: f021 b7bc a032 1ebe b004 b83c 2c28 b5be
000001c0: 6b9e acbe f1ba 68be ca28 8abe 60b2 8b3d
000001d0: 70ab e4bc 2177 aabe 5c4b fdbd 104f ebbc
000001e0: ea90 153e df5c a3be aea2 a93b 0886 393e
000001f0: fef7 5b3d 7487 513e 6504 dcbe 031b 0ebe
00000200: c479 7c3d a1a1 573c 015e 5bbe 3e9f 9dbe
00000210: 7ee1 64be c80b 7ebd 9b9d 26be 389d 2cbe
00000220: 65e9 cabe 9208 4abe e32c 6dbe ff7e c3be
00000230: df0b ccbe 931e 4c3e 17a0 85bd 23d0 813e
00000240: 11c3 ce3e 8223 9ebe e78f feba d39d 823d
00000250: 1720 fcbe 5c50 9a3e 24f6 9ebe 5cbe b33e
00000260: 5414 b7be 4130 603e 6f87 013d 90db f23c
00000270: e1c5 d0bd 4efc 7abe 9a79 56bc 4484 bc3e
00000280: 0b2b 413e 4648 c8be 6a89 8ebe 3850 3c3e
00000290: d447 acbe b429 bcbd f8e7 113e 7015 713d
000002a0: d59f e7bd 9295 34be de5c 0d3e 7304 ca3e
000002b0: 1913 6cbc f836 533e 3495 29be 6cfa debd
000002c0: c04f a93c 76d0 cdbe 4013 513d 77f4 28be
000002d0: 807a a13b 5b96 70be 2d9d b2be 2904 3bbe
000002e0: 4e5d 66be 1cb4 f7bd 04ca 313e 6e99 b4be
000002f0: 18e0 0e3e a6e5 a5be 0406 573e ec00 c5bd
00000300: 82ec c23e 51c9 ccbe 53b5 bf3e 6225 1c3e
00000310: d781 b4be 2cc7 e33d c085 e8bb 4cff 643e
00000320: a8d6 563d a895 acbe e4b0 79be 007d c8bb
00000330: d4e2 693e 59e6 a6be 58ff 8f3e 7954 babe
00000340: 901c 4a3e bc7e 953e 4cd5 51bd 471c 223c
00000350: c7c3 45bd 3e8c 8e3e 5f08 8abe 7b5f b3bd
00000360: 123c 8bbe ea3b b03e 28a1 603e 9c16 09be
00000370: 302c a5bd af9c 55be 80cc 2fbb 40c8 b43b
00000380: 066d 91be 80d8 cfbd 00ff 69bd 0065 3bbc
00000390: ab84 36be 8095 923e c868 92be 78e2 09bd
000003a0: b405 253e 1633 babe ebbf 56be 2a97 bb3e
000003b0: 08e3 c4bd 1028 a5be af99 d0be 5866 1ebe
000003c0: 911c a03e 7929 983e be57 93be 9697 8e3e
000003d0: 9978 b93e 565b 17be 605c 843c a0b8 a6bc
000003e0: e0ee 4b3e 53d2 c4be 40ee 45be 58d1 e13d
000003f0: dc32 423e 5575 3fbe 4265 36be 87c4 5e3e

linearSequential.0.bias f4 [128]
-0.12123546 -0.18896233 -0.273851 -0.1513178 -0.37326413 -0.3246359 0.17828654 -0.24483348
0.13563289 0.3447089 -0.24779175 0.31172907 0.35480812 0.33206552 -0.1594501 -0.24689224
-0.25588566 -0.18182221 0.3091287 -0.019187152 -0.34525558 -0.35811013 -0.09502149 0.22660084
-0.008485285 -0.26794112 -0.11239536 0.2035855 0.3962752 -0.089751035 -0.06786281 -0.23993142
0.20726286 0.20248818 0.40357548 -0.13224378 0.32446444 -0.15070492 0.124260426 -0.406626
0.17834036 -0.3759147 -0.34445196 0.11103388 0.25008744 0.088246524 -0.14649028 -0.016423702
0.28997207 -0.22943544 -0.38013256 -0.06253877 0.3028823 -0.03646943 -0.10840452 -0.32684323
-0.26165435 -0.22781782 0.24152118 0.031447545 -0.3162341 -0.27999043 0.043215424 0.31803513
-0.31608143 -0.3993806 -0.10690728 0.037855357 -0.37521306 0.33618543 -0.1082431 -0.30243722
-0.13244149 -0.1116353 -0.3249771 -0.20029426 -0.22324298 -0.2164993 0.376231 0.37593663
0.2514485 -0.26424378 -0.0008482039 0.16684365 -0.07332543 -0.375728 0.32853585 -0.08240819
-0.029144794 -0.16921225 0.16590488 0.06494492 -0.11758548 -0.44006827 0.019999564 -0.36952716
0.33940583 -0.13696575 0.017198324 0.16060883 -0.31684 0.23187298 0.014786814 -0.4223792
0.27878666 -0.29264084 0.35638815 0.37034822 0.34745002 0.41384566 -0.09153366 0.21661538
0.17747492 0.16712338 0.02086708 -0.062027723 -0.031448748 -0.39731205 0.103878796 -0.15906966
0.035676748 0.10726255 -0.1765237 -0.24546216 -0.30524203 0.05685726 -0.3122226 -0.25070003
00000000: 4c4a f8bd 577f 41be 3336 8cbe 0ef3 1abe
00000010: 7a1c bfbe ad36 a6be bf90 363e a1b5 7abe
00000020: 59e3 0a3e af7d b03e 1fbd 7dbe f49a 9f3e
00000030: 69a9 b53e 7e04 aa3e e346 23be 52d1 7cbe
00000040: 7203 83be 9a2f 3abe 1e46 9e3e 602e 9dbc
00000050: 57c5 b0be 365a b7be a09a c2bd 0d0a 683e
00000060: dd05 0bbc 942f 89be 8a2f e6bd b878 503e
00000070: 95e4 ca3e 64cf b7bd a8fb 8abd 95b0 75be
00000080: b73c 543e 1059 4f3e 72a1 ce3e ea6a 07be
00000090: 3420 a63e 6452 1abe 407c fe3d 4831 d0be
000000a0: db9e 363e e477 c0be 025c b0be bb65 e33d
000000b0: 760b 803e 98ba b43d 8c01 16be 008b 86bc
000000c0: 3877 943e 20f1 6abe bca0 c2be 5414 80bd
000000d0: 6413 9b3e f860 15bd 3003 debd ff57 a7be
000000e0: 8ff7 85be 1349 69be 5451 773e 24cf 003d
000000f0: 70e9 a1be e85a 8fbe a802 313d 80d5 a23e
00000100: 6dd5 a1be 9d7b ccbe 34f2 dabd 380e 1b3d
00000110: ed1b c0be 7f20 ac3e 8fae ddbd 0dd9 9abe
00000120: be9e 07be 0ca1 e4bd 6663 a6be f019 4dbe
00000130: cf99 64be feb1 5dbe 5aa1 c03e c47a c03e
00000140: dcbd 803e f64a 87be 005a 5eba 10d9 2a3e
00000150: a52b 96bd 6c5f c0be da35 a83e a0c5 a8bd
00000160: 10c1 eebc fa45 2dbe f8e2 293e d801 853d
00000170: a8d0 f0bd a150 e1be 20d6 a33c aa32 bdbe
00000180: 9ac6 ad3e c040 0cbe 80e3 8c3c a476 243e
00000190: da38 a2be 1c70 6d3e 6544 723c 1642 d8be
000001a0: 20bd 8e3e 05d5 95be 8278 b63e 489e bd3e
000001b0: f8e4 b13e 94e3 d33e 0076 bbbd 6cd0 5d3e
000001c0: fcbb 353e 6422 2b3e 70f1 aa3c c810 7ebd
000001d0: 67d0 00bd 7c6c cbbe 68be d43d 28e3 22be
000001e0: c821 123d 78ac db3d a1c2 34be 6f5a 7bbe
000001f0: af48 9cbe 29e3 683d a4db 9fbe c15b 80be

linearSequential.2.weight f4 [64, 128]
-0.037917368 0.11149008 0.036471836 0.07238557 -0.005566247 0.001976937 0.05739141 -0.008263938
0.097387426 -0.008196278 0.0026604424 0.08757546 0.064304516 0.03468749 -0.08570737 0.10689236
-0.02197927 0.06688873 -0.05981272 0.051303364 0.016162813 0.09186327 0.009094581 -0.009472292
0.079256654 0.02109535 0.009834111 -0.032199424 0.07489803 -0.058560304 -0.012061775 -0.037099827
-0.0019296819 0.024498701 0.068982355 0.100886814 -0.019245185 0.027361557 -0.039745435 -0.03163318
-0.03228312 0.008045293 -0.032571636 -0.003089761 -0.041774407 0.07662934 -0.04090947 0.0064195767
0.10160231 0.04674131 -0.06482038 0.011773303 -0.5183451 -0.05675879 0.10054242 0.07013426
0.0803149 0.08160464 -0.06505556 0.10186369 0.11492321 0.11991179 0.0674944 -0.0009843782
0.03637964 -0.0859309 -0.050343998 0.048032124 0.07210869 -0.035686385 0.009446894 0.0877242
-0.0512292 0.048306458 0.037777018 -0.031296343 -0.0039371774 0.015403241 -0.06704124 -0.06963946
-0.07034114 -0.04347063 -0.0281008 0.06887143 0.032720238 -0.028806727 -0.06522421 0.003139615
0.0019110204 -0.049087927 0.06059716 0.016419187 0.04194612 -0.0341314 -0.06717102 0.031763505
0.035980172 0.113460295 -0.012338467 -0.026936188 -0.025068197 0.0680413 0.09723191 -0.016916376
-0.04418749 0.08840331 -0.0694728 0.05878717 0.06631053 0.048657324 0.086763 -0.08832675
0.009529337 0.0544113 -0.019645698 -0.05132741 -0.02024534 0.0043715537 0.012104556 0.026006639
0.027586222 -0.046011988 0.04433288 0.0385998 -0.040554646 -0.006445468 0.043396555 -0.060975604
0.013537221 0.05393761 -0.06810808 0.0031218454 0.08319115 -0.021815114 -0.023521317 0.038104564
-0.012714141 0.05568383 -0.10304613 -0.07862491 -0.076579005 -0.042632706 0.04641942 0.00640668
0.046097077 0.038015462 0.042982183 -0.050728746 0.011864603 -0.09096468 0.033993162 -0.09260084
-0.018668879 -0.10894065 -0.012321469 0.08499511 -0.114504345 0.05579593 -0.06818895 -0.085505545
-0.02718869 -0.0045904145 -0.021566823 0.05905934 -0.002429895 -0.046816476 -0.007874191 -0.0669326
-0.09917437 -0.042620167 -0.035181038 -0.08624194 -0.028026886 -0.05879549 -0.022698395 -0.07744638
-0.007962729 -0.090408035 -0.051566225 -0.034941044 -0.08115633 0.011797875 -0.0260418 -0.07147313
-0.054719195 0.022312328 -0.063934915 0.055484366 -0.109920084 0.014949684 -0.038558453 -0.06266444
-0.10401532 -0.04987167 0.08455794 -0.013030457 0.03929753 -0.048459798 -0.0047340165 0.046120845
-0.074083716 -0.018717542 -0.02860795 0.05619093 -0.03018615 -0.075873934 0.049257405 0.016232923
-0.019185454 0.01222115 0.04607538 -0.080757245 0.05257814 -0.07449182 -0.032058578 0.024406694
0.055930536 0.054377966 -0.02255065 -0.038599655 -0.07735729 -0.06665915 0.049695008 -0.06332251
-0.078818895 0.0004930175 0.010721557 -0.0028587505 0.05807946 -0.06684397 -0.0057531274 -0.056871258
0.0051442347 -0.011278794 -0.05270613 -0.0421062 -0.059757 0.061268024 0.07232677 -0.033597454
-0.012102552 0.048395716 -0.083904944 0.047288872 0.035953734 0.003009677 0.07494413 0.02083145
-0.007150084 -0.08931713 -0.027479233 -0.10029325 -0.08610601 0.058439925 0.02622065 -0.049114134
00000000: 3e4f 1bbd e954 e43d 7e63 153d e33e 943d
00000010: 1065 b6bb 808f 013b 4113 6b3d 7865 07bc
00000020: 0f73 c73d ae49 06bc d15a 2e3b c35a b33d
00000030: 16b2 833d 7814 0e3d 5887 afbd 62ea da3d
00000040: df0d b4bc f5fc 883d 2ffe 74bd 7a23 523d
00000050: e067 843c cf22 bc3d 7001 153c ac31 1bbc
00000060: 5051 a23d 28d0 ac3c 401f 213c 8be3 03bd
00000070: 2364 993d eedc 6fbd c09e 45bc fdf5 17bd
00000080: 61ed fcba 80b1 c83c 9f46 8d3d bf9d ce3d
00000090: 14a8 9dbc 5825 e03c 1ccc 22bd cb91 01bd
000000a0: 4e3b 04bd 68d0 033c d669 05bd 967d 4abb
000000b0: a41b 2bbd d8ef 9c3d b090 27bd 505b d23b
000000c0: df14 d03d d173 3f3d 8cc0 84bd d0e4 403c
000000d0: 44b2 04bf e87b 68bd 2fe9 cd3d 8da2 8f3d
000000e0: 237c a43d 5520 a73d d93b 85bd e99d d03d
000000f0: dc5c eb3d 5094 f53d 813a 8a3d 4006 81ba
00000100: d102 153d 8afc afbd 8235 4ebd 55bd 443d
00000110: b9ad 933d e32b 12bd 25c7 1a3c bfa8 b33d
00000120: b6d5 51bd fedc 453d 13bc 1a3d 9830 00bd
00000130: 7003 81bb e05d 7c3c eb4c 89bd 229f 8ebd
00000140: 040f 90bd 420e 32bd a633 e6bc 770c 8d3d
00000150: a805 063d 16fc ebbc 4594 85bd 00c2 4d3b
00000160: 347b fa3a 6c10 49bd ba34 783d 8881 863c
00000170: b2cf 2b3d 5ecd 0bbd f690 89bd 731a 023d
00000180: f25f 133d df5d e83d 4827 4abc 48a9 dcbc
00000190: d25b cdbc 3d59 8b3d 8621 c73d 3694 8abc
000001a0: f1fd 34bd cb0c b53d c147 8ebd d1ca 703d
000001b0: d1cd 873d e74c 473d cdb0 b13d a8e4 b4bd
000001c0: f020 1c3c 62de 5e3d 04f0 a0bc b13c 52bd
000001d0: 8ed9 a5bc 403f 8f3b 3052 463c e00b d53c
000001e0: 80fc e13c 1177 3cbd 6596 353d d31a 1e3d
000001f0: a11c 26bd 8134 d3bb 96c0 313d 8ec1 79bd
00000200: 38cb 5d3c afed 5c3d 407c 8bbd e097 4c3b
00000210: 1f60 aa3d 9cb5 b2bc c7af c0bc 8813 1c3d
00000220: f94e 50bc ba14 643d d909 d3bd 1906 a1bd
00000230: 74d5 9cbd a29f 2ebd 4a22 3e3d 21ef d13b
00000240: 4ad0 3c3d 1ab6 1b3d 160e 303d f2c8 4fbd
00000250: c063 423c b14b babd 6a3c 0b3d 82a5 bdbd
00000260: 7aef 98bc 471c dfbd fddf 49bc eb11 ae3d
00000270: 4181 eabd 468a 643d a6a6 8bbd 881d afbd
00000280: d1ba debc 306b 96bb e8ac b0bc 35e8 713d
00000290: e03e 1fbb a2c2 3fbd c002 01bc f613 89bd
000002a0: ef1b cbbd 7c92 2ebd fe19 10bd 9d9f b0bd
000002b0: a498 e5bc 8ad3 70bd fcf1 b9bc 359c 9ebd
000002c0: 1b76 02bc d927 b9bd 1b37 53bd 571e 0fbd
000002d0: 4a35 a6bd e04b 413c 9d55 d5bc 8160 92bd
000002e0: 3c21 60bd 58c8 b63c 4ff0 82bd 9343 633d
000002f0: c81d e1bd 85ef 743c 78ef 1dbd 3756 80bd
00000300: fc05 d5bd 3c46 4cbd b72c ad3d b37d 55bc
00000310: 72f6 203d c87d 46bd cf1f 9bbb 36e9 3c3d
00000320: 34b9 97bd 8855 99bc 385b eabc 7628 663d
00000330: f248 f7bc cb63 9bbd 22c2 493d e8fa 843c
00000340: d02a 9dbc 383b 483c 8ab9 3c3d 0e64 a5bd
00000350: 2d5c 573d 2b8f 98bd db4f 03bd 8cf0 c73c
00000360: 6b17 653d 6ebb 5e3d 24bc b8bc ac1a 1ebd
00000370: 806d 9ebd 9884 88bd fe8c 4b3d 3baf 81bd
00000380: cd6b a1bd d83d 013a 78a9 2f3c e059 3bbb
00000390: bae4 6d3d 7ee5 88bd bb84 bcbb d6f1 68bd
000003a0: f890 a83b b1ca 38bc 62e2 57bd 8d77 2cbd
000003b0: c2c3 74bd 2ef4 7a3d 0f20 943d 7c9d 09bd
000003c0: c849 46bc 963a 463d 5bd6 abbd fab1 413d
000003d0: 3944 133d 003e 453b 4f7c 993d b8a6 aa3c
000003e0: 404b eabb e6eb b6bd 211c e1bc 8c66 cdbd
000003f0: 5958 b0bd b45e 6f3d b0cc d63c e72b 49bd

linearSequential.2.bias f4 [64]
0.07821425 0.056029275 -0.030458866 -0.009777702 -0.034770768 0.0418526 -0.09850556 -0.015335702
0.014629781 0.03744084 -0.004453324 -0.04683817 -0.016325556 0.033917625 0.002591297 -0.06406997
0.08215933 -0.055627547 0.0040957704 -0.02601672 -0.08808939 0.0040029585 -0.024863929 0.002230592
0.04035639 -0.009699158 -0.019035593 -0.036527537 -0.03502771 0.047664024 0.026218086 -0.033165887
-0.05235217 -0.0907965 0.052098513 0.057985973 -0.03508626 0.058305245 -0.019397818 0.020401731
0.00992655 0.05398576 -0.15388061 0.013850406 0.08245052 -0.034000725 -0.07884507 -0.004086435
-0.06619724 -0.008277843 -0.028588839 -0.038376614 0.008761205 0.039188735 0.0025013362 -0.029697193
0.04284332 0.033936955 -0.073022015 0.06492397 -0.110139936 0.061049633 -0.07180233 -0.15445198
00000000: cb2e a03d f47e 653d df84 f9bc a832 20bc
00000010: cb6b 0ebd a26d 2b3d 48bd c9bd 9942 7bbc
00000020: c0b1 6f3c 915b 193d 30ed 91bb 62d9 3fbd
00000030: 2cbd 85bc 35ed 0a3d c0d2 293b 1e37 83bd
00000040: 2743 a83d b6d9 63bd d035 863b 0421 d5bc
00000050: 3668 b4bd 402b 833b 70af cbbc 202f 123b
00000060: be4c 253d 38e9 1ebc 88f0 9bbc e69d 15bd
00000070: 3779 0fbd 5a3b 433d 50c7 d63c f4d8 07bd
00000080: 3b6f 56bd 84f3 b9bd 4065 553d b382 6d3d
00000090: 9cb6 0fbd 7bd1 6e3d 2ce8 9ebc 8821 a73c
000000a0: f8a2 223c 2c20 5d3d e192 1dbe d0ec 623c
000000b0: d1db a83d 5844 0bbd 8679 a1bd 80e7 85bb
000000c0: 6b92 87bd ca9f 07bc 2433 eabc cc30 1dbd
000000d0: 288b 0f3c 5e84 203d 75ed 233b 8747 f3bc
000000e0: 7a7c 2f3d 7a01 0b3d 918c 95bd dcf6 843d
000000f0: 0c91 e1bd 2e0f 7a3d 1a0d 93bd a928 1ebe

linearSequential.4.weight f4 [32, 64]
0.008746541 -0.068574086 -0.13571912 0.028161898 -0.0043018735 -0.014063239 0.099100284 0.0635527
0.05523154 -0.12736079 -0.01672565 0.09011434 -0.089339025 -0.10149415 -0.11595926 -0.10517952
-0.121339954 -0.076710984 -0.088700175 -0.0113598285 0.077310495 0.056433663 -0.057513267 0.08107166
0.020379916 -0.07549247 0.08048886 -0.06726614 0.07986827 0.11470115 -0.01124765 -0.08231024
0.06641583 -0.034228586 0.08076637 -0.057842415 -0.008893549 -0.05678085 -0.0111351255 -0.024210423
0.09603402 0.052674465 -0.18625781 0.07240164 0.018425345 -0.090120986 -0.042548835 0.09110688
0.097269155 -0.11023628 0.051381946 -0.02264104 0.12339492 0.07090476 0.05648155 0.0432553
0.1224512 0.053007007 0.11565754 0.014198252 0.052959822 -0.118800566 -0.030046314 0.010456169
0.045959122 -0.12111862 -0.006678277 -0.062680304 -0.08708329 0.0055648237 -0.027845927 0.11245882
-0.075139046 0.08431417 -0.055178426 0.094689906 0.009091704 -0.14661743 0.040540785 0.075910136
-0.033919126 -0.04430403 -0.08094616 0.08098989 0.1944016 0.097361654 0.043798804 0.050123394
0.11035985 -0.0287503 0.114979655 -0.09738289 -0.03401065 0.06768063 -0.0161874 0.061469868
-0.041689843 -0.06810712 0.11123822 0.062004194 0.0093899965 -0.10071894 0.019063862 -0.003892213
-0.027168214 -0.0070596114 -0.14934616 0.061925963 -0.075766474 -0.023016945 -0.10593368 0.035079703
0.07883818 -0.15361549 0.08976591 0.009531847 -0.041386202 -0.0150196105 0.101846814 0.08596048
-0.07434662 0.009728392 -0.051025286 -0.104002945 -0.009378232 0.092062026 0.007924855 0.014764176
0.031870723 -0.12029405 -0.018492907 -0.10450542 -0.060721144 0.121348605 -0.056491196 -0.09673375
-0.042307854 -0.041685 0.058516443 0.0017081648 -0.09988618 0.099451885 -0.082072616 0.008773342
-0.018111706 0.11576389 0.016530737 -0.11969219 0.016015008 0.015880182 0.063921124 0.03469245
-0.08317594 -0.10775751 0.047680274 0.071684465 0.11580075 0.060057282 -0.011343256 -0.06980732
0.09980516 -0.06923044 -2.2098422e-05 -0.1174342 -0.063916 -0.0423633 -0.04264699 0.040402293
0.11246127 0.07985832 -0.025189772 0.09174578 0.015459254 -0.03553009 -0.056487784 0.02793625
0.023151517 0.008637443 0.120453715 0.058573678 -0.029948235 -0.07967816 0.11630562 -0.11870888
-0.020451427 0.0057807267 0.048862398 -0.10936135 0.020278767 0.10885765 0.041379392 -0.005376816
0.087567404 0.06807633 0.107501626 -0.001069963 0.016277982 -0.00087313354 0.070428036 0.01691673
-0.06375991 -0.08306294 0.04993637 -0.026739031 0.03124886 -0.04304962 0.11466643 -0.07894562
0.03625744 0.12063904 -0.109510705 0.041344598 -0.00558414 -0.02765742 -0.05196479 -0.083256006
0.11537011 0.021632478 -0.061947376 -0.12239674 -0.09915504 -0.121042415 -0.04225947 0.04326323
-0.029154658 -0.11377235 0.022197075 -0.12152848 -0.06711498 -0.10142952 -0.07029709 -0.090128735
-0.015994743 -0.0553834 0.009116292 -0.016564608 0.03473915 0.083743095 0.012819514 -0.107684955
0.115361534 0.06469402 0.052935466 -0.11046517 -0.07750535 0.07582016 0.13527396 -0.08385249
0.03077425 0.1341486 0.11743428 -0.028103163 -0.048248768 0.055568516 0.016337126 -0.074311346
00000000: a74d 0f3c 9270 8cbd f4f9 0abe c8b3 e63c
00000010: bbf6 8cbb 8069 66bc 17f5 ca3d eb27 823d
00000020: 783a 623d de6a 02be 3b04 89bc de8d b83d
00000030: 61f7 b6bd 2adc cfbd 0c7c edbd 5c68 d7bd
00000040: 1581 f8bd a61a 9dbd 70a8 b5bd 931e 3abc
00000050: f754 9e3d fc26 673d 0893 6bbd e608 a63d
00000060: c8f3 a63c cc9b 9abd 58d7 a43d d4c2 89bd
00000070: fa91 a33d 70e8 ea3d 1048 38bc 4592 a8bd
00000080: 0605 883d 4633 0cbd d768 a53d 2bec 6cbd
00000090: 40b6 11bc 0993 68bd 1a70 36bc f054 c6bc
000000a0: 7cad c43d 2ec1 573d 5eba 3ebe 5047 943d
000000b0: c0f0 963c 5a91 b8bd b047 2ebd 3e96 ba3d
000000c0: 0d35 c73d 8fc3 e1bd e075 523d b479 b9bc
000000d0: 7ab6 fc3d 8436 913d 3359 673d 782c 313d
000000e0: b2c7 fa3d e01d 593d dcdd ec3d c99f 683c
000000f0: 66ec 583d b64d f3bd b023 f6bc 5a50 2b3c
00000100: a23f 3c3d 0a0d f8bd 73d5 dabb 885e 80bd
00000110: b958 b2bd 2059 b63b 241d e4bc cf50 e63d
00000120: 80e2 99bd e8ac ac3d c602 62bd c8ec c13d
00000130: 5ff5 143c e122 16be 180e 263d c676 9b3d
00000140: c8ee 0abd 2478 35bd 1ac7 a5bd 07de a53d
00000150: 3711 473e 8c65 c73d 6066 333d 304e 4d3d
00000160: 5804 e23d c085 ebbc 747a eb3d ae70 c7bd
00000170: c04e 0bbd 249c 8a3d 709b 84bc d4c7 7b3d
00000180: f8c2 2abd bf7b 8bbd ddd0 e33d 1cf8 7d3d
00000190: 80d8 193c bb45 cebd d12b 9c3c 8014 7fbb
000001a0: e08f debc 5054 e7bb 33ee 18be 14a6 7d3d
000001b0: 742b 9bbd 088e bcbc c2f3 d8bd bcaf 0f3d
000001c0: e975 a13d 614d 1dbe 30d7 b73d 772b 1c3c
000001d0: 9484 29bd d014 76bc 1095 d03d 0c0c b03d
000001e0: 0a43 98bd d563 1f3c e4ff 50bd 7fff d4bd
000001f0: 28a7 19bc 048b bc3d 40d7 013c 71e5 713c
00000200: e08a 023d ba5c f6bd 707e 97bc f006 d6bd
00000210: bcb6 78bd 9e85 f83d 5063 67bd 581c c6bd
00000220: 004b 2dbd e4bd 2abd f0ae 6f3d 80e4 df3a
00000230: 2091 ccbd 6ead cb3d b015 a8bd 10be 0f3c
00000240: 005f 94bc 9e15 ed3d 786b 873c 2e21 f5bd
00000250: e831 833c 2817 823c 14e9 823d ac19 0e3d
00000260: 2658 aabd f8af dcbd 644c 433d 4ecf 923d
00000270: f228 ed3d a0fe 753d 10d9 39bc 24f7 8ebd
00000280: a666 cc3d b0c8 8dbd 0060 b9b7 5881 f0bd
00000290: 64e6 82bd 2485 2dbd 9cae 2ebd e07c 253d
000002a0: 1852 e63d c28c a33d c85a cebc 36e5 bb3d
000002b0: d048 7d3c 0088 11bd bc5f 67bd 90da e43c
000002c0: 40a8 bd3c 1084 0d3c 70b0 f63d f4ea 6f3d
000002d0: 0056 f5bc 4e2e a3bd a431 ee3d a41d f3bd
000002e0: c089 a7bc 406c bd3b f023 483d d8f8 dfbd
000002f0: a81f a63c c2f0 de3d 707d 293d 0030 b0bb
00000300: 8a56 b33d 9a6b 8b3d d029 dc3d 003e 8cba
00000310: 6759 853c 00e3 64ba 933c 903d f494 8a3c
00000320: 8e94 82bd e71c aabd 148a 4c3d d00b dbbc
00000330: 9cfd ff3c cc54 30bd 3cd6 ea3d 3eae a1bd
00000340: ae82 143d 9a11 f73d 2647 e0bd f458 293d
00000350: 29fb b6bb d091 e2bc 08d9 54bd 2082 aabd
00000360: 2a47 ec3d 9836 b13c 88bc 7dbd 24ab fabd
00000370: cc11 cbbd 16e5 f7bd 4418 2dbd c934 313d
00000380: c0d5 eebc 7a01 e9bd a4d6 b53c ece3 f8bd
00000390: 9473 89bd 48ba cfbd ecf7 8fbd 6a95 b8bd
000003a0: 6807 83bc b4d9 62bd 805c 153c 80b2 87bc
000003b0: a44a 0e3d 8081 ab3d f008 523c ee89 dcbd
000003c0: ab42 ec3d 4c7e 843d dcd2 583d 903b e2bd
000003d0: 20bb 9ebd 9a47 9b3d 4285 0a3e dbba abbd
000003e0: 481a fc3c 405e 093e 6281 f03d 9b38 e6bc
000003f0: 80a0 45bd d09b 633d 70d5 853c 8c30 98bd

linearSequential.4.bias f4 [32]
-0.017009728 0.07879386 0.09522773 -0.022215093 0.1645985 -0.075712845 -0.06564248 -0.13739797
0.020979278 -0.055994008 0.10985731 -0.07437641 0.08634402 -0.04403762 0.055097166 -0.12914766
-0.08006749 0.019912774 0.030624464 -0.014826179 -0.027306668 -0.11182964 -0.06647944 -0.13100708
-0.110926546 -0.025914362 -0.038960546 0.0040786117 -0.15041092 -0.11215045 0.09857788 -0.024773434
00000000: fc57 8bbc ad5e a13d c206 c33d 6dfc b5bc
00000010: 828c 283e 560f 9bbd 916f 86bd 0eb2 0cbe
00000020: bcdc ab3c f959 65bd dffc e03d a952 98bd
00000030: 22d5 b03d cb60 34bd 91ad 613d 493f 04be
00000040: 6dfa a3bd 1d20 a33c 28e0 fa3c 80e9 72bc
00000050: 3cb2 dfbc f006 e5bd 5f26 88bd b826 06be
00000060: 752d e3bd 5b4a d4bc 1895 1fbd e0a5 853b
00000070: 5205 1abe 23af e5bd 33e3 c93d a8f1 cabc

linearSequential.6.weight f4 [16, 32]
-0.11256271 -0.03918767 0.049475536 -0.15954988 -0.05796856 -0.13630694 0.02201761 -0.107206754
0.08667504 0.124113016 0.11826723 -0.15506911 0.1395222 0.07543193 0.1628156 -0.05901149
-0.033238325 0.03559814 0.08736117 -0.0351969 -0.08707668 0.081512354 0.11063459 0.14494526
-0.00011216762 -0.103664815 -0.10146172 0.0042389184 0.054694988 0.10167207 -0.121556714 -0.024487987
-0.04500386 -0.11409902 0.10208978 -0.12161867 0.13906069 -0.036072087 -0.0815245 0.08026906
0.08835389 -0.0095270425 -0.11958803 0.090021595 -0.08546209 -0.16281301 -0.12086595 0.09664334
0.01357244 0.116451226 0.07010928 -0.020673528 0.12545526 -0.025458297 -0.19373734 0.09631186
0.1082183 0.040191993 -0.093679935 0.07202631 0.0514382 0.048781663 -0.183369 -0.1602447
-0.07349294 -0.103722654 -0.1152821 0.056598514 -0.041330546 -0.16978134 -0.12682597 -0.09992415
0.081090674 -0.14772846 0.07195829 -0.04993929 0.15748768 8.0019236e-05 -0.09085389 -0.07783849
0.120783314 0.002339974 -0.13124311 0.15117215 -0.00023844838 -0.049612194 -0.057183787 0.053981856
-0.123137414 0.106159404 -0.14300898 0.026433975 -0.059484415 -0.1591315 -0.0069627166 0.15652378
-0.061520953 -0.1597373 -0.06983414 -0.08100533 -0.13833766 -0.062031034 0.07260405 0.067337684
-0.11558456 0.10115416 -0.20305105 -0.15854093 -0.01657057 -0.050511733 -0.14522713 -0.17981422
-0.24612258 0.1162899 0.15193267 0.1262864 0.17634992 -0.03096783 -0.15179047 -0.07951637
-0.1689019 0.034849957 -0.020610139 0.053106815 0.072303295 0.0433674 -0.26250073 -0.12186683
-0.04382352 0.08531079 -0.034744322 0.00022689205 -0.20812385 0.14567395 -0.16469166 -0.14142737
-0.029117526 -0.16333775 0.00046641918 0.02942622 -0.017278126 0.055620667 -0.16587469 -0.17396535
-0.05230778 0.15917341 0.007835776 0.14328496 0.12082368 -0.02309706 0.039324723 0.17645052
-0.13807781 0.088931575 -0.0892247 -0.051568285 0.11356034 -0.019520532 -0.06631319 0.046800748
0.18427706 -0.04546985 0.1367286 -0.18490888 -0.10096013 0.15197459 0.010744125 0.046131067
0.14025472 0.035155922 -0.013745542 0.1427869 -0.14096299 0.05044128 -0.08810667 0.25338078
-0.09572909 -0.101015806 0.12809713 -0.152445 -0.001174616 -0.11085265 -0.14056289 -0.08245856
0.18179353 -0.15476269 0.12870462 -0.16507573 0.14325894 -0.0879815 0.15495338 -0.17276648
-0.11315409 0.00032185361 0.06660646 0.051724825 0.024012305 0.06336386 -0.09332775 -0.090389974
-0.17157222 0.045838904 -0.0760778 -0.029878959 -0.11697344 0.018784082 0.110020004 0.035865918
0.10827839 0.0699715 -0.073883615 0.059418097 -0.097007714 -0.03190875 0.05154463 -0.14848633
-0.065802395 -0.025447816 -0.087312885 -0.12329687 0.0016578734 -0.07817524 -0.17678508 0.028319642
-0.17188917 0.0497292 0.16932307 0.14015208 -0.02183871 0.00018166006 -0.07009678 -0.066085204
-0.083454005 -0.057046704 0.06279376 0.035396546 -0.01415278 0.053923115 0.0034743547 0.17108952
-0.019012123 0.034284547 -0.07577055 -0.089629084 -0.08342221 0.15360804 -0.019033775 -0.16174804
-0.008237347 0.16556533 0.0006738603 0.05687584 -0.16199274 0.07201539 -0.12738596 -0.1516394
00000000: 4787 e6bd 4083 20bd dca6 4a3d 0b61 23be
00000010: 7170 6dbd 0c94 0bbe 465e b43c 378f dbbd
00000020: af82 b13d f72e fe3d 1736 f23d 70ca 1ebe
00000030: e8de 0e3e 0e7c 9a3d 22b9 263e 08b6 71bd
00000040: e924 08bd 5bcf 113d 6aea b23d a02a 10bd
00000050: 4255 b2bd f3ef a63d 6394 e23d 886c 143e
00000060: 883b ebb8 384e d4bd 2acb cfbd a0e6 8a3b
00000070: da07 603d 7239 d03d baf2 f8bd 089b c8bc
00000080: f855 38bd bfac e9bd 7214 d13d 3613 f9bd
00000090: ed65 0e3e 53c0 13bd 51f6 a6bd 1b64 a43d
000000a0: e2f2 b43d 5017 1cbc 92ea f4bd 3e5d b83d
000000b0: c006 afbd 74b8 26be 9188 f7bd f2ec c53d
000000c0: f05e 5e3c fb7d ee3d 7495 8f3d 885b a9bc
000000d0: 5877 003e eb8d d0bc 1563 46be 273f c53d
000000e0: 8ea1 dd3d 5ca0 243d 44db bfbd 8882 933d
000000f0: ddb0 523d 48cf 473d 15c5 3bbe 3017 24be
00000100: 7783 96bd 8b6c d4bd 0619 ecbd d8d3 673d
00000110: 384a 29bd 29db 2dbe abde 01be 08a5 ccbd
00000120: de12 a63d 2146 17be de5e 933d 248d 4cbd
00000130: 7344 213e 00d0 a738 9b11 babd c969 9fbd
00000140: 3e5d f73d 405a 193b 9864 06be dfcc 1a3e
00000150: 0008 7ab9 2836 4bbd 8c39 6abd 141c 5d3d
00000160: 782f fcbd 1a6a d93d f270 12be 108c d83c
00000170: eea5 73bd 5ef3 22be 8027 e4bb c547 203e
00000180: 65fd 7bbd 2d92 23be 3405 8fbd 1fe6 a5bd
00000190: 63a8 0dbe 4114 7ebd 6fb1 943d 57e8 893d
000001a0: 99b7 ecbd ea29 cf3d 9dec 4fbe 8e58 22be
000001b0: 01bf 87bc 64e5 4ebd 6cb6 14be 3821 38be
000001c0: 8f07 7cbe 6629 ee3d 3d94 1b3e 3951 013e
000001d0: 1395 343e 3fb0 fdbc f66e 1bbe 7bd9 a2bd
000001e0: 9ff4 2cbe d4be 0e3d 98d6 a8bc 8886 593d
000001f0: c013 943d 04a2 313d 7f66 86be 5195 f9bd
00000200: 4b80 33bd 6cb7 ae3d 1050 0ebd dfe9 6d39
00000210: 6b1e 55be 8d2b 153e eea4 28be 56d2 10be
00000220: e187 eebc 0342 27be b989 f439 420f f13c
00000230: db8a 8dbc 7fd2 633d 0edb 29be f923 32be
00000240: af40 56bd 5bfe 223e a061 003c 4bb9 123e
00000250: 6872 f73d 0c36 bdbc f612 213d 72af 343e
00000260: 4564 0dbe c221 b63d 71bb b6bd 4439 53bd
00000270: 5392 e83d 86e9 9fbc 36cf 87bd 24b2 3f3d
00000280: 20b3 3c3e 983e 3abd 9502 0c3e c158 3dbe
00000290: 2fc4 cebd 3a9f 1b3e 2008 303c eef3 3c3d
000002a0: ef9e 0f3e a8ff 0f3d fb34 61bc bb36 123e
000002b0: 9a58 10be 849b 4e3d 4571 b4bd 20bb 813e
000002c0: 9d0d c4bd 60e1 cebd e52b 033e 8b1a 1cbe
000002d0: 93f5 99ba b706 e3bd b8ef 0fbe 09e0 a8bd
000002e0: 1528 3a3e 1c7a 1ebe 25cb 033e 9d09 29be
000002f0: 79b2 123e a52f b4bd 19ac 1e3e b2e9 30be
00000300: 55bd e7bd 76be a839 f868 883d 69dd 533d
00000310: 74b5 c43c e9c4 813d 9f22 bfbd 611e b9bd
00000320: a1b0 2fbe 93c1 3b3d adce 9bbd b8c4 f4bc
00000330: c58f efbd 13e1 993c 2b52 e13d 24e8 123d
00000340: 0fc1 dd3d 384d 8f3d 4b50 97bd 6460 733d
00000350: fbab c6bd c0b2 02bd 7620 533d cd0c 18be
00000360: 68c3 86bd f077 d0bc 19d1 b2bd 1283 fcbd
00000370: 004d d93a 571a a0bd 2607 35be 98fe e73c
00000380: b703 30be d8b0 4b3d 0763 2d3e 0784 0f3e
00000390: 18e7 b2bc 007c 3e39 e78e 8fbd ae57 87bd
000003a0: efe9 aabd cea9 69bd 049a 803d f8fb 103d
000003b0: 10e1 67bc 7cde 5c3d 00b2 633b 1732 2f3e
000003c0: 50bf 9bbc f46d 0c3d 972d 9bbd 748f b7bd
000003d0: 43d9 aabd 6d4b 1d3e b8ec 9bbc 47a1 25be
000003e0: f0f5 06bc f589 293e 00a6 303a a4f6 683d
000003f0: 6de1 25be ce7c 933d 7771 02be 5c47 1bbe

linearSequential.6.bias f4 [16]
-0.13684422 0.07317751 -0.014005899 0.026042357 -0.08657345 -0.1397601 -0.11759778 -0.08782194
-0.09699181 -0.12531048 -0.11232689 -0.15985878 0.10166778 0.018182755 0.13185562 -0.16627125
00000000: e420 0cbe 17de 953d 0079 65bc c856 d53c
00000010: 6c4d b1bd 461d 0fbe 1bd7 f0bd fddb b3bd
00000020: a4a3 c6bd 6451 00be a40b e6bd 05b2 23be
00000030: 3237 d03d 00f4 943c 2905 073e 0343 2abe

linearSequential.8.weight f4 [1, 16]
0.037704553 -0.21819343 0.04763359 0.09538171 0.18472056 -0.0026428155 0.02776504 -0.18518001
-0.21493636 0.032892916 -0.15838589 -0.13924298 0.07546812 0.097973466 0.027211372 -0.0042900858
00000000: 1770 1a3d 196e 5fbe 701b 433d 7c57 c33d
00000010: 6327 3d3e 1633 2dbb 8273 e33c d49f 3dbe
00000020: 4718 5cbe b9ba 063d e92f 22be b695 0ebe
00000030: 088f 9a3d 50a6 c83d 62ea de3c d993 8cbb
