nnwf/nets/state_dicts/dataset01.pt (torch, 51027 bytes, 9 tensors)

linearSequential.0.weight f4 [128, 6]
00000000: 20bb fa3e 64da b73e 9151 9cbe 7f02 b5bd
00000010: 041f 013e de1e a0be a007 5f3e 16f4 b7be
00000020: f108 873e 01a8 0dbd 32d1 d7bd 1e7b 0fbe
00000030: 3e02 0e3f 83ba e7be 5114 e9be ff18 8ebe
00000040: fab3 3c3e 8d09 c33c 7737 b53d 8cee 09bf
00000050: 3269 533e e8e3 18be 6943 0ebe fbf9 923d
00000060: 0bbb 573b 0612 c63e 3b1e c5be 38ba 50be
00000070: 9b08 8fbf eaa9 503e c776 7bbe ecff bdbe
00000080: bea9 073e e5f5 243e b53a 8c3e 1c23 e6be
00000090: 1e3f 88bd f686 ae3d d236 993d b001 753e
000000a0: e93d 55be 0940 4a3d a7ce 233f e744 b4be
000000b0: d963 debd 147c 17be 23af 8c3e 135f a33d
000000c0: 039a 89be ebc4 81be 81bf 883e 0ddd 3d3e
000000d0: af23 35be 7ee3 bebe 4d0e dabe cc73 523e
000000e0: 99db bf3e 3219 043f 7fb7 8abd b1ed 2d3c
000000f0: 08f2 dc3e f659 a8be 65e1 14be b63a a63d
00000100: 25a8 19be 658d f53d 4f23 00be 0161 593e
00000110: 4bb6 e7b9 300f aebe 3631 ad3d 542f c9be
00000120: 2883 893e 8fed 3bbe ef5f 1dbf 2d8d 7f39
00000130: d7a2 bdbe dfd3 2b3d 479f 1b3e fac5 783e
00000140: 5cad 15bf 16d2 4e3f 110a 9cbe 2cfe b0be
00000150: f19e a43e d21f c5bd fa31 aa3e b011 0a3f
00000160: 2b61 14be 5b5f b23d 8c6a 123f a34f f0be
00000170: 2ee0 85be d9a0 ecbd fac5 303e f1a2 d23c
00000180: 30f6 ad3e 1a6d f03e 2b03 b7bd 67ef 6d3c
00000190: 70aa 1cbf fc78 783e 99c9 9d3e aabc 21be
000001a0: 9ce4 1dbe ae13 09bf ca3d 0ebf 67c6 43be
000001b0: 7956 1d3e 36e8 a23d 1ce8 88be 2465 613e
000001c0: 4d82 dbbe 67d6 cdbe e0f5 2d3e bbba 52be
000001d0: 19b0 943d 7d34 d6bc 6f3d bfbd 83fb edbd
000001e0: 3b98 c53d 0391 37be c27b 5ebf 79a0 bd3d
000001f0: 1028 ebbe e200 9f3e 40e7 363c a8dc 413e
00000200: 0369 69be d099 edbe 0b32 aa3e 187d 023e
00000210: ea05 103e 2d81 77bd 677c 03bf e56f 973d
00000220: 2635 2b3d 0676 a9be c822 de3e 16c7 523e
00000230: e5d4 8ebe eb4b 83be d609 ae3e 0a9d 0b3e
00000240: 8df8 a1be 601a cebe fb4c ccbd 34e2 60be
00000250: 4c83 863e e06c a63e 60fb b3be 17da 353d
00000260: 95b9 44bf 5049 07bf e333 123e f261 28be
00000270: 5573 163e 268f e43e 459d d7be ee43 9a3d
00000280: f2e0 adbd e45f 353e f82e c4bd c1e0 b8bd
00000290: cd4f 523d 6384 f33e 6366 3c3e 3687 b9be
000002a0: 642a 873d 5228 8f3d a64a fa3e 3529 b0be
000002b0: f794 91bf fc87 6a3e fce5 ff3c 1d4e 1fbd
000002c0: ecaa e63d 7998 9b3e adab 0f3e 27a0 d4be
000002d0: 9f39 70be e84b bdbe f822 01be 5011 a13e
000002e0: 2aeb 053e 7d7d 5ebd ddc5 c63e 8985 0ebe
000002f0: 4caf 8ebe b347 173d f4d7 02bf 1a09 923d
00000300: e4dd aabe 3f43 813e 0d24 36bd 58fc 0ebf
00000310: f440 4bbf ff93 36bc a2ff 27be a16d 853e
00000320: 7e8d f7bd 1901 063f 5763 67bf 764e 723e
00000330: f84c ec3e 1e37 abbe 88ec d8be d72f bbba
00000340: 7826 93be bbe8 aebe 46eb d63c 0735 65be
00000350: 1b5a 33be 42f9 f63d 1f19 30bf 6813 0bbf
00000360: a93a b3be 2f53 2d3e ec24 033f 58cb ce3e
00000370: 8c95 7dbf 616a 94be 48c8 adbe 2405 3abe
00000380: e5a4 6abe e092 3bbe a62b 3a3e c619 bbbc
00000390: 96e3 0b3e edb8 6c3e df38 3e3d 782a 333e
000003a0: 8c4f fabd 58eb c23e 5a0c 0c3f 31b8 26bf
000003b0: ab3b 97be 2d74 333e 1184 863e 1289 8dbc
000003c0: 157a 953d 1a3a 853d a15a db3e 0747 f9be
000003d0: 6cc9 78be 1608 59be 64a3 583e fe8e 4f3e
000003e0: 28ef 2fbe 17dd 83be 03bf c5be db72 493e
000003f0: 30e3 fdbe 06a8 58bd fec3 3e3e 1d9f 473e
0.4897089 0.35908806 -0.3053098 -0.08838367 0.12609488 -0.3127355 0.21780252 -0.3592841
0.2637401 -0.03458405 -0.10537948 -0.14011809 0.5547217 -0.45259485 -0.45523313 -0.27753446
0.1842803 0.023808265 0.0884847 -0.5387962 0.20645598 -0.1493069 -0.13892902 0.07176586
0.0032917883 0.38685626 -0.38499627 -0.20383537 -1.1174501 0.20377317 -0.24557029 -0.37109315
0.13248345 0.16109426 0.2738854 -0.4494866 -0.06652664 0.085218355 0.07481159 0.23926425
-0.20824398 0.049377475 0.639872 -0.35208818 -0.10858888 -0.14793426 0.2747737 0.07977118
-0.26875314 -0.2534555 0.26708606 0.18541355 -0.17689393 -0.37282938 -0.42589036 0.20551986
0.37472227 0.51600945 -0.0677328 0.010615752 0.43153405 -0.32881135 -0.14539106 0.08116667
-0.15005548 0.119898595 -0.12513469 0.2122841 -0.00044195572 -0.33995962 0.08456652 -0.3929392
0.26857877 -0.1835234 -0.6147451 0.00024371287 -0.370383 0.041950103 0.15197478 0.24294272
-0.5846765 0.80789316 -0.3047643 -0.34568918 0.32152513 -0.0962521 0.33241254 0.5393324
-0.14490192 0.08709594 0.5719383 -0.46935758 -0.26147598 -0.11554117 0.17263022 0.025712462
0.3397689 0.46958238 -0.08936151 0.01452241 -0.61197567 0.24264902 0.3081787 -0.15794626
-0.15419239 -0.53545654 -0.5556303 -0.19118653 0.15365018 0.07954447 -0.26739585 0.22011238
-0.4287285 -0.40202639 0.16988325 -0.20579045 0.072601505 -0.026148075 -0.093378894 -0.11620238
0.09648176 -0.17926411 -0.8690759 0.09259123 -0.45929003 0.3105536 0.011163533 0.1893183
-0.22793965 -0.46406412 0.33241305 0.12743032 0.14064756 -0.060425926 -0.513617 0.07394389
0.041798733 -0.33097857 0.4338591 0.20583758 -0.278968 -0.25643858 0.3399188 0.13634124
-0.31634942 -0.40254498 -0.0997562 -0.2196129 0.26272047 0.3250494 -0.3515272 0.04439744
-0.76845676 -0.5284624 0.14277606 -0.16443613 0.14692433 0.44640464 -0.42112175 0.07532488
-0.084901705 0.1771236 -0.09579271 -0.090272434 0.051345635 0.4756194 0.18398432 -0.3623597
0.06599882 0.06990112 0.48885077 -0.34406438 -1.1373585 0.22903436 0.031237595 -0.038892854
0.112630695 0.30389765 0.14030333 -0.41528437 -0.2345948 -0.36971974 -0.12610996 0.3145852
0.13077989 -0.054318894 0.38822833 -0.13918127 -0.27868116 0.036933612 -0.5111077 0.07130642
-0.33372414 0.25246617 -0.044467974 -0.55853796 -0.79395986 -0.011143683 -0.1640611 0.26060203
-0.12087534 0.52345425 -0.90385956 0.23662743 0.46152472 -0.3344049 -0.4236796 -0.0014281225
-0.28740287 -0.34161934 0.026235234 -0.2238351 -0.17514841 0.12059261 -0.6878833 -0.54326487
-0.35005692 0.16926263 0.51228213 0.40389514 -0.99056315 -0.2898741 -0.33941865 -0.18166023
-0.22914465 -0.18317747 0.18180713 -0.022839438 0.13661036 0.23117419 0.046440955 0.1749667
-0.122222036 0.38070178 0.54706347 -0.65124804 -0.2953771 0.17524786 0.26272634 -0.017277274
0.07298676 0.065052226 0.42842582 -0.48687002 -0.24295586 -0.21194491 0.21156079 0.20269391
-0.17181075 -0.25754616 -0.38622293 0.1967272 -0.49587393 -0.052894615 0.18629453 0.1949429

linearSequential.0.bias f4 [128]
00000000: 2d04 2ebf 6e52 6cbf 02a2 6bbe fcc6 7cbf
00000010: 45fc 4fbf c57a 57bf 25f8 aebe 23a8 8abe
00000020: b562 7cbf 703e 513e a9ea 56be 6ce1 0bbf
00000030: c226 293f 1d9c d0be 7a9d 18bf 5f1c 99be
00000040: aca2 68bf 69ac 3abf 946e 3bbf 78e5 23bf
00000050: e5c8 89bd ff45 31bd 0880 25bf e9f7 b5be
00000060: c042 66bf 1989 2bbf cc2d 4bbf ef3c fdbe
00000070: 4d5a 25bf fc93 9bbe 5c67 c63b 73ef b53d
00000080: 4e21 0e3d ee27 123f 9297 24bf cf12 98be
00000090: 91bd 4cbe 5daa 06bf 9607 37bf c58c adbd
000000a0: 0e1e 903e c06d 973d 9ab9 5bbf 18d3 dabe
000000b0: abd9 90be bc9e 02be 8ae5 0dbf 3c0a 073f
000000c0: 0b6b 16bd 0ae0 f5be 1555 01bf 7a09 44be
000000d0: 8c1d 34bf 60ae 86be 1dbf f6be a2ff dabe
000000e0: abde 0fbf 9902 903e 5cc1 11bf 81c1 453f
000000f0: 216c ce3e fe6c 76bf efbd 95be 6f02 eabe
00000100: d708 d4be 7143 d13e 1fe7 0abf 03cd dbbe
00000110: 99b8 cabe a561 81be 53e7 05bf 06c1 7ebe
00000120: df52 9ebe 53bd 453f 016c 84bf f24c 693f
00000130: e32a 0ebf 0af1 39bf 9b47 0dbf 3745 75be
00000140: 98df 5cbf 51ff 093f b2a9 32bf d645 8bbe
00000150: 52fd 98be 62c4 71bf 40c1 93bf 1b59 1ebf
00000160: 936e 31bf dd93 cdbe 187c ac3d ce68 85be
00000170: cd80 4b3d daaf 963e 8ea0 65bf 7f1e 913e
00000180: 5734 0bbf ea99 1f3e c9fb 92be bc65 553e
00000190: 1ed9 5b3f f625 0d3f 462b 4abf 1a70 1ebf
000001a0: 90dc 30bf 745f a9bd 33a0 c0be fec9 e0be
000001b0: 0707 bfbc a452 84bf db00 fdbe ef32 2fbf
000001c0: 5592 2fbf 358e 8bbe 1af9 73be 23be 613c
000001d0: c88f d2be c9bb dabe 0978 973f c2bc 4a3e
000001e0: 3fca 06bf fcd6 afbe 29e4 72be c308 d53d
000001f0: ba7d 0abe fe01 3ebf 0492 3c3d 3dfc 84be
-0.6797512 -0.9231328 -0.2301102 -0.98741126 -0.8124431 -0.84171706 -0.34173694 -0.27081403
-0.98588115 0.20433974 -0.20987953 -0.5464084 0.66074765 -0.40744105 -0.5961529 -0.29904458
-0.9087322 -0.7291933 -0.73215604 -0.64022017 -0.06727771 -0.043279644 -0.64648485 -0.35540703
-0.899456 -0.6700607 -0.79366755 -0.4946055 -0.64590913 -0.3038634 0.006054802 0.08883562
0.03469973 0.5709218 -0.6429378 -0.2970185 -0.19994189 -0.52603704 -0.7149595 -0.08474115
0.2814793 0.0739398 -0.8583008 -0.42739177 -0.28291067 -0.12755865 -0.55428374 0.5274999
-0.036723178 -0.4802249 -0.5052045 -0.1914424 -0.70357585 -0.26304913 -0.48192683 -0.42773157
-0.5619914 0.28126982 -0.5693567 0.7724839 0.4031687 -0.9626006 -0.2924647 -0.45704982
-0.41412994 0.40871766 -0.5425891 -0.4292985 -0.39593962 -0.2526981 -0.523061 -0.2487832
-0.309226 0.7724201 -1.034546 0.91133034 -0.5553419 -0.7263342 -0.55187386 -0.23952185
-0.86278677 0.53905207 -0.69790184 -0.27201718 -0.29880768 -0.9444028 -1.154335 -0.61854714
-0.6930935 -0.40151873 0.084221065 -0.26056522 0.04968338 0.2943104 -0.8969811 0.2834358
-0.5437674 0.15586057 -0.28707722 0.2083959 0.8587817 0.5513605 -0.7897228 -0.61889803
-0.6908655 -0.08270159 -0.37622222 -0.43904108 -0.02331878 -1.033772 -0.49414715 -0.68437093
-0.6858266 -0.27256933 -0.23825493 0.013778242 -0.4112532 -0.42721394 1.1833507 0.19798568
-0.52652353 -0.34343708 -0.23719849 0.10402062 -0.13524523 -0.7422179 0.04603769 -0.25973693

linearSequential.2.weight f4 [64, 128]
00000000: 887b 323c e96c 13bd 315c 303c 4d23 c2bd
00000010: 1929 fc3c 00e7 593c cdb5 1b3d 6d4b aa3d
00000020: f4b9 abbd f1a7 82bc 8e5a 3b39 a6c1 8dbc
00000030: 8ac8 63bd ca45 a1bd 1cc6 70bd f90a 2bbc
00000040: 94cf d5bd 603e 28bd ad87 7f3d f3eb 53bd
00000050: 5195 7cbd cbac f9bc 51c1 39bd 2155 ac3b
00000060: 7500 9fbd 5d80 6e3c f64a 4abd eacf 2dbd
00000070: 18f7 713d 5e86 5d3d edc4 5d3d 3327 69bd
00000080: 4110 7cbd 99d0 13bd c4b4 eb3c 25f4 ec3c
00000090: 6f8d a7bc f76e f9bd 1a3b 473d 1459 cfbc
000000a0: c0ae c6bc 30a4 cdbc 8470 08bd b1c7 b4bd
000000b0: 8317 ce3c 676a 58bc b4ed 9ebd 535d a7bd
000000c0: 1039 663d 2c20 7dbd 3027 44bb f477 dc3c
000000d0: 6c48 ae3c 76aa 22bd 44ec a9bd 4851 eabc
000000e0: 0af0 1b3d db9b 353c 7272 f0bb f41b 88bd
000000f0: a602 fa3c 1531 013d 90e0 96bd dfd6 cabd
00000100: c352 963d 6cd5 e6bd 25c5 ad3d 3dc3 16bd
00000110: 1b36 d5bd 2e39 293d d1b8 9f3d 21f1 3a3c
00000120: a511 c7bd 0972 a9bc e323 9f3c 778d 69bd
00000130: 056c 35bd 72c5 e0bd 96e5 043d dbda e6bd
00000140: ca52 15bb 6cd0 8bbc 4695 56bd 9e17 2ebc
00000150: a0c1 b8bd f19d a93c f1e1 be3a 7ad4 9abd
00000160: 9079 9d3b f82f b53c d6a1 aebd 0f43 a4bd
00000170: 7824 efbc 3557 96bd ac37 e63c ec1f c4bd
00000180: 223b 92bd 0825 e5bb 1954 643d 6dac 83bd
00000190: ae49 afbd d355 893c 0d49 88bd d4dc a8bb
000001a0: 40d3 97bd 12d6 e9bc c041 b6bd 325c b2bc
000001b0: 3e5a b0bd 30dd a03b d0e5 1dbc f626 deba
000001c0: 6395 143d 6e0c 82bd 3d09 f1bd a679 d5bc
000001d0: dfe5 bdbd e0a5 aa3c 62b7 ecbc 35d6 1f3d
000001e0: f09c c73b 2d82 bdbd 09fb a4bd 5132 f7bd
000001f0: d291 be3c 6e72 e2bd 568b 28bd a3da 9dbc
00000200: 094a 843e 827d 863e 0ea6 033e 41da f53e
00000210: 1b43 2b3f cc2f 153e 0f1f f1bc 5454 813e
00000220: 8e00 bb3e ffba 60bd 02c4 29bb 5507 3f3e
00000230: 5c74 56be d8fd ffbd ae0f 7dbc e66d b33d
00000240: a07e bf3e b39f d53c b33e 9dbe 1bc4 863e
00000250: e371 96be 3147 a03e 7459 ac3b a4b9 bd3e
00000260: 1667 64bc e05c a53e abf1 413e b70f e5bc
00000270: 8abb 09be cac9 013d 7c9d 30bd 912f 63be
00000280: ccd4 16bd c707 81be 2ac6 5dbf 32a1 14be
00000290: 1c95 ffbe 99b1 3d3e 0742 2f3e f675 4b3e
000002a0: ba05 b2bb 070c c43d 2887 bb3e 67eb f43d
000002b0: 92c4 01bd e289 fdbd bc1c 9a3d 6eb3 11bd
000002c0: ce30 cb3d d34f 80be 903b 253e 8649 8cbe
000002d0: 6b9b 91be 7619 913d 8217 d4be 4789 7d3d
000002e0: 930f ee3c 22b6 14be c348 a03d 1b18 5bbe
000002f0: fc75 0dbf a98d d53e c702 973c 842a d13c
00000300: dc1c 5cbe 0f44 9fbd 5118 f43d 589d 32bd
00000310: 591f 93be 1c7f abbe 6088 9bbd ac7d 833d
00000320: 96f4 43bd 4d91 e3be 677e a93e 32fb 60be
00000330: 934d 1e3e 09f2 c03d b501 2b3d ddd1 d4bc
00000340: 9424 933e ab64 d6be 4a4d 0a3f 11a9 27bd
00000350: 9e57 293d 0f1a 273d 8292 37bb abda b23c
00000360: d932 213e c95d 503d 6516 0e3b ce9d 633e
00000370: 2a30 9fbe f885 7ebd 0bdc 7a3d a743 d0be
00000380: 85f7 1abf 19a3 8e3d 8021 78bc 5cc7 91be
00000390: 7679 f9be 30f2 b9bd a67b 4b3e 6b22 a83d
000003a0: 292f 5b3e 3776 b23d 1217 453e a7ad cd3e
000003b0: 1f2d 67be 5908 123e eefe 7f3c 790e 953d
000003c0: 61a3 d53d 5334 6e3e 13fb 6dbb 01ee 8abd
000003d0: eead 9e3d 90a5 663e 9352 e1be 0481 463d
000003e0: 6f73 a2bc 1e9f 15be b9a3 a03e f583 063d
000003f0: dc43 da3c a2e9 c03e 0a65 b93d 8bb8 2a3d
0.01089371 -0.035992537 0.010764168 -0.09479389 0.030781316 0.013299704 0.038015176 0.083151676
-0.08385077 -0.015949221 0.00017867444 -0.017304253 -0.05561117 -0.07874639 -0.05878268 -0.010439628
-0.10439983 -0.04107511 0.06238525 -0.05173869 -0.061665837 -0.030477902 -0.045350377 0.0052591716
-0.07763759 0.014556971 -0.049387895 -0.04243461 0.059073538 0.05408322 0.05414288 -0.05692215
-0.06153894 -0.036087606 0.02877272 0.028925011 -0.020453183 -0.12179368 0.048640348 -0.02531103
-0.02425325 -0.025102705 -0.03331043 -0.088271506 0.025157696 -0.013208962 -0.07760182 -0.08172097
0.056206763 -0.06179826 -0.0029930584 0.026912667 0.021274768 -0.039713345 -0.08297017 -0.028603211
0.038070716 0.011084522 -0.0073378617 -0.06645957 0.030518841 0.03154095 -0.07367051 -0.09904265
0.07340004 -0.11271176 0.08484868 -0.036807287 -0.104107104 0.041314296 0.07798923 0.011410029
-0.09720162 -0.020684259 0.019426292 -0.057019677 -0.04429247 -0.1097516 0.032445513 -0.11272212
-0.0022784942 -0.017067157 -0.052388452 -0.010625748 -0.09021306 0.020705195 0.0014563185 -0.07560058
0.004805751 0.0221176 -0.085269615 -0.08020603 -0.029192194 -0.07340852 0.028102718 -0.09576401
-0.07140185 -0.00699294 0.055744264 -0.06429372 -0.08558975 0.016764557 -0.06654558 -0.005153278
-0.074133396 -0.02854446 -0.088992596 -0.021772478 -0.08610962 0.00490918 -0.009637311 -0.0016948867
0.03627528 -0.06350027 -0.1176934 -0.026058983 -0.0927236 0.020831048 -0.028896037 0.039022643
0.0060917065 -0.09253345 -0.08055694 -0.12070144 0.023262892 -0.11056982 -0.041148506 -0.019269293
0.25837734 0.2626763 0.12856314 0.48018077 0.6689927 0.14569014 -0.029433755 0.2525965
0.3652386 -0.054865833 -0.0025904183 0.1865514 -0.20942825 -0.12499589 -0.015445633 0.08761196
0.37401295 0.026077127 -0.30711898 0.26321492 -0.29383764 0.31304315 0.005259687 0.37055695
-0.013940593 0.3229742 0.18939845 -0.027961595 -0.13450447 0.03168658 -0.04311894 -0.22186114
-0.036824033 -0.25201246 -0.866305 -0.14514616 -0.4991845 0.1852478 0.17115031 0.19869217
-0.0054328116 0.095726065 0.36626554 0.11958962 -0.031681605 -0.12379815 0.07525012 -0.035571508
0.09921418 -0.250609 0.16136003 -0.27399844 -0.28438887 0.070849344 -0.41424185 0.061898496
0.02906016 -0.14522603 0.07826378 -0.21395914 -0.55258155 0.4170964 0.018433942 0.025532968
-0.21495384 -0.07776653 0.119187005 -0.043607086 -0.28734854 -0.33495414 -0.07594371 0.064204544
-0.047840677 -0.44446793 0.3310425 -0.21970823 0.1545928 0.094211645 0.041749675 -0.025978977
0.28738844 -0.4187368 0.54024184 -0.04093272 0.041343324 0.040796336 -0.002801091 0.021832785
0.15742053 0.05087069 0.0021680829 0.22228166 -0.31091434 -0.06213948 0.061245006 -0.40676615
-0.60533935 0.06964702 -0.015144706 -0.28472412 -0.4872548 -0.09079397 0.19871387 0.0820969
0.21404709 0.08713954 0.19247082 0.4017155 -0.22575806 0.14260997 0.015624745 0.07278151
0.10431553 0.23262148 -0.0036312982 -0.06783677 0.07748018 0.22524095 -0.44008312 0.048462883
-0.019830434 -0.1461148 0.3137491 0.032840688 0.026643686 0.37678248 0.09052475 0.0416799

linearSequential.2.bias f4 [64]
00000000: 9a2d 473b f8aa bebd 0f66 863d 6113 b4bd
00000010: 99d7 93bc 8507 d4bd 80ae 7b3e 67b3 bcbd
00000020: 941c 77bd 9a2d 97bc 098a 3d3a 46a4 89bd
00000030: 800c 9dbd 59f4 063d 6da3 68bd 894a 3a3d
00000040: c365 a8bd 458f 77bd 2c25 02be c3e6 cc3c
00000050: 30df e8be 7577 713c 282a 85bd 7da9 01be
00000060: d69d a73c 1c2a a73c 1755 15bd 68a9 a23d
00000070: ea1e 41be 3bc9 8cbd bc3e 393d 5265 19bd
00000080: 497d dabd a55b 523c b38e 323d 9d95 c33e
00000090: 383e f6bc 7323 f13c b360 78be 8b60 dd3d
000000a0: 82ff 42bc 8ba7 b13d 46f9 24be e4a0 f4bd
000000b0: 5198 d6bc 569b 04bd 0610 b3bd 9454 94bc
000000c0: 8037 c4bc 7995 b1be 7daf 16be 3146 0cbe
000000d0: f29a 4bbe c297 e4bb 0cef 24be 15ef e4bd
000000e0: 1d1d 94bd e32a 73bd c4f7 2c3d b917 3fbd
000000f0: 01be 39be 213d 68bd 0fad 1cbd 099c 1fbd
0.003039217 -0.093099535 0.06562435 -0.08792759 -0.01804714 -0.10352997 0.24578285 -0.09213906
-0.06032999 -0.018454362 0.00072303467 -0.06720786 -0.076684 0.03294787 -0.05679648 0.04548124
-0.082225345 -0.060439367 -0.12709492 0.02501238 -0.4548278 0.014737953 -0.06502181 -0.12662311
0.020461004 0.020405822 -0.0364581 0.07942468 -0.18859449 -0.06874319 0.045225844 -0.037450142
-0.106684275 0.012839233 0.04359312 0.38200083 -0.030058965 0.029435849 -0.24255638 0.1080943
-0.011901738 0.086745344 -0.16110715 -0.1194475 -0.026195677 -0.032374702 -0.087432906 -0.018106736
-0.023952246 -0.3468435 -0.14715381 -0.13698651 -0.19883326 -0.0069760988 -0.16106814 -0.11178414
-0.072321154 -0.05936707 0.042228475 -0.046653483 -0.18138887 -0.056698922 -0.03825098 -0.038967166

linearSequential.4.weight f4 [32, 64]
00000000: 0cf4 37bd 3191 0fba 3fe6 21be eb1d 6ebc
00000010: 3a24 a53d 472b 4f3d be60 bebd 92f1 cfbd
00000020: 021e 96bc ee95 17bd 11c8 e8bd 68e9 643c
00000030: d750 713d 19d2 b2bd 2e2b 79bd 6367 d23c
00000040: 8081 8d3a c192 9cbd b5d4 94bd 42b7 913d
00000050: 89e7 1abd 7754 e3bb feae 2e3d e676 20be
00000060: f32d 09be 864b 4dbd 8906 07be 49ee 82bc
00000070: 7647 7d3d 1ce3 ae3d 2c99 d5bc c478 a03c
00000080: c20d c1bd 9d55 aebd c36a 97bd 0d45 6b3c
00000090: 8202 c3bd 0707 b73b c034 debc 16e7 8abd
000000a0: aaf8 173c 3e51 0b3d d71f 0cbe 9f06 20bb
000000b0: 4036 073d f906 72bc 24d6 c03b 8e89 b13d
000000c0: 5e49 93bd 9acf 5bbd 1710 64bc b345 733c
000000d0: 0c97 2cbe 0811 11be 20bc 183d 2ce0 2dbd
000000e0: 203f e0bd 2cc6 2ebd 784a 6c3d 7601 ac3d
000000f0: a83e 823c efdb eb3c c791 3a3d 2aa8 1ebd
00000100: 4221 8c3d 9f03 4bbd c526 08be b8f8 863c
00000110: 967c 0e3e db51 a4bd a9c4 29be 22c0 1abd
00000120: b52c da3c 6696 a3bc fef6 f0bc 1f5b a63c
00000130: ec3c 20be 6f0d 4c3d de0f 57bd 685f 1bbc
00000140: 2c7f 12bd c879 17be 9d76 ecbb 6af2 8fbd
00000150: e41c 74bd ec8a e43b 99ec ac3d a837 a0bd
00000160: 2d64 a93c 2655 b8bd 5e55 16be 3d61 8bbd
00000170: 9974 fdbd e003 a53d 068a a53c f79a 0fbe
00000180: 98ba fb3d 5443 c73b b4b5 80bd c874 09bd
00000190: 102e 6fbd a727 16be bb58 983c 23eb a3bd
000001a0: a875 443d 032b 81bd b4e6 193c 30d6 d33c
000001b0: 8417 57bd 09af 4dbc 0d90 b2bd b263 23be
000001c0: 7226 f73c 1784 83bd ffd7 843d 7db8 be3a
000001d0: d5a4 14be 1c5a 0bbc 30e7 533c 662e e7bd
000001e0: e0b1 17be 1380 413d f7a2 983d 83d4 68bc
000001f0: f339 89bc 4d5a 5dbc ea94 d6bd 02ea 54bd
00000200: ea33 99bd 5af6 03be 2568 24bd c4c6 6fbd
00000210: 9013 a8bd d982 a23c 7673 77bd 89d6 1c3c
00000220: 1690 19bd df35 04be 2f44 02be cacd 863d
00000230: 9113 6cbd ea9d a63c 2419 77bd c6cc d3bd
00000240: 1e28 e3bd ff45 c73c d5e9 06bd 6856 d53c
00000250: 6066 12bd f9b8 5fbb 5859 ba3d 9251 21bd
00000260: 5d7f b43d 3df3 f937 137f 19be d4fe 02be
00000270: b107 27bd a384 68bd 864f 15be d189 493c
00000280: 901a 5ebd 2234 32bd 666e 493c 4328 f6bd
00000290: a624 cc3d 3c4e 81bc 7a47 df3b e22b 88bc
000002a0: 40df 0a3d 6001 86bd 28ac febd cced f23d
000002b0: b40d 3abd bd2d 7ebd ed00 d83c f788 dbbd
000002c0: 5d66 463d 849b a23d fe17 f4bd ec2a 00be
000002d0: 3c80 343d 31db 6ebe 351f a03d 8da5 25be
000002e0: 54f8 9c3d 3665 78bc c016 18bb 9fde 883d
000002f0: c941 ac3c 7d70 6f3d 4125 e2bc 87c2 6abd
00000300: 5d76 883c 705e 0ebe 4e83 a83d dbd9 733d
00000310: 16a2 4fbc c512 25bc 5159 e1bd 7ddb 66bd
00000320: dd17 98bd efef 793d 9256 c3bd a694 0d3d
00000330: 323a 98bd 3b6e a6bd 66f1 c8bd c808 fa3b
00000340: 9dcc 943c 7dc8 10bd ef17 a53d eabb 6a3d
00000350: 34eb 2bbe deff 8bbc 18c7 e13d fca2 9cbd
00000360: 7899 463d fa8c 1f3c 7f21 663d 9620 9cbe
00000370: 0b5e 1e3d bc26 8f3d 37cf ba3b 85d4 dfbc
00000380: 51f2 173d f674 82bd 9430 cfbc 0e39 dbbe
00000390: f1c1 413d 0a03 9d3d 416a ba3d 2607 17be
000003a0: cb20 82bb 5a79 90bd 649a 623d f648 9ebc
000003b0: 583e ff3d bab1 093e 99a2 933d eb9d 64bd
000003c0: a96c c73d 78ef 0abe a525 a7bb de5e a23c
000003d0: eecd 733d beaf 37bc e25c c6bc d550 0b3d
000003e0: 529d 8fbc d094 eebd aa77 14be 2acd e8bc
000003f0: cf0c 9e3d 10e8 033e ac35 923d c8ed 983d
-0.044910476 -0.00054766523 -0.15810488 -0.0145335 0.0806355 0.050578382 -0.09295796 -0.10153498
-0.018324856 -0.03700822 -0.11366285 0.013971664 0.058914986 -0.08731479 -0.060832195 0.025684064
0.001079604 -0.076451786 -0.07267133 0.07115032 -0.037818465 -0.006937559 0.042647354 -0.15670356
-0.13396434 -0.050120853 -0.13186087 -0.015982764 0.06183573 0.085394114 -0.026074015 0.019588836
-0.09426452 -0.08512423 -0.0739341 0.014359725 -0.09521963 0.0055855545 -0.027124763 -0.067823574
0.009275595 0.034013025 -0.13684021 -0.002441801 0.03301072 -0.01477217 0.0058849026 0.086688146
-0.07191728 -0.05366478 -0.013919852 0.014848161 -0.16854495 -0.14166653 0.037288785 -0.042450115
-0.1094954 -0.04266946 0.057688206 0.08398716 0.015899017 0.028791396 0.04554918 -0.038734592
0.06842281 -0.049564 -0.1329604 0.01647602 0.13914713 -0.08023425 -0.16578926 -0.03778089
0.026632646 -0.019969177 -0.02941465 0.020307122 -0.1564824 0.0498175 -0.052505367 -0.009483196
-0.03576581 -0.1479255 -0.0072162882 -0.07028659 -0.059597865 0.0069745686 0.08443565 -0.078231156
0.02067765 -0.09000616 -0.14681002 -0.06805656 -0.12375755 0.0805738 0.020207416 -0.14023958
0.12291449 0.006081024 -0.06284657 -0.033558637 -0.058393538 -0.14663564 0.018596997 -0.08003833
0.04796377 -0.06307032 0.009393383 0.025858968 -0.05251266 -0.012553939 -0.08718882 -0.15956
0.0301697 -0.064216785 0.064865105 0.0014550831 -0.14516003 -0.0085053705 0.012933537 -0.11288147
-0.14813948 0.04724128 0.07452958 -0.014210823 -0.016751265 -0.013510299 -0.10477622 -0.05198098
-0.07480605 -0.12886944 -0.040138382 -0.058539167 -0.08206856 0.019837784 -0.060412847 0.009572634
-0.037490927 -0.12911175 -0.12721322 0.0658222 -0.057635847 0.020338971 -0.06032671 -0.10341792
-0.11091636 0.024325369 -0.032937843 0.026042178 -0.035742164 -0.0034137352 0.09099072 -0.039384432
0.08813355 2.979638e-05 -0.14989881 -0.12792522 -0.04077882 -0.056767117 -0.14581117 0.012300924
-0.05422455 -0.04350675 0.012294387 -0.12019398 0.09967928 -0.015784375 0.0068139406 -0.016622487
0.033904314 -0.06543231 -0.1243518 0.118617624 -0.045423225 -0.06205534 0.026367629 -0.10719483
0.048437465 0.079398185 -0.11918639 -0.12516373 0.044067606 -0.23325802 0.07818452 -0.16176434
0.07664552 -0.015160849 -0.002320692 0.066830866 0.021027463 0.058456887 -0.027605655 -0.057314422
0.016658003 -0.13903213 0.082281694 0.059533935 -0.012672922 -0.010075276 -0.11003364 -0.056361664
-0.074264266 0.061019834 -0.09537996 0.03456559 -0.07432975 -0.081264935 -0.09811668 0.0076304413
0.018163973 -0.03534745 0.080612056 0.057308115 -0.16788942 -0.01708978 0.11024302 -0.07648274
0.048486203 0.009738201 0.056184288 -0.3049361 0.038663905 0.0698981 0.0057009715 -0.027323017
0.037096325 -0.06369965 -0.025291719 -0.42816967 0.047304098 0.07666595 0.091022976 -0.1474882
-0.0039711944 -0.07054396 0.05532302 -0.0193219 0.12463063 0.13446704 0.072087474 -0.055814665
0.09737522 -0.13567913 -0.005100923 0.019820627 0.05952256 -0.011211334 -0.024214212 0.034012634
-0.01753107 -0.116494775 -0.14498773 -0.028418142 0.07717287 0.12881494 0.07139143 0.07467228

linearSequential.4.bias f4 [32]
00000000: 3f29 bfbd b07f 8abd 11ef d5bd dfbb 3ebe
00000010: 754d f7bd 1709 febd aa24 39bd edd0 22bb
00000020: 9429 65be 70c4 4dbd c82d e63c 8457 c6bd
00000030: 5f1c 123d 1dd8 1dbe a94b 26be 62f8 bebd
00000040: 908b 3fbe 2915 ca3e 30a2 7bbd c2de 5fbe
00000050: 22c9 4abe b537 bbbd 90db 2dbe d4b9 28be
00000060: 70ae 78bb 0f70 5cbc 9a9a a2bd 4b7c 7bbe
00000070: 9b2d 5fbe eeb0 31be c2bf 87bc 2fb8 2cbc
-0.09334039 -0.06762636 -0.10445989 -0.18626355 -0.12075321 -0.124040775 -0.04520098 -0.0024843768
-0.22379142 -0.050236166 0.028098002 -0.09684661 0.035671588 -0.15414472 -0.162398 -0.09324719
-0.18705583 0.3946927 -0.06143397 -0.21862319 -0.19803289 -0.09141485 -0.16978288 -0.16477138
-0.003794577 -0.013454451 -0.07939644 -0.24559133 -0.21794741 -0.1735265 -0.01657093 -0.01054196

linearSequential.6.weight f4 [16, 32]
00000000: 2549 34bd 5030 213d 16cd e3bd 9aa4 34bd
00000010: 21e6 22bc ad5a 50be 076a 513d 9be1 25bc
00000020: d2a4 d53d 8e77 c2bc 9d66 8a3d aac7 e1bc
00000030: 3dca d03d ac96 84bd 7f3d 063e 9612 a93c
00000040: 151f 8b3d e416 c0be 2d01 c93c d342 37bc
00000050: 2b0f 06be dd57 f73d eae8 bbbd 7290 5ebe
00000060: e14b 8dbd a6aa 3abe fcff 0fbe 6499 5b3d
00000070: 222e 963d c83e 2dbe 5e73 c4bd d481 2abd
00000080: 5d38 51bd 5996 a33d 1857 e4bc b7c7 e3bd
00000090: 6294 f73d fc6e a43c 6bb1 903d a4a2 9f3d
000000a0: 8268 30be 2f3d e73d ae24 093e da2d 3fbe
000000b0: 09c4 42be 6ccb 0bbe c527 f8bd ccaf 2fbd
000000c0: 2975 553c 8df2 83be 34f0 043d fbc5 06be
000000d0: 4e0e 01be 5d2b 0b3d 2297 64bd bd37 8b3d
000000e0: 10c5 a73d cf52 89be c686 81be f0f5 9dbc
000000f0: 7c84 0a3e 3154 e4bd 6b72 b53d 9249 ae3c
00000100: 92ff 12bd ef41 ecbd f893 a63b 272b ca3a
00000110: 3900 c93d 9022 1dbe 3531 c1bd bd6f 9abd
00000120: e744 1c3e c393 a43d 5309 133d 5c40 12bd
00000130: b9eb fd3d 8253 9d3d bc26 dabd 9569 ccbd
00000140: 2982 26be 863a a7be 4ba6 8a3d 4699 a73d
00000150: 1de5 fbbc 9f09 45be d321 5dbe 1678 5c3d
00000160: a3d5 e8ba 3c48 3fba 47dd 9bbb 3842 1b3c
00000170: 5d03 18be 1c0a 113d 1b0b 1f3e 5b3c a63d
00000180: 852c 87bc 3296 033e 0d99 acbc ae0f ec3d
00000190: 686c 8dbd f158 9abd e1dd b83d 4ee4 1bbe
000001a0: 801a 073e 2c26 003a 5d59 b53d 8d68 393c
000001b0: fe8d 1abe 556e f5bd 64c0 db3d edbe 4d3e
000001c0: ba0e 34bd 381d 16be 7b79 07bd b8aa c3bc
000001d0: 68fd 9bbc 1dc5 25be b1f4 063c 386d e8bd
000001e0: 1101 8bbc 0b55 9e3d a9d6 7fbe dac4 df3d
000001f0: d7cf d7bd 3f7a 10be 4336 323e 1d90 12be
00000200: f521 953d b00b 0b3e 64d0 493e aecb abbc
00000210: 3d0c 023e 42c4 9f3d aae2 04bc e204 19bd
00000220: 1385 e93d eff6 9bbc 45ae 0f3d 0f70 86bd
00000230: 1b28 fc3d 62fd c7bd bb45 9e3d 8c5f b5bc
00000240: 26b2 c53d c157 4dbe 21b2 713d 9869 dd3d
00000250: b275 983d 844e b5bd 2490 4a3d 1913 3cbe
00000260: 90ce b23c ead3 8abc 8f5e a8bd 8c7c 4d3d
00000270: fcee 17bd 60fc c93c 1aea 9cbd 081e 12bd
00000280: 6c2f 0c3d 3b60 5d3d e7cd 8e3b 15b7 54be
00000290: c49d 25bd 2353 d5be d85a 2cbd a76e bd3d
000002a0: 6244 f43d 072b 2b3d 57ec 51bc 127f 933d
000002b0: ca72 323e 36df 233e 2081 333e 5b94 9b3d
000002c0: ea87 5dbc eeb3 acbe 2a86 23be 85ec 533e
000002d0: 8d54 083d b525 d5bd f71a 073e 499b d5bd
000002e0: b627 fe3b 3621 47bb f453 87be 96b5 7c3e
000002f0: 4c14 8b3d 7e26 ef3c b46b 47bd 6f68 ecbd
00000300: b9ea 013e c802 5abe cfff 3ebe 8cd2 0abc
00000310: 3e42 943e bbf6 e2bd 0305 d83d 716d f7bc
00000320: ca11 1e3e 354d db3c ce60 813e a67a a83d
00000330: 4d02 5abe 705d d73d 8f32 093d aad0 47be
00000340: 2f51 263d b253 d33d 18d0 1b3e 5d3c 853d
00000350: c40f ebbc 8c75 d1bd c03d 5bbe ab8a 433b
00000360: 0dc1 2b3e e656 d53c 2c49 41bd ff97 0c3e
00000370: 0fe0 8c3d 685f d13d e999 dbbc 01ac 70ba
00000380: 7bb6 1cbc d32c 79bb 2dd1 f0bd 567d f63d
00000390: 0ae0 683d d7c8 8bbe 699a b6bc 1f9b 2bbd
000003a0: 9f7f 88bd 0a02 683d 1d65 bcbc d7a6 333e
000003b0: 8e28 e03d a63e 6cbe b3e6 06be f92e 3a3b
000003c0: c687 8aba 3e5c e8be 111f 8e3d ec44 dabd
000003d0: 6e90 09be 4605 903d 7afc 103e 5f54 65be
000003e0: 819b 393e 6c54 153c c3f8 5bbe 1628 d4bd
000003f0: e64c bc3d 8ec2 b03d cf99 233e 4eec 9cbd
-0.04401507 0.039352715 -0.111231014 -0.04410229 -0.009942562 -0.2034709 0.051126506 -0.010124589
0.104318276 -0.023738649 0.06757853 -0.027561028 0.10194824 -0.06474051 0.13109396 0.020638745
0.06793038 -0.37517464 0.024536693 -0.011185366 -0.13091724 0.120773055 -0.09175284 -0.21734789
-0.068992384 -0.1822916 -0.14062494 0.05361308 0.07333018 -0.1691848 -0.09592317 -0.04162772
-0.051079143 0.07987661 -0.02787356 -0.11122077 0.12088849 0.020072453 0.0706509 0.07794693
-0.17227367 0.11290967 0.13392898 -0.18669835 -0.19020094 -0.13651818 -0.121169604 -0.042892262
0.013028421 -0.2577099 0.032455638 -0.13161461 -0.12603113 0.0339769 -0.055808194 0.067977406
0.081918836 -0.2682099 -0.25298136 -0.019282311 0.13527101 -0.11148871 0.08859714 0.021275315
-0.035888262 -0.11536013 0.005083557 0.0015424237 0.098144956 -0.15345216 -0.094332136 -0.07540844
0.15260659 0.08035996 0.035897564 -0.03570591 0.12398476 0.076819435 -0.10651919 -0.09981076
-0.1626059 -0.32661837 0.06769999 0.081835315 -0.030748898 -0.19241951 -0.21594934 0.05382546
-0.0017763864 -0.00072968355 -0.004756603 0.009476237 -0.14845033 0.03541003 0.1553158 0.08116981
-0.01650072 0.12850264 -0.021069074 0.11526428 -0.069054425 -0.075364955 0.09026695 -0.1522381
0.13193703 0.00048885006 0.08854935 0.011316431 -0.15093228 -0.11983935 0.10730055 0.20092364
-0.043959357 -0.14659584 -0.033074837 -0.023885116 -0.019041732 -0.16188474 0.00823705 -0.11348957
-0.016968282 0.077310644 -0.2498423 0.10926218 -0.10537689 -0.14109133 0.17403512 -0.14312787
0.072818674 0.13578677 0.19708401 -0.020971145 0.12699981 0.07801105 -0.008110682 -0.037358172
0.11402335 -0.019038646 0.035078306 -0.06564342 0.12312337 -0.09765126 0.07728144 -0.022140287
0.0965312 -0.20053007 0.059007768 0.10811156 0.074443236 -0.08852866 0.04945387 -0.1836666
0.021827012 -0.016946752 -0.082211606 0.050167605 -0.037093148 0.024656475 -0.07661839 -0.03567317
0.034224913 0.05404685 0.0043580416 -0.20772965 -0.04043366 -0.4166499 -0.042078823 0.09249621
0.119271055 0.04178908 -0.0128126955 0.07201971 0.17426601 0.16003117 0.17529726 0.07596656
-0.013521174 -0.33731025 -0.15969148 0.20695694 0.03328376 -0.10407583 0.1319388 -0.10430009
0.0077561988 -0.0030384785 -0.2643124 0.24678645 0.06790981 0.02919316 -0.048686698 -0.115433566
0.12687196 -0.21290123 -0.1865227 -0.00847305 0.2895679 -0.11082216 0.10547831 -0.030203553
0.15436473 0.026770214 0.2526917 0.08226518 -0.2128994 0.10515869 0.033495482 -0.19513193
0.040604766 0.10318698 0.152161 0.06505654 -0.028694041 -0.102274984 -0.21410275 0.0029837291
0.16772862 0.026042413 -0.047188923 0.13729857 0.06878673 0.102232754 -0.026806789 -0.0009180904
-0.009564991 -0.0038021102 -0.11758647 0.12035625 0.056854285 -0.27301666 -0.022290425 -0.041895982
-0.06664967 0.05664257 -0.022997433 0.17544113 0.10945235 -0.23070773 -0.13173942 0.0028409346
-0.0010569028 -0.45382875 0.06939519 -0.10657677 -0.13434002 0.07032256 0.14158812 -0.22395466
0.18125726 0.009114366 -0.21481614 -0.10359208 0.09194355 0.08630858 0.15976642 -0.07662259

linearSequential.6.bias f4 [16]
00000000: eca9 9a3e f5c8 27bd ca86 8d3e 0ec5 e4bc
00000010: ef2a 8a3e 4e79 8d3e 6f22 00be 30fb 813e
00000020: 2115 a4bd ba87 86bd 2e05 a43e d559 07be
00000030: db20 3ebe 8e5d 19be dd5c 03be 7a08 33be
0.30207765 -0.040963132 0.27641898 -0.027925994 0.2698588 0.2763161 -0.12513135 0.25386953
-0.080118425 -0.065688565 0.32035202 -0.13217862 -0.18567221 -0.14977095 -0.12828393 -0.17483702

linearSequential.9.weight f4 [1, 16]
00000000: ffa7 ed3d eb49 04be 11ff dc3d f7b3 bd3c
00000010: d0c0 0d3e 39ef 173e 803b 52bd dc97 103e
00000020: ac35 503c 89ac 0fbe b64e e13d dd6a 39bd
00000030: 8403 e8bd 3120 5dbd 2fc6 5fbd 1b6a fbbc
0.11604308 -0.12918822 0.107908376 0.023157103 0.13843083 0.1483735 -0.051326275 0.1412043
0.012708109 -0.1403066 0.11001341 -0.04526793 -0.113287956 -0.05398578 -0.054632362 -0.030690243
