nnwf/nets/state_dicts/dataset01.pt (torch, 51027 bytes, 9 tensors)

linearSequential.0.weight f4 [128, 6]
-0.07817435 0.42565274 -0.31962803 0.30343413 -0.09845074 0.01602569 0.18954648 0.11072395
0.12845273 0.14829068 0.06728256 -0.3613097 -0.23377864 0.11034191 0.28774375 0.3361542
0.23075926 0.012401914 0.07876239 0.2047748 0.27245045 0.29155707 0.014087437 0.3034286
0.4348821 -0.20324324 0.18611361 -0.25241658 0.44024494 -0.16193378 -0.30690435 -0.08313133
-0.20777933 -0.39836702 0.10954021 0.07028555 0.3138033 0.023595754 -0.124378465 0.16435686
0.42169967 -0.29745138 -0.29199353 -0.24683301 -0.13248631 0.11949291 -0.01754036 0.043899667
-0.108146496 -0.24007031 -0.057094388 -0.10354875 0.22937459 0.09770445 -0.2503124 -0.06339217
0.19792065 0.10235516 -0.50118697 -0.15335381 0.06006171 0.37402785 -0.025661668 -0.26289263
0.3502864 0.29059124 0.24869798 0.27410343 0.21911624 0.22621442 0.10837589 -0.05324045
0.18749484 -0.016157718 0.46678165 -0.27203217 -0.29018527 0.005908736 -0.08409841 0.014591722
0.21089612 -0.4121039 -0.0018495393 -0.2773645 0.17586905 0.24255686 -0.007462151 0.3931578
-0.07793638 0.02976703 0.4097834 -0.24269159 0.33350483 0.27854085 -0.30216834 0.10493655
-0.2904284 0.04551535 0.3887396 0.022066548 0.19453046 0.14744127 0.12682392 -0.19195928
0.23474711 -0.0062696016 -0.11305084 -0.017451098 0.18787403 0.21394096 0.08879565 -0.21845114
-0.107817054 0.0809587 -0.1697194 -0.24897759 -0.16416074 0.2757483 0.0073522967 0.23234415
-0.022704557 0.31857646 0.051436093 0.008891135 0.42781526 0.18297441 -0.15496516 0.2458663
0.037630826 -0.04283239 0.1840019 -0.020716172 0.33945587 -0.28026414 0.13475204 -0.2670723
0.39684004 0.18305066 -0.16702347 0.010231799 -0.19422095 -0.3422675 -0.22585395 0.19692774
0.11089792 -0.39942646 0.07764303 -0.1206892 -0.13218157 0.3124133 -0.09038666 -0.26984382
-0.040200654 -0.049902912 0.36143172 -0.19776474 0.15109405 -0.2885781 0.098381005 -0.099919185
0.14553106 -0.37962177 0.41663387 0.38895556 -0.05897092 -0.17328806 0.2818303 0.19921698
0.0027544391 0.11948746 -0.29336613 0.32313603 -0.29091972 -0.017232493 0.0006153467 -0.1351181
0.1643048 -0.39588517 0.15977195 0.13808133 -0.31952026 -0.16390915 -0.30831861 -0.3614819
0.147001 -0.18045351 0.060677662 -0.27238512 0.315884 -0.23440732 -0.39555192 -0.17001297
-0.34667864 0.24207543 0.25797752 0.3871579 0.24138577 0.34897915 0.33817837 0.026388336
0.12548864 -0.16513038 0.17718829 0.03177478 0.06019488 -0.33257172 0.14853904 0.2629541
-0.3778305 -0.14259872 0.37387696 0.25621524 0.09121993 -0.13912725 0.33042723 0.098115906
-0.15871269 -0.3607025 -0.10608514 -0.24072987 0.29063597 0.42497355 0.01042024 -0.019198071
-0.059091855 -0.017510628 -0.22025658 -0.41838348 0.08605682 0.38881093 -0.21439737 -0.18594205
0.26213324 0.12464047 0.13285656 0.21494022 0.1551278 0.39534205 -0.2414644 0.26640186
-0.3496318 -0.03890936 -0.30727172 0.13009287 -0.351646 0.16937919 0.18287592 -0.30822662
-0.19050421 0.041799385 0.31523296 0.099830374 -0.009790197 -0.07320533 -0.10849777 -0.16486342
00000000: e019 a0bd 28ef d93e 49a6 a3be b85b 9b3e
00000010: 8ba0 c9bd 4f48 833c 7918 423e 3dc3 e23d
00000020: 1d89 033e 83d9 173e 70cb 893d 96fd b8be
00000030: ab63 6fbe f0fa e13d 2653 933e 671c ac3e
00000040: 284c 6c3e 6631 4b3c 2d4e a13d 7cb0 513e
00000050: a07e 8b3e f846 953e fece 663c fe5a 9b3e
00000060: dea8 de3e ff1e 50be 9194 3e3e bf3c 81be
00000070: c967 e13e f8d1 25be 9122 9dbe c240 aabd
00000080: 1bc4 54be c3f6 cbbe 9e56 e03d dff1 8f3d
00000090: d3aa a03e e24b c13c 23ba febd 2a4d 283e
000000a0: 05e9 d73e 8c4b 98be 2d80 95be cbc1 7cbe
000000b0: 7eaa 07be b3b8 f43d cdb0 8fbc 23d0 333d
000000c0: e97b ddbd fed4 75be cedb 69bd 5e11 d4bd
000000d0: 2ce1 6a3e 4519 c83d f228 80be c1d3 81bd
000000e0: b6ab 4a3e 959f d13d ca4d 00bf c808 1dbe
000000f0: 4503 763d 9480 bf3e 6b38 d2bc dd99 86be
00000100: bd58 b33e 60c8 943e afaa 7e3e 4957 8c3e
00000110: 0260 603e c1a4 673e 2ef4 dd3d a812 5abd
00000120: a6fe 3f3e 315d 84bc 01fe ee3e cd47 8bbe
00000130: 2a93 94be 129e c13b ca3b acbd 1e12 6f3c
00000140: 27f5 573e 48ff d2be 3e6c f2ba b802 8ebe
00000150: 0417 343e d360 783e 0f85 f4bb fb4b c93e
00000160: 1c9d 9fbd fdd9 f33c 21cf d13e 2584 78be
00000170: 25c1 aa3e e89c 8e3e cfb5 9abe f9e8 d63d
00000180: 08b3 94be 4e6e 3a3d e008 c73e e8c4 b43c
00000190: fe32 473e d8fa 163e 21de 013e f990 44be
000001a0: 8c61 703e 3b71 cdbb 3387 e7bd 9bf5 8ebc
000001b0: 0d62 403e 5713 5b3e 7eda b53d a8b1 5fbe
000001c0: 30cf dcbd adcd a53d ecca 2dbe fbf3 7ebe
000001d0: c119 28be e22e 8d3e 89eb f03b a0eb 6d3e
000001e0: e8fe b9bc 741c a33e a7ae 523d 20ac 113c
000001f0: 9a0a db3e a55d 3b3e 30af 1ebe 60c4 7b3e
00000200: c822 1a3d 0471 2fbd fe6a 3c3e f6b4 a9bc
00000210: 29cd ad3e c87e 8fbe 70fc 093e b3bd 88be
00000220: 9e2e cb3e a271 3b3e 3308 2bbe 47a3 273c
00000230: dbe1 46be b03d afbe 4246 67be 6da7 493e
00000240: 731e e33d a081 ccbe 4f03 9f3d e62b f7bd
00000250: 9b5a 07be a3f4 9f3e a41c b9bd f828 8abe
00000260: 71a9 24bd ff66 4cbd 940d b93e d782 4abe
00000270: 66b8 1a3e 82c0 93be fb7b c93d 6ea2 ccbd
00000280: 1806 153e c95d c2be 0951 d53e 2f25 c73e
00000290: 7e8b 71bd 6d72 31be 104c 903e 89ff 4b3e
000002a0: d283 343b d7b5 f43d 1634 96be 1672 a53e
000002b0: 6ef3 94be 282b 8dbc 384f 213a 665c 0abe
000002c0: 843f 283e 76b1 cabe 429b 233e 3165 0d3e
000002d0: 2998 a3be cdd7 27be f0db 9dbe 2814 b9be
000002e0: 6e87 163e cec8 38be 2489 783d 1076 8bbe
000002f0: 8cbb a13e 7908 70be c885 cabe e117 2ebe
00000300: dd7f b1be 9fe2 773e a115 843e 8f39 c63e
00000310: d52d 773e 65ad b23e b725 ad3e 5a2c d83c
00000320: 1880 003e f017 29be d970 353e 4626 023d
00000330: e88e 763d d746 aabe 9e1a 183e eba1 863e
00000340: 0073 c1be 6605 12be cd6c bf3e a52e 833e
00000350: 84d1 ba3d 6077 0ebe c22d a93e fef0 c83d
00000360: 9485 22be 00ae b8be 2a43 d9bd e481 76be
00000370: 3dce 943e 2296 d93e a8b9 2a3c 4645 9dbc
00000380: 4d0a 72bd 7372 8fbc f18a 61be 5c36 d6be
00000390: 8f3e b03d 3a12 c73e fc8a 5bbe 9867 3ebe
000003a0: 5436 863e 8143 ff3d 8d0b 083e 4a19 5c3e
000003b0: d2d9 1e3e 466a ca3e 7242 77be d365 883e
000003c0: f002 b3be 6c5f 1fbd b852 9dbe 1137 053e
000003d0: f20a b4be bd71 2d3e d343 3b3e e1cf 9dbe
000003e0: 8913 43be d535 2b3d 3766 a13e de73 cc3d
000003f0: 1067 20bc adec 95bd 1434 debd f5d1 28be

linearSequential.0.bias f4 [128]
0.15892029 -0.34995544 0.17601016 -0.03637463 0.08428738 -0.05644195 -0.45017496 0.0014637295
-0.307776 0.057685655 -0.31024882 0.15225023 0.12587662 -0.15171643 -0.43113142 -0.42422876
0.14068209 -0.21945347 -0.30246952 -0.060856055 0.15777692 0.11339568 0.24466595 -0.4186909
0.16866961 0.08331063 0.13045777 0.34057158 -0.03437196 -0.2752614 -0.0017034502 -0.19098198
-0.060544405 0.0325384 0.173348 0.25335672 -0.32518613 0.0045454265 -0.2205918 -0.31256753
-0.19817032 0.011577169 -0.37555653 -0.31766936 0.2040093 -0.42305404 -0.23861827 -0.10205354
0.14091821 0.02751964 0.18906277 0.19784915 0.24345966 -0.053392645 -0.30378708 -0.2757513
0.0057494263 -0.57981765 -0.07308739 -0.40964237 -0.30876476 -0.43948296 0.14752075 0.13024652
0.0110590365 -0.20480043 -0.27429208 0.111936584 -0.039039563 -0.23720025 -0.12206884 -0.30446318
0.123392254 -0.20720185 -0.09996824 -0.18936786 0.18325582 -0.32871324 -0.36411715 0.2952751
-0.3685142 -0.3805913 -0.04659616 0.13832471 0.074530356 -0.19984841 -0.16223161 0.18703565
-0.14353317 -0.15706733 -0.6229764 -0.5415384 -0.53740627 0.19841444 0.09195714 0.16344582
-0.2712072 0.14858745 -0.38727304 -0.26345736 0.2279831 0.027050693 0.12466229 0.11179997
0.2148927 -0.055341583 -0.15121599 0.15306588 -0.101856925 0.27304527 0.16729963 -0.044128563
-0.42676654 0.1601981 -0.18635294 -0.21013579 -0.027598703 -0.1777655 0.17208686 -0.27872488
-0.39887056 -0.05836215 -0.10912738 -0.12810457 0.25775108 0.06551688 0.32776862 -0.17202228
00000000: 00bc 223e 5c2d b3be 023c 343e 90fd 14bd
00000010: dd9e ac3d ad2f 67bd 557d e6be 9dda bf3a
00000020: d194 9dbe cb47 6c3d efd8 9ebe 7ce7 1b3e
00000030: cde5 003e 8d5b 1bbe 42bd dcbe 8334 d9be
00000040: f70e 103e 69b8 60be 49dd 9abe 3344 79bd
00000050: 4690 213e ff3b e83d b689 7a3e a75e d6be
00000060: bab7 2c3e c39e aa3d b996 053e 665f ae3e
00000070: 9dc9 0cbd 10ef 8cbe 4e46 dfba c890 43be
00000080: 69fd 77bd fc46 053d 2382 313e f9b7 813e
00000090: cc7e a6be cdf1 943b d1e2 61be da08 a0be
000000a0: 29ed 4abe 2bae 3d3c f248 c0be 8fa5 a2be
000000b0: d0e7 503e 8a9a d8be 5958 74be 7201 d1bd
000000c0: dd4c 103e de70 e13c ac99 413e f898 4a3e
000000d0: 7d4d 793e 3fb2 5abd fb89 9bbe 462f 8dbe
000000e0: af65 bc3b ee6e 14bf d7ae 95bd a5bc d1be
000000f0: 6a16 9ebe e903 e1be ae0f 173e 585f 053e
00000100: f630 353c 34b7 51be 0370 8cbe 023f e53d
00000110: f3e7 1fbd 9fe4 72be 3aff f9bd 99e2 9bbe
00000120: 14b5 fc3d b92c 54be 26bc ccbd a6e9 41be
00000130: 6aa7 3b3e 1a4d a8be 906d babe 4c2e 973e
00000140: e5ad bcbe dddc c2be 9ddb 3ebd fea4 0d3e
00000150: 5fa3 983d 10a5 4cbe 0b20 26be 4686 3f3e
00000160: 5cfa 12be 42d6 20be 627b 1fbf 43a2 0abf
00000170: 7593 09bf 282d 4b3e 0654 bc3d 575e 273e
00000180: acdb 8abe 4f27 183e a748 c6be e2e3 86be
00000190: 6774 693e 6a99 dd3c f14e ff3d 62f7 e43d
000001a0: d50c 5c3e dbad 62bd 5dd8 1abe 4dbd 1c3e
000001b0: 5d9a d0bd 97cc 8b3e 9850 2b3e 27c0 34bd
000001c0: 2581 dabe f90a 243e 4ed3 3ebe d62d 57be
000001d0: ad16 e2bc 2908 36be 8a37 303e 07b5 8ebe
000001e0: c338 ccbe 260d 6fbd 2d7e dfbd d82d 03be
000001f0: f3f7 833e b72d 863d 4ad1 a73e 9c26 30be

linearSequential.2.weight f4 [64, 128]
0.053726763 0.047981206 -0.016427895 -0.029449372 0.07337496 0.06315824 0.087170355 0.051917154
0.08692103 -0.047055658 0.10297399 0.0216997 -0.15998721 0.013796512 -0.02967506 0.017131774
0.004896063 0.02039866 0.045602694 -0.015689213 0.08728273 0.07974204 0.115245275 -0.11025488
-0.08202063 0.0402753 -0.019508395 0.10985289 -0.06659106 0.041023128 0.06222788 -0.05083342
0.066320874 0.12949331 -0.10366999 0.12725511 0.058664232 0.043434553 0.12879772 -0.056703176
0.021860074 0.04886564 0.057760783 0.053892404 -0.0037843697 0.016712192 0.16104636 0.0052914564
0.044079382 -0.0031458237 0.12031188 -0.16793264 0.033824153 -0.05595213 -0.015366181 0.018227164
-0.12621093 0.101853706 -0.03831879 0.16776879 -0.05695034 0.10492558 -0.011905801 -0.09889885
0.021180525 0.07325677 0.13415852 -0.05673904 -0.044197053 0.051501997 0.15352766 0.15644097
-0.21900967 -0.05854523 0.014434587 0.06966155 -0.007903542 0.0110469265 0.03692324 -0.07198671
-0.05639072 0.12277741 -0.03072152 -0.06992709 0.06558391 -0.005825391 0.12972748 -0.19931942
0.051921606 -0.013740356 0.09941266 0.0027059803 -0.05266781 0.083398744 -0.08365954 -0.014830171
0.005925036 0.038463634 -0.058858093 -0.0669092 -0.043314807 0.032966938 -0.18750802 0.0154118715
-0.016365107 0.0923135 0.018779738 -0.017990269 0.036386173 0.08678511 0.02674295 0.011426449
0.083049074 -0.034288514 -0.13031404 0.10036148 -0.016583245 0.019709641 0.0018860287 0.060097937
-0.01860768 0.124801934 0.023496049 -0.036110234 0.003617639 0.12843718 0.029896704 0.1417226
-0.07882814 0.034943707 0.06756218 -0.07101503 -0.1224736 0.009689297 -0.10471196 -0.09844185
-0.055826608 0.030498104 0.044408966 -0.07217382 0.06221138 -0.0041156486 0.06797313 0.059316926
-0.012099925 -0.055221494 -0.07776516 -0.0044384375 0.07305364 -0.051825944 -0.0014014456 0.03523089
-0.13693957 -0.062192954 -0.02358827 -0.05828918 0.055385087 -0.039683692 -0.026794745 -0.07502788
-0.023513032 0.04568408 -0.024809152 -0.09458618 0.019321388 -0.081400156 -0.05793193 0.03051484
-0.0058563403 -0.12193061 -0.018593209 0.012510144 -0.09633628 0.0038469872 -0.07562374 0.069677785
-0.03286101 0.02040395 -0.022840923 -0.08759557 -0.0078063197 -0.07564556 0.030472431 -0.11355618
-0.025252996 -0.07785945 -0.06775999 -0.14262164 -0.0036357786 0.0060535665 0.03899416 -0.0027949868
-0.08334128 -0.04058423 -0.047915053 -0.012818925 -0.11950035 -0.12456273 0.073147334 -0.009981455
-0.0033536318 -0.0656697 -0.05098661 -0.13658114 -0.07310609 -0.07172795 0.03292138 -0.078500226
0.027085109 0.03131218 -0.075512215 -0.0903828 -0.015145529 0.0067552016 -0.0028333422 -0.1135951
0.033029158 -0.087846205 -0.002305773 -0.06332464 0.058013108 -0.023719117 -0.02105154 -0.0042250925
-0.0264054 -0.10345172 0.053362142 -0.003123512 -0.07527737 -0.042576812 -0.085541844 0.049807426
-0.090024404 0.01652026 0.025955632 -0.013148113 0.031388756 -0.065684065 0.002953408 0.0078683235
0.039227106 -0.05968402 -0.05395429 0.06606921 -0.017722232 0.029066378 -0.11261718 -0.09394153
0.024328152 0.057846297 -0.023429135 -0.09432032 -0.11491696 -0.039964262 0.027093299 0.029775392
00000000: 9810 5c3d f187 443d cb93 86bc cf3f f1bc
00000010: 9c45 963d 1b59 813d 5f86 b23d 15a7 543d
00000020: a703 b23d 6fbd 40bd 07e4 d23d 92c3 b13c
00000030: b0d3 23be c40a 623c 1d19 f3bc ef57 8c3c
00000040: 276f a03b 171b a73c e4c9 3a3d aa86 80bc
00000050: 4ac1 b23d cb4f a33d b705 ec3d 4fcd e1bd
00000060: 6ffa a7bd b7f7 243d 12d0 9fbc 8dfa e03d
00000070: e560 88bd de07 283d a9e2 7e3d b436 50bd
00000080: 3dd3 873d e599 043e ef50 d4bd 2a4f 023e
00000090: e849 703d 6ee8 313d 8de3 033e 9741 68bd
000000a0: e613 b33c 5627 483d 9296 6c3d 48be 5c3d
000000b0: 3003 78bb 02e8 883c 56e9 243e f463 ad3b
000000c0: 958c 343d 2a2a 4ebb 1366 f63d 89f6 2bbe
000000d0: 328b 0a3d 102e 65bd 6fc2 7bbc 2251 953c
000000e0: 703d 01be ad98 d03d 2af4 1cbd 95cb 2b3e
000000f0: c244 69bd 39e3 d63d 8c10 43bc 7b8b cabd
00000100: c882 ad3c a507 963d da60 093e 3267 68bd
00000110: f807 35bd c2f3 523d 5b36 1d3e 1032 203e
00000120: 1244 60be 20cd 6fbd 0c7f 6c3c b7aa 8e3d
00000130: dc7d 01bc 2bfe 343c d33c 173d c56d 93bd
00000140: f5f9 66bd b972 fb3d b2ab fbbc ef35 8fbd
00000150: db50 863d ece2 bebb 48d7 043e 641a 4cbe
00000160: c0ab 543d 3b1f 61bc dd98 cb3d d156 313b
00000170: 34ba 57bd f6cc aa3d b155 abbd 3ffa 72bc
00000180: ce26 c23b 0b8c 1d3d 2f15 71bd b107 89bd
00000190: de6a 31bd 5708 073d 1a02 40be 1382 7c3c
000001a0: 1e10 86bc dc0e bd3d f7d7 993c 5460 93bc
000001b0: ab09 153d 64bc b13d 0814 db3c 0036 3b3c
000001c0: a215 aa3d 1d72 0cbd 0b71 05be 528a cd3d
000001d0: 96d9 87bc 1d76 a13c 9f34 f73a 4129 763d
000001e0: 226f 98bc 2898 ff3d c97a c03c 53e8 13bd
000001f0: e915 6d3b 0985 033e efe9 f43c bb1f 113e
00000200: a670 a1bd 2221 0f3d 0a5e 8a3d 5470 91bd
00000210: 70d3 fabd dbbf 1e3c 3973 d6bd e19b c9bd
00000220: 71aa 64bd 29d7 f93c 2de6 353d decf 93bd
00000230: 5cd1 7e3d 90dc 86bb 7f35 8b3d 4ef6 723d
00000240: c43e 46bc ef2f 62bd 5743 9fbd 5070 91bb
00000250: 269d 953d 7147 54bd b6b0 b7ba 444e 103d
00000260: e339 0cbe 0abe 7ebd 303c c1bc a3c0 6ebd
00000270: 79db 623d 5e8b 22bd a780 dbbc 38a8 99bd
00000280: 679e c0bc 3b1f 3b3d 903c cbbc 66b6 c1bd
00000290: e347 9e3c 20b5 a6bd 084a 6dbd 42fa f93c
000002a0: 8be6 bfbb c1b6 f9bd c950 98bc 59f7 4c3c
000002b0: f54b c5bd bc1d 7c3b 9fe0 9abd 3ab3 8e3d
000002c0: 4499 06bd 2f26 a73c e31c bbbc 4e65 b3bd
000002d0: 28cc ffbb 0fec 9abd 52a1 f93c 2490 e8bd
000002e0: 5fdf cebc c674 9fbd c0c5 8abd 680b 12be
000002f0: 3e46 6ebb ff5c c63b 57b8 1f3d 192c 37bb
00000300: d5ae aabd a63b 26bd 9342 44bd 7806 52bc
00000310: 99bc f4bd bf1a ffbd 45ce 953d 4289 23bc
00000320: 9bc8 5bbb d67d 86bd 56d7 50bd eddb 0bbe
00000330: a5b8 95bd 1ae6 92bd 92d8 063d bac4 a0bd
00000340: 97e1 dd3c 3341 003d 26a6 9abd 9e1a b9bd
00000350: f424 78bc bd5a dd3b 98af 39bb 8ca4 e8bd
00000360: 9549 073d b6e8 b3bd 741c 17bb 59b0 81bd
00000370: 279f 6d3d 984e c2bc 4774 acbc a572 8abb
00000380: 2350 d8bc 7fde d3bd 4392 5a3d d6b3 4cbb
00000390: 062b 9abd 0665 2ebd 9030 afbd df02 4c3d
000003a0: b75e b8bd 7f55 873c e8a0 d43c 2f6b 57bc
000003b0: 7f91 003d 5e85 86bd f78d 413b 24ea 003c
000003c0: 9aac 203d 3b77 74bd 2cff 5cbd 4b4f 873d
000003d0: 372e 91bc 9d1c ee3c d6a3 e6bd 6b64 c0bd
000003e0: d54b c73c 3df0 6c3d 75ee bfbc 032b c1bd
000003f0: 9559 ebbd 91b1 23bd c4f2 dd3c 86eb f33c

linearSequential.2.bias f4 [64]
-0.048101373 -0.08225833 0.09768794 -0.026390368 0.11807364 -0.07805179 -0.021739272 0.03260216
-0.060060304 0.038167894 -0.018265733 -0.10383057 -0.12583147 -0.044613022 -0.070574746 0.0060014497
0.029456122 -0.0829171 -0.010342604 -0.113810815 -0.090631075 -0.06592417 -0.039534315 -0.019651854
-0.123701066 0.035746913 0.022260154 0.003787555 -0.02323826 0.053445455 0.04220824 0.034528404
0.018075408 -0.032346535 0.02811464 -0.068553865 0.01531492 0.051023148 0.055025373 0.043584127
-0.12996423 0.019596348 0.06395031 0.03291435 0.0007964571 0.046351857 -0.124469735 0.03555731
-0.07812335 -0.069430456 0.023131443 0.0034388027 -0.06799105 0.041170336 0.06556701 -0.070602156
-0.016427452 -0.07189193 -0.06452958 0.029079538 0.025734317 -0.05732779 0.01400483 -0.018151062
00000000: f205 45bd 0e77 a8bd 9d10 c83d 9d30 d8bc
00000010: 98d0 f13d 9ed9 9fbd 8f16 b2bc d889 053d
00000020: cb01 76bd f055 1c3d 05a2 95bc 1fa5 d4bd
00000030: f7d9 00be 25bc 36bd 7e89 90bd cfa7 c43b
00000040: f74d f13c 71d0 a9bd 0674 29bc a515 e9bd
00000050: c99c b9bd 4003 87bd bcee 21bd edfc a0bc
00000060: fc56 fdbd 5b6b 123d ed5a b63c a138 783b
00000070: 2a5e bebc 9fe9 5a3d 8ce2 2c3d a86d 0d3d
00000080: e112 943c cd7d 04bd ac50 e63c f865 8cbd
00000090: 6eeb 7a3c a6fd 503d 4962 613d 4585 323d
000000a0: 5815 05be 8588 a03c 61f8 823d 33d1 063d
000000b0: 55c9 503a 72db 3d3d fde9 febd 8ba4 113d
000000c0: 23ff 9fbd 8e31 8ebd 277e bd3c 895d 613b
000000d0: e43e 8bbd 3aa2 283d ff47 863d dd97 90bd
000000e0: dd92 86bc 143c 93bd 1628 84bd 3638 ee3c
000000f0: c6d0 d23c 8bd0 6abd 8474 653c 89b1 94bc

linearSequential.4.weight f4 [32, 64]
-0.03167109 0.033616282 -0.1393521 -0.042486534 -0.05937831 0.054288942 -0.08266591 -0.068241335
0.07599292 -0.040679313 -0.09308258 -0.092888445 -0.10617362 -0.13071519 -0.072705746 0.06968154
-0.057550337 -0.007054325 0.024010578 0.016340068 0.0014838686 0.09548749 0.051634252 -0.08607281
-0.03131272 -0.021288995 0.068018 0.10309932 -0.022094043 0.08324337 0.13113339 0.042854346
-0.04851359 -0.0050980514 -0.030230355 0.070122235 -0.120603696 -0.11314103 0.10995834 0.018855596
0.008283911 -0.0554463 -0.06416773 -0.02836823 0.026462177 0.07637224 0.008133441 -0.09565809
-0.052220736 -0.04545842 0.0726464 0.042314883 0.024744779 -0.031526078 -0.096124604 -0.008450959
-0.04192307 0.041445166 -0.06857222 -0.035754777 -0.08636402 -0.035131697 -0.0585262 -0.097374626
0.0821513 -0.06976624 -0.14245191 -0.025820987 0.06579 -0.06970573 0.004740509 -0.026220823
0.112558484 0.022252878 -0.03247733 0.027577551 -0.093333855 -0.06938737 -0.03485999 0.04712546
0.1401639 0.07987347 -0.041213945 -0.010703549 -0.048570536 0.060885005 0.10704452 0.009700622
-0.13395762 0.106625825 -0.032910068 0.09773891 -0.0025297399 0.04464094 -0.06632451 0.076775104
0.15054876 0.03966207 0.070411906 0.027286828 -0.08051501 -0.04430836 0.04270866 0.1710833
0.02761745 -0.113982506 0.080491595 0.10460848 0.14238413 0.097034976 -0.07804213 -0.037693847
-0.16770528 -0.016605586 0.10696723 -0.04165749 -0.012641281 0.021698356 0.043579888 -0.07053536
0.1491631 -0.0034169934 0.1364601 0.046458296 0.1068792 0.024688408 0.163209 -0.07868128
0.025081588 0.07941007 0.39732772 0.1534391 0.092025034 -0.11094601 -0.11760729 -0.06554501
-0.052616943 -0.032894798 0.023620427 0.021245256 -0.0032962149 -0.045767445 0.094732 0.13797265
0.05869762 -0.060146183 0.15625848 0.0985201 -0.030174457 -0.07312756 0.0076564364 -0.022067534
0.018051608 -0.053075187 0.038382422 0.06987488 0.083088696 0.117195874 0.029346464 -0.033169765
0.0063709356 -0.0075628296 0.060489908 0.02799888 0.13962539 0.090539455 -0.11430615 0.05147099
-0.20736481 -0.053227484 0.0102897 0.12213909 0.11787945 0.07299952 -0.10038167 0.11620382
0.079811305 -0.002939297 0.1517164 0.006977534 0.059088003 -0.036716208 0.04832425 0.07703755
0.012293834 -0.08364437 0.022824822 -0.14159122 0.110137254 0.1505203 -0.113678865 0.04607373
0.14483757 0.096084654 0.042604074 -0.09174357 -0.15100342 0.06390458 0.08216778 -0.0060369074
0.099246085 0.07948679 -0.07171364 0.09520672 -0.038759634 -0.12452495 -0.027304098 -0.059540167
0.026843831 0.044340637 -0.07601574 0.038900502 0.043463394 0.010753423 -0.05346121 -0.035341263
-0.09761402 -0.043195963 0.023356823 -0.0831642 -0.104783565 -0.022144016 0.10231529 0.05543449
-0.037376955 -0.03987381 0.026095673 0.028659657 0.084716275 -0.29382554 -0.023872169 -0.04184431
0.28611815 0.13847844 0.016190184 0.04689032 0.023215964 -0.4587419 -0.05912347 0.07116637
0.09025108 0.1225006 0.0048319655 0.043575276 0.022271723 0.070333645 0.043318354 -0.1246407
0.003683731 -0.022624522 0.08065182 0.063431025 0.09821811 0.022236258 0.10688442 -0.02851794
00000000: 8bb9 01bd 3ab1 093d 51b2 0ebe 5c06 2ebd
00000010: ac36 73bd 155e 5e3d bf4c a9bd 1dc2 8bbd
00000020: 2da2 9b3d 5a9f 26bd 14a2 bebd 4c3c bebd
00000030: 8e71 d9bd 34da 05be c0e6 94bd 32b5 8e3d
00000040: e7b9 6bbd f827 e7bb d5b1 c43c 9bdb 853c
00000050: 5e7e c23a f28e c33d 707e 533d f146 b0bd
00000060: c441 00bd 4266 aebc 054d 8b3d bc25 d33d
00000070: 91fe b4bc 807b aa3d d547 063e 0a88 2f3d
00000080: 30b6 46bd 8e0d a7bb a6a5 f7bc 3f9c 8f3d
00000090: 12ff f6bd 7cb6 e7bd d731 e13d 0d77 9a3c
000000a0: 3eb9 073c a91b 63bd 5f6a 83bd 7e64 e8bc
000000b0: 35c7 d83c 0d69 9c3d 2042 053c 64e8 c3bd
000000c0: 69e5 55bd 9c32 3abd a3c7 943d 5f52 2d3d
000000d0: 90b5 ca3c 7d21 01bd fadc c4bd e475 0abc
000000e0: 86b7 2bbd 68c2 293d 986f 8cbd 9a73 12bd
000000f0: 9fdf b0bd 41e6 0fbd 2bb9 6fbd 596c c7bd
00000100: f13e a83d 9ae1 8ebd eade 11be 8986 d3bc
00000110: e8bc 863d e1c1 8ebd 4656 9b3b 0dcd d6bc
00000120: 1085 e63d ab4b b63c f306 05bd 51ea e13c
00000130: d225 bfbd f71a 8ebd 59c9 0ebd a006 413d
00000140: 2087 0f3e b494 a33d f4cf 28bd f05d 2fbc
00000150: e6f1 46bd 8e62 793d 283a db3d 5cef 1e3c
00000160: 302c 09be a45e da3d b5cc 06bd 562b c83d
00000170: fec9 25bb 6bd9 363d 25d5 87bd 443c 9d3d
00000180: 7429 1a3e b274 223d 1e34 903d a088 df3c
00000190: 0ee5 a4bd af7c 35bd 47ef 2e3d 7630 2f3e
000001a0: fe3d e23c a96f e9bd c7d8 a43d f93c d63d
000001b0: 25cd 113e 46ba c63d 8dd4 9fbd dd64 1abd
000001c0: efba 2bbe 7008 88bc a311 db3d 0ba1 2abd
000001d0: 601d 4fbc c0c0 b13c d380 323d d874 90bd
000001e0: 36be 183e a3ef 5fbb 32bc 0b3e 0e4b 3e3d
000001f0: 7be3 da3d 583f ca3c 4320 273e a723 a1bd
00000200: e777 cd3c bfa1 a23d 8a6e cb3e 241f 1d3e
00000210: 9f77 bc3d a937 e3bd 17dc f0bd 763c 86bd
00000220: dd84 57bd b2bc 06bd a07f c13c 880a ae3c
00000230: 4f05 58bb a576 3bbd da02 c23d b448 0d3e
00000240: ea6c 703d d85b 76bd 3902 203e e8c4 c93d
00000250: 6c30 f7bc e7c3 95bd d8e2 fa3b f9c6 b4bc
00000260: f7e0 933c 5e65 59bd e336 1d3d 901a 8f3d
00000270: 682a aa3d 6404 f03d ff67 f03c 05dd 07bd
00000280: 48c3 d03b 9dd1 f7bb 44c4 773d e85d e53c
00000290: f5f9 0e3e c06c b93d 5819 eabd 3fd3 523d
000002a0: 7157 54be 1005 5abd 2196 283c 0f24 fa3d
000002b0: c86a f13d c680 953d e894 cdbd 45fc ed3d
000002c0: 1c74 a33d 38a1 40bb 8b5b 1b3e cca3 e43b
000002d0: 4306 723d bc63 16bd a6ef 453d ddc5 9d3d
000002e0: 146c 493c bd4d abbd 1ffb ba3c 4afd 10be
000002f0: a48f e13d fe21 1a3e 77d0 e8bd cfb7 3c3d
00000300: 4d50 143e 08c8 c43d 9c81 2e3d 0ee4 bbbd
00000310: a4a0 1abe 68e0 823d 9547 a83d 40d1 c5bb
00000320: 8841 cb3d f8c9 a23d 9ade 92bd befb c23d
00000330: 6cc2 1ebd f006 ffbd d8ac dfbc 64e0 73bd
00000340: 98e7 db3c 879e 353d 24ae 9bbd 2256 1f3d
00000350: ac06 323d 202f 303c 24fa 5abd 00c2 10bd
00000360: dce9 c7bd 40ee 30bd cf56 bf3c fe51 aabd
00000370: c498 d6bd 5e67 b5bc ae8a d13d 470f 633d
00000380: 9418 19bd b852 23bd 98c6 d53c a8c7 ea3c
00000390: ba7f ad3d 4d70 96be 918f c3bc f064 2bbd
000003a0: 147e 923e 4bcd 0d3e 47a1 843c 1010 403d
000003b0: 682f be3c 38e0 eabe 742b 72bd acbf 913d
000003c0: 8fd5 b83d 98e1 fa3d 7755 9e3b fd7b 323d
000003d0: 3073 b63c 160b 903d 966e 313d a043 ffbd
000003e0: c06a 713b 1057 b9bc c82c a53d 20e8 813d
000003f0: 9426 c93d d028 b63c 38e6 da3d 749e e9bc

linearSequential.4.bias f4 [32]
0.06984059 0.1771165 0.19141938 -0.12118214 -0.127554 -0.021575855 -0.10456257 0.071783945
-0.04276007 0.06060156 0.024081033 -0.0866859 -0.06860703 0.090062976 -0.025523424 0.07525934
-0.009445795 -0.03926436 0.102244854 -0.08914251 -0.023841627 -0.09344764 -0.21450654 -0.12372219
0.07261788 -0.052209187 0.041409083 -0.039356526 -0.15466985 0.12305186 -0.14241712 0.094546296
00000000: 9508 8f3d 075e 353e 7103 443e 582e f8bd
00000010: 849d 02be d9bf b0bc e724 d6bd 7603 933d
00000020: 2f25 2fbd 5739 783d 9645 c53c 6188 b1bd
00000030: d881 8cbd f072 b83d 8016 d1bc 9221 9a3d
00000040: 89c2 1abc aad3 20bd c065 d13d 5990 b6bd
00000050: 844f c3bc 7a61 bfbd 9aa7 5bbe 0f62 fdbd
00000060: afb8 943d 4dd9 55bd 929c 293d 4f34 21bd
00000070: c661 1ebe 9d02 fc3d cbd5 11be 7da1 c13d

linearSequential.6.weight f4 [16, 32]
-0.17023866 0.17199937 -0.049448024 0.14545168 -0.15957658 0.025441695 -0.05905988 0.17332579
0.016660666 0.17481333 -0.19092022 -0.1954574 -0.14249791 -0.1918794 0.068740495 0.1655503
-0.007035196 0.13748325 -0.018838849 -0.01766714 0.056792468 -0.05285556 0.06295864 0.05502343
-0.14208992 0.16655926 0.12760133 0.08527128 0.13644634 -0.10518737 0.049586877 -0.11321696
-0.013851587 0.1250013 -0.028671293 0.0061854897 -0.0065497668 0.036643066 -0.09934973 0.10728851
0.1499742 0.13975196 0.08974386 0.1399541 0.0899597 0.0015267623 -0.15624654 -0.041063346
-0.041174166 0.020123482 -0.24128672 -0.13388208 0.09470388 0.16766663 0.17557485 0.0342075
0.09066683 -0.051130068 -0.12947261 0.006930234 -0.09666237 0.040568523 -0.09983163 -0.0859025
0.10589728 -0.16276707 0.10030074 -0.13203388 -0.15653116 0.017673165 0.13876493 -0.0792812
0.12178753 0.085679695 -0.19743237 -0.050033912 0.06739372 -0.08332944 0.0525828 0.08705883
-0.07254849 -0.010642037 -0.10808243 0.123053916 -0.049697116 -0.09616183 -0.009844616 -0.057085887
0.02466226 -0.12786001 0.031513747 -0.14085512 -0.018061802 -0.058366105 -0.13402146 0.14105834
0.10798373 -0.080676734 -0.16025339 0.031070977 0.08323878 -0.19476618 -0.01621304 0.04302715
0.09046938 -0.10071543 -0.0080312975 -0.06197548 0.12517163 -0.16493405 0.16869499 0.015658155
-0.07131365 -0.037575826 -0.060402274 -0.098633476 -0.20182149 -0.16144525 0.10913704 -0.01466316
-0.07488262 -0.17120622 -0.038966104 0.136189 -0.090606235 -0.101793125 0.06436437 -0.09218827
-0.07561372 -0.0677282 -0.090701856 0.11188802 -0.03603825 -0.16973901 -0.012577102 -0.24298182
-0.105955176 -0.22033966 -0.03175803 -0.08089708 -0.10214881 -0.08080119 0.16346188 -0.15864345
0.09866874 0.003308922 0.0033791214 -0.023915231 -0.074280955 -0.020089045 -0.1754706 -0.06437501
-0.08317234 0.05247374 -0.19518611 0.060815513 -0.087816246 0.113831416 -0.072675705 0.13905537
-0.0929463 0.021580681 -0.106107034 -0.04729551 -0.016723575 -0.023198364 -0.027342213 0.11275874
0.10845626 -0.024997009 -0.11489771 -0.12309339 0.048827484 -0.20637636 0.091789946 -0.010608
-0.09913534 -0.17290099 0.0037714397 0.011362285 0.027615795 0.021817625 0.055796236 0.023242027
-0.040975727 0.14227241 -0.16784954 0.14155915 0.052734338 -0.11618941 0.060208604 -0.03677159
0.008454487 -0.12199074 -0.11539012 -0.06375098 0.09088368 -0.15708482 0.04824025 -0.19330004
-0.040008258 0.13616021 -0.13200347 0.08273014 -0.09457125 -0.10538036 -0.05574298 -0.20208634
-0.057900466 0.025389582 0.12003597 -0.09418111 -0.07473299 0.12484576 0.08505829 0.09261648
-0.17449558 -0.19644958 -0.15179907 0.12473155 -0.20433949 -0.033787575 -0.04379216 0.0250369
-0.17039804 -0.054797783 -0.20939206 0.104475535 0.06864002 -0.030328616 0.13279037 -0.04517907
-0.012355998 0.06854291 -0.24421829 -0.10890798 0.1661952 -0.15368359 0.10157789 -0.15291664
-0.03804879 0.10839702 -0.15376805 -0.11311782 0.07621677 -0.061620228 -0.059440754 0.09477575
-0.07201019 -0.06921543 -0.26103273 0.07047959 -0.05999522 0.118118316 0.13332073 -0.108085
00000000: 0b53 2ebe 9a20 303e 038a 4abd 49f1 143e
00000010: 0b68 23be 1a6b d03c c6e8 71bd 517c 313e
00000020: f37b 883c 4402 333e 9780 43be fc25 48be
00000030: f9ea 11be 097c 44be d1c7 8c3d 0586 293e
00000040: 8087 e6bb 69c8 0c3e ee53 9abc aeba 90bc
00000050: 389f 683d 127f 58bd 76f0 803d 4060 613d
00000060: 0580 11be 838e 2a3e eca9 023e b5a2 ae3d
00000070: 97b8 0b3e 7a6c d7bd 9c1b 4b3d 4bde e7bd
00000080: c4f1 62bc 5700 003e 0fe0 eabc a6af ca3b
00000090: 6d9f d6bb 0a17 163d df77 cbbd 14ba db3d
000000a0: d692 193e 231b 0f3e a1cb b73d 2150 0f3e
000000b0: cb3c b83d a41d c83a 18ff 1fbe 0a32 28bd
000000c0: 3ea6 28bd 00da a43c de13 77be 6218 09be
000000d0: 1cf4 c13d cdb0 2b3e e5c9 333e 2a1d 0c3d
000000e0: 88af b93d c36d 51bd 7894 04be 0417 e33b
000000f0: ecf6 c5bd 2e2b 263d 8774 ccbd a6ed afbd
00000100: ace0 d83d 69ac 26be 796a cd3d e433 07be
00000110: b449 20be 50c7 903c 6518 0e3e 2f5e a2bd
00000120: be6b f93d d678 af3d b62b 4abe 5cf0 4cbd
00000130: b805 8a3d a0a8 aabd 1061 573d e64b b23d
00000140: 4d94 94bd f05b 2ebc 525a ddbd b103 fc3d
00000150: 348f 4bbd 7ef0 c4bd 504b 21bc e4d2 69bd
00000160: 8208 ca3c bced 02be 8f14 013d 533c 10be
00000170: 58f6 93bc 4c11 6fbd ec3c 09be 9971 103e
00000180: 9326 dd3d d839 a5bd 7719 24be 9088 fe3c
00000190: 1879 aa3d c970 47be 36d1 84bc 3d3d 303d
000001a0: 0348 b93d e443 cebd b495 03bc 00da 7dbd
000001b0: fe2c 003e 79e4 28be 61be 2c3e 8845 803c
000001c0: e40c 92bd 1ce9 19bd 6068 77bd 5900 cabd
000001d0: 4baa 4ebe e751 25be 3e83 df3d c03d 70bc
000001e0: 0f5c 99bd af50 2fbe ec9a 1fbd 2175 0b3e
000001f0: c38f b9bd ea78 d0bd 78d1 833d 34cd bcbd
00000200: 5edb 9abd 15b5 8abd e5c1 b9bd 8c25 e53d
00000210: d89c 13bd 10d0 2dbe 3010 4ebc 3ad0 78be
00000220: 07ff d8bd b8a0 61be b514 02bd 5ead a5bd
00000230: 6533 d1bd 187b a5bd 8d62 273e 6e73 22be
00000240: d612 ca3d 80da 583b 4074 5d3b e0e9 c3bc
00000250: 9d20 98bd c891 a4bc 91ae 33be 0cd7 83bd
00000260: 4356 aabd b4ee 563d dede 47be b019 793d
00000270: 01d9 b3bd 7220 e93d 00d7 94bd 8864 0e3e
00000280: a15a bebd f8c9 b03c a54e d9bd f0b8 41bd
00000290: e1ff 88bc 7f0a bebc c7fc dfbc 0eee e63d
000002a0: 511e de3d 87c6 ccbc 7e4f ebbd 6318 fcbd
000002b0: 54ff 473d 5354 53be 5efc bb3d 2dcd 2dbc
000002c0: 7807 cbbd f50c 31be 422a 773b e128 3a3c
000002d0: 853a e23c e0ba b23c 988a 643d 1066 be3c
000002e0: 2ad6 27bd dcaf 113e c0e0 2bbe e2f4 103e
000002f0: f6ff 573d b7f4 edbd 4c9d 763d cf9d 16bd
00000300: b084 0a3c 48d6 f9bd a851 ecbd e08f 82bd
00000310: 3921 ba3d d8da 20be 9297 453d 72f0 45be
00000320: b3df 23bd 956d 0b3e eb2b 07be 6b6e a93d
00000330: 92ae c1bd a8d1 d7bd c052 64bd b9ef 4ebe
00000340: 0a29 6dbd d0fd cf3c 6bd5 f53d 07e2 c0bd
00000350: 9c0d 99bd 22af ff3d 0a33 ae3d b6ad bd3d
00000360: f8ae 32be 142a 49be 3771 1bbe 4173 ff3d
00000370: 5f3e 51be d764 0abd 685f 33bd 2f1a cd3c
00000380: d37c 2ebe a473 60bd df6a 56be 45f7 d53d
00000390: 2493 8c3d b873 f8bc 33fa 073e b00d 39bd
000003a0: d070 4abc 3a60 8c3d 5c14 7abe 260b dfbd
000003b0: 132f 2a3e 3b5f 1dbe 1208 d03d 2e96 1cbe
000003c0: 0cd9 1bbd 42ff dd3d 5f75 1dbe 51aa e7bd
000003d0: 8a17 9c3d 7e65 7cbd 2678 73bd ca19 c23d
000003e0: 147a 93bd d2c0 8dbd 15a6 85be 9a57 903d
000003f0: 8cbd 75bd 04e8 f13d 3b85 083e ab5b ddbd

linearSequential.6.bias f4 [16]
-0.07009938 0.14560421 -0.13532586 0.031946708 -0.23669644 -0.031365328 0.02798496 -0.26619545
-0.36807185 0.021962812 0.125332 0.015351491 0.09857398 -0.13035823 0.13472696 -0.00794643
00000000: 4490 8fbd 4519 153e dd92 0abe 8dda 023d
00000010: 8d60 72be ee78 00bd b740 e53c c54a 88be
00000020: ea73 bcbe 5beb b33c 0857 003e d284 7b3c
00000030: 28e1 c93d a17c 05be ddf5 093e be31 02bc

linearSequential.9.weight f4 [1, 16]
-0.23333146 0.063314624 0.18666434 0.013576611 -0.0070813745 -0.123621635 -0.16246283 -0.13478713
-0.079050414 0.048377477 0.060718667 0.14027445 0.078706175 -0.024351606 0.120675474 0.08548561
00000000: 71ee 6ebe 19ab 813d f024 3f3e 6f70 5e3c
00000010: e00a e8bb 572d fdbd a85c 26be a305 0abe
00000020: 2fe5 a1bd 7627 463d 23b4 783d 1ba4 0f3e
00000030: b430 a13d 057d c7bc b424 f73d 1413 af3d
