nnwf/nets/state_dicts/dataset01.pt (torch, 50963 bytes, 9 tensors)

linearSequential.0.weight f4 [128, 6]
00000000: 9a1c 2ebd 3206 0a3e 44cf 9dbe e359 46be
00000010: 038e f8be 7425 5ebe d9f0 4d3e 41b2 f13e
00000020: d9cd 193e d598 73bd 0674 9d3e 00ed 7f3e
00000030: b6cc 69bb 322f cf3e 5e81 14be c614 31be
00000040: 840b 0b3e 19fb 6d3e a166 b9bd a53c df3e
00000050: f513 543e 5b84 c73d c053 8f3e f427 29be
00000060: d67b b9be bf5c 613c 4238 833e 4ef8 103e
00000070: 14de ea3d c511 39be c06e c43e ab65 523e
00000080: 9616 22be f9de c4be 3995 9b3e 7251 9cbd
00000090: cfb1 f2bd a392 e6bd 439c 21be acad 89be
000000a0: 9520 a33e 458f a3be cfa7 4d3e 18db c03d
000000b0: 2b5d dc3e 76dd d13d c53c 10bf 34bb cd3d
000000c0: feb6 923e 9648 bc3e 9154 2cbe a203 c5be
000000d0: e4f6 8e3e 6787 333e d5b8 b93e 95bd 46be
000000e0: e95b 063d b4b7 dabd 62e2 213e 4ec7 4c3e
000000f0: f704 de3e d002 51be 9767 93be a063 85be
00000100: c64b b13c 63a1 793d b6cf 173e 0c21 e43e
00000110: 0fef 0abd fba7 803e 9d28 c53e a0ec 4bbe
00000120: 561a 8c3d 9607 93be c6be 983e f173 ae3d
00000130: 9fa5 90bc 285e 2f3e 98bf c83d 9b6b bc3d
00000140: a5bf 0a3f 4338 48bd dd1e 10bf d93c 813d
00000150: 7dcc f1bd 252e b93d 589d 24be 1533 1abe
00000160: 3613 b6bc 2c8c 7cbd b3cd 80bd f5dc 7bbe
00000170: 01cd 053e d1a6 44be 9492 cf3c ae00 b6bb
00000180: 07a2 70be 14b7 7fbe 227e a2bd 90e9 383d
00000190: 94f4 133f c474 6d3d 0207 443e b54a 9c3e
000001a0: 18bb 38bd e075 8dbe 424f e7be 9563 843e
000001b0: 094b 9bbe 599c dbbd 787c e1bc 8393 f73d
000001c0: 7bc0 353e 77d8 6d3e be75 80bb eb65 913d
000001d0: 2013 7d3e b75b 553e 0429 70be 94c0 333d
000001e0: 0624 593c e111 bb3d a258 6dbe b0fb 96be
000001f0: 6703 e33e 2875 463e 83c6 0f3e d32e 5ebe
00000200: b53a 16bd d0b2 0f3e 4fe9 7b3c 902c 203e
00000210: b713 f83e 3edb c4be 7363 203e ec28 313d
00000220: bb16 a53d d21c 3c3e b077 8d3e 7b74 653e
00000230: 5ea5 8ebe d1ea a9bd 87c2 a03e 97c4 133c
00000240: b9d0 b93e 6447 cc3d c9a3 05be 1ab4 493e
00000250: 28e1 7a3e bec7 25bd 7d9f 13be cfa7 08be
00000260: d3d0 073c 1a57 9c3d 0e0c 123e 714e 6e3d
00000270: 490c 6abd 1eff 723e ed8d 46be 5b2e ffbc
00000280: 4436 b4be da47 70be 4de3 b33d 8d33 35be
00000290: 928c 093f 24fd a4ba c381 edbe 462a 82bd
000002a0: 1dcb 88bd d25b 1a3d e460 fd3e 6ae6 703d
000002b0: a885 bbbe 1c72 68bd 0503 923e d1ca 853e
000002c0: ea91 06be 014b 59bd 56d5 d93d decb 4e3e
000002d0: e15d 693e 388f 99bc 02a3 a03e d9ab 8abe
000002e0: bc43 9cbe fe89 20be 6f14 5dbe 609d b23e
000002f0: d25d 8abd c882 853b fa3a 093f 47dc 1abe
00000300: f718 a63e 30a0 bbbe e13d 353e 3b31 783e
00000310: 2810 6dbe e2bd 85bd 3ddc 673e 4440 00bf
00000320: a5e0 8dbd 4d09 a63d 3d4f 3c3e cf7e 173e
00000330: 8f08 983e 5962 1a3e 9faa 023b 83b4 5f3d
00000340: ee72 a73d 21ca a4be 56b4 0e3e e1c4 84be
00000350: f761 223e 1c07 e3bb 60f5 b2bc 7f37 1d3e
00000360: 2c65 553e 5cec 8fbe b05b 8fbd 1951 84be
00000370: 5f6a 19bf 3abe 14be 01ed 7dbd 55dd d0bd
00000380: 42ee aa3d 06c3 493e 7c35 ec3d f1e6 a43c
00000390: 5253 6abd a356 51be c8b2 31bf 347d 1f3e
000003a0: 3d88 1ebf e9da ac3e 0e84 793d f050 573d
000003b0: a1dc 373e f1e4 9e3e 1b0d e13d 45b0 eb3d
000003c0: e501 a7bd 75a0 a93d d6e8 e5be cb12 b53e
000003d0: 19c8 40be 4dd0 0fbe 38f1 abbe ca0e c3ba
000003e0: 613c 0fbf 23db 3d3e 9357 f5be 2013 ab3e
000003f0: 1525 853b c787 c03e 9104 043e 2d3b 2f3e
-0.042507745 0.13478926 -0.30822194 -0.19370227 -0.48545846 -0.21693975 0.20111407 0.4720631
0.15019931 -0.059471924 0.3075258 0.24992752 -0.0035674996 0.40465695 -0.14502475 -0.1729308
0.13578612 0.23240317 -0.09052778 0.43600956 0.20710738 0.09742042 0.27993584 -0.16519147
-0.36227292 0.013755023 0.2562886 0.1415722 0.11468139 -0.18073185 0.38365746 0.20546596
-0.15828928 -0.38451365 0.30387285 -0.07632722 -0.118503205 -0.112584375 -0.15782265 -0.26890314
0.31860796 -0.31945243 0.20083545 0.09416789 0.43039832 0.102473184 -0.56342727 0.10045472
0.28655237 0.3677413 -0.16829135 -0.38479334 0.27922738 0.1753212 0.36273828 -0.19408257
0.032802496 -0.1067957 0.15809014 0.19997904 0.43363163 -0.20411229 -0.2878997 -0.2605257
0.021642577 0.060944926 0.14825329 0.44556463 -0.03391939 0.2512816 0.38507548 -0.19914484
0.06840961 -0.28716725 0.2983305 0.08518208 -0.0176571 0.17125762 0.098021686 0.092002116
0.54198676 -0.04888178 -0.56297094 0.06310434 -0.11806581 0.090420045 -0.16075647 -0.15058549
-0.022225957 -0.061657116 -0.06289234 -0.24596007 0.13066484 -0.1920426 0.025338449 -0.0055542802
-0.23499309 -0.24972183 -0.07934214 0.045144618 0.5779507 0.057972685 0.19143298 0.30525747
-0.0451003 -0.27628994 -0.45177656 0.25857225 -0.30330685 -0.1072318 -0.027525172 0.120886825
0.17749207 0.23227106 -0.003920286 0.070995174 0.24714327 0.20835768 -0.23453146 0.04388483
0.013253218 0.091342695 -0.23178342 -0.29488897 0.44338533 0.19380629 0.1404057 -0.2169755
-0.03667708 0.14033055 0.015375449 0.15641999 0.4845254 -0.3844852 0.15662937 0.043251917
0.08060976 0.18370369 0.27630377 0.22407715 -0.2786054 -0.08296741 0.31398413 0.009019039
0.36292055 0.09974554 -0.1305076 0.1969761 0.24499953 -0.040473692 -0.14416309 -0.13345264
0.008289534 0.07633801 0.14262411 0.058180276 -0.057140622 0.23730132 -0.19390078 -0.031150034
-0.3519765 -0.23464909 0.087835886 -0.17695446 0.5373012 -0.0012587649 -0.46388063 -0.06355719
-0.06679366 0.037685223 0.49487984 0.05881349 -0.3662541 -0.05674945 0.2851793 0.261313
-0.131416 -0.053050045 0.10636394 0.20194957 0.22789718 -0.01874505 0.31374365 -0.27084234
-0.30520427 -0.1567764 -0.21589826 0.34885693 -0.06756176 0.004074428 0.53605616 -0.15123092
0.32440922 -0.3664565 0.17699386 0.2423753 -0.23150694 -0.06530358 0.22642608 -0.5009806
-0.06927613 0.08107243 0.18389602 0.14794467 0.2969403 0.15076579 0.0019938124 0.05461551
0.08176218 -0.32185462 0.1393598 -0.25931457 0.15857683 -0.0069283377 -0.02184552 0.15353201
0.20839375 -0.28110015 -0.0699991 -0.25843123 -0.59927934 -0.1452569 -0.061993603 -0.10198466
0.08346225 0.19703302 0.11533639 0.020129653 -0.057208367 -0.20443206 -0.69413424 0.15575105
-0.61926633 0.33760765 0.060916953 0.052567422 0.17955257 0.31034043 0.10988828 0.1150823
-0.08154658 0.08282558 -0.44904202 0.353659 -0.18826331 -0.14044304 -0.33582473 -0.0014881727
-0.55951506 0.18540625 -0.47918376 0.3341303 0.0040632584 0.3760359 0.12892367 0.17112418

linearSequential.0.bias f4 [128]
00000000: 6b16 42bd c48c 1bbe a428 e8be a99b 76bc
00000010: fef9 11bf d408 b93d 46ea 42be 1a71 e8bd
00000020: 4922 773e d610 443c b17f d1be 8563 c2be
00000030: d323 38bf 1d46 6fbe 7d35 c2be 6cd4 80be
00000040: 5b34 9f3e 31e2 f0be c359 a1be f979 3ebe
00000050: bfa2 fabc dc45 0cbe c799 e9be c3e1 0dbe
00000060: a8ab 8f3d 737b 153d 60b7 17be 168e e6be
00000070: ef9e dcbe 63d5 b5bd f276 1c3e 9a8a 443e
00000080: 6b13 14be 122a 483e 1c79 febe 7d76 0fbf
00000090: 6141 073e ebce 68be 62f5 a9bd 66c9 2e3d
000000a0: 212f b7be 2767 b9be ff9e 1f3e da39 743e
000000b0: 2b89 cdbe 6f11 263e 6322 1abf 69ed b83d
000000c0: 4078 abbc 4774 aebe 320d d4be e9e9 283c
000000d0: b522 d3bd 71f5 c13e f37e 593c f7c1 aabe
000000e0: b159 81be c07c 62bd 5019 36be 39ac 26bd
000000f0: 72cb d6be 57d4 edbe 8ebc 153e aa70 7abe
00000100: c867 23be 5623 87be c4c9 e9be 5314 98be
00000110: e428 40be 0632 26bd 6fa8 fabd 68d5 85be
00000120: 7440 0ebe 2f6e a3be 64af 85be ec03 d13d
00000130: 6437 e93d 503f 07bf 01e3 3c3e 1840 14bf
00000140: 0443 a7bc 133d ddbe d92a 18bf 576b a0be
00000150: debc 14bd 1eaa e5be fe18 99be d1bd 8fbe
00000160: 3c2c 0bbf ba59 0fbd 663f 45be c3a3 10bf
00000170: 89dd 2abe 84ee 84be 0c39 abbe 5b05 07bf
00000180: 59d0 cdbe 5b7a 703e 6377 89be b5b5 0d3d
00000190: 2a20 a9be 1050 c0be 279b e3be 2c2a 03bf
000001a0: d0c6 c7be 0766 2fbe d07b 3cbe a980 883e
000001b0: eb1b e3be 243d 09bf 3f8c 87be d27f 72be
000001c0: e094 86be 5a92 a7bc 8e82 083e 6641 0cbe
000001d0: f1df 1d3e 6ab3 ebbe 2824 cbbd 8a98 9e3d
000001e0: 923f 843e ebbe b23d e3c5 4d3e 3c3d 013d
000001f0: 3a80 5b3e 08a4 4bbe 6499 023e 8b95 a3be
-0.04738466 -0.15190417 -0.45343506 -0.015051761 -0.5702208 0.09034887 -0.1903468 -0.113496974
0.24134172 0.011966905 -0.40917733 -0.37966552 -0.71929663 -0.2336659 -0.37931433 -0.25162065
0.31094632 -0.4704757 -0.31513795 -0.18601216 -0.030595182 -0.13698524 -0.45625135 -0.13855653
0.07015163 0.036494683 -0.14816046 -0.45030278 -0.43090007 -0.08878591 0.15279749 0.19193497
-0.14460532 0.19547299 -0.49701774 -0.56040174 0.13208534 -0.22735183 -0.08298756 0.042672537
-0.35778144 -0.36211511 0.15587996 0.23850194 -0.40143713 0.16217588 -0.6020872 0.090296574
-0.020931363 -0.34073088 -0.41416317 0.010309675 -0.10309354 0.3788257 0.013274896 -0.33351108
-0.25263742 -0.055294752 -0.17783093 -0.040691588 -0.4195209 -0.46451065 0.14622709 -0.2445704
-0.15957558 -0.26394147 -0.45661747 -0.29703006 -0.18765599 -0.04057505 -0.122391574 -0.2613938
-0.13891774 -0.3192 -0.26110375 0.10205826 0.11387518 -0.5283098 0.1844597 -0.579103
-0.020417698 -0.43210658 -0.5944038 -0.31331894 -0.03631293 -0.44856352 -0.2990188 -0.28074506
-0.5436437 -0.03499768 -0.19262466 -0.5649988 -0.16686071 -0.25963223 -0.3344196 -0.52742547
-0.4019802 0.23484175 -0.26848897 0.034597117 -0.33032352 -0.37561083 -0.4445431 -0.51236224
-0.3901887 -0.17128764 -0.18406606 0.2666066 -0.44357237 -0.5360892 -0.26474187 -0.23681572
-0.26285458 -0.020455528 0.13331053 -0.13696823 0.15417458 -0.4603532 -0.09919006 0.07743938
0.2582975 0.08727821 0.20095019 0.03155254 0.21435633 -0.19886792 0.12753826 -0.3195003

linearSequential.2.weight f4 [64, 128]
00000000: 53ee 023d 803e 2bbb 1c96 07bd 2eea f33c
00000010: 4b69 533d bda6 d23c 70bc f4bd 6ef0 873c
00000020: 1b46 afbd 009c a93c f1ab b43c 8f54 d4bd
00000030: ffb0 da3c 6d97 89bd b408 a8bc 0064 07b9
00000040: a131 dbbd a9b1 9b3d c43b 1cbc 62c7 963c
00000050: 88d1 cebd c4a8 653d d629 283d e859 acbd
00000060: a472 a9bd 8985 fb3c 5a87 b7bd f840 81bd
00000070: 763c efbd 5105 c1bd 62ef 5cbd 30ad cc3c
00000080: e15f c1bd ed28 b4bb 645f cebd 2914 adbd
00000090: 59c8 b93c 4fc3 84bd 930f f8bc cdd1 743c
000000a0: d959 30bd b6df 09bd 6495 b5bd 563a bfbc
000000b0: abaf 0cbd 70df 6a3d 67f0 1f3d c98f d73c
000000c0: 915d 22bd 7dcf a83d 9952 9a3d 1fe2 69bd
000000d0: d038 663d 60be 81bd 04c0 163d bb73 9e3d
000000e0: 6f59 183c 4e5a e2bd 8d2c 93bd b59b 99bd
000000f0: ea93 3e3d 56c4 053d 605d c43b a1b6 da3c
00000100: 3744 f0bd 977c 21bd 4c68 623d a27d 7e3d
00000110: 8119 fc3c 3eed 3b3d 880f 2b3a 5766 b0bd
00000120: a210 a3bd f2a9 e83c 15fd c1bc b8c7 e7bd
00000130: f69e a7bd dc37 23bc dd58 13bd 18f7 52bc
00000140: bacb a3bd 1ead 7abd 3b40 8abd 06e9 6bbc
00000150: 7d8a 143d 84f7 8ebd 2cfd ecbc 0a49 91bd
00000160: 21cc 62bd 7f7e 9cba c6c3 303d 3c3c ef3b
00000170: a438 afba e7c5 6e3c 7581 943c 6d9d 6bbd
00000180: 1e77 1ebd 692f 0ebd 9dfd 64bd 23af d8bd
00000190: a6a4 593d d148 6cbd c05d b1bd 7d7b 8f3d
000001a0: b597 ad3b cdfd 073d d872 e4bd 20a7 2f3d
000001b0: f763 f1bd b817 f4bd ac2b 13bd 0a2e 73bd
000001c0: a012 51bc ecad 7dbd 83a5 9bbd 3719 adbc
000001d0: 5cea 923c 6c05 3f3b 0e02 c03c 80fc 8b3b
000001e0: 7643 3ebd ea59 7cba 88cc 583d a02c fcbc
000001f0: 317e 723b d084 a8bd 8ccf 9dbd bcd2 d13c
00000200: 8e3d 833d 3879 7abd c537 b7bc 1136 003c
00000210: b2ab 7a3b 78dd 92bd b403 b0bd ef1a 623c
00000220: 88cf 2bbd 9e99 5c3d 187c 45bc 44b9 ec3c
00000230: e600 333d 6ac7 2c3d 2ba7 9d3d c514 b2bd
00000240: 2746 e6bc 480d a03c 055b 1ebd 4093 43bd
00000250: 075b 49bd 5647 0ebd 1ccf 1a3d 13e7 1bbd
00000260: 0514 543d 9557 f539 f965 8d3d bdf7 e7bc
00000270: 1d28 c23d 704a d3b9 1259 2e3d e9eb 91bd
00000280: b95a 85bd f91e 9cbd 0ea6 983c d0d4 4bbc
00000290: c53d b2bc ab8e b83d ad6d af3d 1fc3 8bbd
000002a0: 6ac3 2bbc 5037 ccbc 6b62 62bd f370 bd3c
000002b0: 1a6a 65bd 2f30 82bd c9d0 453c ab0c d1bc
000002c0: 3805 b6ba 6c4c a7bc e8dc 7abc f3f7 80bc
000002d0: fced 94bc 3df7 363d d7df bb3c d190 98bd
000002e0: aab7 96bd 48b3 86bd 1e72 bdbd 9862 d3bd
000002f0: 002d 323c b021 3bbb 7a31 2b3c b4b6 acbd
00000300: 85b6 73bd 7d19 fd3c 53bf e73c 40d3 d1bd
00000310: c66b 493d c913 a13d 840d 263d a56d 6e3d
00000320: 06da 383d 3c87 073d 12cb 193a cce4 8abd
00000330: f088 643c 706e a5bd 72eb 2ebd ea64 bebd
00000340: 3656 2fbd 6e33 bb3c 160f 6e3d 248a 473c
00000350: 2746 75bc 8ee0 1cbd 6965 f3bd 419b e63c
00000360: b0a5 cbbb e05f babc f273 833d 68fa 11bd
00000370: fbc0 25bc 324b 3fbd 23bb 703d 2ade 8fba
00000380: 4bcf 48bd e29b 88bd 081c 203d e1ce 81bc
00000390: c626 bebd 240e 4e3d f075 d8bc c413 1d3d
000003a0: cb38 ca3c 565f 8ebc ac72 a7bd 5d0e edbc
000003b0: 72af 0c3c 0a4c ad3c 3371 5dbb c50a a9bc
000003c0: 18c9 21bc e727 98bd efb2 ec3c 588a 6fbd
000003d0: 9592 86bd 66e3 b1bd 4a61 a0bd 8d62 48bd
000003e0: 1f3b 0b3d 901b 88bd 019f 38bd fc3b 54bd
000003f0: 6a6a afbd 26a3 533d 4ea7 bbbd 8866 03bd
0.031965565 -0.0026129782 -0.03310214 0.029774752 0.051614087 0.025714273 -0.11950004 0.016594138
-0.085582934 0.02070427 0.022054644 -0.10367691 0.026695726 -0.06718335 -0.020511962 -0.00012911856
-0.10702825 0.07602245 -0.009535734 0.01840562 -0.10098559 0.05606915 0.041055523 -0.08415586
-0.08273819 0.030703323 -0.08961363 -0.0631122 -0.11681454 -0.09424842 -0.05393923 0.024984926
-0.094421156 -0.005498043 -0.10076788 -0.08451111 0.022678541 -0.06482565 -0.030280864 0.0149425985
-0.043054435 -0.033660613 -0.088663846 -0.023343246 -0.034347218 0.057341993 0.039047625 0.02631368
-0.039640013 0.082427 0.075352855 -0.05710041 0.056206524 -0.06335139 0.036804214 0.077369176
0.009298666 -0.110523805 -0.07186232 -0.07500402 0.04652778 0.032657944 0.0059925765 0.026698412
-0.11731761 -0.03942546 0.055275247 0.06213153 0.03077388 0.04588055 0.00065254467 -0.0861327
-0.07962157 0.028401349 -0.02368025 -0.1131739 -0.08184616 -0.009962048 -0.03597342 -0.012876295
-0.07997842 -0.061200254 -0.06750532 -0.014398819 0.036264885 -0.069808036 -0.028929316 -0.07094009
-0.055370454 -0.0011939554 0.043155454 0.0073008817 -0.0013368321 0.014573551 0.018128136 -0.05752318
-0.038687818 -0.034713183 -0.055905927 -0.1058028 0.053135537 -0.05768663 -0.086604595 0.070059754
0.005297626 0.033201028 -0.11154717 0.042883992 -0.11786645 -0.119185865 -0.03593032 -0.05937008
-0.012760788 -0.061933443 -0.07599928 -0.021130187 0.017934017 0.0029147519 0.02343848 0.0042720437
-0.046451055 -0.00096264353 0.05292943 -0.030782998 0.0037001485 -0.08228457 -0.07705602 0.025613181
0.06408225 -0.06115076 -0.02236546 0.00782539 0.003824931 -0.07171148 -0.08594456 0.013800367
-0.041945964 0.05385744 -0.012053512 0.028896935 0.04370203 0.042182364 0.076979004 -0.08695368
-0.028109623 0.019537583 -0.03866102 -0.04774785 -0.049159076 -0.034736 0.03779517 -0.038062166
0.051776905 0.00046795295 0.06904215 -0.028316373 0.09480307 -0.00040300516 0.042565413 -0.071250744
-0.065114446 -0.07623095 0.018633869 -0.012440875 -0.02175797 0.09011587 0.08565841 -0.06824326
-0.010483602 -0.024928719 -0.05526964 0.023125147 -0.05600939 -0.063568465 0.012073704 -0.025518736
-0.0013887053 -0.020422183 -0.015311457 -0.015743231 -0.018179886 0.04466938 0.022933884 -0.074494965
-0.0735925 -0.06577164 -0.09250282 -0.1032154 0.010874987 -0.0028554015 0.010448808 -0.08433285
-0.059500236 0.030895943 0.028289473 -0.10245371 0.049175046 0.07865102 0.040540233 0.058210034
0.0451298 0.033087954 0.00058667467 -0.06781921 0.013948664 -0.08077705 -0.042705007 -0.092965916
-0.042806827 0.022851672 0.058119856 0.012178931 -0.014970339 -0.03830009 -0.11884577 0.028150203
-0.00621482 -0.022750795 0.06418599 -0.035639197 -0.010116811 -0.04670257 0.058772217 -0.0010976244
-0.049025815 -0.06670357 0.039089233 -0.015845718 -0.09284739 0.050306454 -0.026423424 0.038348928
0.024685284 -0.017379444 -0.08176169 -0.028937513 0.008586751 0.021154422 -0.0033789396 -0.020635018
-0.009874605 -0.07429486 0.028893916 -0.058481544 -0.06570927 -0.08685951 -0.078310564 -0.04892211
0.03399193 -0.06645882 -0.045073513 -0.051815018 -0.08565219 0.051669262 -0.0916277 -0.032080203

linearSequential.2.bias f4 [64]
00000000: 5451 073d e048 87bd 32a3 7bbd 1be0 423c
00000010: 6d2c 383d f0f6 ca3c 7594 e4bd 775e f03c
00000020: bf9b 20bd 1072 b2bd ff86 94bd a7bf 9ebd
00000030: fcfd db3c 65ca 543d b900 c0bd 9981 33be
00000040: 6198 8dbd 26b9 b6bd a44f 09be cf0d 7b3d
00000050: 2957 87bd 7c78 bbbd c5f5 fcbd e651 493d
00000060: ce16 833d 25d1 c0bb 7b45 393d 55b8 54bd
00000070: 7d89 ac3d 9388 c3bd 29b9 eabd e0e6 bcbd
00000080: a7be d3bc 9731 cabd efbf 35bb a37c 8a3c
00000090: 5bd3 cd3c 16b1 f73d 7a9d b63c 7457 3e3d
000000a0: 7d81 b4bd 7a7b 993c 39cf 443d 0fb9 cebd
000000b0: 1c55 dcbd 8a97 8dbd 2093 e2bd 5612 debd
000000c0: b929 903b b167 3d3d fe1d b63d 36bc cebd
000000d0: 5cf5 e8bd 6254 423c cdb1 3abd 159a 6fbd
000000e0: e22d 32bd e8c5 9fbd cea8 8ebd 3d8f a1bd
000000f0: de39 073b ab72 60bd a193 e7bd 7fd9 183d
0.033036545 -0.06605697 -0.061434932 0.011894251 0.044964243 0.024775952 -0.111611284 0.02934192
-0.03921103 -0.08713162 -0.07252311 -0.077513985 0.026854508 0.05195083 -0.09375138 -0.17529906
-0.069138296 -0.08922033 -0.13409287 0.061292466 -0.06608421 -0.0915384 -0.12351564 0.04915037
0.06400834 -0.005884307 0.045232277 -0.051933605 0.08424661 -0.09547534 -0.11461098 -0.092237234
-0.025847746 -0.0987274 -0.002773281 0.016905135 0.025125196 0.12094323 0.022291888 0.04647012
-0.088137604 0.018735636 0.048049185 -0.10093891 -0.10758421 -0.069136694 -0.11063218 -0.10843341
0.004399505 0.046241466 0.08892439 -0.10094492 -0.113749236 0.011860939 -0.04557972 -0.058496553
-0.04350079 -0.078014195 -0.06965791 -0.07888649 0.0020633857 -0.054796856 -0.11307455 0.037316795

linearSequential.4.weight f4 [32, 64]
00000000: 0456 7abd 8b26 53bd d87d 0c3c f560 463c
00000010: 63f4 af3d b645 7c3a d7c9 a23d 9c66 4c3d
00000020: 47cd c0bd b3a5 fbbd 2d18 d9bd b259 14bc
00000030: 7414 48be 0c7a 18be 7593 d7bd 5b28 f5bb
00000040: 30fd a53d 0275 4dbd d757 02bd 45ea f5bd
00000050: dc45 ccbe 7bc7 45be 1515 f1bd 4b58 2fbd
00000060: 07d0 b7bd f301 f8bc 73c3 23bd b3f0 78bd
00000070: 995c 0c3d 260f 3cbd a066 77be e008 bdbc
00000080: ef07 0bbe 60ce 553d 28fd 02be 03b7 c4bd
00000090: 99c1 0ebd 7bae 22be 91ae 1a3d cb12 72be
000000a0: 0481 80be 70c2 0ebe 8394 eabd 201d 163c
000000b0: 311b 1abe 2e54 eb3d 005a 903b c622 1d3d
000000c0: 4899 59bd 35f4 fdba 20a4 88be e40e 28be
000000d0: ac90 95bd 6f63 e3bd c7c4 273c 04d7 bc3d
000000e0: 8696 ec3b 40b6 0abd 5ba6 ba3d 1927 d93b
000000f0: 112e dd3c b8b8 3ebe 1e84 403d 6a9f 1abd
00000100: bfc6 b1bc 1bc4 1a3d bb71 b73d 3b10 7b3c
00000110: cdb9 afbc 37fa e1ba 838e 033d 08e3 32bd
00000120: 2993 8a3c d4ea 78bd c18f 8bbc 86b5 15be
00000130: 2874 e7bd ace2 93bd 1772 34bd f431 ad3d
00000140: cd26 b93c 2df7 213d 675c 61bd 0db1 863d
00000150: 1097 0fbd 4357 0bbe d2fb 273d 868a e93d
00000160: 598c 4abc 4c26 cdbc 140b b13c 8c36 0fbe
00000170: 7abf cf3c 84fc ba3d 6e06 09be 7710 a0bc
00000180: bf43 c7bc 1290 a5bd b27a 76bc 30a1 6a3d
00000190: f84e d0bc ca1f b6bd f4d2 8dbd d2fa 5ebd
000001a0: de49 e7bd 928a d6bd 82b6 c3bc cabf 19bd
000001b0: 28b4 a1bd 9ccd 603d b42f 6cbd 1ff6 253c
000001c0: 93aa cfbc cde7 25bc 8ac1 11be 79d2 0abd
000001d0: ef50 4f3d f031 01be 7cf5 bcbd 2885 87bd
000001e0: dd63 c1bd ebf6 02be 5a6f ad3d 9a4d 90bd
000001f0: 31eb 9b3d 17fa ef3d d792 a6bd c6f4 9d3d
00000200: c091 403b 5c36 773d eecd abbd 849d 3e3d
00000210: b03d 65bd c756 36bd 568f 983d 3077 c0bc
00000220: e6fb d33d 20da 3dbc 02ad a3bc 000d 1cbd
00000230: c456 edbc b795 1fbd 96b4 a2bd b3e5 dcbb
00000240: 2ad7 d4bd 5078 693d b34d bc3d 8cf6 e1bd
00000250: 1b78 babd a7ee 17be 1379 a7bd 36b3 ba3d
00000260: af07 d83d 6af1 cd3d c886 9dbc 128e bd3d
00000270: 31a2 debd c4f2 473d 59ce c23c 6824 e53d
00000280: c496 423d ee59 e53d f93e f6bd 4242 dc3d
00000290: 02ea e2bd 208d 95bd 8c26 873d 2c68 d8bd
000002a0: dcd6 e83d 1ee4 05bd f50a ffbd 6c96 8ebd
000002b0: 1831 d33d 7aad fdbd a8b1 993c 5334 98bd
000002c0: 92ad d6bd f0f9 6b3d ff9c b3bd 4c24 123c
000002d0: e433 c23d 01f7 0abe d78c 023e fe14 d6bd
000002e0: 69d3 5cbd 56a3 d13c 8843 14bd 7480 cfbd
000002f0: f97d 4cbd 99c1 bbbd c872 a13d b9a8 52bd
00000300: 10b5 d93c 8427 df3d a43d 343e 70c0 47bc
00000310: 0ee4 923d 0c41 543d 10f1 d4bd 367b d8bd
00000320: 6c41 4bbd b430 64bd 873f c1bd 2b69 0dbe
00000330: 48a5 4bbe b40d 88bd a87c ac3d 60a6 45bc
00000340: a04b d63d 98c9 e13d 66d8 913d 4e7b 86bd
00000350: d94e a43d bf5f babe e5ac 13be 8fe7 b3bd
00000360: 6a9d 7bbe e284 94bd 40ed b1bb aafb a63b
00000370: 9e85 64bd 300e 193c 64ab 91be f2c2 17bb
00000380: 342f b93d 28f1 0fbd c767 12bc 9e76 eebd
00000390: a0d8 233c 73f4 213e f493 c6bd 4f7f 27be
000003a0: 007a dcbd 1ced 34be a05f 373e d839 a0bd
000003b0: 001f 25ba 22f0 80be a67b e4bd 8f06 183e
000003c0: fccf aebd 2cc4 6bbd f63b 14be 20fc 8fbe
000003d0: 605e 493d ba24 a3bd a82a c4bd 2ab9 863d
000003e0: 1c41 05be a01e 043d 108e aa3c 9691 e33d
000003f0: 128d 44be 8c4d fc3d 9081 bc3d 50a0 ccbc
-0.061117187 -0.05155043 0.008574925 0.012108077 0.08591535 0.0009623425 0.07948654 0.049902543
-0.094141535 -0.12287464 -0.10600314 -0.009054588 -0.19539052 -0.14890307 -0.10526172 -0.0074816174
0.08104932 -0.050160415 -0.03182205 -0.12007574 -0.39897048 -0.19314377 -0.11771599 -0.042808812
-0.08975225 -0.030274367 -0.039981317 -0.060776424 0.034267996 -0.045912884 -0.24160242 -0.023075521
-0.13577245 0.052198768 -0.12791884 -0.09605219 -0.034852598 -0.15886872 0.037764136 -0.23639981
-0.2509843 -0.1394136 -0.114541076 0.009162217 -0.15049435 0.114906654 0.00440526 0.03836324
-0.053124696 -0.0019375148 -0.26687717 -0.1641193 -0.073029846 -0.1110295 0.0102397865 0.092206985
0.007220092 -0.033865213 0.09113761 0.0066269753 0.026999505 -0.18625152 0.047000997 -0.037749685
-0.021701215 0.037784677 0.08957239 0.015323694 -0.021450901 -0.0017240708 0.03211833 -0.043673545
0.016915875 -0.060770825 -0.01703632 -0.14620027 -0.11301452 -0.072209686 -0.044054117 0.084567934
0.02260151 0.039542366 -0.055019762 0.065767385 -0.035056174 -0.13607506 0.04101164 0.114033744
-0.012362563 -0.025042675 0.021611728 -0.13985652 0.025359858 0.09130195 -0.13381359 -0.019539101
-0.024324296 -0.0808412 -0.015043901 0.057282627 -0.02542828 -0.08892782 -0.06925002 -0.05443842
-0.11293386 -0.10475649 -0.023890737 -0.03753642 -0.0789569 0.054883584 -0.05766268 0.010129481
-0.02534989 -0.010126066 -0.14233986 -0.03389213 0.050614294 -0.12616706 -0.0922651 -0.066171944
-0.094428755 -0.12789504 0.08468504 -0.07046051 0.076132186 0.11717623 -0.08133476 0.077127025
0.0029383749 0.060354576 -0.08388887 0.046536937 -0.055967033 -0.04451635 0.07449214 -0.023494333
0.1035078 -0.01158765 -0.019979957 -0.038098335 -0.028972037 -0.03896114 -0.079446 -0.0067412495
-0.10392602 0.056999505 0.091945074 -0.11033353 -0.091049396 -0.14837132 -0.0817739 0.09116213
0.105483405 0.10055812 -0.019229308 0.092556134 -0.10870779 0.048815504 0.023780035 0.111885846
0.047507063 0.11198793 -0.1202373 0.10754825 -0.1107979 -0.07302308 0.06599149 -0.10566744
0.11369106 -0.032688253 -0.12453262 -0.069622844 0.10312098 -0.12386604 0.01876147 -0.07431855
-0.10482325 0.057611406 -0.08770179 0.008919787 0.094825536 -0.13570787 0.12749039 -0.10453223
-0.053912554 0.02559058 -0.036197215 -0.10131922 -0.049924824 -0.09167785 0.07883221 -0.051430438
0.026575595 0.10896209 0.17601639 -0.012191877 0.07172404 0.051819846 -0.103975415 -0.105703756
-0.049622938 -0.05571051 -0.09435945 -0.1380965 -0.19887269 -0.06643239 0.08422214 -0.012063593
0.10463643 0.11024779 0.07121353 -0.06566487 0.080228515 -0.36401173 -0.14421423 -0.08784401
-0.24571767 -0.07251908 -0.0054298937 0.0050959187 -0.05579149 0.0093417615 -0.28451073 -0.0023156968
0.090422064 -0.035142094 -0.008935875 -0.11643718 0.010000378 0.15815906 -0.096961886 -0.16357158
-0.10765457 -0.17668575 0.17907572 -0.07823533 -0.000629887 -0.25183207 -0.111563966 0.14846252
-0.085357636 -0.05756013 -0.14475998 -0.28122044 0.04916227 -0.079659894 -0.095784485 0.06578286
-0.13013119 0.03225577 0.020819694 0.11111753 -0.19194439 0.123194784 0.092043996 -0.024978787

linearSequential.4.bias f4 [32]
00000000: 2fdc ed3c c001 ba3b a08e 8cbd 9ed1 bfba
00000010: d6f2 f7bd 02fa 0d3d c175 ba3b 9441 fa3d
00000020: 3e62 a8bd dc67 9dbd a601 17be c6d5 51bd
00000030: cc43 bebd ae2e 9b3d 17d6 043d 64ab c0bd
00000040: 29f9 29bd b6b8 943d 5a80 b9bd 0f96 3abd
00000050: a135 af3d c7b1 973d 8493 0cbe 5d65 fdbc
00000060: 0045 6bbd a2d4 38bd 44ba d4bd 4e8d d1bc
00000070: 93fb f0bd 0877 db3d baaa b03c 6015 b5bd
0.029035656 0.005676478 -0.06863141 -0.0014634614 -0.12106864 0.034662254 0.005690307 0.12219539
-0.08221863 -0.07685825 -0.14746723 -0.05122926 -0.09290275 0.07577263 0.032430734 -0.0940769
-0.041497383 0.07261793 -0.09057684 -0.045553263 0.08555151 0.07406955 -0.13728148 -0.030932123
-0.05743885 -0.045124657 -0.1038709 -0.025580075 -0.11766734 0.10716063 0.021565784 -0.088419676

linearSequential.6.weight f4 [16, 32]
00000000: acf3 493d 8651 ae3d 50cf 893c df9b d33b
00000010: 4c33 2ebe bee8 1b3d 020f 19be ccdb aebd
00000020: 9a75 cebd 6165 0b3e ed64 0c3e dc97 2fbe
00000030: 4a83 04be 48fe 22be ada6 733d 9db3 92bd
00000040: 103d 00bd ac8b 18bd 568b 17be 97c4 243e
00000050: f310 09be 052d 223e e4a8 84bd 0423 1cbe
00000060: 7cd4 4f3d b815 d33c 7683 aa3d 0810 dabd
00000070: d393 2fbe 0eb8 46be ea51 5bbe 8c1b 0bbd
00000080: 1bea 40bd e27b 1b3d 3a86 b13d cad6 04be
00000090: 14f2 ad3c 5bb9 d6bc b65a 91bd 0710 823d
000000a0: 4d21 85bd 5c4d 173d 696e 9e3d 9abf e2bd
000000b0: 9b63 cfbd 061a 53be c8c8 57be cb6a 163d
000000c0: 851f 72bd fa6a debc f1c8 2ebd 37cf 633d
000000d0: ea2c a0bd 6b0c 143e c862 ff3d 0987 26bd
000000e0: 8acd e83d 2839 abbd 3fe8 263e 0add f0bd
000000f0: e84e 903d 3799 a4bd 6642 90bd 9e80 cc3d
00000100: 68a4 0fbd 0104 0dbe e84a a03c 5844 893c
00000110: c6cc e43d c79a 8d3d 41c6 a2bd 368d d0bd
00000120: 33e2 1b3e bf4e 223e 00ce 383b dfa3 093e
00000130: 5c78 11bd f020 28bd 0e1c e3bd bf4c 06be
00000140: bbca 06bc 681f 24be 1a74 b33d 03b8 13be
00000150: 4f62 5ebd 3069 55bc 4a2e efbd 1ef6 02be
00000160: 0321 2ebe f01c b8bc 6aba cb3d dba5 2c3e
00000170: 23c1 ef3d 6e1d 66bd 98ae 83bd 388b ddbc
00000180: d06c e83c ce8e 42be ea18 01be 927a 30be
00000190: 782f da3c 27c6 2bbe b095 e1bc b35b fbbd
000001a0: b4f7 4c3e 9e95 ecbd 0fe5 23be 4fc8 173e
000001b0: 7ef8 89bd 8809 0ebe f345 e4ba 0e8a 07be
000001c0: a866 eebd c678 e73d ea67 ec3d 4ca7 3e3d
000001d0: bdea 1f3e d294 c63d 3547 b5bd d0da 11be
000001e0: ca63 833d f5a5 90bd 353c 183e aa86 fa3d
000001f0: 1fd4 f2bd 7abf 973c 0cca 063e 00e0 3bbc
00000200: 9c4e 9fbd 5a2c 4dbc ea15 543e 409b 4ebc
00000210: 32b3 61bd d009 e1bc ad9a 10bc 14ae dc3d
00000220: 12d4 30bd 4826 813d 70a2 c1bc 0da7 90bc
00000230: 06e4 82bd cfbc 483b 4126 7ebd ee7a 66bd
00000240: a2b6 e03d ba43 da3d ff4e b4bd 8f19 6d3c
00000250: d8c1 2fbe 94ea 11bd 4f60 07bc 8c6e 6cbd
00000260: c6ec efbd 1501 493e aacd 8f3d 2956 94bb
00000270: dc6f 26be 5553 723d 61df 8c3d eb96 8fbd
00000280: 8a02 313d 12c3 3ebc bdee b9bd 0b43 8dbe
00000290: 3f57 19be ad51 54be 2ddc efbd ca9a cb3d
000002a0: 1dfc 76bd d105 033e 126c 18be 9c50 45be
000002b0: 0c48 18be 25cf 37bd 3eef 91bd 58e5 96bd
000002c0: d456 253d 4cd6 073d 8db2 c53d b68a ef3b
000002d0: c31e 08be bf87 a53d 8ebe b5bc 8046 59bb
000002e0: b5b8 123e 82c2 a9bb 7bec 01be 8942 2f3d
000002f0: db87 1abe 76bb 5b3d 0aa1 0abe 0d6b 99bd
00000300: 55c5 513e 0808 4cbc b2e1 c53d c9db 773e
00000310: a095 83bc e45b 303e a83a 89bd ffe9 05be
00000320: 1bf5 e03d 0904 febd 8604 953d 0a58 8abd
00000330: cb49 003d d848 983d 1e55 03bd 6801 723d
00000340: f333 273e d814 33be e666 113e 00fb 72bd
00000350: 3392 a03d 3429 f6bd 913f 063e 6ba1 283e
00000360: d800 e53c bee0 b93d d8d3 85bd 76cd b03e
00000370: 26d8 d53c 7945 14be b782 b9bd 3ab7 153d
00000380: 52fd 893d 60c6 8abd 93f7 0abe 304e 12bd
00000390: 582e e93c 1005 de3c 5d57 473e f95f f2bd
000003a0: 4029 ad3c 8142 d0bd 0511 c7bd 7d29 1d3e
000003b0: 4f73 acbd 1e1a 10bc 6a5a 0bbe 80b8 05bd
000003c0: edb2 f2bd e066 31bd cdd8 55bb d5df 6bbd
000003d0: 6294 83bd d8b4 183d 2ae4 8ebd ffe6 053e
000003e0: c954 253e a426 473c 0ebb d2bd ac53 11be
000003f0: 80d8 c4bd 3802 ed3d 81c9 023e 2e3b cd3d
0.04930465 0.08511643 0.016822487 0.0064577903 -0.17011756 0.038063757 -0.14947131 -0.08538017
-0.100810245 0.13612892 0.13710375 -0.17147774 -0.12940708 -0.15917313 0.059485126 -0.07163165
-0.031308234 -0.037242576 -0.14799246 0.16090618 -0.13385372 0.15837486 -0.06477526 -0.15247732
0.05073975 0.025767192 0.083258554 -0.10647589 -0.17146234 -0.19406149 -0.21417966 -0.033961818
-0.04709826 0.03795994 0.0866818 -0.1297256 0.021233596 -0.026211431 -0.0709738 0.06350713
-0.06500492 0.03693901 0.07735903 -0.11071701 -0.1012642 -0.20615396 -0.21072686 0.03672294
-0.05911209 -0.02715062 -0.0426721 0.055617537 -0.07821067 0.14457862 0.12470013 -0.040656123
0.113673285 -0.08360511 0.16299532 -0.1176091 0.070463 -0.08037036 -0.070439145 0.09985469
-0.0350689 -0.13771059 0.019566968 0.016756222 0.1117187 0.06914287 -0.0794797 -0.10183184
0.15223007 0.15850352 0.0028198957 0.13441418 -0.035515174 -0.041047037 -0.110893354 -0.13115214
-0.008227046 -0.16027606 0.08762379 -0.14425664 -0.054292973 -0.013025567 -0.11678751 -0.12789199
-0.1700478 -0.022474736 0.09947665 0.16860144 0.1170676 -0.05618041 -0.064297855 -0.027043924
0.028372198 -0.18999788 -0.1260716 -0.17234257 0.026633963 -0.16774808 -0.027537197 -0.122733496
0.20016366 -0.11551975 -0.16005348 0.14822505 -0.06736849 -0.13870823 -0.0017415866 -0.13236257
-0.11640674 0.113023326 0.115432575 0.046546265 0.1561689 0.09696354 -0.08851472 -0.14243627
0.06415518 -0.07062904 0.14866717 0.122327164 -0.11856865 0.01852392 0.13163012 -0.01146698
-0.077786654 -0.012522781 0.20711485 -0.012610257 -0.055102535 -0.0274705 -0.00882594 0.1077539
-0.043170996 0.0630613 -0.023637027 -0.017657781 -0.06391148 0.0030630117 -0.0620482 -0.05626958
0.109723344 0.10657449 -0.0880413 0.014471426 -0.1716379 -0.0356241 -0.008262708 -0.057722613
-0.11715083 0.19629319 0.07021649 -0.0045268727 -0.16253608 0.059161503 0.06878544 -0.07011207
0.043215312 -0.011643188 -0.09078739 -0.27590212 -0.14974688 -0.20734282 -0.11711917 0.09941633
-0.060299028 0.12795188 -0.14884976 -0.19269031 -0.14871234 -0.044875283 -0.0712571 -0.073679626
0.04036601 0.033163354 0.096531965 0.007310237 -0.13292985 0.08082532 -0.02218559 -0.0033153594
0.14328273 -0.005180658 -0.12687866 0.042788062 -0.15090887 0.053645574 -0.13537994 -0.074911214
0.20485432 -0.012453087 0.096621886 0.24204935 -0.016062558 0.17222553 -0.06700641 -0.13077544
0.1098425 -0.124031134 0.072762534 -0.06755073 0.031320374 0.07435769 -0.032063596 0.059083372
0.16328411 -0.1748842 0.14199409 -0.059321404 0.07840385 -0.120195776 0.13110186 0.16467826
0.027954504 0.09076069 -0.065345466 0.34531754 0.026104044 -0.14479627 -0.09058135 0.03655169
0.0673777 -0.06776118 -0.13571005 -0.035719097 0.028464481 0.027102023 0.1946692 -0.118347116
0.021137834 -0.101689346 -0.09720043 0.15347858 -0.08420431 -0.008795289 -0.13608709 -0.032646656
-0.11850534 -0.043311 -0.0032630444 -0.05758651 -0.06424786 0.03728184 -0.069771126 0.130764
0.16145624 0.012155209 -0.10289584 -0.14192075 -0.096116066 0.11572689 0.1277218 0.10021053

linearSequential.6.bias f4 [16]
00000000: dbaa b7bd 993a 6e3b f99e c9bd 655b 42be
00000010: 7bd0 1bbe 4216 fbbb b0b6 9ebe 2d2e 9cbd
00000020: 0dc7 9b3e 4db7 fd3d 023e ffb9 36ce 04be
00000030: 2bcd 503e 4964 113a 51fa 23be 505f 9dbd
-0.08968135 0.0036350845 -0.09844775 -0.18980177 -0.15216248 -0.0076625654 -0.30998755 -0.07625995
0.304253 0.123884775 -0.0004868359 -0.12969288 0.20390765 0.00055462547 -0.16013457 -0.07684195

linearSequential.8.weight f4 [1, 16]
00000000: 0db0 173e 0c53 2cbd 356c 483e ec05 18bc
00000010: 2b9a 3e3c 37e9 13bd 8b50 9f3d 6eda ba3c
00000020: 8758 513e 3dcb fc3d 7cfd 163d ecc8 edbd
00000030: 5357 0e3e f0ca 4dbc fdd3 95bc 14f9 2c3e
0.14813252 -0.042071387 0.19572528 -0.009278756 0.011633436 -0.036111083 0.07779034 0.022809234
0.20443927 0.12343452 0.036862835 -0.116105884 0.13900499 -0.012560591 -0.01828956 0.16891891
