nnwf/nets/state_dicts/dataset01.pt (torch, 50963 bytes, 9 tensors)

linearSequential.0.weight f4 [128, 6]
000000 53 cb 2b bd 3e 1e fc 3e 41 ed d1 be 2e f0 84 3e
       -0.041941952 0.49241823 -0.41001323 0.25964493
000010 f7 cf 7e 3f 50 57 b9 be 2c 92 9e bd f8 8a 56 bf
       0.9953608 -0.36199427 -0.07742724 -0.838058
000020 17 00 d4 be 29 37 39 3d ad 41 cd bf 50 30 60 be
       -0.4140632 0.04521862 -1.6035668 -0.2189343
000030 cc cd 1f 3e c0 ec 5a 3c 8c 92 fb bd c4 31 fe bd
       0.15605849 0.01336211 -0.12283811 -0.12411836
000040 fe b0 a1 be 2c c1 31 3e f1 7c 9a 3e f2 8c 28 3f
       -0.31580347 0.17358845 0.30173448 0.65840065
000050 5e 3f fe bd 15 72 3e 3e 64 6d 43 3f 23 cf d9 be
       -0.1241443 0.18598206 0.7633879 -0.42540845
000060 ea 1f 05 3f 85 7c 9c bd 4e 78 81 3e 3b 65 a5 3e
       0.5200182 -0.07640938 0.25287098 0.32303795
000070 a9 14 26 3e 3d e5 bc 3e 8e b2 8e bd 7c 6b 31 be
       0.16218819 0.36893645 -0.0696765 -0.17326158
000080 24 a9 87 bd d8 16 a5 3e ac 66 e1 bc d9 c7 ca 3c
       -0.06624058 0.3224399 -0.027514778 0.024753498
000090 3e 4b b5 3e 8e 23 cf 3e f8 07 4f 3d c0 f3 3a bd
       0.35408968 0.40456814 0.05054471 -0.045642614
0000a0 3a 20 88 be 8e 08 9c 3e 65 e5 99 bc 8c 04 85 3e
       -0.26587087 0.30475277 -0.018786142 0.25980031
0000b0 99 e4 60 3e 23 53 f2 bc b6 36 bd 3e 52 06 ae be
       0.21962203 -0.029580658 0.36955804 -0.33989197
0000c0 dd 5e 6a be 78 4b bd 3d a8 da 77 3d a3 1b 5a be
       -0.2288775 0.0924291 0.06051126 -0.21299605
0000d0 fc 4c aa 3e e0 1f 39 be e4 63 2c 3e e6 e8 bb 3e
       0.3326186 -0.18078566 0.1683498 0.36701125
0000e0 d2 c5 c3 be d4 05 c4 bd d3 0b c2 be 36 65 d0 be
       -0.38236862 -0.09571424 -0.37899646 -0.40702218
0000f0 c4 a2 6d be e0 c8 00 3c e0 96 d4 3c 5a c6 a4 be
       -0.23206621 0.007860392 0.025950849 -0.3218258
000100 a0 04 16 3e 70 9e 99 be 51 35 97 be 4e 6c 06 bf
       0.14650202 -0.3000369 -0.29532865 -0.5250901
000110 cd 4f 8a be a6 d2 63 3d c6 24 b7 bc 22 d1 5d 3e
       -0.27014008 0.055620812 -0.022356402 0.21661809
000120 c8 39 8d be 10 b3 2c 3e 26 42 55 be 4c 97 9e 3c
       -0.27583146 0.16865182 -0.20826015 0.019359253
000130 20 90 bf 3d 80 da 16 3d d9 a1 81 3e db 50 d8 bd
       0.093536615 0.03682947 0.25318792 -0.10562297
000140 81 d1 a4 be 57 07 98 3d 86 43 2e be 50 44 18 be
       -0.3219109 0.07423275 -0.17017946 -0.14869809
000150 88 7a d0 3e 53 2d 20 bf 88 9c 8a be 3a 57 45 3a
       0.40718484 -0.6256916 -0.2707255 0.00075279514
000160 b9 7e 68 bf 6e 4e 61 be 30 c0 77 3e 58 ca 37 3e
       -0.90818363 -0.22002575 0.24194407 0.17948282
000170 08 27 b0 3e bd 17 98 be 20 7a 2c bc 32 43 c0 be
       0.34404778 -0.2970561 -0.010527164 -0.37551266
000180 00 6e 59 bc 20 0a 05 bd 38 e9 54 3e 7a 0f 52 be
       -0.013270855 -0.03248036 0.20792091 -0.20513716
000190 00 bf bd 3c 18 85 90 3e 34 6c b2 be fe f6 85 3e
       0.023162365 0.28226542 -0.34848177 0.26165003
0001a0 40 d0 d3 bc 38 f4 95 bd ac 41 af 3d b2 a3 9a 3e
       -0.025856137 -0.07321972 0.08557448 0.30203015
0001b0 15 18 7c be 40 86 0c be af f4 4c be 74 f8 3c be
       -0.24618562 -0.13723087 -0.20015214 -0.18454152
0001c0 e0 f5 6f bd 20 b2 cf 3e ef 09 52 be 4c c6 2c be
       -0.058584094 0.40565586 -0.20511602 -0.16872519
0001d0 0b ae ed 3d a6 74 37 3e d6 76 2f bf 46 59 0c 3e
       0.11605462 0.17915592 -0.68540704 0.1370593
0001e0 01 48 d9 be 7c 4c bc be a1 97 b3 be 5c 11 aa 3a
       -0.42437747 -0.36777103 -0.3507662 0.0012975144
0001f0 1f cf 94 be a0 9d 98 bd 1c b7 2f 3e 7d cc b9 be
       -0.2906427 -0.074519396 0.17159694 -0.36288825
000200 70 f6 68 bd f0 a3 15 bd 18 0b 19 bd e0 96 ce 3e
       -0.056875646 -0.036533296 -0.037364095 0.40349483
000210 91 68 97 bd d0 cb 9a be 6c c5 e6 be c1 16 1e 3e
       -0.07392991 -0.30233622 -0.45072496 0.15438367
000220 bb 19 17 bf ba 69 4e 3e 90 90 b9 be 88 ad 82 be
       -0.59023637 0.20157519 -0.36243105 -0.2552302
000230 95 33 bb be e9 12 3f 3e 0b 0f cc be 8f 89 a6 3e
       -0.3656279 0.18659557 -0.39855227 0.32526824
000240 a5 ce c1 3d bf 66 a8 be d5 b5 1c 3e ee a6 e8 3b
       0.094632424 -0.3289089 0.15303738 0.0070999777
000250 f7 d8 42 bc 9f 65 95 3e 30 53 9f 3d e3 48 c8 be
       -0.011892549 0.29179093 0.07779539 -0.39118108
000260 9c f1 bb 3e d0 5d 46 bd 6c 82 41 3e e8 ee e6 3d
       0.3670777 -0.04842931 0.18897408 0.112760365
000270 f2 6c a4 be 2a 12 b8 3e 74 be 67 be 6e 41 2b be
       -0.3211437 0.35951358 -0.22631246 -0.16724178
000280 15 46 a7 be 10 f1 eb 3d 4c ff 1b bf b0 39 3e bf
       -0.32670656 0.115205884 -0.6093643 -0.74306774
000290 29 75 c8 3d cc d9 48 3e 79 9b 10 be 48 7e 9d 3e
       0.097879715 0.19614333 -0.14121808 0.30760407
0002a0 26 2f 01 be f4 70 09 3e c0 6c c6 3d a0 2f 80 be
       -0.12615642 0.13421994 0.09688711 -0.25036335
0002b0 84 4e 9c bd 2c 73 91 be 79 28 c4 be f2 97 0d be
       -0.07632163 -0.28408182 -0.38312128 -0.13827494
0002c0 82 d3 4f be 4d 0a 39 be 44 98 bc be 14 b5 ad 3e
       -0.20295528 -0.18070336 -0.3683492 0.33927214
0002d0 ce de 86 be bc 37 81 3f eb 75 62 3e 9f 80 21 3e
       -0.2634186 1.0095134 0.22115295 0.15771721
0002e0 22 9a 57 3f 76 47 98 be 2b c7 ad be 68 e6 6a 3e
       0.84219563 -0.2974202 -0.33941016 0.22939456
0002f0 16 3c b5 3e 0c 6c a3 be ff 6d b0 be d6 76 2e be
       0.35397404 -0.3191837 -0.3445892 -0.1703752
000300 c0 4b 69 3e 86 9d 8b 3e 14 0c 26 be 6c e8 1a be
       0.22782803 0.27268618 -0.16215545 -0.15127724
000310 96 e5 ba be e0 a7 97 3e 90 25 11 3e 7a 22 fa be
       -0.36503285 0.29620266 0.14174485 -0.4885443
000320 42 ab 49 3d ad ea 58 3e f5 97 1c bf af b0 33 3e
       0.04923559 0.21183272 -0.6116937 0.17547868
000330 8c d0 36 bd c5 b7 cc 3e ce fa 8c 3d cf c5 9d 3e
       -0.04463248 0.39983955 0.06883775 0.30814978
000340 63 8e 42 3f 9f 80 fe 3d b0 23 1b be f9 cb af be
       0.75998515 0.12426876 -0.15150332 -0.34335306
000350 c0 8d 40 3d 3e 28 a7 be c0 1e c8 bd 28 4d 4d 3e
       0.047010183 -0.3264789 -0.0977149 0.20048964
000360 a0 be 16 3e 69 6a c7 be 20 b8 39 bd fa 34 b9 be
       0.14721155 -0.38948372 -0.04534161 -0.3617323
000370 d0 df 33 3e 4d 1c a5 be d4 8b 89 3e 83 d9 2c be
       0.17565846 -0.32248154 0.26864493 -0.16879849
000380 b4 df ab be a4 27 df bd c4 75 de bd 8e 53 67 be
       -0.3356911 -0.10896233 -0.10862306 -0.22590467
000390 27 b9 47 be 16 ad 28 3e 8a 59 22 be 77 86 14 3e
       -0.19504224 0.16472277 -0.15854469 0.1450442
0003a0 70 12 d6 bd a4 fc 15 3e f6 17 ad 3e e8 41 2c bd
       -0.104527354 0.14647156 0.33807343 -0.04205504
0003b0 8e cb 8a be e9 b6 9f be 5a 32 99 3e f6 a8 be be
       -0.27108425 -0.31194237 0.29921228 -0.37238282
0003c0 a7 68 9e 3e c1 0e 87 3e 4d 3e a8 be 47 8d 41 3e
       0.30939218 0.26378444 -0.32860032 0.1890155
0003d0 d5 84 69 be 61 63 64 be 85 48 04 bf a9 26 c4 be
       -0.22804578 -0.22303535 -0.51673156 -0.38310745
0003e0 c0 3c 8d 3d 71 0c 47 3e 25 9a 05 be 1f ac 12 be
       0.06896353 0.1943834 -0.13047083 -0.14323471
0003f0 2c 55 3e bd 46 2f 32 3e 94 99 55 bd 9c a2 c4 3e
       -0.046467945 0.17400846 -0.052148417 0.3840531

linearSequential.0.bias f4 [128]
000000 4d 69 aa bb ae 0f 98 3e 04 5f 56 3e f2 20 ab be
       -0.005200541 0.29699463 0.20934683 -0.33423573
000010 37 e0 fa bd 61 e0 be 3d 84 0b b2 3d c3 2f f4 bc
       -0.12249797 0.09320141 0.08693603 -0.02980793
000020 e8 8d bf be 80 a9 ca 3b 1c 1d 56 3e 7b c6 ba 3e
       -0.37412953 0.0061847568 0.20909542 0.36479554
000030 8d 68 af 3d 6e e5 bb be 5a 45 6b 3e 9c 5a 0a 3e
       0.08564863 -0.36698478 0.22975674 0.13511127
000040 ac 03 e5 bd c8 e2 36 3d 28 e7 36 3d b9 17 84 3e
       -0.11182341 0.04464987 0.04465404 0.2579935
000050 8f 1c cf bd fd 75 c9 be cc 2e 6b be bb 74 98 3e
       -0.10112869 -0.3934783 -0.2296707 0.29776558
000060 38 94 79 3e 78 12 89 3d a0 2e be bd 56 7b 16 3e
       0.24372947 0.06692976 -0.09286237 0.14695486
000070 c4 59 08 3e 40 61 20 3e ea 81 97 3e 7c 9c 40 be
       0.13315493 0.15662098 0.29591304 -0.18809694
000080 b8 87 99 bd 70 15 1b 3e 59 c8 47 3d 28 3a a9 3d
       -0.074965894 0.15144897 0.04877505 0.082630455
000090 90 55 bf be c0 67 98 bd 9c 1e c3 be c0 b3 0f bd
       -0.37369967 -0.07441664 -0.3810929 -0.035083532
0000a0 10 b5 67 bc a2 17 f4 3d 87 43 81 3e e7 16 8f 3e
       -0.01414229 0.1191857 0.25246832 0.2794716
0000b0 ce a9 b4 3e 09 ae 5d be db 31 9d 3d 80 a8 c7 bc
       0.352858 -0.2164842 0.07675525 -0.02437234
0000c0 f4 cb af be fc 2e 1f 3e ec 72 5f be b0 f1 c8 3d
       -0.3433529 0.15545267 -0.21821183 0.09811723
0000d0 b3 2d 8e 3e a4 50 0b 3c 00 ad 90 3e e0 7a 97 bc
       0.2776924 0.008503113 0.2825699 -0.018491209
0000e0 cb 0b 25 3e 5f c5 89 3e 81 00 d0 3c 46 af 22 3e
       0.1611778 0.26908395 0.025390865 0.15887174
0000f0 9c 12 6e be 6d 82 c8 be 63 0f a9 bd b8 cd 81 3d
       -0.23249286 -0.39162007 -0.08254888 0.06338066
000100 70 15 63 3d df b5 bf be f2 2a e6 be 27 a3 37 be
       0.055440366 -0.37443444 -0.4495464 -0.17933331
000110 98 81 b1 be f3 5f 3b 3e d9 39 7d 3e 54 54 a7 be
       -0.34669185 0.1829832 0.24729098 -0.32681525
000120 2f 80 8e be a6 84 68 be 2f d5 82 be 80 58 c7 bd
       -0.2783217 -0.22706851 -0.2555327 -0.09733677
000130 b1 fc b4 3e d8 fa ca bd 70 03 fa bd fc 8a 78 3e
       0.35349038 -0.09911126 -0.12207687 0.24271768
000140 05 8c b8 be 53 9f 33 3e 40 c5 e4 3c 78 a6 0e bd
       -0.36044326 0.17541246 0.027926087 -0.034826726
000150 6c 03 b5 3d 9a de 99 3e 88 31 82 3e 83 45 c9 be
       0.08838543 0.30052644 0.25428414 -0.39310846
000160 80 49 5b bb 02 62 a2 3e c4 f2 4b 3e f0 22 7b bd
       -0.0033460557 0.317154 0.19916826 -0.061312616
000170 09 d1 34 3e 80 75 52 bd 8a f3 be 3e 78 e5 ef 3c
       0.17657866 -0.051381588 0.3729518 0.029284224
000180 22 57 30 be 10 17 c2 be e8 5b 34 bd b4 0d a9 bd
       -0.17220739 -0.3790822 -0.04403296 -0.08254567
000190 14 44 9d 3e 03 fb 97 3e c4 2f 77 3c 18 3f 5e be
       0.30716002 0.29683694 0.015087072 -0.21703756
0001a0 6c 00 80 be 78 9d bc bd f8 d5 55 3d 8e 4b 4c be
       -0.25000322 -0.09209722 0.05220601 -0.19950697
0001b0 f2 65 e6 be ec 6a b5 be 80 3d a7 3d e1 b9 c9 be
       -0.44999653 -0.35433137 0.08166027 -0.39399627
0001c0 a0 f7 9a bc c8 90 a1 3e 34 31 cc be 32 9a 3d 3e
       -0.018916905 0.31555772 -0.3988129 0.18515852
0001d0 6e 8f 96 3e 38 9f e5 bd ca 6c ba 3e 9b 4e 22 be
       0.29406303 -0.11212009 0.36411124 -0.15850298
0001e0 57 82 b9 be b2 06 84 3e 48 d6 5e 3e d6 92 d3 be
       -0.36232254 0.25786358 0.2176143 -0.41322964
0001f0 44 a1 86 3e 20 2f 7e 3c 28 90 ec 3d d5 d9 a5 3e
       0.2629491 0.015514165 0.11550933 0.32392755

linearSequential.2.weight f4 [64, 128]
000000 7f 3b a1 bd 92 bf 32 3d cb c9 a4 3d 2b 35 69 bd
       -0.07872676 0.043639727 0.080463015 -0.05693547
000010 9c 47 af bd fc cf f0 3c 8e 19 7d 3d 40 88 8d 3b
       -0.0855858 0.02939605 0.06179195 0.004319221
000020 61 11 91 bd a8 2e 68 bd 80 e8 6f 3b eb bf 8b 3d
       -0.07083393 -0.05668512 0.0036607087 0.06823715
000030 e7 3f 81 3d a3 d1 8f 3d e8 78 85 bc 18 1e d7 bc
       0.063110165 0.07022407 -0.016293004 -0.026259467
000040 f8 2d 40 bd e8 fa ca 3c 47 58 39 bd 6c 71 51 bd
       -0.04691884 0.024777845 -0.045250203 -0.05113356
000050 bc cd 80 bd de d6 23 bd 70 80 95 bb 0c 4d 23 bd
       -0.06289241 -0.039999835 -0.00456243 -0.0398684
000060 44 71 e9 3c c5 6b 8c 3d c0 55 8a ba a3 d7 7e bd
       0.028496392 0.06856493 -0.001055412 -0.062217366
000070 88 70 83 bd 0a c5 6b 3d e3 57 4f bd 63 28 ab 3d
       -0.06417948 0.057560958 -0.050620925 0.083573125
000080 80 8f ef bc 6f e9 a2 3d 8d 9b 97 3d 38 43 94 bc
       -0.02924323 0.0795468 0.07402716 -0.018098459
000090 d5 bb 9b 3d e1 ea a6 3d 16 f4 22 bd fa c0 42 3d
       0.076041855 0.08150268 -0.03978356 0.047547318
0000a0 11 43 24 bd 8c 01 20 bd c0 65 33 bc 76 62 93 bd
       -0.040103022 -0.039063975 -0.010949552 -0.07196514
0000b0 b5 7b 64 bd 18 cd b7 3c f8 4e 77 bd aa dc a9 bd
       -0.05578204 0.022436664 -0.060378045 -0.082940415
0000c0 1a 21 53 3d d1 2c 4b bd e6 62 0c 3d 12 79 0f bd
       0.05154524 -0.049603287 0.034274004 -0.03502757
0000d0 e6 d5 7e 3d 80 f7 76 3b 34 01 b2 3c f3 a4 49 bd
       0.06221571 0.0037684143 0.02172909 -0.049229573
0000e0 3f 2d 8d 3d 8a af 9b bd 68 f0 ba 3c 20 93 33 3c
       0.06893396 -0.07601841 0.022819713 0.01096037
0000f0 58 1c 0f bc 20 c4 b1 bc 22 3c 5d 3d e7 c7 94 3d
       -0.008734785 -0.021699965 0.054012425 0.07264691
000100 ab db 37 bd fa 8f 5e 3d b8 27 cc bc 65 0f 92 3d
       -0.044887226 0.054336525 -0.024921283 0.071318425
000110 19 15 96 3d 24 27 c5 3c 10 f4 6d bc 59 88 92 3d
       0.07328243 0.024066515 -0.014523521 0.071549125
000120 be f8 7c 3d 07 82 6a bd ac 86 a1 bc 10 06 c0 3b
       0.061760657 -0.05725291 -0.019717537 0.0058600977
000130 17 52 93 3d 10 89 da 3b c6 0c 78 3d 67 e9 8a 3d
       0.07193392 0.006669171 0.060559057 0.06782799
000140 e0 40 29 bd 4d 36 66 bd 9e ad 02 3d 30 9d c4 bb
       -0.041321635 -0.05620413 0.031903856 -0.0060001835
000150 66 2b 44 3d 80 17 59 3c 6c 37 ab bd 8c ba db 3c
       0.04789295 0.013250232 -0.0836018 0.02682235
000160 2f e3 00 bd da cf 3b 3d e0 01 46 bc 23 ed b0 3d
       -0.03146666 0.04585252 -0.012085408 0.0863898
000170 02 eb e6 bc 24 c2 ba bc 40 f0 29 bb 0e 6b 92 bd
       -0.028188232 -0.022797652 -0.0025930554 -0.07149325
000180 53 b1 a9 bd 26 cf 42 bd e2 3d 3c 3d ca 39 72 3d
       -0.08285775 -0.047560833 0.045957454 0.059137143
000190 ce a7 2c 3d f3 e3 85 3d 30 c4 a5 3c 3f b9 a5 bd
       0.04215222 0.065376185 0.020235151 -0.080919735
0001a0 49 58 b2 3d 63 2c 98 3d 50 3b 26 3c d4 3b 01 3d
       0.08708245 0.07430341 0.010145977 0.031551197
0001b0 09 62 0f bd 4b 97 a2 3d d6 cd 2e 3d e5 d5 ac 3d
       -0.035005603 0.07939013 0.04267677 0.08439235
0001c0 70 0d ce 3b 1a 80 86 bd 5b 96 94 bd ee c6 22 3d
       0.006288223 -0.06567402 -0.072552405 0.039740495
0001d0 a0 6e 81 bd c7 89 84 3d 28 9e 79 bd 38 0c a4 3c
       -0.06319928 0.064715914 -0.060941845 0.020025358
0001e0 a0 d2 03 bc 76 c0 a4 bd 80 93 95 3a 17 c8 0f bd
       -0.008045822 -0.080445215 0.0011411756 -0.03510293
0001f0 65 9f 40 bd b4 2f 83 bc 40 18 78 bc f7 2d a9 bd
       -0.04702701 -0.016013958 -0.0151425 -0.0826072
000200 a9 7c 80 3d 1c cb b6 3c 69 cd 40 bd b4 2c 81 bd
       0.06273777 0.022313647 -0.047070894 -0.063073546
000210 04 7e 88 bc a1 da 31 bd 27 98 87 3d 82 4f 5e 3d
       -0.016661651 -0.04342139 0.06620818 0.054275043
000220 b6 e2 6e 3d 2c 4e 85 bc e7 71 7c bd e8 26 ae bc
       0.058321677 -0.016272627 -0.061632063 -0.021258786
000230 b0 8c af 3b a8 32 23 bc 0c bc 06 3d 04 29 8d 3c
       0.0053573474 -0.009960808 0.03289418 0.017231472
000240 cc 68 92 3c c8 d3 c2 bc d4 5d 0f 3d 74 c1 0e 3d
       0.017872237 -0.023782626 0.03500159 0.03485246
000250 70 57 e1 bb 41 05 23 bd 20 af 8b 3b 70 bc 9c bc
       -0.0068768784 -0.039799932 0.00426282 -0.019132823
000260 ac cc 33 bd 5f d0 af 3d fc e3 82 3c 40 ba 29 bc
       -0.043896362 0.085846655 0.015977852 -0.010359347
000270 0a d7 6a 3d 00 6a d3 3c cf 9d 95 bd 1d 37 83 3d
       0.057333983 0.02580738 -0.0730549 0.064069964
000280 54 0d db 3c 22 d5 7a 3d 80 5b 3c bd 70 39 29 bc
       0.026739754 0.061238416 -0.0459857 -0.010328636
000290 03 21 a4 3d 84 5d c0 bc 6f 8d ad bd e0 31 f9 bb
       0.08014109 -0.023482092 -0.08474242 -0.0076048225
0002a0 16 9a 6b bd 98 2a ab bc 76 f6 15 bd b8 8d f7 bc
       -0.057519995 -0.020894334 -0.036611997 -0.030218944
0002b0 c8 98 a4 bc de 88 76 bd 10 5d d5 bb b0 a4 aa bd
       -0.020092383 -0.06018912 -0.006511338 -0.08332193
0002c0 e0 7b 3f bb 31 bf 25 bd a3 31 18 bd 9f a5 6f bd
       -0.0029218122 -0.040465537 -0.037156712 -0.058507558
0002d0 ab ef b3 bd c0 80 ca 3b a6 0e d7 bc 20 f0 85 bd
       -0.087859474 0.006179899 -0.026252102 -0.06539941
0002e0 d0 be 7a 3c d0 46 78 bc 0f 99 1d bd f5 b6 81 3d
       0.015304282 -0.015153602 -0.038476046 0.063337244
0002f0 e8 81 98 3c d0 0b 55 3c 85 c8 a5 3d 80 51 a5 ba
       0.018616632 0.013003305 0.08094887 -0.001261279
000300 48 4c fc bc 1f 19 9a 3d 7a aa 53 bd 56 f6 8e bd
       -0.030798092 0.07524323 -0.05167625 -0.069805786
000310 88 20 50 3c d2 ed 70 3d 64 16 aa bd c3 0f 84 3d
       0.012703069 0.058820553 -0.08305052 0.06448319
000320 3c 31 2e bd f0 b2 ac bb 0a 43 96 bd 0e ac 2f 3d
       -0.042527422 -0.0052703544 -0.073370054 0.042888694
000330 78 73 6e bd 3d 2c b1 3d 97 aa 89 3d 28 0d 03 3d
       -0.05821559 0.08651016 0.067219906 0.03199497
000340 26 56 8c bd 84 24 89 bc e3 42 8a 3d dc 4d d9 3c
       -0.06852369 -0.016741045 0.06751039 0.026526384
000350 e0 61 a8 bc 90 6d 93 bc cb 43 0d bd 3a f5 ab bd
       -0.020554483 -0.01799658 -0.03448848 -0.08396383
000360 8a 0e 48 3d 81 a8 6b bd 70 8e 72 bd de 30 7b 3d
       0.04884199 -0.057533745 -0.05921787 0.0613259
000370 a6 b7 04 3d 4a 4f 8c bd d2 de 5c 3d 69 48 b3 bd
       0.032401703 -0.06851061 0.053923436 -0.087540455
000380 90 11 5b 3c 22 19 32 3d dc b8 6c bd b0 0c c3 bb
       0.013370886 0.043481 -0.057793483 -0.00595244
000390 c6 68 16 3d 9e 94 1c 3d 70 d5 cb 3c 80 0c b3 ba
       0.036721013 0.03822767 0.024882048 -0.0013660342
0003a0 28 07 f5 3c 3d f7 a7 3d d5 ec 16 bd f1 fc 84 3d
       0.029910639 0.08201454 -0.036846954 0.06493557
0003b0 40 28 89 bd a0 99 04 bc 70 0f 78 bd ef 74 64 bd
       -0.0669713 -0.008093268 -0.060561597 -0.05577558
0003c0 80 0b 41 3c 04 e4 25 bd 4c 33 d2 bc c3 80 b4 3d
       0.011782527 -0.040500656 -0.025659226 0.08813622
0003d0 e0 c6 72 bd 60 ce c0 3c 3e 3b 52 3d 80 53 1f 3a
       -0.059271693 0.023535907 0.05132603 0.0006077811
0003e0 f7 87 15 bd e8 0d 18 bc 70 3a 85 bc 80 10 34 ba
       -0.03650662 -0.009280659 -0.016263217 -0.0006868914
0003f0 f1 74 90 3d 60 05 82 3b 20 3f 08 3d e4 d0 a4 bd
       0.07053555 0.003967926 0.033263326 -0.08047655

linearSequential.2.bias f4 [64]
000000 af d3 04 bd 34 84 eb 3c fe 85 1a 3d 76 04 87 bd
       -0.03242844 0.028749563 0.03772544 -0.06592648
000010 2d 79 5d bd 42 d5 ec bc 1c cf 90 bd 1a 29 f0 bc
       -0.05407064 -0.028910283 -0.07070753 -0.029316474
000020 65 07 69 bd 10 e9 12 3d 57 c9 49 3c 4b 0f 2f 3c
       -0.056891818 0.035866797 0.01231607 0.0106847985
000030 b5 81 30 bd c0 83 1b 3c ba 97 1d 3d b1 02 16 bd
       -0.04309245 0.009491861 0.038474776 -0.03662366
000040 73 47 11 bc 95 00 b5 3d 6b 28 33 3d 89 47 6c 3d
       -0.0088671325 0.08838002 0.043739717 0.05768541
000050 fc 0e 96 bc 32 a7 16 3d a4 e3 09 bd f3 59 a2 3d
       -0.018317692 0.036780544 -0.03366436 0.07927313
000060 cb fe b6 bd c4 cc a9 bc 65 4b 2e bd 2a 83 3c 3d
       -0.08935317 -0.020727523 -0.04255237 0.046023525
000070 51 09 81 bd e4 56 d1 bc 9f d1 a0 bd ec f9 b3 bc
       -0.06300605 -0.025554128 -0.07852482 -0.021969758
000080 63 97 12 bd 60 ba ad 3b 27 35 5d bd c6 6f 2a 3d
       -0.035788905 0.0053017586 -0.05400577 0.0416105
000090 cf b8 ab bc c0 99 8a bc 8f fd 55 bd 70 f5 8f 3c
       -0.020962147 -0.016919017 -0.052243765 0.017573088
0000a0 70 64 92 bd d7 6c 8d bd 1a 4d 64 3d e2 29 ae bd
       -0.07148063 -0.06905525 0.055737592 -0.08504082
0000b0 60 fc 09 bb ff 16 21 bd 8d ed 9c bd 50 2e 95 bd
       -0.0021054968 -0.03932857 -0.07662497 -0.07284224
0000c0 fb 95 3a bc 20 fb 09 3c 54 e4 18 bd e6 f3 2f 3d
       -0.011388297 0.008421689 -0.037327126 0.04295721
0000d0 4e aa 7d bc e7 69 a2 bd c0 7e 97 3a c0 c7 93 3b
       -0.015482498 -0.079303555 0.001155816 0.004509896
0000e0 46 31 52 3d 52 3f 5d bd 33 6c 0b 3d b8 05 d4 3b
       0.051316522 -0.054015465 0.034038734 0.0064704083
0000f0 9d b1 85 3c bd 08 bc bd 51 d3 f9 bc 19 0b 9e 3d
       0.016320044 -0.09181354 -0.030496271 0.077169605

linearSequential.4.weight f4 [32, 64]
000000 90 aa f7 3d fe 88 80 3d cf 7f 1b bd bc 77 c5 bd
       0.12093079 0.06276129 -0.037963685 -0.09641978
000010 f3 f1 bd bd 28 16 c5 bd 8f 80 ae 3c bc 53 10 3d
       -0.09274664 -0.096233666 0.021301536 0.035236105
000020 6d 7e 1a bd 18 c6 b9 3d 82 ce 75 3d fa bf d8 3c
       -0.037718225 0.090709865 0.060011394 0.026458729
000030 3b e0 c2 3d 93 c6 4c 3d 76 f0 a7 bc 1c 90 d2 bd
       0.09515425 0.049994063 -0.020500403 -0.10281393
000040 94 30 1b bd d0 df 95 3c 1e e2 c2 3d 50 ed 6b 3b
       -0.037888125 0.018295199 0.09515785 0.0035999604
000050 90 66 9a bc 64 04 bd bd 4d f2 93 bd 00 4a 63 bb
       -0.018847734 -0.09229353 -0.072239496 -0.0034681559
000060 cd 34 03 3d c0 41 2b 3d 72 ea 2f bd ec 27 ad 3d
       0.032032777 0.04181075 -0.042948194 0.0845488
000070 70 d3 6e 3c f3 a9 c4 3d 21 fd ad 3d c0 c2 f9 bd
       0.014576778 0.09602728 0.08495546 -0.12195349
000080 f8 d6 3c bd dc 8d 96 3d d0 71 3d bd 52 ef 78 bd
       -0.046103448 0.07351276 -0.04625112 -0.06077511
000090 47 7f 9c bd 2c 18 98 bd 02 09 04 3e 58 56 eb 3d
       -0.07641464 -0.074264854 0.12894061 0.11491078
0000a0 8a 2f 98 3d 51 7a b0 3d 80 7d 50 bc 9e 51 8b 3d
       0.07430942 0.0861708 -0.012725234 0.068026766
0000b0 fc b4 79 bd 71 4f 6b bd 30 46 75 bd ca 34 da 3d
       -0.060963616 -0.057448808 -0.05988139 0.106546
0000c0 ff 7c 8c 3d e8 f4 73 3d ad 3c 9f bd 68 af be 3c
       0.068597786 0.059559733 -0.07775245 0.023277
0000d0 84 50 89 bc bf b0 58 bd e0 c1 af bd 85 20 cc bb
       -0.016762026 -0.052902933 -0.085819006 -0.0062294626
0000e0 0c 25 eb 3d 32 b0 8e bd 9e d8 60 bd 1f 7a 99 bd
       0.114816755 -0.069672 -0.054894082 -0.07493996
0000f0 00 0e f7 3d 95 92 75 3d ca 92 97 3d 40 0c bc 3d
       0.12063217 0.059954245 0.07401045 0.09182024
000100 a8 92 29 bd 24 a8 75 bd c3 9c b6 bb 28 ca c8 bc
       -0.041399628 -0.059974805 -0.0055728867 -0.024510458
000110 19 44 d6 bd 50 64 fb bc 46 9a a1 3d 90 dc 01 3c
       -0.10462207 -0.030687481 0.078907534 0.007926121
000120 54 c3 68 3d 50 f5 e3 3d 22 ab a7 bc 0b 0b c7 bc
       0.056826904 0.11130774 -0.020467345 -0.024297258
000130 20 f4 dc 3b d8 97 1e 3c d7 27 0d be e4 6b 76 3d
       0.006742969 0.009679757 -0.13784729 0.060161486
000140 8b 53 32 bd 44 ca 21 bd 22 6d d5 3c 7e b9 cf bd
       -0.043536704 -0.039499536 0.026053015 -0.10142802
000150 e8 0f 6c 3d 20 9b 75 bc ba a6 0b be c0 66 67 bb
       0.057632357 -0.014990598 -0.1363782 -0.0035309047
000160 26 39 88 bd c8 e5 af bd cb ec 72 3c 84 b9 88 bd
       -0.06651525 -0.08588749 0.014826964 -0.06676009
000170 ac b8 f0 3d 76 26 a0 3d 40 95 da bc e0 29 56 bd
       0.11753973 0.07819836 -0.026682496 -0.05228603
000180 f9 e1 3a 3d c0 76 e7 3d b8 30 73 bd 7c 2a e0 bb
       0.04562566 0.11301947 -0.059372634 -0.006841002
000190 cf c1 8b 3d fc e5 b4 3d 88 3c db 3d 2e 0c ee bd
       0.068240754 0.088329285 0.10704905 -0.11623417
0001a0 46 13 d0 3d cb 7b 1e bd 16 43 bd 3d ea 29 4b 3d
       0.10159926 -0.038692277 0.09241311 0.04960052
0001b0 00 3f 03 bc 1c f7 1e 3d e0 70 50 bd 26 86 f4 bd
       -0.008010626 0.03880988 -0.050888896 -0.11939649
0001c0 7e 64 46 bd 48 cb d0 bc 90 e0 2a 3d 32 74 fe 3d
       -0.04843568 -0.025487557 0.041718066 0.12424506
0001d0 f5 1a b9 bc 24 b7 ee 3b 7c 4f 9b bd 63 49 a9 3b
       -0.022595862 0.0072850157 -0.0758352 0.005166219
0001e0 c0 01 63 bc a4 5c 38 3d a0 05 26 be 80 c2 78 3b
       -0.013855398 0.045010224 -0.16213083 0.0037957728
0001f0 9e f4 e7 3d c9 6a 8f bd 1e 44 a5 bd 98 2c 64 bd
       0.11325954 -0.070027895 -0.08069633 -0.05570659
000200 50 92 e2 bc 10 0f 77 3c 82 9c bb bd ac 41 17 3d
       -0.027657658 0.015079275 -0.09160711 0.036927864
000210 55 bb 01 3d ac 44 a7 bd 23 fc 7d bd 60 f4 91 bc
       0.031672794 -0.08167395 -0.062008034 -0.017816722
000220 f8 86 02 3d d4 a3 ed 3d 9c d8 9e bd 4b 2d b1 bd
       0.031866997 0.11603513 -0.07756159 -0.08651217
000230 15 a0 0d 3d cc c8 fd 39 ef ca e1 bd 00 91 8f 3b
       0.034576494 0.00048405526 -0.11025035 0.004381299
000240 68 18 11 3b cc eb 33 bd 97 31 97 bd 77 e7 87 3c
       0.0022139791 -0.043926045 -0.073825054 0.016589863
000250 60 8e 80 bb c6 83 95 3d 02 ec 22 bd b6 33 cd 3d
       -0.0039232224 0.073005244 -0.039775856 0.10019629
000260 9f ef f1 bd 28 f2 bb bd d5 39 7a 3d fe 4e f6 3d
       -0.11813282 -0.09177047 0.06109031 0.12026785
000270 64 86 06 bd 8e 68 c4 bd 80 c8 7b bd 3c 03 5d bd
       -0.03284301 -0.09590255 -0.06147051 -0.053958163
000280 35 00 a7 bd 54 6e 54 3d 26 61 ef 3d 1f 24 2f bc
       -0.08154336 0.05186303 0.116884515 -0.010689764
000290 92 2d 3f bd 08 23 8d 3d 9b dc 15 be 40 26 3b 3c
       -0.04667432 0.06891447 -0.14634936 0.011422694
0002a0 00 fc d4 ba 44 61 c4 3c 10 2b ad bd 43 78 2f bd
       -0.0016249418 0.023972161 -0.08455479 -0.0428393
0002b0 7a a2 85 bd 6e c2 30 bd bb f3 5f bd 74 af 42 3d
       -0.065251306 -0.043154173 -0.0546758 0.047530606
0002c0 a0 5b 1d 3d 48 1a e3 3c 38 fb 1d 3c 90 e8 9d bd
       0.03841746 0.027722493 0.009642415 -0.077103734
0002d0 f1 67 97 bd 04 bb 08 be 80 df 97 3c 17 14 98 bc
       -0.07392872 -0.13352591 0.01853919 -0.018564267
0002e0 e0 21 af bd 98 a5 ec bc 45 2d b4 bd ec 50 a4 3d
       -0.08551383 -0.028887555 -0.08797697 0.08023247
0002f0 d3 ff 96 bd 00 91 ae 3d 89 17 a3 3c f2 e3 dd bd
       -0.07373013 0.0852375 0.019908683 -0.10834493
000300 a0 17 24 3c b4 0d af bd 87 75 80 3d b4 64 fd bd
       0.010015398 -0.085475355 0.062724166 -0.12372723
000310 d5 5a d3 bd 3c b8 9b bd 28 ac 8b 3d 9c cf 75 3d
       -0.10320059 -0.07603499 0.068199456 0.060012445
000320 b0 4f 00 3e fe bd bf bd 13 1c 23 3d 12 22 7a 3c
       0.12530398 -0.0936241 0.039821696 0.015266912
000330 34 75 27 bd 68 a2 8f bd 0b 8d 35 bd 48 25 a3 3d
       -0.040883258 -0.070133984 -0.044323962 0.07966095
000340 6a 24 d3 3c 8c 3b 62 bd c7 e5 5f 3d 34 d6 f3 3d
       0.0257742 -0.05523257 0.054662492 0.119060904
000350 52 f8 b2 bd 6e b5 ab bd c6 23 26 bd 78 e9 3c 3d
       -0.087387696 -0.08384214 -0.04056146 0.04612109
000360 1a 26 2b bc fa 5c 95 bd f7 d6 42 bc 7c 1a a5 bd
       -0.010446096 -0.072931245 -0.011892072 -0.08061692
000370 50 f4 6c bc 3d a1 f3 3d 9c 06 80 bd a4 dc 82 3d
       -0.0144625455 0.11895988 -0.06251261 0.0638974
000380 ac 3e 84 bd 00 11 93 3d 38 1b e9 bd 10 2b c6 bc
       -0.06457266 0.07180977 -0.11382145 -0.024190456
000390 c9 b3 34 bc f8 87 00 3d 84 4f 1a 3d 2c 3b d2 bd
       -0.011029192 0.03137967 0.03767349 -0.102651924
0003a0 3a 42 b1 bd b2 ba 39 bc a6 9d c0 bd 1c e2 c4 3d
       -0.0865521 -0.011336016 -0.09405069 0.096134394
0003b0 44 af 22 3d 1e 9f 92 3d f8 38 b8 bc 90 3b cd bd
       0.039717928 0.071592554 -0.022488102 -0.10021126
0003c0 05 cd aa 3c 60 7b 63 bc 58 46 cb bc 76 10 cc bd
       0.020849714 -0.013884395 -0.024813816 -0.09964077
0003d0 30 93 0f bd bf ea 0b 3c 60 ab e4 bc e2 36 97 3d
       -0.03505248 0.008539855 -0.02791375 0.07383515
0003e0 c4 5e 4b bd 00 7a d2 b9 0a fd c6 3c b5 ee 03 bd
       -0.049650922 -0.00040145218 0.02429058 -0.03221007
0003f0 bc cc f8 bd 47 5b b6 bd 70 d6 0d be 38 f7 ca 3c
       -0.12148425 -0.089041285 -0.13851333 0.024776086

linearSequential.4.bias f4 [32]
000000 07 08 1e bd 82 d5 10 bd 31 3f 1c be 27 1a 6c bd
       -0.038581874 -0.035359867 -0.1525848 -0.05764213
000010 49 10 e5 bb 38 7a 24 be 20 da b4 bc 4b bc 14 bc
       -0.0069904667 -0.16062248 -0.022076666 -0.009078096
000020 c3 26 1d be 4b 1e 0c be cf 03 1f be 1c cc 55 be
       -0.15346818 -0.13683431 -0.15528797 -0.20878643
000030 46 58 74 bc f3 54 91 be fb 96 85 be c9 75 2f 3e
       -0.014913624 -0.28385124 -0.2609175 0.17134775
000040 c2 10 14 be d8 5d 9d bc 74 a2 5a bc 98 f6 17 be
       -0.14459518 -0.019209787 -0.013344396 -0.14840162
000050 e7 66 9f bc 04 7e 3c be 6f f1 6e be b1 57 84 be
       -0.019458247 -0.18407446 -0.23334287 -0.25848153
000060 bb c6 be bc 87 f2 34 bd 19 46 f3 bb 1d 50 ed bd
       -0.023288121 -0.044176605 -0.007424128 -0.11587546
000070 f4 4d 09 bb 76 2c 0c bc 40 0c 11 be 48 29 d5 bd
       -0.0020951005 -0.008555522 -0.14164829 -0.104082644

linearSequential.6.weight f4 [16, 32]
000000 5c 75 31 3d 12 97 0a 3e 3c 29 c9 3c 62 47 7c bd
       0.043324813 0.13534191 0.024555795 -0.061591513
000010 b0 78 1d 3c c0 76 e6 bc a0 8a 8b 3d 57 9d ed 3b
       0.009611294 -0.028132796 0.0681355 0.0072514224
000020 69 99 a9 bd 4b 4a 13 be 6d e1 f5 3d 8e ed 1d be
       -0.08281214 -0.1438381 0.12005887 -0.15422651
000030 79 7b b0 bc 1a fa b5 3d 6c f3 f3 bd 5d 7a 0c 3c
       -0.021543251 0.08885594 -0.119116634 0.008574096
000040 db 0b 6d bc 64 a5 3d bd a5 0c bd 3d 5f 91 a8 3d
       -0.014468159 -0.046300307 0.092309274 0.08230852
000050 db 37 0f be 6b 98 b4 bb 20 a2 8e 3b 03 4a 03 be
       -0.13986151 -0.0055113337 0.004352823 -0.12821202
000060 87 7e 01 3e ac 80 20 bd 80 ee 31 3e e8 6d 59 3e
       0.12645923 -0.03918521 0.17376137 0.21233332
000070 3d 12 87 bb f6 cf a0 be 03 99 22 bd f6 f3 aa 3d
       -0.004122047 -0.31408662 -0.039696705 0.08347313
000080 93 90 76 3d ee bc b5 3d 3a 91 0d 3b cf 57 82 be
       0.06019647 0.08873926 0.0021601454 -0.25457618
000090 80 d7 4f be 54 bc a7 bd fa 4f a9 3d 68 b5 05 be
       -0.2029705 -0.081902176 0.082672074 -0.13057482
0000a0 61 84 23 be c0 8d 0c bb 35 10 23 be 80 44 8c 3b
       -0.15968467 -0.0021446794 -0.15924151 0.004280627
0000b0 91 85 00 3e ed 91 02 be 8c 5a 81 bd 15 e6 3b 3c
       0.12550952 -0.12750979 -0.063160986 0.01146843
0000c0 a1 23 ac bb e1 5e 16 3e ee ab 3f be 38 ab 1d bd
       -0.0052532707 0.14684631 -0.1871793 -0.038493365
0000d0 92 66 8d 3d 97 86 37 be 2c 48 29 bc 30 2f 28 3d
       0.06904329 -0.17922436 -0.0103321485 0.041060627
0000e0 d8 1b fe 3d 9d 36 99 3d b0 f8 5f 3d 98 87 c5 3c
       0.124076545 0.0748112 0.054680526 0.024112508
0000f0 b3 e7 a1 be 3b 21 38 be 89 cf 9e bd 26 7d 4e 3d
       -0.31622085 -0.17981426 -0.07754428 0.05041232
000100 9c ca d2 3b ec a4 e6 3d 10 18 a2 bc f9 2c 15 be
       0.0064328443 0.11261925 -0.019786865 -0.14567937
000110 7c 39 3b bd 00 ad 13 3c e8 53 c4 bc a8 5a bf 3d
       -0.04570912 0.009013414 -0.02396579 0.09343463
000120 68 7d 12 bd 3a d4 89 3d 90 0c b8 3d c0 41 ea 3b
       -0.035764128 0.06729932 0.08986771 0.0071489513
000130 2d c5 df 3d 12 49 ab bd b2 88 83 bd 36 e2 f1 bd
       0.1092628 -0.083635464 -0.06422557 -0.118107244
000140 c4 c9 c1 bc 14 ae 2d be 9d 6c 3d bd 81 30 11 3e
       -0.02365578 -0.16960937 -0.04624616 0.14178659
000150 b2 6f a2 3d 3d f0 3e bb 69 68 cc 3d 2f 6d 15 bd
       0.079314604 -0.0029134892 0.09980852 -0.03648108
000160 e1 c0 45 bd 4b da 8a bc 43 a8 aa 3d de 51 08 be
       -0.048279647 -0.016949793 0.083328746 -0.1331248
000170 08 ff 09 be 10 24 4d 3d 03 95 1f 3e 12 de 9a bd
       -0.13476193 0.05008322 0.15584187 -0.07561888
000180 30 2a 08 bd 4d 75 c8 bc 51 5c c8 3d ae 35 d1 bc
       -0.033243358 -0.024469996 0.09783233 -0.025538292
000190 cc 10 1e 3c 67 1c 39 be e6 2f 15 be 45 65 cc 3c
       0.009647559 -0.18077241 -0.14569053 0.024950633
0001a0 be 7a a0 3c d8 e2 bf 3c 93 06 47 3e 2a 00 07 3d
       0.019589778 0.023423597 0.19436102 0.03295914
0001b0 6a c6 99 bd 68 ac 89 bd 5d cb 0c bd 76 6b 11 bd
       -0.075085476 -0.06722337 -0.03437363 -0.035502873
0001c0 6a c4 40 bd 3e 45 0e be 04 6e 7d 3d 88 71 40 3e
       -0.047062315 -0.13893601 0.061872497 0.18793309
0001d0 05 ca d8 bd fd f1 f3 3d 4b 24 26 3e b6 f0 9a 3c
       -0.10585407 0.1191139 0.16224782 0.018913608
0001e0 98 c5 e8 bd 8f 3c 25 3e db 88 05 bd d0 54 2e be
       -0.11365813 0.16136383 -0.03260122 -0.17024541
0001f0 e7 49 01 3d c7 79 bb 3c 04 f0 55 bc 67 6b 1a 3e
       0.03156462 0.022885216 -0.013057712 0.15080033
000200 81 75 59 be b4 e7 36 3e e2 83 8b 3e ec 47 90 bd
       -0.2123623 0.17861825 0.27249056 -0.07044968
000210 18 6b 93 3d 95 fb e6 3c bd 1c 03 be 00 e2 65 3d
       0.07198161 0.028196136 -0.12803932 0.056123734
000220 87 7e c7 3d c9 b1 9f 3d ac f3 f1 bb c2 00 ad bc
       0.0974093 0.07797582 -0.0073837843 -0.021118525
000230 4e 85 cd bc 0b f3 7e 3d 2a b6 9c bd b9 a9 1d bd
       -0.025087979 0.062243503 -0.076519325 -0.03849194
000240 89 83 2e be d8 fe ea bd 17 64 4e 3d 2b fb 27 3e
       -0.17042364 -0.11474389 0.050388422 0.16404407
000250 f9 a0 83 bd 84 bf 44 be 65 5a 5d bd 2d 5c a1 3e
       -0.064271875 -0.19213682 -0.054041285 0.31515637
000260 78 19 22 3d e2 50 c6 3d 35 42 d3 bc 01 1d 36 bd
       0.03957507 0.09683396 -0.025788406 -0.044461254
000270 99 bd f5 3d 78 69 ff 3c 71 83 35 3e 63 31 0f bd
       0.119990535 0.031178221 0.17725922 -0.03495921
000280 b9 5c c9 3d 3c 9f d4 3d 40 2e b4 3d 17 08 93 3d
       0.098321386 0.10381934 0.08797884 0.071792774
000290 4d 2a 5c bd 27 3b 7e bd 5f 94 25 3e c4 43 b3 3d
       -0.05375128 -0.06206813 0.1616988 0.0875316
0002a0 5e 3e e9 3d dd ac 01 be 5f b0 f5 3b d9 b8 8b 3d
       0.11388849 -0.12663598 0.0074978317 0.06822366
0002b0 b3 ce c4 3c 49 81 15 3d aa b8 1d be fb f0 2e bd
       0.024024343 0.03650025 -0.15402475 -0.042710286
0002c0 51 5f 3c be 2f 0c 05 3e 90 7a 42 bd 5b 7f f3 bc
       -0.18395735 0.12992929 -0.047480166 -0.029723814
0002d0 5a 33 b4 bd 35 de 41 bd f0 f7 b0 3d 9a 9c 01 3e
       -0.08798857 -0.047331054 0.0864104 0.12657395
0002e0 d7 01 10 be a7 4b 2c be fd 37 19 be fb 73 ec bd
       -0.14063202 -0.16825734 -0.14962764 -0.11545559
0002f0 a1 18 a3 3d a0 0d df bd 33 17 f6 3d dd 8f e6 bd
       0.07963682 -0.10891271 0.12016144 -0.112579085
000300 15 61 c8 3b fd 68 10 bb 20 56 8a bd 08 b6 01 bd
       0.0061150887 -0.0022035234 -0.06754708 -0.03166774
000310 26 26 25 bc 3d 2f 99 bd 1b 3e 31 3e 90 af 72 3d
       -0.010079896 -0.07479713 0.17308848 0.05924946
000320 d3 ad 2a 3e 35 65 d4 bd 40 06 19 be 86 43 92 bd
       0.16667871 -0.10370866 -0.1494379 -0.07141785
000330 5d fc 5e 3d 18 53 b7 3d 29 3a 02 3e d2 fc ca 3d
       0.05443989 0.08951396 0.12717499 0.09911503
000340 9a cc ee 3d 1a 41 90 3d 35 23 b0 3d 9e 6a ad 3d
       0.116601184 0.07043667 0.08600465 0.08467601
000350 b9 08 02 3e 85 e0 d3 bd 84 8c 8b 3d 45 99 c4 bd
       0.1269864 -0.10345558 0.068139106 -0.09599546
000360 90 af 9d bd 66 0e 3a bc e8 0b 0e be ba cc fc 3d
       -0.076995015 -0.011355972 -0.1387173 0.12343736
000370 9d f4 c0 38 0a fe 0b bd 58 a1 4c 3d b2 24 b1 3d
       9.200836e-05 -0.034177817 0.049958557 0.08649577
000380 fb 02 c4 bd f5 47 34 be ca 29 02 be d0 71 ae bc
       -0.09570881 -0.17605574 -0.12711254 -0.021294504
000390 31 0a f1 bd 02 00 e4 bd f6 bf ef 3d 90 f1 55 bc
       -0.11769522 -0.11132814 0.117065355 -0.013058081
0003a0 a5 d9 07 3e 65 bf ce bd f8 fc 0b be da 64 da 3d
       0.13266619 -0.10095099 -0.13670719 0.10663767
0003b0 82 02 c9 3d 1e 43 e3 3d d6 95 ee 3d cf 4a b3 bd
       0.098149315 0.11096786 0.11649673 -0.08754503
0003c0 ac cf 09 3d bf 24 30 be 60 d2 fd 3c 80 fc 5c 3b
       0.033645317 -0.17201518 0.030984104 0.0033719838
0003d0 23 d3 b3 bd b4 a2 4e 3d e4 39 17 3d 34 2a 45 3d
       -0.087805055 0.050448135 0.036920443 0.04813595
0003e0 5a 4d dc 3d c0 84 4d 3b 5c 67 12 bd d2 6b 11 be
       0.10756941 0.0031359643 -0.035743102 -0.14201286
0003f0 86 ae a7 3d 40 d6 1c 3c 62 8e 11 be 29 df 12 be
       0.081875846 0.009572566 -0.14214471 -0.14342941

linearSequential.6.bias f4 [16]
000000 ff 3c b9 bd 50 37 f5 bd 93 5d bf bd bc 56 c7 3b
       -0.09044837 -0.11973441 -0.0934402 0.0060833376
000010 08 1a d8 3b c0 fb 98 3b c6 48 2b be a0 11 88 bc
       0.0065949 0.004668683 -0.1672698 -0.016609967
000020 cd a2 ff bd 77 63 27 be 21 63 24 bd 15 ec 71 be
       -0.12482224 -0.16346537 -0.0401336 -0.23625214
000030 28 56 c1 bd b8 54 06 be d0 df 32 3c e5 68 a3 3a
       -0.09440261 -0.13118255 0.010917619 0.0012467174

linearSequential.8.weight f4 [1, 16]
000000 58 5b eb bd 28 64 49 be 97 8d 50 3e 9d a2 88 2e
       -0.11492032 -0.19667113 0.20366512 6.21345e-11
000010 2a ae b7 b4 56 ec 58 b8 90 58 30 3e c8 b1 9a 3d
       -3.4213127e-07 -5.1718518e-05 0.17221284 0.0755344
000020 58 bc f3 3c 05 8b 96 bc 3d e8 ab 3d 69 3d 17 be
       0.029752895 -0.018376837 0.08393905 -0.1476952
000030 59 18 2a 3e b5 73 d2 bd 40 b9 83 bc d3 f9 b9 ba
       0.1661085 -0.102759756 -0.016079545 -0.0014188833
