nnwf/nets/state_dicts/dataset01.pt (torch, 51027 bytes, 9 tensors)

linearSequential.0.weight f4 [128, 6]
000000 69 e8 2a 3f 17 b2 47 bf 3e a9 f9 be 63 96 25 be
       0.6676088 -0.7800612 -0.48761934 -0.16170649
000010 65 c9 76 3e 5b 4c 94 3e 91 10 2b 3f f5 4a 1c be
       0.24100263 0.28964505 0.66822153 -0.15262969
000020 6e 8e ac be 7d fe ed bd 38 bb 9d bf 26 2c ee 3d
       -0.33702415 -0.116208054 -1.232276 0.116295144
000030 fe e5 4f 3d 36 1c a7 be 94 d8 25 3f 11 70 20 be
       0.050756447 -0.3263871 0.64783597 -0.1566775
000040 d9 6e 20 3c e4 8c 68 be 94 f2 cf 3e ac 3a 93 3e
       0.009792053 -0.22709996 0.4061476 0.287557
000050 16 7f 07 be f7 4f 0b be c1 e3 e8 3e 70 cc 6e 3c
       -0.13232073 -0.13604723 0.45486262 0.014575109
000060 b9 06 cb 3e 14 c3 25 bf b2 d2 16 3f 98 81 33 3f
       0.39653566 -0.6475079 0.58915246 0.7011962
000070 69 de 8e bf c7 12 99 3a c9 be 80 bd f6 68 f9 3d
       -1.1161624 0.001167857 -0.062863894 0.12178223
000080 bd be b2 3d 36 e0 3c bc 46 35 07 c0 bf 7e 94 3e
       0.08727787 -0.011528065 -2.1126266 0.2900295
000090 f7 55 fd 3e 2b 30 1b 3e ec 42 98 be 2e ca 08 bf
       0.49479648 0.15155093 -0.29738557 -0.534335
0000a0 74 2f 9c 3e 43 c7 6b be 3a cd 23 be 6c ba d5 bc
       0.30504954 -0.23025231 -0.15996256 -0.02608987
0000b0 f9 32 5d 3e 88 f9 07 3d b2 1b c4 bf 05 72 22 bf
       0.21601476 0.033196956 -1.5320952 -0.6345523
0000c0 01 f7 2f 3d 25 7d 1c bf b0 cc 43 3e 54 14 6e be
       0.04296017 -0.61128455 0.19121051 -0.23249942
0000d0 fe af 20 be e4 63 e4 3d ce 2b 89 3e 8c c5 2a be
       -0.15692136 0.11151865 0.26791233 -0.1667692
0000e0 68 52 c0 be 56 23 a4 be 49 4c cd 3e 62 ee 14 3e
       -0.3756287 -0.3205821 0.40097263 0.14544061
0000f0 99 db 14 3f 73 fd 06 3f 0b bf 3b be 4d cb 2e bf
       0.5814758 0.5273048 -0.18334596 -0.6827896
000100 41 67 f3 be 56 1a 7f 3e 9c 25 f1 3e a2 56 9e be
       -0.47539714 0.2491239 0.47099006 -0.3092547
000110 d6 ac 9f 3e 90 d1 20 3f 4e 1a b7 be 08 b1 08 3f
       0.3118655 0.62819767 -0.35762256 0.5339513
000120 d4 21 96 3d d2 08 56 bf 9c df 00 3f 76 cb 81 be
       0.07330671 -0.8360721 0.503412 -0.2535054
000130 b6 64 ad bd 2d 55 6e 3e 04 12 15 3e d3 82 70 3d
       -0.08466475 0.2327468 0.14557654 0.058718514
000140 8b 53 c0 be a6 ac 80 bd d0 a0 83 3c ad 7f a8 3c
       -0.37563738 -0.0628293 0.016067892 0.020568693
000150 21 c1 a3 3d ab dc e7 3e b1 33 5b bf 74 de 8a be
       0.07995821 0.45285544 -0.8562575 -0.27122843
000160 32 ee 86 3d ca c5 b2 3c bb 3b 67 3e 6b 95 ff be
       0.06588401 0.021822829 0.22581379 -0.49918684
000170 a1 ae 87 be 43 42 11 be 12 48 d0 bd 88 99 81 bd
       -0.2650042 -0.14185433 -0.10169996 -0.06328112
000180 42 30 cc 3e d6 87 56 be a2 b9 b9 be e8 f2 14 3f
       0.39880568 -0.20950255 -0.3627444 0.58183146
000190 af 1a 1c bf 90 df c2 3d 57 7f a4 be e7 d0 c9 3e
       -0.60978216 0.095152974 -0.32128403 0.39417192
0001a0 8d 9c 45 bf b9 c9 b9 be 86 98 94 bf 00 d6 07 3f
       -0.77192 -0.36286715 -1.1609046 0.53060913
0001b0 ab 5e 93 be bc f1 3d be 62 a7 a6 3e 36 ad 62 3f
       -0.28783163 -0.18549246 0.32549578 0.8854555
0001c0 06 aa c0 3e f6 99 f0 3e a9 28 91 bd cd 6f 59 be
       0.37629718 0.46992463 -0.070878334 -0.21234055
0001d0 ff d4 40 3a f9 f6 bd 3e 6e f2 61 3d 59 ff 14 3e
       0.00073559576 0.37102488 0.05516284 0.14550532
0001e0 8c b4 18 3e f9 19 68 bd 6e 3b 90 bd b4 a4 e8 bd
       0.14912623 -0.056665394 -0.07042585 -0.1135954
0001f0 45 d2 1d be 4c 48 a4 bd 52 12 ae 3e 51 32 1b 3f
       -0.15412243 -0.08021602 0.33998352 0.6062365
000200 09 0e 27 bd 18 63 a6 bc 9c 97 c5 be 1c e7 1b 3f
       -0.04078487 -0.020310923 -0.3859223 0.6089952
000210 86 92 5c 3e 4e 7c 1f 3e 46 95 2b 3f 1a 17 2c 3d
       0.2154027 0.15574762 0.6702465 0.04201422
000220 00 88 18 be b4 9a 2a bf 12 99 df 3e 77 f9 24 be
       -0.1489563 -0.6664231 0.4367147 -0.16110788
000230 f3 4c f9 bd 14 af 97 3e 8d 8c 50 be 45 4e 6a bd
       -0.1217288 0.29625762 -0.20366116 -0.05720355
000240 4f 29 da 3c 27 f8 ef be 50 cd 9b be 6d f5 b8 3d
       0.026631026 -0.46869013 -0.30430079 0.09031186
000250 1b 2a 44 3d d6 72 91 bc 5c 10 01 be 38 d0 cd 3e
       0.047891717 -0.017754953 -0.12603897 0.4019792
000260 e3 45 bf 3d 22 f6 4c bd 17 5a 9f 3c a7 ad f1 be
       0.09339502 -0.050039418 0.019452138 -0.472028
000270 13 43 31 3f 0d 5a af be 8f 2b af 3e 65 cd b5 3e
       0.6924297 -0.3424839 0.3421292 0.35508266
000280 e2 21 9d bf 24 17 c2 3e 2e a7 65 bd 21 ed 55 3d
       -1.2275965 0.3790828 -0.056067638 0.052228097
000290 67 6c d8 bd bd 1f 19 be 7e 0b 47 3d 2f e3 02 be
       -0.10567551 -0.14953513 0.048594944 -0.12781976
0002a0 2e ad e9 3e 25 83 0f bf de 6c d7 be 01 d5 46 be
       0.45639938 -0.56059486 -0.42075247 -0.19417192
0002b0 b5 d9 56 bd 08 bb 82 be 9e 50 94 be 0a 9c 95 be
       -0.052453715 -0.2553332 -0.28967756 -0.2922061
0002c0 3b 98 39 3f 38 c6 e4 be 95 15 6b bf b3 f4 e7 be
       0.7249791 -0.4468248 -0.91829807 -0.45303878
0002d0 42 c6 bb be db 49 87 3c 25 00 f1 bd 46 c4 18 3e
       -0.36674696 0.01651471 -0.11767606 0.14918622
0002e0 c8 20 6e bf 46 5c 89 3c 0b af 83 be 0d 28 4b be
       -0.9301877 0.016767632 -0.25719485 -0.19839497
0002f0 a3 82 eb 3d 20 4d 8e 3e 04 3c 2d 3d d8 8e 57 3c
       0.11499526 0.27793217 0.042293563 0.013156615
000300 2d 54 e4 bd 73 05 20 3e 10 8b 67 be 95 9e 5f be
       -0.11148868 0.15627079 -0.22611642 -0.21837838
000310 27 80 0d be dd 3c 24 3e 59 7d e9 be dd 9d ad 3c
       -0.13818417 0.16038842 -0.45603445 0.02119344
000320 78 bc 24 3f 1e a2 a5 bd 37 56 b9 bf fe 01 56 3e
       0.6435008 -0.08087562 -1.4479436 0.20899197
000330 47 bb f1 3e 1d 00 00 bf e6 38 be be df db 45 bf
       0.47213194 -0.5000017 -0.37152785 -0.7728862
000340 e2 b4 87 bf 17 95 19 3e 3d 2d 10 3f 9b 2b 80 be
       -1.0602076 0.1499828 0.5631903 -0.25033268
000350 89 02 94 be 23 83 bf bb 7b 3b d1 be 94 65 43 3e
       -0.28908184 -0.00584449 -0.40865692 0.19081718
000360 d9 97 71 be 3a ba fd be c3 42 1a be 58 f5 37 be
       -0.23593082 -0.49556142 -0.1506453 -0.17964685
000370 b1 6e 2d 3d 50 62 f9 3e f2 a8 b3 be 2d 90 79 bf
       0.04234189 0.4870782 -0.35089833 -0.9748562
000380 e0 7a d9 b8 ac 3a 2a 3f fc 98 09 3f 2b 5b 21 bd
       -0.000103702536 0.66495776 0.5374906 -0.039393585
000390 de b6 31 3f 9a 16 1d 3f a4 74 58 be af cd d0 3e
       0.6941966 0.6136261 -0.21138245 0.40781924
0003a0 95 06 a7 3d 49 d8 01 bf 44 05 ba 3e 26 be 63 be
       0.08155552 -0.5072065 0.36332142 -0.22240505
0003b0 b7 f5 f8 bd 57 7a 99 3e 71 5a 7a 3d e9 f4 b3 be
       -0.121562414 0.2997615 0.061121408 -0.3514779
0003c0 3c 45 16 bf 66 ec ec 3e 45 54 de 3e 24 0a 0f 3f
       -0.58699393 0.46274108 0.43423668 0.5587485
0003d0 21 da 7f bd d5 67 95 3e 50 f4 1b 3f 72 b7 3f 3e
       -0.062463883 0.2918078 0.60919666 0.18722323
0003e0 0b 1d b1 be 34 33 d6 be d0 22 d5 3e 3a cb b0 3d
       -0.3459247 -0.4183594 0.41628122 0.086325124
0003f0 f4 f9 a6 bd 3b fe 9d 3d ec ae 23 3f 02 93 20 3f
       -0.081531435 0.07714506 0.63938785 0.62724316

linearSequential.0.bias f4 [128]
000000 0c e5 a5 b9 6c a3 ca 3e f7 6c 95 bf bb 14 7e be
       -0.00031641906 0.39577806 -1.1673878 -0.24812596
000010 6a 09 24 3f 6d 4e 2f bf 89 5c 0d bf f4 bb 49 be
       0.64076865 -0.68479043 -0.5521932 -0.19700605
000020 24 5d 94 bf bd 60 53 be e0 87 35 bf 04 70 25 bf
       -1.1590924 -0.20642371 -0.70910454 -0.6462405
000030 6f b2 c3 bf 93 98 02 bf 13 c2 87 bf fd 97 9d be
       -1.5288829 -0.5101406 -1.0606102 -0.3078002
000040 48 50 4f bf f4 cb 8e bf 50 ef b5 bf f6 23 71 bf
       -0.80981874 -1.1155992 -1.4213657 -0.941955
000050 20 05 d8 be e6 ed 9e bf 7b ba 6f bf 9b dd 41 bf
       -0.4219141 -1.2416351 -0.9364392 -0.7572877
000060 3e 3f 0c be 01 e0 4d bf 7e aa 08 3f fb 08 bb be
       -0.13696 -0.8041993 0.5338515 -0.3653029
000070 c7 8e 67 bf 92 8d 7a bf e8 23 27 3f b3 0b 88 bf
       -0.90452236 -0.9787227 0.65289164 -1.062857
000080 4a 59 68 bf cd 71 a1 be 46 af 07 be ce 5d d2 be
       -0.90761244 -0.31532136 -0.13250455 -0.41087192
000090 fd 80 90 bf c1 73 4b bf af 06 73 bf e0 f5 64 be
       -1.1289364 -0.794735 -0.94932073 -0.22359419
0000a0 88 ee 19 bf be 01 0a bf cc 4f 40 bf e4 87 89 bf
       -0.60129595 -0.5390891 -0.7512176 -1.0744596
0000b0 bd ab 45 bf 69 85 d9 be 9b b7 9d be 86 7d 90 be
       -0.77215177 -0.42484596 -0.30804142 -0.28220767
0000c0 66 d6 5a bf da db 0c bf 5f f4 a1 bb 19 9f 21 bd
       -0.85483396 -0.55022967 -0.0049424614 -0.039458368
0000d0 1a d7 0f 3e 3d 33 ae be 42 ae 54 bf f8 ec 05 bf
       0.14046898 -0.34023467 -0.83078396 -0.5231471
0000e0 08 2b 07 be 31 86 8b be 5d 71 3d 3f 00 59 69 bf
       -0.13200009 -0.27250817 0.74001104 -0.9115143
0000f0 d0 9c 9a bf ff d5 0c bf 71 1b b2 bf b8 c2 86 bf
       -1.2079105 -0.5501403 -1.3914624 -1.0528173
000100 cc ed 32 bf d9 08 4d bf 38 7f 13 bf 34 70 38 bf
       -0.698941 -0.80091625 -0.57615995 -0.7204621
000110 92 5e 37 bf be 2b e7 be e3 ff ad be a4 83 9a bf
       -0.7162868 -0.4515056 -0.3398429 -1.2071424
000120 ce b8 53 bf 38 9c 4f bf 91 74 13 bf 83 71 33 3f
       -0.82703865 -0.81097746 -0.5759974 0.7009508
000130 3b 49 3b bf c5 fd d4 3d c6 d7 de be ed 27 5d bf
       -0.73158616 0.10399965 -0.43523997 -0.86389047
000140 af 72 76 bf 78 ea f5 be 57 7a 32 bf 9c 89 3e bf
       -0.96268743 -0.48030448 -0.69717926 -0.74428725
000150 aa 1d 4f bf 96 20 0c bf 94 89 c6 bf 8e ec 93 bf
       -0.8090464 -0.5473722 -1.5510736 -1.1556566
000160 e5 84 d9 be 2a ed 6a bf d6 6d 6d 3e 63 98 e6 3e
       -0.42484203 -0.91768134 0.2318643 0.45038137
000170 79 48 25 bf a3 87 2b bf 51 e0 84 be 1c 3e 65 bf
       -0.6456371 -0.6700384 -0.2595239 -0.89547896
000180 b4 84 27 bf ee ed 90 be 73 99 eb bd 45 72 1e bf
       -0.65436864 -0.28306526 -0.115038775 -0.6189311
000190 9b af 73 be 34 ec 87 bf 44 3f 22 bf e5 61 9e be
       -0.23797457 -1.0618958 -0.63377786 -0.30934063
0001a0 d4 3d cf be 18 6c a8 3d 57 2d fd be 9d c0 36 bf
       -0.4047686 0.08223742 -0.49448654 -0.71387655
0001b0 3f 23 09 bf 53 f1 ee 3e a8 bf 31 bf 1e 23 a2 bf
       -0.53569406 0.4666849 -0.6943307 -1.2666967
0001c0 08 9e cf be cc f8 27 bd 21 0c 0b bf 14 21 35 bf
       -0.40550256 -0.041008756 -0.5431538 -0.707536
0001d0 23 5c 81 bf bc 88 8c bf a7 3c 7a bf 81 e6 f2 be
       -1.0106243 -1.0979228 -0.977488 -0.47441486
0001e0 c1 55 ac bf 39 48 81 bf f0 de 8b 3d f2 09 57 bf
       -1.346367 -1.0100166 0.06829631 -0.8399955
0001f0 59 a5 a3 bf 7b 2c 25 bf 63 9d 1e be db c2 49 bf
       -1.2784835 -0.64520997 -0.15489726 -0.7881295

linearSequential.2.weight f4 [64, 128]
000000 2a 48 40 bd 5b d0 1b 3d 60 a1 cd bb dd 2f fe bc
       -0.04694382 0.0380405 -0.006275341 -0.031028682
000010 c5 cf 3f bc ee 64 6d bd 32 0f 12 be be cb da 3c
       -0.011707251 -0.057957582 -0.14263609 0.02670848
000020 d6 74 cd bc 87 08 59 be b4 a9 8e bd fa 8f 97 3c
       -0.025080126 -0.21194659 -0.06965962 0.01850127
000030 d4 e3 bb bc 4c fa d9 bd 83 3f f0 bd 29 77 51 bc
       -0.022935785 -0.106434435 -0.11730864 -0.012784758
000040 d8 98 21 bc 65 c6 c7 bd f6 d1 d0 bd fd cc f5 bd
       -0.009863101 -0.09754638 -0.10196297 -0.12001989
000050 c1 91 e1 bd 20 ae 52 3d d5 32 f2 3c a7 49 97 bd
       -0.110141285 0.05143559 0.029565254 -0.07387095
000060 94 5c e6 bd 14 55 0a be 9b a8 c8 bc 9c de eb bd
       -0.112481266 -0.13509017 -0.02449446 -0.11517069
000070 5b b2 20 bc 94 f7 7d bd b9 31 b9 3c ee 89 31 3d
       -0.009808148 -0.062003687 0.022606717 0.04334443
000080 35 47 fa bc cd 8b c3 3c 22 26 8e 3c a1 39 11 bd
       -0.030551532 0.023870373 0.017352168 -0.03545535
000090 c4 92 06 bd ba a7 9e 3c 48 77 8d 3d ec f0 e3 bd
       -0.03285481 0.019367088 0.06907517 -0.111299366
0000a0 c5 fc c9 bd 37 f9 78 be 7e f2 d6 bc 4d 98 e1 bd
       -0.09862665 -0.24313818 -0.026238676 -0.11015377
0000b0 4b 80 96 bd 5e ef 98 bc b1 3e c6 bd 9f 4d ed bd
       -0.07348689 -0.018668827 -0.09679926 -0.11587071
0000c0 b6 d5 a3 3c 31 c5 4a 3c 5a c1 02 be b2 95 29 bd
       0.019999366 0.012376116 -0.1276907 -0.041402526
0000d0 17 56 e4 3c 89 e4 83 bd 1d f6 9a bd a6 d8 4d bd
       0.027873082 -0.06440074 -0.07566474 -0.05025544
0000e0 40 28 af 3b 72 5f b9 bd 6f 5b 81 bc ff a5 e8 bd
       0.0053453743 -0.09051408 -0.01579067 -0.11359786
0000f0 21 72 d4 bd 3b 20 2b be 73 e3 7d bd 4b 11 a7 bd
       -0.10373331 -0.16711514 -0.06198449 -0.08157595
000100 f8 c0 b0 bd b1 cc 96 3b e4 34 42 3d 35 8f dd bd
       -0.08630556 0.004602038 0.04741372 -0.1081833
000110 12 7e ca bd 69 05 99 be 41 bd e9 bc 6d 40 c0 3c
       -0.09887327 -0.2988694 -0.028532626 0.02346822
000120 fd 56 e4 bd 16 20 b9 bd 3b 13 f7 3c e7 4c 3b 3c
       -0.11149404 -0.09039323 0.030160537 0.011431909
000130 10 3c 0f bd 01 c1 01 be 52 3d 2c 3d 34 8b f4 bd
       -0.03496939 -0.12671281 0.042050667 -0.119406134
000140 a9 d8 9f bd 78 c9 01 be c5 54 8e bd af 9a b5 bd
       -0.078049965 -0.1267451 -0.06949762 -0.08867394
000150 0d 01 b5 bd ee 6a ea bc 53 d1 77 bb 57 2c d6 bc
       -0.08838091 -0.028615441 -0.0037813976 -0.02614419
000160 80 76 37 bd 94 e9 be bd 1b b4 0d be a3 c8 72 3d
       -0.044790745 -0.09321895 -0.13838236 0.059273373
000170 26 f9 4a bd 8c eb 8e bd 8c 50 bd bd 27 3e 86 3c
       -0.049554013 -0.06978521 -0.09243879 0.016387058
000180 4a f2 b7 3b 50 71 80 bd a1 72 5a bd d5 98 01 be
       0.0056136 -0.06271613 -0.053331975 -0.12655957
000190 14 91 26 3d d5 1f 7e bc 04 18 be bd b5 33 a0 bd
       0.0406657 -0.015510519 -0.09281924 -0.07822362
0001a0 e0 c7 c0 3c 65 90 9e bc 25 ec ef bd 0e 9f a5 3c
       0.023532808 -0.019355962 -0.11714963 0.020217445
0001b0 04 a8 55 be 6c 74 3d be bc 10 54 3d 30 3e 1c 3d
       -0.20864874 -0.18501443 0.05177377 0.038145244
0001c0 8a d0 01 3d 46 15 ce bc 88 40 ac 3c da fa bf bd
       0.03169302 -0.025156628 0.021026865 -0.09374018
0001d0 48 b4 51 bd f6 b1 c1 3c 5f db 2c bd 58 a2 00 bd
       -0.05119732 0.023644429 -0.042201396 -0.031404823
0001e0 9a 04 5c bd c6 fb db bd bd c6 eb bc f2 1f 0d 3d
       -0.053715326 -0.10741381 -0.02878129 0.034454294
0001f0 81 2e 2c bd 8f a8 45 be 70 19 59 bd 26 7e 61 bd
       -0.042036537 -0.19302581 -0.053002775 -0.055051945
000200 8f 69 a1 3c 7a 6b c7 bb af c7 ee ba e4 ba d7 bd
       0.019703655 -0.0060858103 -0.0018217469 -0.105336934
000210 03 70 86 bd 5c 39 da bd 97 55 7e 39 bf 66 c4 b9
       -0.06564333 -0.10655472 0.00024255212 -0.00037460585
000220 60 d7 88 bd a4 ed 1b 3c f0 43 87 bd 8d 25 07 3d
       -0.066817045 0.009517107 -0.06604755 0.032994796
000230 4e 42 ff 3c 32 f8 c4 bd 07 9f 2c 3a 18 91 c1 bc
       0.031159546 -0.09617652 0.0006584976 -0.023628756
000240 73 4c db bd d0 77 dd 3c 4a 46 b3 bd f4 67 a7 3d
       -0.10707941 0.02703467 -0.08753641 0.08174124
000250 f2 1b 4f bd 91 ce bf 3c 5f 79 e7 bd 2a 68 c6 3c
       -0.05056376 0.023413928 -0.113024466 0.024219591
000260 df 8e 26 3d a0 84 6a be 91 e8 99 bd dd b1 de bd
       0.040663596 -0.22902155 -0.07515062 -0.108737685
000270 ff 1d 09 3c 35 12 cd bd 0b fe b8 bd 1e 66 ce bd
       0.008368968 -0.10013238 -0.0903283 -0.10078071
000280 62 69 20 bc 83 06 ea bc 9a ae 98 bd fc ce b3 bd
       -0.00979075 -0.028567558 -0.074551776 -0.087797135
000290 56 1c 1f be e2 c9 35 bd a2 c3 87 bd c8 61 94 bd
       -0.15538153 -0.044381984 -0.06629111 -0.07245213
0002a0 b7 49 82 3d 74 ae e0 bd 43 af 9b bc 6b 7a d8 bd
       0.06361716 -0.10970774 -0.01900447 -0.105702244
0002b0 d0 80 1d bd 17 45 03 bd 60 5e 08 3d 1e 4d 6f 3b
       -0.038452923 -0.03204831 0.033293128 0.0036514471
0002c0 91 13 d1 bb e1 a2 c3 bd fb 96 b3 bd 12 15 3e 3d
       -0.0063805063 -0.09552551 -0.087690316 0.046406813
0002d0 db 8e 05 be 68 40 8f bd e4 4f a6 bd fa d8 b2 3c
       -0.13042776 -0.069947064 -0.08120707 0.021831978
0002e0 71 58 4f 3d ee 7a 01 3a bc 48 0f 3d 77 79 2d bc
       0.050621454 0.00049392774 0.034981474 -0.0105880415
0002f0 8c 82 1f bd 33 86 80 bd 4b d4 73 bc 1f 22 0b bd
       -0.03894286 -0.062755965 -0.014882158 -0.033968087
000300 cd e2 c9 bd 6c 37 91 bd 8a 5d 2b bd 10 a2 0e bd
       -0.09857712 -0.07090649 -0.041837253 -0.034822524
000310 4b f0 d8 bd 9b f3 a3 3c 81 65 33 be 11 13 f9 bb
       -0.10592707 0.020013621 -0.1751919 -0.00760115
000320 f7 6e 4e 3d 8a 50 ab bc d7 3f 84 bd dd 6c 62 ba
       0.050398793 -0.020912427 -0.06457489 -0.0008637438
000330 34 eb 33 3d 3a 3e 8d bd de 18 ba 3c 13 74 b5 bd
       0.04392548 -0.068966344 0.022716936 -0.0886003
000340 27 62 97 3c 29 85 87 bd b0 52 84 3b b6 4c e4 3c
       0.01847942 -0.06617195 0.0040381774 0.02786861
000350 82 3c 9e bd 62 93 1b bd 54 69 b0 bd be c1 e8 3c
       -0.07726385 -0.037982352 -0.0861384 0.028412696
000360 ca 45 05 bd b4 d7 67 bd c8 42 99 bd dc 77 9d bd
       -0.03253726 -0.056602195 -0.07483441 -0.07688877
000370 9d 86 ca bc 85 7b 5f ba 85 d4 96 bd 54 0f 40 3c
       -0.024722392 -0.0008525181 -0.07364754 0.0117224045
000380 fc 9a a0 b9 41 89 e1 bd a3 48 66 bd 92 f1 b2 bc
       -0.0003063305 -0.11012507 -0.056221616 -0.021843705
000390 e3 79 36 bd 5c 67 72 bd f8 5b 3e bd 90 a3 9d bd
       -0.044549834 -0.059180602 -0.046474427 -0.07697213
0003a0 6d b8 7f ba c6 3b d1 bd b4 bb 52 bd 13 81 02 bd
       -0.00097549596 -0.10216479 -0.05144854 -0.031861376
0003b0 1e ef f8 bd fc 6f 53 bd 07 a1 e6 bc 9b bc 82 bd
       -0.12154983 -0.05162047 -0.028152956 -0.0638363
0003c0 0b f7 f5 bd 52 f9 ef bd 19 e9 92 3c 47 3e 91 bc
       -0.1201001 -0.11717476 0.017933415 -0.017729891
0003d0 e0 cf b6 bd 0a 27 6d 3c 80 e1 57 bd 17 88 35 3c
       -0.08926368 0.01447464 -0.052705288 0.01107981
0003e0 57 cd 84 3d e6 55 4c 3d db 97 59 3c ed c2 be 3c
       0.06484478 0.049886607 0.013280834 0.023286307
0003f0 5a 6f 0f be ea 90 ca bd 09 35 d5 3b 8d a3 a6 bd
       -0.14007321 -0.098909214 0.0065065664 -0.081366636

linearSequential.2.bias f4 [64]
000000 21 27 fb bd 90 d9 7d bd f6 3c 02 bd 78 cb 66 bd
       -0.122633226 -0.061975062 -0.031796418 -0.056346387
000010 77 40 9f bc 62 43 16 be 3b ec 3a be 3e 5e 80 be
       -0.019439919 -0.14674142 -0.18254177 -0.250719
000020 a3 e2 0a be 3c d2 9f 3c e1 59 90 bd 16 6f b6 bd
       -0.13563018 0.019509427 -0.07048393 -0.08907907
000030 fa c0 66 bd a3 27 96 bb b1 c3 40 be e5 3e 91 bd
       -0.05633638 -0.004582362 -0.1882465 -0.07092074
000040 98 fe 5d be ea f5 36 bd 34 8b 8f bd a5 68 02 3f
       -0.21679151 -0.044668116 -0.07008973 0.50940925
000050 05 98 02 be 57 2a 1e bc 7b 19 b0 bc 69 8d ae bc
       -0.12753303 -0.009653649 -0.021496525 -0.021307664
000060 73 d8 9c bd c4 40 ea bd 4c fb 81 bd e2 81 3b be
       -0.07658472 -0.11438134 -0.06346759 -0.18311265
000070 7c 7e cb bb c6 0c 30 be a7 ee b3 bc 09 d7 4e bd
       -0.0062101465 -0.17192373 -0.021964384 -0.050498042
000080 8e 04 59 bd 40 62 34 be 01 9e f9 bd ec 09 aa bd
       -0.05298286 -0.17615604 -0.1218834 -0.08302674
000090 9d 3a 15 bd fe 19 be bd 12 44 3c be 8a bf 92 bd
       -0.03643285 -0.09282301 -0.18385342 -0.071654394
0000a0 06 48 d9 bd d8 0b 94 bb 93 f0 70 ba e1 bd 20 be
       -0.106094405 -0.0045180134 -0.0009191122 -0.15697433
0000b0 3a b4 66 be 7e b2 90 be 58 ce 8f be 6c bc 1e bc
       -0.22529688 -0.2826118 -0.28087115 -0.009688478
0000c0 59 1e b4 bd 9e 2e dd bd 2e 64 ff bd 81 07 93 bd
       -0.08794851 -0.10799907 -0.1247028 -0.07179166
0000d0 1f 01 84 bd 2a 88 9c bd 5d 41 03 bf c6 38 a9 3b
       -0.06445526 -0.07643159 -0.5127161 0.0051642386
0000e0 a5 20 aa be 23 8a 8c be 68 a3 e1 bc 80 81 e9 bd
       -0.3322803 -0.2744914 -0.027543738 -0.11401653
0000f0 22 d4 d2 bc 84 21 48 be a2 ba 34 bd 5c 95 af bd
       -0.025735918 -0.19544035 -0.0441233 -0.0857341

linearSequential.4.weight f4 [32, 64]
000000 3f f5 74 bd 06 91 cb 3d c8 84 55 3d 5a 1c 86 bd
       -0.059804197 0.099397704 0.052128583 -0.065483764
000010 61 ec 27 3c e9 59 f1 bd ec ba 73 bd 1c f0 fa bc
       0.010249228 -0.11784727 -0.059504434 -0.030632071
000020 13 c0 26 3d 72 e9 2d 3c 1d b8 b8 bd 9c 28 ee 3c
       0.04071052 0.01061474 -0.09019492 0.029072098
000030 3a 62 af bc c1 17 97 3d b5 19 8c b9 7d 28 7f 3d
       -0.021409143 0.073775776 -0.00026722034 0.062294472
000040 32 3f ca bc f6 f6 1d bd 66 dd 85 3d ec 15 d2 3c
       -0.024688337 -0.0385656 0.06536369 0.025645219
000050 14 c0 19 3e 80 57 da 3d c2 b2 50 3d 78 9f c0 bc
       0.15014678 0.106612206 0.050951727 -0.02351354
000060 a9 27 dd 3d b9 af c5 3b cd 8a aa bc 83 e6 39 3e
       0.1079858 0.0060329107 -0.020818138 0.1815434
000070 20 0f b6 be 75 c6 ec bb ac 13 bd 3d 4c 7a b7 bd
       -0.35558414 -0.0072258064 0.09232268 -0.08958873
000080 4b 98 db 3d 49 71 a5 3d 61 8c 39 3d 45 05 b4 bc
       0.10722407 0.08078248 0.04529989 -0.021975169
000090 29 53 fb bd ba 71 80 bd 98 0d ae bd 36 62 d3 3d
       -0.12271721 -0.062716916 -0.084986866 0.103214666
0000a0 1e 3e 8a bd af d0 94 3b 71 9e ac bc 0d ce a9 bc
       -0.06750129 0.0045414786 -0.021071644 -0.020728135
0000b0 c1 70 0b 3c 7c 98 3e be dd 7d aa bd 25 88 d9 bc
       0.008510769 -0.18612856 -0.08324788 -0.026554177
0000c0 39 7a 49 bd 86 8e 2e bc 8b d2 57 3d 77 4a 26 bd
       -0.049188826 -0.010654097 0.052691024 -0.04059836
0000d0 f8 af 0f be 45 4a 37 be ce ea 10 be 1c a0 d0 3d
       -0.1403197 -0.17899425 -0.14152071 0.101867884
0000e0 24 42 ed b9 0b 62 a9 3d 29 fd a5 bd cf 76 fa 3d
       -0.0004525344 0.08270653 -0.08104927 0.12229692
0000f0 a5 1d 26 bc 46 a0 1d be 6c ff 73 3d 8a 58 2f bd
       -0.010138904 -0.1539317 0.05956976 -0.042809047
000100 a6 d5 d6 3d 3a 9b a9 3a 82 bc 07 3d 42 07 3b bd
       0.10489969 0.0012939938 0.03313876 -0.04566122
000110 01 10 79 bd 65 7f 87 bd b4 7d 9a bd 24 2f f3 3c
       -0.06080628 -0.066160955 -0.07543507 0.029685564
000120 da 11 18 be 06 f5 95 3c b2 eb 08 3c 8d 2f 14 be
       -0.1485056 0.018305313 0.008356975 -0.14471264
000130 a3 85 a7 bd 7c 8f f6 bd 6d 3d a5 bd 19 f3 f1 3d
       -0.08179786 -0.12039086 -0.08068357 0.11813945
000140 0f 5c 3c bc 1c c4 2d bc 11 e0 0a be a0 9b 84 be
       -0.011496558 -0.010605838 -0.13562037 -0.25899982
000150 1e ff 28 3c 79 cc 3d bc 53 6b 51 3d 8d 8b 73 3d
       0.010314731 -0.011584395 0.051127743 0.059459258
000160 47 9a 4d bc 6c 61 96 bd a9 7f 2e bd d1 67 d7 bc
       -0.01254899 -0.073428005 -0.042602215 -0.02629462
000170 4a de 87 be d5 ba 24 be c1 34 c0 bd b9 48 6a bc
       -0.2653678 -0.16086896 -0.09385062 -0.014299565
000180 94 d1 57 3d 6f 2f 9a bd b9 54 70 3c 08 95 a8 bc
       0.052690104 -0.075285785 0.014668637 -0.020578876
000190 e5 e4 b9 bc 70 72 32 bd 00 32 19 ba 1a 9f 1e bd
       -0.022692153 -0.043566167 -0.00058439374 -0.03872595
0001a0 fe 25 93 bd 7d 1d a1 bd 0e 40 3c 3d 95 fb 86 3b
       -0.07184981 -0.078669526 0.045959525 0.0041193464
0001b0 b5 38 83 3b 3c b8 f4 bd 82 69 9d 3d ce 73 49 3c
       0.0040045627 -0.119492024 0.0768614 0.012295676
0001c0 16 11 46 3e 54 45 45 3d 33 e0 a6 3c b3 ee af 3d
       0.19342455 0.04816182 0.020370578 0.0859045
0001d0 7b 81 69 3b 60 b9 b6 bd 1c 24 22 bd 0c 64 1d 3e
       0.0035630155 -0.08922076 -0.039585218 0.15370196
0001e0 4f 65 0e be 8f 34 96 bc cd dc 57 bd 64 86 82 bd
       -0.13905834 -0.018335609 -0.052700806 -0.06373289
0001f0 80 d1 f7 bd 6d ee d1 bd b2 0d 2c 3c a9 f3 23 3c
       -0.12100506 -0.10250554 0.010501312 0.010006824
000200 03 e6 94 3d 3f 6a 81 3c 63 a5 07 be be 9e dc bd
       0.07270434 0.015797732 -0.13246684 -0.10772465
000210 95 cc 52 bd 31 25 23 bd 4c 99 2c 3d 60 85 9c be
       -0.051464636 -0.03983039 0.042138383 -0.30570507
000220 d8 5c 51 3d ed 5b 94 bd b9 22 96 3d 6a 3b b4 3d
       0.051113933 -0.07244096 0.073308416 0.08800395
000230 bf 08 f7 3c e6 b6 d3 bd 3b f6 f4 bb 1b 9c bb bc
       0.030155538 -0.103376195 -0.007475642 -0.022901585
000240 b8 10 b1 3d 44 c8 d6 3c 35 b1 32 3d c9 8f f2 bd
       0.08645767 0.026218541 0.04362603 -0.11843831
000250 a1 0b b4 3d 45 8e 16 3d f0 c9 e3 bd 6f e5 45 be
       0.087912805 0.036756773 -0.11122501 -0.19325803
000260 44 ea 20 bd 82 58 28 3c 6c 1f a6 bd e8 68 1a bd
       -0.039285913 0.010275008 -0.08111462 -0.037697703
000270 fa 70 2c be f2 a5 81 bd 97 0b 73 bd 32 85 f8 bc
       -0.16839972 -0.0633048 -0.059337225 -0.03033695
000280 af 7a 03 3e 86 56 b4 3c 3a 99 88 bc 55 36 a8 3c
       0.12839769 0.022013914 -0.016674627 0.02053372
000290 b4 44 be ba 87 af 13 bc e0 5e d2 bc 28 bc bb 3d
       -0.0014516325 -0.009014017 -0.025680006 0.09166747
0002a0 44 17 5c 3d 01 41 ea 3c 79 b2 eb bd b2 e4 9f bd
       0.053733125 0.02859545 -0.1150865 -0.07807292
0002b0 c0 22 43 bd e1 c8 27 bd 5b 78 e1 bd 37 94 9e bd
       -0.047640562 -0.040963057 -0.11009284 -0.077431135
0002c0 23 7f e4 bd 28 64 b2 3d ad 4c ff bd 27 a9 5a bd
       -0.11157062 0.087105095 -0.124657966 -0.053383972
0002d0 da b7 14 be f9 a6 f9 3d f5 3f e4 bc 1a dc 4d 3d
       -0.14523259 0.12190051 -0.027862528 0.050258733
0002e0 82 97 5f 3c 1e 87 6f bd 4b a4 da bc 5d f5 85 bc
       0.013646962 -0.058478467 -0.02668967 -0.01635235
0002f0 ff 35 fc 3c ee 66 f4 bd 98 5b bc 3d 66 62 51 be
       0.030787466 -0.11933695 0.091971576 -0.20447692
000300 5a be 6c bd a2 0e 7a 3d c7 87 31 bd 88 d3 4c 3d
       -0.05779872 0.06104911 -0.043342378 0.05000642
000310 d3 f1 02 be 4d 17 1f be b4 52 98 3c 00 c6 d0 bc
       -0.12787561 -0.15536232 0.018594123 -0.025485039
000320 a0 1f 30 3c 41 4f c1 bd a0 29 88 3d 75 c5 98 3d
       0.0107497275 -0.094389446 0.06648564 0.07459537
000330 d2 03 ba 3d 13 68 05 3d 47 d7 80 bd 2e 44 95 3c
       0.0908276 0.032569956 -0.06291061 0.018220987
000340 24 e8 ec bc 3e 33 d0 bd cc a2 36 bd 03 af 02 be
       -0.028919287 -0.10166024 -0.04458885 -0.12762074
000350 30 45 9c 3d f7 86 00 be 9d 50 8a 3d e4 32 8c bd
       0.07630384 -0.12551485 0.06753657 -0.06845644
000360 7d a1 19 be 69 f2 dc be 11 3c 02 3c f6 98 eb bd
       -0.15003009 -0.43153694 0.007948891 -0.11503784
000370 b4 ea 2b bf 2f f7 bd bd cb 0e 85 bc bb 78 1b bc
       -0.67155004 -0.09275662 -0.016242405 -0.009489234
000380 a0 b7 90 3b 49 f9 ec bb 8a b7 01 be cb 04 27 bd
       0.004416421 -0.0072318655 -0.12667671 -0.040776055
000390 80 15 49 bd 50 70 88 3d c0 0a 72 bd 64 a1 8f bd
       -0.04909277 0.06662047 -0.059092283 -0.07013205
0003a0 32 35 d1 bd 65 91 ab ba 56 1c b5 bd 90 3e 77 3d
       -0.10215224 -0.0013089596 -0.08843295 0.0603624
0003b0 9c 50 49 3d 72 43 cf bd 8e 9e b5 bd 64 fb a2 bd
       0.04914914 -0.10120286 -0.088681325 -0.07958105
0003c0 cf d1 03 bd 48 6e 97 bc 8b e0 13 be 3c fb 42 bc
       -0.03218251 -0.018485203 -0.14441125 -0.011900719
0003d0 b4 0f 98 3d 1d 41 39 bd b7 27 43 bd 3b 31 c9 3c
       0.0742487 -0.045228112 -0.047645297 0.024559608
0003e0 69 a3 9a 3d 8b 74 95 bd 79 7e 05 3a ad 93 bc 3d
       0.07550699 -0.072976194 0.0005092393 0.092078544
0003f0 44 a9 57 bd ca a0 03 be 7c ac 3e 3d 65 88 f0 bd
       -0.05265166 -0.12854305 0.046551213 -0.11744765

linearSequential.4.bias f4 [32]
000000 0d 6d 18 be 8b f1 2e be c9 0c 86 bd d9 69 81 bc
       -0.1488535 -0.17084329 -0.06545407 -0.015797542
000010 bd fe ed 3c 89 46 8c bd 9e 2a b3 be 38 9a 7e be
       0.029052133 -0.06849391 -0.34993452 -0.24863517
000020 d7 0e f6 bd 7a cb c9 bd 5e 23 1d be e7 5d aa bb
       -0.12014549 -0.09853263 -0.15345523 -0.0051991823
000030 f2 80 e4 bd 16 e3 a5 be 1c c1 0a be 83 f0 ad bd
       -0.11157407 -0.32399815 -0.13550228 -0.084931396
000040 92 8d 49 be b9 d6 1e 3e ed f1 18 bd 80 e0 3a be
       -0.19682911 0.15511598 -0.037340093 -0.18249702
000050 88 b6 b6 bd 45 1c 3b be ee c7 8c be 4d 9c e0 3d
       -0.08921534 -0.18272503 -0.27496284 0.10967312
000060 64 2b 1d be d8 3d 2e bd 60 fa 13 be 80 a9 1a be
       -0.15348583 -0.042539448 -0.14450979 -0.15103722
000070 92 3a 89 bd 6a 02 d0 bc cf bf 3e be 90 0a 4d be
       -0.067006245 -0.025391776 -0.18627857 -0.2002356

linearSequential.6.weight f4 [16, 32]
000000 08 8c 20 be ec 13 c5 3d e7 89 fe 3d ea 20 05 3e
       -0.15678418 0.096229404 0.124286465 0.13000837
000010 a3 12 68 bd 97 ad 30 be a5 70 a3 be 3e 45 8b 3c
       -0.0566584 -0.1725372 -0.31921878 0.01700079
000020 5a df 95 bd 1b 5f 5e bc 50 7b 2a 3c 78 4d 79 bd
       -0.073179916 -0.01357248 0.010405377 -0.060864896
000030 9c ff 71 be be d2 ad 3d f5 a5 ce bd 5b e7 68 3d
       -0.23632663 0.084874615 -0.100902475 0.056861263
000040 e7 30 29 be 74 16 ae be 53 df 8b be 8f 7c 94 bd
       -0.16522561 -0.34001505 -0.2731882 -0.0725032
000050 59 fc 70 bd 50 52 cb 3c 36 23 d3 3d 3a 3f 48 be
       -0.058834407 0.024819523 0.1030945 -0.19555369
000060 30 7a 19 bd 4d fb ce bd 5f 11 87 3d 6a 33 b6 3d
       -0.037470043 -0.101065256 0.0659511 0.08896525
000070 cf 93 a5 bc c7 27 48 be 6e c9 36 be 60 40 40 be
       -0.020212082 -0.19546424 -0.17850277 -0.18774557
000080 8b 27 20 bd 77 f1 fb b9 73 d9 b3 bd 9f 02 b3 3d
       -0.03910021 -0.00048054356 -0.087817095 0.08740734
000090 59 fb a9 be 11 73 c7 bd bb 87 df 3d 6b ba 12 3d
       -0.33199576 -0.09738744 0.109145604 0.035822313
0000a0 90 4d ab bd 38 32 c3 bd 45 18 a5 bd 29 95 87 bd
       -0.08364403 -0.09531063 -0.0806127 -0.06620247
0000b0 e6 fe ba 3d 7c f3 00 3e 0a 1c 2a be b0 3e 86 bd
       0.09130649 0.12592882 -0.16612259 -0.065549254
0000c0 fc 7e 08 be d3 e3 59 be 88 d2 5a be e6 0d f8 bd
       -0.1332969 -0.21278314 -0.21369374 -0.12112026
0000d0 35 a2 92 bc ba 64 66 3c 92 33 80 3b 20 63 2b be
       -0.017899612 0.014062101 0.0039123977 -0.16737032
0000e0 5a a1 79 bd a0 de 9e 3d 83 43 2c 3c 2d 5f d8 bd
       -0.060944892 0.07757306 0.010514143 -0.10565028
0000f0 53 55 0c be cb 5b c5 bd 96 e4 c6 bd b9 f8 70 bc
       -0.13704424 -0.09636649 -0.09711568 -0.014707738
000100 af 74 60 bd 20 86 bf bd 25 c0 52 3d 23 cf 94 bd
       -0.05479878 -0.09351754 0.051452775 -0.07266071
000110 e8 46 33 be 74 43 12 bc 19 bb 9e bc 35 96 51 bc
       -0.17507517 -0.008927215 -0.019376324 -0.01279216
000120 7d 00 43 3d 18 a8 7e bc 06 c7 b5 bd 38 67 8d bd
       0.047607888 -0.015543006 -0.08875851 -0.06904453
000130 f1 d5 50 3c 95 c9 5d bd fa 85 4f 3d c1 ab 18 be
       0.01274632 -0.05414732 0.05066488 -0.14909269
000140 a7 35 ef 3d a3 b9 80 bc ed 16 5c 3e 12 bf 03 3e
       0.11680155 -0.015713518 0.2149312 0.12865856
000150 f4 72 28 bd 9c e9 2a 3e 99 e9 a1 3d c7 8a d1 3b
       -0.041125253 0.16690677 0.07905883 0.0063947174
000160 d9 ef bf 3d a4 b9 79 3e c1 0a a1 3c 85 40 f1 bd
       0.09371919 0.24387223 0.019658448 -0.11779884
000170 61 3c 2d 3e 49 96 47 3d 76 51 05 be 1f 4e e7 bd
       0.16917564 0.048727307 -0.13019356 -0.11294197
000180 58 e8 43 be 4d 24 b7 3d 39 a0 0e 3e f9 38 07 bc
       -0.19131601 0.08942471 0.13928308 -0.008253329
000190 af b2 25 3e 58 12 8e bd 7a f0 90 be 09 4e fd bd
       0.16181444 -0.069370925 -0.2830847 -0.123684
0001a0 6d f2 2a 3c fc 7b a4 bd 56 4b 29 3d 80 37 fb 3b
       0.010433775 -0.08031461 0.04133161 0.007666528
0001b0 80 5c 83 3c bd a9 0b 3e d5 8f 9e bc 39 4b 13 3e
       0.016035318 0.13638969 -0.019355694 0.14384164
0001c0 b3 52 34 3d fb 2e 96 bd da 89 c6 be 27 91 1c 3e
       0.04402418 -0.073331796 -0.38777047 0.15289746
0001d0 bc 4d 9b bd 0c 28 8b 3d 8c c1 a5 bd 74 e0 53 3d
       -0.07583186 0.06794748 -0.08093557 0.051727727
0001e0 3f 51 d2 3d 67 7f f0 3c ad fa fb bb 08 3d 79 bd
       0.10269403 0.029357625 -0.007689795 -0.06084922
0001f0 72 88 f6 bd 5d 96 9e bd 79 85 e2 3d 67 c0 26 be
       -0.12037744 -0.07743523 0.11060614 -0.16284333
000200 0a fb 14 3e a7 05 02 be d0 a3 0d be 0b 24 01 3e
       0.14548889 -0.12697469 -0.13832021 0.12611406
000210 a9 7a 00 bf 6b 4e 91 3d 13 fb b4 3d 1b cc 9e 3b
       -0.50187165 0.07095035 0.08836951 0.0048461086
000220 48 c0 3e bc 1f 3e cd bd a8 04 2f be 1a e3 cf bd
       -0.011642523 -0.10021614 -0.1709162 -0.10150738
000230 c1 46 25 be 44 d0 3e 3d dc 9e 19 bc 90 d9 7e 3d
       -0.16140272 0.046585336 -0.009376254 0.062219203
000240 e5 97 14 bd 88 4c 67 be d4 cc 56 be 32 8f 73 bd
       -0.03627767 -0.22587788 -0.20976573 -0.059462734
000250 e0 9b 7b be 07 af bb 3c 74 96 d4 be 63 66 a9 bb
       -0.2457118 0.022910608 -0.41521037 -0.005169676
000260 39 4e 16 3e 8b 0f f0 bd 5a 63 c1 3b ac 07 f7 bd
       0.14678277 -0.117217146 0.005901736 -0.1206201
000270 ba d2 b3 3d 0d 1a 9d 3d d5 a8 65 3d 7c 6c 24 3d
       0.08780427 0.076709844 0.056069214 0.04014252
000280 72 c4 cb bd b3 74 09 3e 5e ee f7 bd f1 e2 e4 bd
       -0.09949578 0.13423423 -0.12106012 -0.11176098
000290 59 b3 9f bd 1d 20 4e bd 2e 2f 02 be 0a b6 84 bd
       -0.0779788 -0.050323594 -0.1271331 -0.06480034
0002a0 82 2b 3d be 49 5c c8 3d 4a c1 62 bd d9 5f 3b bc
       -0.18473628 0.09783227 -0.055360116 -0.011436426
0002b0 71 23 08 be f5 b5 3e be 4a 6f cf 3d b2 5a c8 bd
       -0.1329477 -0.18624099 0.101286486 -0.09782924
0002c0 44 73 69 3d d3 86 98 bd 9a e0 a4 bd 21 f5 17 3e
       0.05699469 -0.07447591 -0.08050652 0.14839603
0002d0 1e d8 b8 3d 1e 3a d0 3d ce da 03 be ee 62 09 be
       0.09025596 0.10167335 -0.12876436 -0.13416645
0002e0 ca 27 a5 3d 4e 13 95 3b 92 fd cc bc 67 67 23 3e
       0.0806423 0.0045494204 -0.025023255 0.15957414
0002f0 c9 d7 bc bd 65 26 a8 3d c1 bb 4a be 01 83 da bd
       -0.09220845 0.08210448 -0.19798185 -0.10669518
000300 c8 ce 56 3d ac be 07 3e d5 8f a9 3d 35 9f 46 bc
       0.052443296 0.1325633 0.08279387 -0.012122919
000310 cc 9c 7f be 7f 50 29 bd 6a a6 62 be 72 b0 2d 3e
       -0.24962157 -0.041336533 -0.22133794 0.1696184
000320 02 2a eb 3c bd 86 94 3d eb 50 58 3d d2 bb 8b bd
       0.028706554 0.07252262 0.052811544 -0.06822933
000330 d9 64 82 bd fa da b8 bd f0 8e bf 3d 64 9e 57 bd
       -0.063668914 -0.090261415 0.09353435 -0.052641287
000340 54 07 03 bc 3a e4 18 bc a8 88 50 3e 44 c1 fc bc
       -0.007997353 -0.009331757 0.2036463 -0.030853875
000350 34 1c f8 bd 0c 61 12 bd 25 56 08 3d 32 86 c3 3b
       -0.12114754 -0.035737082 0.03328528 0.005966925
000360 d1 3f d9 3d 1f f1 61 bd 4e 2a 11 3e 1d 4f c2 bd
       0.10607875 -0.05516159 0.14176294 -0.09487746
000370 2d 27 ca bd 44 96 d5 bc ff ea 4b 3d 20 e0 52 3d
       -0.098707534 -0.026072629 0.049784657 0.051483274
000380 ac c3 c6 35 8a 9d 0a be 35 87 22 be c1 3d 51 3d
       1.4809098e-06 -0.13536659 -0.1587189 0.051084284
000390 dd 73 ae bd 51 9c 0d be fc ed 50 be 1a ba f5 3d
       -0.08518193 -0.13829161 -0.20403284 0.11998387
0003a0 0c 37 da bd e4 34 4e be c8 48 92 bc 38 f1 b5 bd
       -0.106550306 -0.20137364 -0.01785697 -0.088838995
0003b0 29 73 49 be 0a 47 b4 3d 32 e4 ad 3d c5 06 1b 3b
       -0.19672836 0.08802612 0.084907904 0.0023655158
0003c0 68 cf a0 bc 78 ad 1a be f1 93 84 bd 4c b8 3b 3d
       -0.019630149 -0.15105236 -0.0647353 0.045830056
0003d0 62 a2 22 be bd fa 92 bd f5 40 ef 3d 54 ea 3a bc
       -0.15882257 -0.07176731 0.116823114 -0.011408407
0003e0 53 72 10 3e 96 d0 ca 3d 45 cc 4c 3d e6 8b 16 be
       0.14106111 0.09903066 0.049999494 -0.14701805
0003f0 74 e8 b2 bd 63 38 bc bd 7d e6 0a bb c1 d8 66 3d
       -0.08735743 -0.091904424 -0.002119451 0.056359056

linearSequential.6.bias f4 [16]
000000 42 18 4c bd 55 c1 a4 bc d1 4d 2a 3e f4 d4 59 be
       -0.04982782 -0.02011172 0.16631247 -0.21272641
000010 80 08 7e bb 63 03 ff bc 8d 7a 06 3e 5b 06 67 bd
       -0.003876239 -0.031129545 0.13132687 -0.056402545
000020 a5 60 4c be 08 6d 5e 3e ab 9c 3d 3e 30 d2 12 3e
       -0.19958742 0.2172128 0.18516795 0.14337993
000030 68 01 e7 bd 56 b8 40 3e c4 61 87 be fe 22 27 3e
       -0.11279565 0.18820319 -0.26441777 0.16321942

linearSequential.9.weight f4 [1, 16]
000000 e3 40 d9 3c ad 4a ff 3c a3 36 e3 3d 5c da bf bd
       0.026520198 0.031163538 0.110944055 -0.093678206
000010 e6 bc 5c 3c a8 9c c5 bd 52 0a 05 3e c2 76 2b be
       0.013472771 -0.096490204 0.12992218 -0.16744521
000020 e5 91 3a 3e 99 9a 3f 3e 9e 67 07 3e 0a d7 f4 3d
       0.18219717 0.18711318 0.1322312 0.11955078
000030 75 f0 f5 bd 2f 2c 1f 3e 7f b3 db 3d aa 6a da 3d
       -0.12008754 0.15544198 0.107275955 0.10664876
