nnwf/nets/state_dicts/nnwf.pt (torch, 985423 bytes, 15 tensors)

linearSequential.0.weight f4 [128, 28]
0	0x3f30a940	0.69008255
1	0xbecf69ea	-0.40510494
2	0xbdc98f21	-0.09841753
3	0x3d85debc	0.06536624
4	0xbe4e703b	-0.2016
5	0x3e301c81	0.17198373
6	0xbe092e31	-0.13396527
7	0x3da44e0e	0.080227
8	0x3e0e8c7c	0.13920778
9	0x3df3201f	0.11871361
10	0x3db12eb4	0.08651486
11	0xbd086c66	-0.0333065
12	0x3fab7d17	1.3397549
13	0x3d2dc60c	0.0424252
14	0x3edcd066	0.43127745
15	0xbe958ede	-0.29210562
16	0xbe20d484	-0.15706068
17	0x3eba9c20	0.3644724
18	0xbd72964a	-0.059225358
19	0xbe164e8f	-0.14678405
20	0x3bc049eb	0.0058681867
21	0x3d18ff61	0.037352923
22	0xbd92c0f8	-0.07165712
23	0xbe0e260a	-0.13881698
24	0xbc25c9d0	-0.010118917
25	0x3bdac40b	0.006676202
26	0x407a9205	3.9151623
27	0x3dbeb663	0.09312131
28	0x3c3942e6	0.011307454
29	0x3eba0ad0	0.36336374
30	0xbdcd681d	-0.10029624
31	0x3d0362e6	0.03207674
32	0xbe5d0e5a	-0.21587506
33	0x3e48f458	0.1962446
34	0x3e4004be	0.18751809
35	0x3c39e007	0.011344916
36	0xbe33da55	-0.17563756
37	0xbe89780f	-0.2684941
38	0x3d5e215c	0.054231033
39	0x3dfb211c	0.122621745
40	0xbe23d2d5	-0.15998395
41	0xbec593b1	-0.38589242
42	0xbe1fa3cc	-0.15589827
43	0x3e1d8db0	0.1538608
44	0xbcee5b9b	-0.029096415
45	0x3c8821a1	0.016617598
46	0x3db02d22	0.086023584
47	0x3e8bdc0d	0.27316323
48	0x3decffed	0.115722515
49	0x3d6107c6	0.054939054
50	0x3d8c526f	0.068516605
51	0xbdf7d855	-0.12101809
52	0xbdd0045d	-0.10157082
53	0x3da07b83	0.07836058
54	0x3f12a019	0.5727554
55	0xbdcfac2b	-0.1014026
56	0x3de1766c	0.11008915
57	0xbec72128	-0.38892484
58	0xbe731289	-0.2373754
59	0xbdc31ff3	-0.09527578
60	0xbd82c767	-0.06385689
61	0x3dafc6d4	0.08582845
62	0xbeb36b23	-0.35042676
63	0xbe1ee18c	-0.15515727
64	0xbe854b4f	-0.26034018
65	0x3e82bcca	0.2553466
66	0xbdd64c72	-0.104637995
67	0xbd5f1584	-0.05446388
68	0x3fa5c601	1.2951051
69	0xbd3e9f20	-0.046538472
70	0xbcce7c34	-0.025205709
71	0xbe6fecb0	-0.23430133
72	0xbef992fd	-0.48744956
73	0xbe5dcbe7	-0.21659814
74	0x3e5a38bb	0.21310703
75	0xbd381c07	-0.044948604
76	0xbe3dde0d	-0.18541737
77	0x3d51bfd1	0.05120832
78	0xbe3e81d7	-0.18604217
79	0xbd8c4d1e	-0.068506464
80	0xbca2c19e	-0.019867714
81	0xbd5229b4	-0.051309302
82	0x4056f0f1	3.358456
83	0xbd0726e6	-0.03299608
84	0x3ea4a852	0.32159668
85	0xbe9984ff	-0.2998428
86	0xbd0957e5	-0.03353109
87	0x3cef2eae	0.029197063
88	0xbd9ffc94	-0.07811847
89	0x3e22e6a4	0.15908295
90	0x3dab8412	0.083748
91	0x3bb60a65	0.0055554383
92	0x3e373af6	0.17893586
93	0x3dc3e37f	0.09564876
94	0xbda07af6	-0.07835953
95	0xbe19d77e	-0.1502361
96	0xbe0e6056	-0.13903937
97	0xbcac5f79	-0.021041619
98	0x3f07ba30	0.53018475
99	0xbeef96d5	-0.46794763
100	0x3e8a1e68	0.26976323
101	0x3e0ae81c	0.13565105
102	0x3dd4c3ea	0.1038893
103	0x3e988d11	0.29795125
104	0x3e1bbc0a	0.1520845
105	0xbc2653cd	-0.010151816
106	0x3d20255e	0.039098136
107	0xbc304cf5	-0.0107605355
108	0xbe050ffa	-0.12994376
109	0x3dff4944	0.12465146
110	0x3f4d2110	0.80128574
111	0xbd6491e1	-0.055803183
112	0xbed7ec81	-0.42172626
113	0x3f05699c	0.5211427
114	0xbedcac55	-0.4310023
115	0xbec65223	-0.3873454
116	0xbe238cd6	-0.15971693
117	0x3cc04381	0.023469688
118	0xbebadc9f	-0.36496446
119	0x3d14847b	0.036259156
120	0x3d358b4d	0.0443223
121	0x3d343e2c	0.044004604
122	0xbc5c98f8	-0.013464205
123	0x3e1e0082	0.15429881
124	0xbfbed000	-1.4907227
125	0xbe4d68dd	-0.20059533
126	0xbf31055d	-0.6914881
127	0x3f23e144	0.64015603
128	0xbe9af9af	-0.30268618
129	0x3e7bfb13	0.24607496
130	0xbccc2715	-0.02492098
131	0x3dd4745a	0.10373755
132	0x3db29640	0.08720064
133	0x3da47399	0.08029861
134	0x3e5b3d1c	0.2141003
135	0xbb99bc12	-0.004691609
136	0xbe8032aa	-0.25038654
137	0xbd5e90a7	-0.05433717
138	0xc047604f	-3.1152532
139	0x3e380f4f	0.1797459
140	0xbe846d7f	-0.2586479
141	0x3d3b04d1	0.04565889
142	0x3df708c7	0.12062221
143	0xbe7f3680	-0.24923134
144	0xbdba870a	-0.09107788
145	0xbeaa22d5	-0.332297
146	0xbbfb3a78	-0.007666882
147	0x3e3eb20d	0.18622608
148	0x3e70101d	0.23443647
149	0x3df809be	0.12111233
150	0xbe821bc1	-0.254118
151	0x3cab349f	0.020899115
152	0xbe621e02	-0.2208176
153	0x3e242f89	0.16033758
154	0x3ce9fd44	0.02856315
155	0xbc138c0d	-0.009005559
156	0x3cfa9704	0.030589588
157	0xbee4a187	-0.44654486
158	0xbd8df17e	-0.069308266
159	0xbe7d088c	-0.24710292
160	0x3d64712b	0.055771988
161	0x3e298e5e	0.16558215
162	0x3dd8d2dd	0.10587094
163	0xbe4a35eb	-0.1974713
164	0xbd6b8e79	-0.05750892
165	0xbe01bde9	-0.12670101
166	0xc000018b	-2.0000942
167	0x3eab8511	0.3349996
168	0xbf147642	-0.5799295
169	0x3f1c6b10	0.61100864
170	0x3db6cc04	0.08925632
171	0xbcc0e19e	-0.023545083
172	0x3dfbf224	0.12302044
173	0xbdfb5f8f	-0.12274086
174	0x3e0a3993	0.13498525
175	0xbe893085	-0.2679483
176	0xbe53cc40	-0.20683384
177	0xbe4146f0	-0.18874717
178	0xbe160000	-0.14648438
179	0x3e1d1535	0.15340121
180	0x3f997df6	1.1991565
181	0xbddd4fac	-0.10806212
182	0xbf1aa949	-0.6041456
183	0x3ef01fa6	0.46899146
184	0xbe2f8013	-0.171387
185	0x3bcc724f	0.0062392126
186	0x3e62fd23	0.22166876
187	0xbbd87c95	-0.006606648
188	0xbdb5d2a0	-0.08878064
189	0x3c8ea1e0	0.017411172
190	0x3d6828ad	0.056679416
191	0x3e06f56d	0.1317956
192	0x3d69bb60	0.05706346
193	0xbdf67e40	-0.12035799
194	0x40561f30	3.3456535
195	0x3d396b45	0.045268316
196	0x3f0a86d9	0.5411201
197	0xbf2aed98	-0.6676879
198	0xbd46ccf7	-0.048535313
199	0xbed9490b	-0.4243854
200	0xbdfd8ee6	-0.12380771
201	0xbede8be3	-0.434661
202	0x3dc9dbe4	0.09856394
203	0xbdad2bf7	-0.08455651
204	0x3d24961e	0.040182225
205	0x3e3791c4	0.17926699
206	0xbd852030	-0.0650028
207	0xbd113b70	-0.035457075
208	0x3f767a0d	0.96279985
209	0x3bf90275	0.00759917
210	0x3ef48de3	0.477645
211	0xbf3dbd6b	-0.74117154
212	0xbe79b198	-0.24384153
213	0x3e24f346	0.16108426
214	0x3b911f54	0.0044287834
215	0xbdeb610e	-0.11493121
216	0xbd901aad	-0.07036338
217	0x3e9bd8df	0.30438897
218	0x3e9cc754	0.30620825
219	0x3ddad7e9	0.10685713
220	0xbd6d99db	-0.058008056
221	0x3d0769cd	0.033059884
222	0x3fcfe071	1.6240369
223	0x3eb8f0ce	0.3612122
224	0xbea6ba0b	-0.32563815
225	0x3e8dc3c2	0.27688414
226	0xbe09327d	-0.13398166
227	0x3b97d412	0.004633435
228	0xbdbeb0e4	-0.09311083
229	0xbcab59b7	-0.020916803
230	0xbdb60152	-0.088869706
231	0xbc98181d	-0.018566186
232	0x3ce42e0e	0.027853992
233	0x3ce68ae8	0.028142408
234	0x3cfca4bd	0.030840272
235	0xbd05d42a	-0.03267304
236	0xbd419fa2	-0.04727138
237	0xbe5c02c0	-0.21485424
238	0xbe592e28	-0.21209013
239	0x3e8f1c39	0.2795122
240	0x3dfb1005	0.12258915
241	0xbd969ab8	-0.07353729
242	0xbd1e61f6	-0.03866764
243	0x3d37edd7	0.044904556
244	0x3e07872e	0.1323516
245	0xbd214f2f	-0.039382156
246	0x3dece811	0.11567701
247	0x3d15d828	0.036583096
248	0xbda62c2b	-0.08113893
249	0x3c4d9ba8	0.012549318
250	0x3f269030	0.6506376
251	0xbdc32955	-0.09529368
252	0x3e1e54a4	0.15461975
253	0x3e865f78	0.26244712
254	0x3dfb9dfd	0.12285993
255	0x3e2a75d9	0.16646518

linearSequential.0.bias f4 [128]
0	0x3d999168	0.07498437
1	0xbe550a9e	-0.20804831
2	0xbe25bbc5	-0.1618491
3	0xbe69d216	-0.22834048
4	0xbe0e6d64	-0.13908917
5	0x3e216ead	0.15764876
6	0x3d7471a1	0.059678677
7	0xbd364193	-0.04449613
8	0xbe7d7a29	-0.24753632
9	0xbe315100	-0.17316055
10	0xbe6dd775	-0.23226722
11	0xbe8b6088	-0.27222085
12	0x3d949515	0.07254998
13	0xbe534950	-0.20633435
14	0xbe795907	-0.24350367
15	0xbe83e656	-0.2576167
16	0xbe50cb4b	-0.2039005
17	0xbe745676	-0.23861107
18	0xbe9414f3	-0.28922233
19	0x3e941ead	0.28929654
20	0xbe31fde8	-0.17382014
21	0xbe5e992b	-0.21738116
22	0xbe3c28c7	-0.1837493
23	0xbe962732	-0.2932678
24	0x3c756a90	0.01497902
25	0x3dbc1113	0.09182944
26	0xbd25e978	-0.040505856
27	0xbdc3b50a	-0.09556015
28	0xbe2ef94b	-0.17087285
29	0x3e5375c9	0.206504
30	0x3e7c9029	0.24664368
31	0x3c97f325	0.018548558
32	0xbd91440d	-0.07093058
33	0xbe65c971	-0.22440125
34	0xbe9ff778	-0.3124349
35	0xbe37b01d	-0.17938276
36	0xbe63b156	-0.22235617
37	0x3c3814f6	0.011235466
38	0xbca64bac	-0.020299755
39	0x3d989aa9	0.07451374
40	0xbd532c44	-0.051555887
41	0xbe1ee13d	-0.15515609
42	0xbe83e773	-0.2576252
43	0xbe9e9132	-0.3097015
44	0xbe35b691	-0.17745425
45	0xbe39d3b9	-0.18147172
46	0x3c475564	0.012166355
47	0xbe5a56b2	-0.21322134
48	0xbe7c2a13	-0.24625425
49	0xbbb96e47	-0.005658898
50	0xbe690596	-0.22756037
51	0xbe7aaba6	-0.24479541
52	0xbe0977f1	-0.1342466
53	0xbe4e2a19	-0.20133246
54	0xbdf4f4f0	-0.119607806
55	0xbc40d476	-0.011769405
56	0xbe27d757	-0.1639074
57	0xbd82df61	-0.063902624
58	0xbe3cd48c	-0.18440455
59	0xbe3e9a54	-0.18613559
60	0xbe5bd927	-0.21469556
61	0xbdeaa7a8	-0.11457759
62	0xbe484f60	-0.19561529
63	0xbea0a5c9	-0.31376484
64	0xbd98e50e	-0.07465564
65	0xbe841a0c	-0.25801122
66	0xbe05f6c8	-0.13082421
67	0xbe348931	-0.1763046
68	0xbdfe647e	-0.12421511
69	0xbe2beb16	-0.16788897
70	0xbe609d20	-0.21934938
71	0x3c3a8ea7	0.01138655
72	0x3ba86b75	0.005139763
73	0xbe7ff802	-0.24996951
74	0x3d5b1ce6	0.053494357
75	0xbe14f86d	-0.14547892
76	0xbeafb971	-0.34321168
77	0xbe4b644b	-0.19862477
78	0xbe1ca0cb	-0.15295713
79	0xbe5d65d4	-0.21620876
80	0xbe3a32df	-0.18183468
81	0xbe7951b8	-0.2434758
82	0xbd678020	-0.056518674
83	0x3d4f3ff4	0.0505981
84	0xbd0c7860	-0.034294486
85	0x3cc1207d	0.023575062
86	0xbdc487ab	-0.09596189
87	0xbe0cf4aa	-0.13765207
88	0xbe8c7b46	-0.274378
89	0xbe0abf9c	-0.13549656
90	0x3dcccfbf	0.10000562
91	0xbda37cee	-0.07982813
92	0x3d92605b	0.071472846
93	0xbe3272e1	-0.17426635
94	0x3bf4623f	0.007458001
95	0xbe8f1f62	-0.2795363
96	0xbdffb8b9	-0.12486405
97	0xbe63b0f4	-0.22235471
98	0xbd25e576	-0.040502034
99	0xbdc8dc51	-0.09807647
100	0xbe20eab3	-0.1571453
101	0xbc7c1ed4	-0.015388209
102	0x3e386952	0.18008927
103	0x3e10a2a7	0.14124547
104	0x3b5e5cdc	0.003392986
105	0xbe12e0d2	-0.14343575
106	0xbe87fc94	-0.2655989
107	0xbe0188ef	-0.12649892
108	0xbe344837	-0.17605673
109	0xbd7848b6	-0.060616218
110	0xbdcecfbf	-0.10098218
111	0xbe34096c	-0.17581719
112	0x3e76d77b	0.24105637
113	0xbd848ff9	-0.06472773
114	0xbe88b423	-0.26699933
115	0xbe176f91	-0.14788653
116	0xbe33e013	-0.17565946
117	0xbdc9178c	-0.09818944
118	0xbd854326	-0.06506948
119	0xbaf96e80	-0.0019030124
120	0xbcc7f848	-0.024410382
121	0xbd946b2e	-0.072470054
122	0xbdccfa06	-0.10008626
123	0xbdd7f9bf	-0.10545682
124	0xbe211a47	-0.1573268
125	0xbe4bedbb	-0.19914906
126	0xbe84ce74	-0.2593876
127	0xbe916f47	-0.2840521

linearSequential.2.weight f4 [512, 128]
0	0xbdc9e5b7	-0.09858268
1	0xbcf655ca	-0.030070204
2	0x3dfb803a	0.12280317
3	0xbd2ab673	-0.041677903
4	0xbe0c2ff0	-0.13690162
5	0x3c99b43b	0.018762698
6	0xbd93e01e	-0.07220481
7	0xbd94b4ed	-0.07261071
8	0x3d438b04	0.047739998
9	0x3d752521	0.059849862
10	0x3c01057f	0.0078748455
11	0x3dcced4a	0.10006197
12	0xbd207492	-0.03917367
13	0x3ec1f43c	0.3788165
14	0x3d585ce4	0.052822962
15	0xbde3315f	-0.11093401
16	0xbdb0625f	-0.08612513
17	0x3d09bcfb	0.03362749
18	0x3e611419	0.21980323
19	0xbe6462d9	-0.22303332
20	0xbdd8d652	-0.10587753
21	0xbd7c4357	-0.061587658
22	0xbd24ab91	-0.04020268
23	0xbcbba209	-0.022904413
24	0xbe139d73	-0.14415531
25	0xbe0bbd78	-0.13646495
26	0x3c0fafe1	0.00876996
27	0x3c3110d9	0.010807239
28	0xbdb908f6	-0.09034912
29	0xbd4c31ea	-0.04985229
30	0xbe91acb2	-0.2845207
31	0xbd8a4162	-0.06750752
32	0x3d98d1d7	0.07461899
33	0xbe1916cc	-0.14950103
34	0xbd5d3e97	-0.05401477
35	0x3ceb5716	0.02872805
36	0x3c5e0e94	0.01355328
37	0xbe42c4d3	-0.19020395
38	0xbdb580e5	-0.08862475
39	0xbd697fa9	-0.05700651
40	0xbde315ad	-0.11088119
41	0x3d0ac882	0.033882625
42	0xbd2b14e8	-0.041767985
43	0x3d45fe67	0.04833832
44	0x3e108c14	0.14115936
45	0x3a96d278	0.0011506816
46	0x3d50140b	0.050800364
47	0x3d29df9d	0.04147302
48	0x3c6eb85f	0.014570325
49	0xbced82d1	-0.028993042
50	0xbde77a62	-0.113026395
51	0x3ae67d02	0.0017584863
52	0xbe1dddce	-0.15416643
53	0x3c95440e	0.018220928
54	0x3d19b06f	0.037521776
55	0x3d52289e	0.051308267
56	0x3d22c633	0.0397398
57	0xbd8fe174	-0.07025424
58	0xbdd81e75	-0.10552684
59	0x3d9dd3ee	0.07706438
60	0x3d0b5c3a	0.0340235
61	0xbd640011	-0.055664126
62	0xbd162923	-0.036660325
63	0xbe1ad3a9	-0.15119804
64	0xbe03314a	-0.12811771
65	0x3c1300e0	0.008972377
66	0x3e054f9b	0.13018648
67	0xbdf57637	-0.11985438
68	0xbd068ec6	-0.032851003
69	0xbc9b77ee	-0.018978085
70	0xbd83b6fd	-0.064313866
71	0x3db28188	0.087161124
72	0xbdeb4f51	-0.11489738
73	0x3c310cf7	0.010806314
74	0xbd9f4b4b	-0.07778033
75	0xbd037cd5	-0.03210147
76	0x3db00f9d	0.08596728
77	0xbd800bb7	-0.062522344
78	0x3bd8f0d7	0.006620507
79	0xbcc5441b	-0.024080327
80	0xbd152185	-0.03640892
81	0x3e525c3c	0.20542997
82	0x3c2dea26	0.010614907
83	0xbddde954	-0.108355194
84	0xbd975f89	-0.07391269
85	0xbe0e7764	-0.13912731
86	0xbdf3226d	-0.118718006
87	0x3d1b0885	0.03784992
88	0xbe1973d1	-0.14985587
89	0xbabcc1c6	-0.0014401011
90	0xbd884ffe	-0.06655882
91	0xbe0cbfbf	-0.1374502
92	0x3c90ba74	0.017667033
93	0xbe6189e0	-0.22025251
94	0xbbc32ceb	-0.0059562824
95	0x3c02a312	0.007973449
96	0xbd5f4f79	-0.05451915
97	0x3dad55d3	0.08463635
98	0xbbbd0e39	-0.0057695177
99	0xbcb706c0	-0.022342086
100	0xbcb07ab9	-0.021542894
101	0x3b8b3813	0.004248628
102	0xbe7cb5f7	-0.24678789
103	0xbdf2dfcd	-0.11859093
104	0xbcf52a0e	-0.02992728
105	0x3bfdec47	0.0077491137
106	0x3d16fe56	0.036863647
107	0xbdd4e15f	-0.103945486
108	0x3cc31feb	0.02381893
109	0x3c9de1a5	0.019272635
110	0xbd4b3b57	-0.049617138
111	0x3ccf4659	0.025302099
112	0xbd45ae15	-0.04826172
113	0xbca0a899	-0.019611644
114	0x3d3d620a	0.046236075
115	0xbc8525e4	-0.01625342
116	0xbc91a21a	-0.017777491
117	0xbd8d03da	-0.068855
118	0x3e022a35	0.12711413
119	0xbe32790d	-0.1742899
120	0xbd86b3ff	-0.065773
121	0xbd778036	-0.060425006
122	0x3d695e1f	0.056974526
123	0xbd5f6934	-0.05454369
124	0xbe42d760	-0.19027472
125	0x3e1f2ea5	0.15545137
126	0x3e5477cb	0.20748822
127	0x3c6b880e	0.0143757
128	0xbe66a6e3	-0.225246
129	0xbd8ffc51	-0.070305474
130	0x3d981e66	0.07427673
131	0x3cf30676	0.029666167
132	0xbd56b60c	-0.052419707
133	0xbd418a80	-0.047251225
134	0x3d412289	0.047152076
135	0xbd283c0a	-0.041072883
136	0xbbe61281	-0.007021249
137	0x3de160aa	0.11004765
138	0xbdc56502	-0.09638406
139	0xbda8e1ae	-0.0824617
140	0xbde9e84b	-0.114212595
141	0x3d664f93	0.05622823
142	0xbe09167d	-0.13387485
143	0x3e224165	0.15845259
144	0x3e118358	0.1421026
145	0x3e0725d7	0.13198029
146	0x3e53bb41	0.206769
147	0xbe7fa386	-0.24964723
148	0x3d617b26	0.055049084
149	0x3bfb4302	0.0076679
150	0xbc9be116	-0.019028228
151	0x3e77e9c0	0.24210262
152	0xbb989a58	-0.004657071
153	0xbe5e526f	-0.21711133
154	0x3e04ca24	0.12967736
155	0xbd57e58c	-0.052709147
156	0xbd68d2ca	-0.05684165
157	0xbe0132aa	-0.12616983
158	0xbe610ab4	-0.21976739
159	0xbe29a351	-0.16566207
160	0xbcc7705a	-0.024345566
161	0xbab10075	-0.0013504165
162	0xbcc172c2	-0.023614291
163	0xbdace830	-0.08442724
164	0x3df7bbc7	0.120963626
165	0xbdeb5640	-0.1149106
166	0x3e1ce24b	0.15320699
167	0xbe6f79b3	-0.23386268
168	0xbc4a9556	-0.012364706
169	0x3dba2e76	0.09090893
170	0x3dda8d2f	0.1067146
171	0x3e79eced	0.24406786
172	0xbb32822b	-0.002723823
173	0xbe072392	-0.13197163
174	0x3d716a87	0.058939483
175	0x3da11f2d	0.078672744
176	0xbe23308a	-0.15936485
177	0x3bc75e3c	0.0060842317
178	0x3d9af78b	0.07566746
179	0x3dc9e856	0.09858768
180	0xbe3bb210	-0.18329644
181	0xbdacb946	-0.084337756
182	0xbd5c9932	-0.053857036
183	0x3df9b4b7	0.12192672
184	0x3d7b172a	0.061301388
185	0xbd460a7e	-0.04834985
186	0x3d5e5d5b	0.05428825
187	0xbd004c78	-0.031322926
188	0x3ab651c2	0.0013909864
189	0x3d8d7ddf	0.06908774
190	0xbdb7d688	-0.089764655
191	0x3cd10bdd	0.025518352
192	0xbd9847d4	-0.07435575
193	0x3d1ab03b	0.037765723
194	0x3d3be350	0.04587108
195	0xbddf9d76	-0.10918705
196	0x3d31b01d	0.043380845
197	0x3c5b8846	0.013399189
198	0xbc612cb5	-0.013743569
199	0xbbdb0be4	-0.006684767
200	0x3c8ec615	0.017428437
201	0x3e116f92	0.14202717
202	0xbdb6f1a0	-0.08932805
203	0xbe1e1c5a	-0.15440503
204	0x3e5a0c03	0.21293645
205	0x3e5fc71c	0.21853298
206	0xbde4154e	-0.11136876
207	0xbac9b4d9	-0.001538898
208	0x3d6fba61	0.058527354
209	0xbd880c45	-0.06642965
210	0xbcd25c01	-0.025678637
211	0xbe8de4b4	-0.2771355
212	0x3ce9bf17	0.028533502
213	0xbde5b8a6	-0.112168595
214	0x3d52727a	0.051378705
215	0x3a5a596a	0.0008329364
216	0x3dd6a135	0.104799666
217	0xbd28d032	-0.041214176
218	0xbba484e2	-0.0050207237
219	0xbd6eea42	-0.058328874
220	0xbde079b5	-0.10960714
221	0xbe198ac3	-0.1499434
222	0xbdea27fc	-0.11433408
223	0xbd491d50	-0.04910022
224	0x3c03a5a8	0.008035101
225	0xbd0e5c3f	-0.03475594
226	0xbe247ad2	-0.16062477
227	0x3da30482	0.07959844
228	0x3d71d486	0.05904057
229	0xbe081e80	-0.13292885
230	0x3e1e593b	0.15463726
231	0xbe7bc0c3	-0.24585252
232	0xbd720678	-0.0590882
233	0xbe2548c1	-0.16141035
234	0xb9766b75	-0.00023500419
235	0x3cf45cdc	0.029829435
236	0x3b2b7d08	0.0026167054
237	0xbd76b33f	-0.060229536
238	0xbe1d9b68	-0.15391314
239	0xbccee3a3	-0.02525503
240	0xbe6aff2c	-0.22948903
241	0xbe0097e0	-0.12557936
242	0xbdd18ee1	-0.1023233
243	0x3d350f43	0.044204008
244	0xbda37804	-0.079818755
245	0xbdec63db	-0.115424834
246	0xbe4029f5	-0.18766005
247	0xbe2cf0ad	-0.16888686
248	0xbdf4bbe9	-0.119499035
249	0xbe095ccd	-0.13414307
250	0x3d453a9d	0.0481516
251	0x3ca3f2cc	0.020013236
252	0xbd349ce9	-0.044094954
253	0x3d1cc139	0.03827021
254	0x3dd0b9ba	0.101916745
255	0x3e0a8371	0.13526703

linearSequential.2.bias f4 [512]
0	0xbdec50b5	-0.11538831
1	0xbd5664cf	-0.052342232
2	0xbe2328b9	-0.15933503
3	0xbd93dc04	-0.07219699
4	0xbdbaf684	-0.091290504
5	0xbdcd37a4	-0.10020378
6	0xbdf921fc	-0.12164685
7	0xbe29a490	-0.16566682
8	0xbe0833eb	-0.13301055
9	0x3e3fd860	0.18734884
10	0xbe5c0ad9	-0.21488513
11	0xbd2f9760	-0.04286897
12	0xbe031c3c	-0.1280374
13	0xbd76f56f	-0.060292657
14	0xbd50a213	-0.050935816
15	0xbe35129e	-0.17682883
16	0xbd5db655	-0.054128964
17	0xbe1b5223	-0.15168051
18	0xbe1bf7fb	-0.15231316
19	0xbe238727	-0.15969525
20	0xbe00e5b5	-0.12587626
21	0xbd1e40bd	-0.038635958
22	0xbd838dc9	-0.06423528
23	0xbd48df44	-0.049041048
24	0xbda18a7f	-0.07887744
25	0xbe65080a	-0.22366348
26	0xbe320404	-0.17384344
27	0xbd32123e	-0.04347443
28	0xbe2a08cb	-0.16604917
29	0xbc8e24d3	-0.017351544
30	0xbe6a483f	-0.22879122
31	0xbe379c52	-0.17930725
32	0xbdbd252e	-0.09235607
33	0xbdd85e48	-0.10564858
34	0xbcfac25e	-0.03061026
35	0x3d33b268	0.043871313
36	0xbe3d4bf3	-0.18486004
37	0xbe22285a	-0.15835705
38	0xbe47a7c0	-0.19497585
39	0xbdda35b7	-0.106547765
40	0xbe2879e5	-0.16452749
41	0xbc549072	-0.012973892
42	0xbe3ad058	-0.1824354
43	0xbd4988cd	-0.04920273
44	0xbe4ed405	-0.20198067
45	0xbd676081	-0.056488518
46	0xbd757b9f	-0.059932347
47	0xbddb2eed	-0.1070231
48	0xbda2c327	-0.079473786
49	0xbe445a9e	-0.19175193
50	0xbc2b2fd3	-0.010448414
51	0xbd93529a	-0.071934894
52	0xbd9d6a73	-0.07686319
53	0xbe340956	-0.17581686
54	0xbe26c22d	-0.1628501
55	0xbe276213	-0.16346006
56	0xbd821d57	-0.063532524
57	0xbe240d90	-0.16020799
58	0xbd4fb53b	-0.050709944
59	0xbda7a3c4	-0.08185533
60	0xbe5191ad	-0.20465727
61	0xbd769582	-0.060201176
62	0xbe3804f0	-0.17970634
63	0xbdb03ab1	-0.086049445
64	0xbd8bcc10	-0.06826031
65	0xbe684309	-0.22681822
66	0xbd17c6ba	-0.037054755
67	0x3de063af	0.10956513
68	0xbddf0586	-0.108897254
69	0xbd9de2a3	-0.07709243
70	0xbcc409d0	-0.02393046
71	0x3d165b55	0.036708195
72	0xbe209b61	-0.15684272
73	0xbd8972b9	-0.06711335
74	0xbd83d4ec	-0.06437096
75	0xbde12c5b	-0.10994788
76	0xbe0079ca	-0.12546459
77	0xbc8794eb	-0.016550502
78	0xbe2b16fa	-0.16707984
79	0xbe237753	-0.15963487
80	0xbe6fee59	-0.23430766
81	0xbea1ba2b	-0.31587347
82	0xbdba4891	-0.09095872
83	0xbdb71be4	-0.089408666
84	0xbd78c895	-0.060738165
85	0x3af792b2	0.0018888323
86	0xbe410584	-0.1884976
87	0xbe093b19	-0.1340145
88	0xbe0e20b1	-0.13879658
89	0xbe5b1973	-0.21396427
90	0xbe462d36	-0.19353184
91	0x3d9c99d7	0.0764653
92	0xbc59cc1c	-0.013293292
93	0xbd8ea6ba	-0.06965394
94	0xbde0c8c3	-0.10975792
95	0xbe063fd3	-0.13110285
96	0xbdc1f844	-0.09471181
97	0xbca2130f	-0.019784478
98	0xbd99d646	-0.075115725
99	0xbdedd964	-0.116137296
100	0xbd4941c8	-0.049135
101	0xbe2596a7	-0.1617075
102	0xbdf8c7f8	-0.12147516
103	0xbdc44f87	-0.09585481
104	0xbe3f3f18	-0.18676412
105	0xbd93683a	-0.07197614
106	0xbe0ec156	-0.1394094
107	0xbe6574bc	-0.22407812
108	0xbcb71c69	-0.022352414
109	0xbe84c495	-0.2593123
110	0xbe3eb8eb	-0.18625228
111	0xbe0516bb	-0.12996952
112	0xbe524ec4	-0.20537859
113	0xbe1002e1	-0.14063598
114	0xbdc5fb47	-0.09667068
115	0xbde7d8b3	-0.11320629
116	0xbddb2474	-0.10700312
117	0xbd872d02	-0.066003814
118	0xbd397acb	-0.04528312
119	0xbdf39fb2	-0.11895694
120	0xbd6a64d9	-0.057225082
121	0xbd4e7537	-0.050404754
122	0xbdc8af4f	-0.097990625
123	0xbdafbc9e	-0.08580898
124	0xbdc07662	-0.0939758
125	0xbdb84036	-0.08996622
126	0xbda8da4d	-0.082447626
127	0xbdb0c79b	-0.08631822
128	0xbdbd6e9a	-0.09249611
129	0xbd5213d5	-0.051288445
130	0xbdbb2114	-0.091371685
131	0xbdf5e248	-0.1200605
132	0xbceb8ab6	-0.028752666
133	0xbda82c59	-0.08211584
134	0xbd8afd7d	-0.0678663
135	0xbdc15514	-0.094400555
136	0xbd05ce19	-0.032667253
137	0xbe530fee	-0.20611545
138	0xbe20291e	-0.15640685
139	0xbe5cff28	-0.2158171
140	0xbe1404af	-0.14454912
141	0xbde8c8ee	-0.11366449
142	0xbdedc72c	-0.11610255
143	0xbda72820	-0.0816195
144	0xbe253d64	-0.161367
145	0xbd855514	-0.06510368
146	0xbe38ed91	-0.18059374
147	0xbd91d7d4	-0.07121244
148	0xbe1339a4	-0.14377457
149	0xbd6fd4cd	-0.058552552
150	0xbe38720e	-0.18012258
151	0xbe24799f	-0.1606202
152	0xbdb7ee5c	-0.0898101
153	0xbe548ce6	-0.20756873
154	0xbdb67d2c	-0.089105934
155	0xbda6c24a	-0.081425264
156	0xbd845e43	-0.064632915
157	0xbd90f7f4	-0.07078543
158	0xbdfb1839	-0.122604795
159	0xbd0e991f	-0.034813996
160	0xbe695215	-0.22785218
161	0xbd57fa3c	-0.052728876
162	0xbda08e3e	-0.078396305
163	0xbdb9bc90	-0.090691686
164	0xbd729e8b	-0.05923323
165	0xbe26d864	-0.16293484
166	0xbd96264a	-0.07331522
167	0xbde23d47	-0.11046844
168	0xbde85156	-0.113436386
169	0xbdc1e74f	-0.09467947
170	0xbd802182	-0.06256391
171	0xbe0c80ae	-0.13720962
172	0xbe5ac656	-0.21364722
173	0xbdc21803	-0.09477236
174	0xbdfecf90	-0.12441933
175	0xbdc6baa0	-0.09703565
176	0x3c1588f9	0.009126895
177	0xbd2f1d84	-0.042752758
178	0xbd9e6dfc	-0.077358216
179	0xbd8e6904	-0.06953624
180	0xbdcaac37	-0.098961286
181	0xbb2eb0a4	-0.002665558
182	0xbdc25857	-0.09489506
183	0xbd039db9	-0.032132838
184	0xbdaac742	-0.08338787
185	0xbddb3b27	-0.10704642
186	0xbe38dd0e	-0.18053076
187	0xbcfe3364	-0.031030364
188	0xbe116c06	-0.14201364
189	0xbd1e2482	-0.038609035
190	0xbda63fbb	-0.08117624
191	0xbe0fbc83	-0.14036755
192	0xbd34a21b	-0.04409991
193	0xbd57ecaa	-0.052715935
194	0xbd90e05e	-0.07074045
195	0xbdef116c	-0.11673245
196	0xbdcba395	-0.0994331
197	0xbe43525a	-0.19074383
198	0xbc260dd2	-0.010135131
199	0xbddd799f	-0.10814213
200	0xbdda3737	-0.10655063
201	0xbe0a7817	-0.13522373
202	0xbe0dd532	-0.13850859
203	0xbe0dfd6a	-0.13866201
204	0xbda6a926	-0.08137731
205	0xbe3a6824	-0.18203789
206	0xbdf7a015	-0.1209108
207	0xbdc2801e	-0.09497093
208	0xbd570330	-0.052493274
209	0xbd502214	-0.05081375
210	0xbe3d16b5	-0.18465693
211	0xbd8abf8d	-0.06774817
212	0xbd9bb671	-0.07603157
213	0xbddd6dce	-0.10811959
214	0xbd958fa4	-0.07302788
215	0xbd89a8d0	-0.067216516
216	0xbdb96749	-0.09052903
217	0xbe3197c1	-0.17343046
218	0xbe5dd20f	-0.21662162
219	0xbdabe1a9	-0.08392651
220	0xbe078e22	-0.13237813
221	0xbe49c832	-0.19705275
222	0xbe35baac	-0.17746991
223	0xbda8e85b	-0.08247443
224	0xbd8dfc1f	-0.06932854
225	0xbd73cb57	-0.05952009
226	0xbd958a96	-0.07301824
227	0xbe1e7ac0	-0.15476513
228	0xbd47c18e	-0.048768573
229	0xbe00bcd6	-0.12572035
230	0xbdb9e3fb	-0.09076687
231	0x3c3066f1	0.010766731
232	0xbdd3b08e	-0.103364095
233	0xbd8ffcd4	-0.07030645
234	0xbd8c7c85	-0.06859688
235	0xbd2b0fb5	-0.041763026
236	0xbe06c1fd	-0.13159938
237	0xbdfbb778	-0.12290853
238	0xbd2e0443	-0.042484533
239	0xbdf39d5a	-0.11895247
240	0xbe8691b4	-0.26283038
241	0xbe333d32	-0.17503813
242	0xbe121162	-0.14264444
243	0xbdc23610	-0.09482968
244	0xbe12adf7	-0.14324175
245	0xbd944703	-0.07240107
246	0xbe3c0174	-0.1835993
247	0xbd90c4b3	-0.070687674
248	0xbdb3b630	-0.08774984
249	0xbe01869b	-0.12649004
250	0xbd8f8abc	-0.07008883
251	0xbdc113bd	-0.09427593
252	0xbe31cd5b	-0.17363493
253	0xbd0a3bb9	-0.033748362
254	0xbe607c2a	-0.21922365
255	0xbdde3890	-0.10850632

linearSequential.4.weight f4 [256, 512]
0	0xbd8e8e32	-0.06960715
1	0x3c2d04f5	0.010560264
2	0xbd45936a	-0.048236288
3	0xbc9fc0c7	-0.019501103
4	0xbc8dcdd6	-0.017310064
5	0xbc8084d1	-0.015688332
6	0xbd10ad49	-0.035321508
7	0xbb8c7e01	-0.004287482
8	0xbe1bfb26	-0.15232524
9	0x3ba02252	0.004886904
10	0xbba0c86f	-0.004906706
11	0xbd8fa8dd	-0.0701463
12	0xbde0ee87	-0.109829955
13	0x3c385bc3	0.011252346
14	0xbc815683	-0.015788322
15	0xbd708fe5	-0.05873098
16	0xbd031edf	-0.032011863
17	0xbd2a38fa	-0.041558243
18	0xbc25b1d6	-0.0101132
19	0xbe3db4d9	-0.18526019
20	0xbc45c4e4	-0.012070868
21	0xbddb143e	-0.1069722
22	0xbbd8457a	-0.006600079
23	0x38e337d0	0.000108345994
24	0x3d0a8a57	0.033823337
25	0xbd58bcd4	-0.052914456
26	0x3d8b3a4a	0.06798227
27	0xbcf31a5f	-0.02967566
28	0xbba7119b	-0.0050985343
29	0xbc185596	-0.009297749
30	0xbda761cd	-0.08172951
31	0xbd5d7678	-0.05406806
32	0xbc91441c	-0.017732672
33	0x3cb19876	0.021679144
34	0xbd1e1e22	-0.038602956
35	0xbc3d07b8	-0.011537485
36	0xbc0a8892	-0.008455412
37	0x3d1641b2	0.036683746
38	0xbda04561	-0.07825733
39	0x3cda39e6	0.026638936
40	0x3c1f7112	0.009731548
41	0x3cd4c711	0.025973829
42	0xbc0dca60	-0.008654207
43	0xbd0597bb	-0.032615405
44	0x3c5b4dd3	0.013385254
45	0xbd7e44bd	-0.062077273
46	0xbc87decd	-0.016585732
47	0xbda96231	-0.08270682
48	0xbcd60b9b	-0.02612858
49	0xbbfd3e3f	-0.0077283676
50	0xbe0d9302	-0.1382561
51	0x3d038303	0.032107364
52	0xbda25aec	-0.07927498
53	0xbca0c46c	-0.019624911
54	0xbd06a772	-0.032874532
55	0x3c7cfb79	0.015440815
56	0x3b06f800	0.0020594597
57	0xbcdb8166	-0.0267951
58	0xbd11dfd7	-0.03561386
59	0xbd4b321c	-0.049608335
60	0x3bd9f09f	0.0066509987
61	0x3cf9ca12	0.030491862
62	0xbe2ba998	-0.16763914
63	0xbd82c962	-0.06386067
64	0x3aaced76	0.0013193327
65	0xbc1a5ada	-0.009421075
66	0xbd973c2d	-0.073845245
67	0x3d059e37	0.03262159
68	0xbd35e4d9	-0.0444077
69	0xbbb49c70	-0.005511813
70	0xbca9e2ff	-0.020738123
71	0xbce08c83	-0.027410751
72	0xbd2a5f40	-0.041594744
73	0xbaeac275	-0.0017910736
74	0xbdaffea1	-0.085934885
75	0xbdfab30e	-0.12241183
76	0xbc63aea5	-0.013896619
77	0x3a42f553	0.0007437069
78	0xbd7f9c94	-0.062405184
79	0xbc04436f	-0.008072718
80	0x3c7d76bb	0.015470202
81	0x3afc1df0	0.0019234996
82	0xb8802391	-6.1101404e-05
83	0x3cd78adc	0.02631133
84	0xbd01abd7	-0.03165802
85	0xbdacc120	-0.08435273
86	0x3d5cea8c	0.05393462
87	0xbd9bedfa	-0.0761375
88	0xbdb69401	-0.08914948
89	0x3cb14351	0.021638544
90	0x3bb109e7	0.005402792
91	0xbbe2fbaa	-0.0069269734
92	0x3cededd9	0.029044079
93	0x3cc7ded6	0.024398249
94	0x3c150268	0.009094812
95	0xbbe31f42	-0.0069312165
96	0x3d210885	0.039314765
97	0xbe1007b1	-0.14065434
98	0x3da8aee4	0.08236483
99	0x3d1f4fb3	0.038894366
100	0xbd1f7ea5	-0.038939137
101	0xbc8e4dd3	-0.017371094
102	0x3c8d794f	0.017269759
103	0xbcb2a45d	-0.02180689
104	0xbbc24ca5	-0.005929547
105	0xbd7b30c2	-0.061325796
106	0xbbc48a1d	-0.0059979097
107	0xbd5bcdf0	-0.053663194
108	0x3d66b8da	0.056328632
109	0xbc05639f	-0.008141427
110	0x3cef1862	0.029186431
111	0xbd1dc3d8	-0.03851685
112	0xbd71dd7f	-0.059049126
113	0x39925a25	0.00027914453
114	0x3d55d2b4	0.052202895
115	0xbbef24a0	-0.007298067
116	0xbc033060	-0.008007139
117	0xbce47dca	-0.027892012
118	0xbdd1ed59	-0.102503486
119	0xbc22f5a6	-0.009946262
120	0xbd2c8ad6	-0.04212459
121	0xbd07c65c	-0.033148155
122	0xbd7cd07c	-0.061722264
123	0x397c364f	0.00024052824
124	0xbe3f3600	-0.18672943
125	0xbd8d6481	-0.06903935
126	0xbd80c69b	-0.06287881
127	0xbb0f536a	-0.0021869787
128	0xbce11400	-0.027475357
129	0xbd7b73ea	-0.06138984
130	0x3aea86e5	0.0017892985
131	0xbd97faaf	-0.07420861
132	0xbd755cce	-0.05990296
133	0xbd1557e1	-0.03646076
134	0x3c59f30f	0.013302579
135	0xbd0cdebf	-0.034392115
136	0xbd03afc0	-0.03215003
137	0x3d423706	0.047415756
138	0x3aa9269d	0.0012905184
139	0x3d8a6b09	0.067586966
140	0xbd5c91c5	-0.053849954
141	0x3d0439ef	0.032281812
142	0xbc71a816	-0.0147495475
143	0xbd0c0ef8	-0.034193963
144	0xbdd42c5b	-0.10360023
145	0xbd66336f	-0.056201395
146	0xbd31c531	-0.043400947
147	0xbce3e3c2	-0.027818564
148	0xbd920e46	-0.07131629
149	0x3e3e3ebb	0.18578617
150	0xbb32a8f8	-0.0027261358
151	0xbdadccd6	-0.08486335
152	0xbd56fc1d	-0.052486528
153	0xbdc669ce	-0.096881494
154	0xbd596fc5	-0.053085107
155	0xbda17ae8	-0.07884771
156	0x3cb4704e	0.022026207
157	0xbc82af2a	-0.015952665
158	0x3b8dcc4c	0.0043273326
159	0xbd796cae	-0.06089466
160	0xbdfd5dc0	-0.12371397
161	0xbbc017b2	-0.0058621997
162	0xbd09c626	-0.033636235
163	0xbd00a6d4	-0.0314091
164	0xbc9232ea	-0.017846543
165	0xbd9482cb	-0.07251509
166	0x3d2c92c2	0.042132147
167	0xbc883435	-0.016626457
168	0x3cd5e0d5	0.026108185
169	0xbcc76325	-0.024339268
170	0xbd2415f1	-0.040059987
171	0xbd25e9d1	-0.040506188
172	0x3d063ee8	0.032774836
173	0xbc6360be	-0.013878046
174	0xbdecfaa6	-0.11571245
175	0xbc6b5156	-0.014362654
176	0xbe821889	-0.25409344
177	0xbc103135	-0.008800794
178	0xbdc7a665	-0.09748534
179	0xbd951095	-0.072785534
180	0x3d240a70	0.040049016
181	0xbd4ff523	-0.05077089
182	0xbce43994	-0.027859487
183	0xbd3f314a	-0.046677865
184	0xbd674ac2	-0.05646778
185	0x3d9de724	0.07710102
186	0xbd3cce6f	-0.046095308
187	0xbd980fc8	-0.07424885
188	0xbd582c84	-0.05277683
189	0xbcb76992	-0.022389207
190	0x3d12e827	0.03586593
191	0x3b9b8845	0.004746469
192	0xbdbca86b	-0.09211811
193	0xbc9b8a04	-0.01898671
194	0xbca25a36	-0.019818407
195	0xbcdb07fd	-0.026737208
196	0x3d12e80d	0.035865832
197	0xbd8aa248	-0.06769234
198	0xbd526854	-0.051369026
199	0xbb916f41	-0.0044383113
200	0xbd2db369	-0.042407427
201	0xbd577693	-0.052603316
202	0xbd835f31	-0.06414641
203	0xbb9e3668	-0.004828263
204	0x3bd5cc94	0.0065246318
205	0xbcb89f89	-0.02253701
206	0xbd4fe063	-0.0507511
207	0x3ce8949e	0.028391179
208	0x3cf68e52	0.03009716
209	0xbdae0aa4	-0.08498123
210	0xbd33db1c	-0.04391013
211	0xbdcfc581	-0.10145093
212	0xbe21c12e	-0.15796348
213	0x3c235b6e	0.009970529
214	0x3c8d46b0	0.01724562
215	0x3d05997a	0.03261707
216	0xba053b39	-0.0005082372
217	0xbd087898	-0.033318132
218	0x3c035308	0.008015402
219	0xbd7f0e5f	-0.062269565
220	0xbdcb795f	-0.09935259
221	0x3c2520dd	0.010078636
222	0x3d380b4d	0.044932652
223	0xbd95fa69	-0.073231526
224	0xbb9979b0	-0.0046836957
225	0xbd577ae7	-0.052607443
226	0xbd36e323	-0.04465021
227	0xbcea8fb5	-0.028632978
228	0x3cd0a775	0.025470475
229	0x3d259781	0.04042769
230	0x3d320c2d	0.043468643
231	0x3d051707	0.032492664
232	0xbae24bde	-0.0017265042
233	0xbd6ca58d	-0.05777507
234	0xbd8db3cc	-0.06919059
235	0xbd2770de	-0.040879123
236	0x3d6616c6	0.056174062
237	0x3d58dba4	0.05294384
238	0xbd1fe29b	-0.039034467
239	0xbd7ccfaf	-0.0617215
240	0x3d2b3599	0.04179916
241	0x3a35e062	0.00069380377
242	0xbdff87a7	-0.124770455
243	0xbd8969d5	-0.06709639
244	0xbc7ea373	-0.015541899
245	0xbb2b28a0	-0.0026116744
246	0x3c508010	0.012725845
247	0x3d29d78e	0.041465335
248	0xbbea0bb7	-0.00714251
249	0xbc90cbb9	-0.017675268
250	0xbce054d8	-0.027384207
251	0x3d04d737	0.032431807
252	0x3c8cff90	0.017211705
253	0x3c3a0702	0.01135421
254	0xbcb08f2e	-0.021552648
255	0xbc1ec0b4	-0.009689499

linearSequential.4.bias f4 [256]
0	0xbc265380	-0.010151744
1	0xbd530e51	-0.051527325
2	0xbe0d2273	-0.13782673
3	0xbd4e5b0a	-0.05037979
4	0xbd025fd1	-0.03182966
5	0xbd3210fe	-0.043473236
6	0xbdc2817b	-0.09497353
7	0xbcfeb233	-0.031090831
8	0xbddc4164	-0.1075466
9	0xbe43b0a9	-0.19110359
10	0xbd7feaa5	-0.062479634
11	0xbe0c143e	-0.13679597
12	0xbd377bff	-0.044795986
13	0xbd4de728	-0.050269276
14	0xbdc63359	-0.096777625
15	0xbd70cd19	-0.058789346
16	0xbd278b6b	-0.040904444
17	0xbc50d554	-0.012746174
18	0x3e66b75b	0.22530882
19	0xbd14bbff	-0.0363121
20	0xbcd82628	-0.026385382
21	0xbb9a6729	-0.0047120047
22	0xbd0c7a85	-0.03429653
23	0xbe3c20ea	-0.1837193
24	0xbde047a0	-0.109511614
25	0xbc8580ab	-0.016296705
26	0xbe43edba	-0.19133654
27	0xbe5d6814	-0.21621734
28	0x3e152145	0.14563473
29	0xbe772395	-0.24134667
30	0xbdceb849	-0.10093743
31	0xbd00f648	-0.031484872
32	0xbd73d0b5	-0.05952521
33	0x3ba5e9ef	0.0050632874
34	0x3e8ac076	0.2709996
35	0xbe3d3028	-0.18475401
36	0xbd9d83e5	-0.076911725
37	0xbdd5865e	-0.10426019
38	0xbcf26736	-0.02959023
39	0xbd83bf79	-0.06433005
40	0xbd5eacfb	-0.054364186
41	0xbe14dd94	-0.1453765
42	0xbd138027	-0.036010887
43	0xbcc2c755	-0.02377669
44	0xbd182ab9	-0.03715012
45	0xbdcded43	-0.1005502
46	0xbe678a2d	-0.22611304
47	0xbd82ec57	-0.063927345
48	0xbd9d8b60	-0.07692599
49	0xbd83a697	-0.06428259
50	0xbe2e189d	-0.17001577
51	0xbd3b3cd1	-0.045712296
52	0xbd1685b3	-0.0367486
53	0xbd98c552	-0.07459511
54	0xbd54f0c7	-0.051987436
55	0xbd993a1b	-0.07481786
56	0xbda3c127	-0.07995825
57	0xbe41ddce	-0.18932268
58	0xbe1f6799	-0.15566863
59	0xbdb45282	-0.088047996
60	0xbdfdf092	-0.12399401
61	0x3d296dbc	0.041364416
62	0x3eb7f586	0.35929507
63	0xbe072c8d	-0.13200589
64	0xbe16dde1	-0.14733078
65	0xbd9b8a82	-0.07594778
66	0xbe43e460	-0.19130087
67	0xbd7c4c6c	-0.06159632
68	0xbcdd5246	-0.02701677
69	0xbd80ad23	-0.06283023
70	0xbe5694d7	-0.20955215
71	0xbd2b9b5f	-0.04189622
72	0xbd7b14f6	-0.061299287
73	0xbd946b31	-0.07247008
74	0xbdfe43da	-0.124152854
75	0xbc3be1e4	-0.011467431
76	0xbe21481b	-0.15750162
77	0xbd5db161	-0.05412424
78	0xbd894f8f	-0.06704628
79	0xbd0e1689	-0.03468946
80	0xbd58a436	-0.05289098
81	0xbdf276cc	-0.11839065
82	0xbd50f014	-0.051010206
83	0xbde4ae48	-0.11166054
84	0xbe56ee13	-0.20989256
85	0xbdafb8af	-0.085801475
86	0xbcf7a68a	-0.03023078
87	0xbe2ad7c4	-0.1668387
88	0xbd442121	-0.047883157
89	0xbd6354d5	-0.055500824
90	0x3d9c893f	0.07643365
91	0xbc392f13	-0.011302727
92	0xbd059eea	-0.032622255
93	0xbe06d2c0	-0.13166332
94	0xbc5b8fae	-0.013400955
95	0xbe2d3049	-0.1691295
96	0xbdbdad1b	-0.09261533
97	0x3e4d3322	0.20039037
98	0xbd28ce2c	-0.041212246
99	0xbdfa8160	-0.122317076
100	0xbd048ba0	-0.03235972
101	0xbd72c0ae	-0.059265785
102	0xbce76525	-0.028246472
103	0xbd64a05e	-0.055817
104	0xbcd3d031	-0.02585611
105	0xbdfccb77	-0.12343495
106	0xbd77d5d6	-0.060506664
107	0xbda47cad	-0.080315925
108	0xbe1bd653	-0.15218477
109	0xbd454fdb	-0.04817186
110	0xbe25e840	-0.16201878
111	0xbd57be39	-0.052671645
112	0xbda60db5	-0.08108083
113	0xbdb0704d	-0.0861517
114	0xbd88ff69	-0.066893406
115	0xbd0967a5	-0.03354611
116	0xbd7128e8	-0.058876902
117	0xbd82a909	-0.06379897
118	0xbcb7588a	-0.022381086
119	0xbd41de70	-0.047331274
120	0xbccbc39e	-0.024873551
121	0xbdc23fb6	-0.09484808
122	0x3ba99394	0.0051750634
123	0xbd47440b	-0.048648875
124	0xbe7057fb	-0.23471062
125	0xbd66c176	-0.056336842
126	0xbcdad0f0	-0.026710957
127	0xbd4f3a03	-0.050592434
128	0xbc820068	-0.015869334
129	0xbd85aaa1	-0.065266855
130	0xbd6d327e	-0.05790948
131	0xbc1076fd	-0.0088174315
132	0xbda06073	-0.07830896
133	0xbd79c65f	-0.060980197
134	0xbdab468c	-0.08363065
135	0xbe40c38b	-0.18824594
136	0xbd4dbe38	-0.050230235
137	0xbd0b73f9	-0.034046147
138	0xbe05f69d	-0.13082357
139	0xbce4f686	-0.027949583
140	0xbc81a04e	-0.01582351
141	0xbddc6378	-0.1076116
142	0xbd22c7ed	-0.039741445
143	0xbd19a23b	-0.03750823
144	0xbe47efba	-0.19525042
145	0xbdb0654f	-0.08613073
146	0xbd1ba2b0	-0.037996948
147	0xbd93c499	-0.072152324
148	0xbcc4459a	-0.02395897
149	0xbdc4ef4a	-0.09615953
150	0xbda0ee1e	-0.07857917
151	0xbd6f527e	-0.05842828
152	0xbdeec8a5	-0.11659364
153	0xbd01b49c	-0.031666383
154	0xbd617ed4	-0.055052593
155	0xbd8793a0	-0.06619954
156	0xbd1e2428	-0.0386087
157	0xbd80b736	-0.06284945
158	0xbe710171	-0.23535706
159	0xbd677a52	-0.056513138
160	0xbbb0b8a8	-0.0053931065
161	0xbd8c11a7	-0.068393044
162	0xbd2fd1af	-0.04292458
163	0xbdc41d41	-0.09575892
164	0xbd818945	-0.0632501
165	0xbd58ffd8	-0.052978367
166	0xbd8b6935	-0.06807176
167	0xbe163aa5	-0.14670809
168	0xbda0d1c8	-0.078525126
169	0xbd40dcb0	-0.047085464
170	0xbe4b4a0d	-0.19852467
171	0xbe0f0947	-0.13968383
172	0xbd979de0	-0.07403159
173	0xbd0e5610	-0.034750044
174	0x3c1d68eb	0.009607534
175	0xbe4cf3cd	-0.20014878
176	0xbd7e9591	-0.062154356
177	0xbdb39d52	-0.08770241
178	0xbd439afe	-0.047755234
179	0xbd2dbb03	-0.042414676
180	0xbd8151c7	-0.06314426
181	0x3de0927a	0.10965438
182	0xbd3b5985	-0.04573967
183	0xbd8ea713	-0.06965461
184	0x3e1cf14a	0.1532642
185	0xbd293829	-0.041313324
186	0xbd3061bb	-0.043061953
187	0xbe3225bc	-0.17397207
188	0xbe683f8e	-0.22680494
189	0xbd2695fb	-0.040670376
190	0xbe3730e8	-0.1788975
191	0xbe1dea1e	-0.1542134
192	0xbdf80a90	-0.1211139
193	0xbe3e8e20	-0.18608904
194	0xbcd4b048	-0.025962964
195	0xbd5ad326	-0.053424023
196	0xbd99c635	-0.07508508
197	0xbd8e26ce	-0.06940995
198	0xbe1b89d6	-0.15189299
199	0xbd012ef6	-0.031538926
200	0xbd7a4a1c	-0.061105832
201	0xbdcf1d97	-0.10113066
202	0xbcf6a09d	-0.030105883
203	0xbd949787	-0.07255464
204	0xbe20589f	-0.15658806
205	0xbcf02d4f	-0.02931848
206	0xbd85c925	-0.06532506
207	0xbd08e278	-0.033419102
208	0xbe3f6520	-0.1869092
209	0x3e75f2d5	0.24018414
210	0xbd3daa4a	-0.04630498
211	0xbd30e756	-0.04318937
212	0xbd176031	-0.03695697
213	0xbdb318fd	-0.087450005
214	0xbd006ad9	-0.031351898
215	0xbd1e28dc	-0.038613185
216	0xbd8348d4	-0.06410375
217	0xbd8f9018	-0.070099056
218	0xbcc7ee87	-0.02440573
219	0x3dbae89d	0.09126399
220	0xbe13de6e	-0.14440319
221	0xbc74a3b0	-0.014931604
222	0xbd67761f	-0.056509133
223	0xbd2a010e	-0.041504912
224	0xbd1132af	-0.035448726
225	0x3c22684f	0.009912564
226	0xbd57ec6d	-0.052715708
227	0xbcf86662	-0.030322257
228	0xbce0876f	-0.02740833
229	0x3e36b0eb	0.17840926
230	0xbceecf27	-0.029151512
231	0xbd324bc9	-0.043529306
232	0xbd1e2efb	-0.038619023
233	0xbe14e0a1	-0.14538814
234	0xbddda7aa	-0.10822995
235	0xbccfe4f6	-0.025377732
236	0xbe11107b	-0.14166443
237	0x3d36e0b9	0.044647906
238	0x3d95201a	0.072815135
239	0xbd43fc75	-0.047848184
240	0xbd87c93f	-0.066301815
241	0xbbd3a89a	-0.006459308
242	0xbd3312b2	-0.043719
243	0xbdb5a261	-0.08868862
244	0xbda06e6f	-0.078335635
245	0x3e657c49	0.22410692
246	0x3e0cc7b1	0.13748051
247	0xbd2ae66a	-0.041723646
248	0xbcd2ebb3	-0.025747156
249	0xbd36c22d	-0.044618774
250	0xbe429d0b	-0.1900522
251	0x3cdda5b9	0.027056562
252	0xbc975477	-0.018472893
253	0xbd86c1fb	-0.065799676
254	0xbcbb9949	-0.02290024
255	0xbcc25dcb	-0.023726365

linearSequential.6.weight f4 [128, 256]
0	0x3cadd7b9	0.021221029
1	0xbd52beb0	-0.051451385
2	0xbd77c5ba	-0.0604913
3	0xbd6e3e3a	-0.058164813
4	0xbc339988	-0.010961898
5	0xbc9ca9a2	-0.019123856
6	0x3d3993aa	0.04530684
7	0x3cbc3fa4	0.022979565
8	0xbcad3c46	-0.021146905
9	0xbc4e017a	-0.012573594
10	0xbd03dd63	-0.032193553
11	0xbd71cf4e	-0.05903559
12	0xbd6fce3d	-0.058546294
13	0xbc838640	-0.016055226
14	0x3d0cd26e	0.03438037
15	0xbccb3055	-0.02480332
16	0xbd59620e	-0.053072028
17	0xbd7460ac	-0.059662506
18	0xbc8bbcb3	-0.017057752
19	0x3ca21950	0.01978746
20	0x3bcc5336	0.0062355055
21	0xbd50126b	-0.050798815
22	0xbd6f36ef	-0.058401998
23	0xbd9146f7	-0.070936136
24	0x3cfa127b	0.03052639
25	0xbd7d5491	-0.061848227
26	0x3ce234f3	0.027613139
27	0xbc21138a	-0.009831319
28	0xbd0cd6b0	-0.03438443
29	0xbba70eba	-0.005098191
30	0xbd261f1f	-0.040557023
31	0x3bf1b170	0.0073758885
32	0xbd2d4fb6	-0.042312346
33	0x3c831f9f	0.016006289
34	0xbbd97a7c	-0.0066369157
35	0xbd2ddbf3	-0.042446088
36	0x3cac3b79	0.021024453
37	0xbd80b9f6	-0.06285469
38	0x3c9165e0	0.017748773
39	0x3d3ec157	0.046571102
40	0xbcca8e84	-0.02472616
41	0xbb83e8d0	-0.004025556
42	0xb98a25b9	-0.00026349517
43	0xbcbcb0b4	-0.023033477
44	0x3d2c580e	0.042076163
45	0x3cc1c791	0.023654731
46	0xbc5323cd	-0.012886954
47	0xbce61b4c	-0.028089188
48	0xbd53b64e	-0.05168753
49	0xbd113920	-0.03545487
50	0x3c6eb5f4	0.014569748
51	0xbbf84430	-0.007576488
52	0xbd165620	-0.03670323
53	0x3b2c74c0	0.0026314706
54	0x3d65238e	0.05594211
55	0xbd6fc08b	-0.058533233
56	0xbd45682f	-0.04819506
57	0xba61fd80	-0.00086208433
58	0x3c51da81	0.012808443
59	0xbd8e5a65	-0.06950835
60	0xbd349016	-0.044082724
61	0x3c6df69d	0.014524129
62	0x3c5d3b36	0.0135028865
63	0x3cf22eb4	0.029563285
64	0xbbe96b47	-0.007123384
65	0x3d53d2a5	0.05171456
66	0xbcc7be6a	-0.024382789
67	0xbd4f1276	-0.050554715
68	0x3d293aca	0.04131583
69	0xbd333e1a	-0.043760397
70	0xbd41e74c	-0.047339723
71	0x3c7c6c7d	0.015406725
72	0x3d014464	0.031559363
73	0x3d2828d8	0.041054577
74	0xbd73f280	-0.059557438
75	0xbd7e178e	-0.062034182
76	0x3ca3f28a	0.020013113
77	0xbd5a9d08	-0.053372413
78	0x3d38b952	0.04509861
79	0x3ad32420	0.0016108789
80	0xbbfb053b	-0.0076605356
81	0x3c2a4b88	0.010393985
82	0x3d10dce8	0.035366923
83	0xbcfcfb60	-0.030881584
84	0xbd310732	-0.043219753
85	0xbc299541	-0.010350526
86	0xbcffb174	-0.031212546
87	0xbd7cefb1	-0.061752025
88	0x3cb435c0	0.021998286
89	0xbd218cf4	-0.039441064
90	0xbdb48d66	-0.08816032
91	0xbd0eb042	-0.03483606
92	0x3d15b25a	0.036547042
93	0xbcf261b1	-0.029587599
94	0xbcbf4289	-0.023347156
95	0x3cec3fed	0.028839076
96	0xbd828001	-0.06372071
97	0x3c72e953	0.014826137
98	0x3c834ef8	0.016028866
99	0x3d0c06df	0.03418624
100	0x3a0a561e	0.00052771147
101	0xbc987ab2	-0.018613193
102	0xbd3b7186	-0.04576256
103	0xb7e557ad	-2.7339755e-05
104	0xbcd2c6b5	-0.025729517
105	0xbd630fd6	-0.055435024
106	0x3c9b4aec	0.018956624
107	0xbc8a9fff	-0.016921995
108	0x3c9aafba	0.018882621
109	0xbc054b38	-0.008135609
110	0x39cfdb04	0.00039645296
111	0xbbec5119	-0.007211816
112	0x3d5d1cce	0.05398255
113	0x3c88ae3a	0.01668464
114	0xbd5c729c	-0.053820238
115	0x3bbd3290	0.00577385
116	0x3cc61748	0.024181023
117	0x3d345fde	0.04403674
118	0xbd60c544	-0.054875627
119	0x3d09fc62	0.033687957
120	0xbd9670cf	-0.07345735
121	0x3c245e97	0.010032318
122	0xbceec3e6	-0.029146146
123	0xbd533033	-0.05155964
124	0xbd983005	-0.07431034
125	0xbc3ee92d	-0.011652273
126	0x3d4c4976	0.049874745
127	0xbcebf47c	-0.028803103
128	0x3d6711bd	0.0564134
129	0x3d444b0c	0.047923133
130	0x3d028c2e	0.031871967
131	0x3c8474a0	0.016168892
132	0xbc4136e8	-0.011792876
133	0x3c01bbf8	0.00791835
134	0x3d49a95a	0.04923377
135	0xbdb05ad8	-0.08611077
136	0x3d123b8a	0.035701312
137	0x3d1f4f29	0.038893852
138	0xbd524de7	-0.051343825
139	0xbd8e87a5	-0.06959466
140	0xbcd8fd42	-0.02648795
141	0xbd806360	-0.06268954
142	0x3ca8a9a6	0.020588707
143	0xbd9e1591	-0.07718957
144	0xbd8d60ec	-0.06903252
145	0xbce382af	-0.027772276
146	0xbd14223e	-0.03616547
147	0xbd9ea3b6	-0.07746069
148	0x3d343fac	0.044006035
149	0x3bcedce0	0.0063129514
150	0xbd620fc0	-0.0551908
151	0xbd5b52da	-0.05354581
152	0xbcae9284	-0.021310098
153	0x3d23d9ac	0.04000251
154	0xbdca8bd5	-0.09889952
155	0xbbc71320	-0.006075278
156	0xbd96cb0a	-0.073629454
157	0x3d387812	0.045036383
158	0x3c66b902	0.014082195
159	0xbd2e3b96	-0.042537294
160	0xbc359842	-0.011083664
161	0x3c180c90	0.009280339
162	0xbd793772	-0.060843892
163	0xbd95b99e	-0.07310794
164	0x3ce7efe0	0.028312624
165	0xbc3fa9e0	-0.011698216
166	0xbd5372e2	-0.051623233
167	0x3cc00239	0.02343856
168	0x3d49ad81	0.04923773
169	0x3ce80e11	0.02832702
170	0x3b90939b	0.004412127
171	0x3bf7edab	0.007566174
172	0xbc4ffc37	-0.01269441
173	0xbc8f91d0	-0.017525584
174	0xbca103bc	-0.019655101
175	0xbd3d9e14	-0.046293333
176	0xbd6ee334	-0.058322147
177	0x3cdef20c	0.027215026
178	0xbc69af48	-0.014262982
179	0x3c4d7fec	0.012542706
180	0xbd77e696	-0.06052264
181	0x3a8c3d5d	0.001069944
182	0x3c63b960	0.013899177
183	0xbd771efa	-0.060332276
184	0xbd6f545c	-0.05843006
185	0x3d0966f0	0.033545434
186	0x3b7ae982	0.0038286154
187	0x3b614db9	0.0034378602
188	0xbd75d743	-0.060019743
189	0xbce09908	-0.027416721
190	0xbc8e44dc	-0.01736682
191	0x3c735560	0.014851898
192	0x3c8fbe88	0.017546907
193	0x3ba731d5	0.005102376
194	0x3c0879d8	0.008329831
195	0xbca43eeb	-0.020049533
196	0xbcf33a2b	-0.029690823
197	0x3d03a62d	0.0321409
198	0xbd5ffefa	-0.054686524
199	0xbd107510	-0.03526789
200	0x3abdd880	0.0014484078
201	0x39db111b	0.0004178368
202	0xbd7da549	-0.061925206
203	0xbd7377a6	-0.059440278
204	0x3b90221f	0.004398599
205	0x3d448a51	0.04798347
206	0x3be9b460	0.007132098
207	0x3d5b9f2a	0.053618588
208	0xbdc969f6	-0.098346636
209	0xbd4155f9	-0.04720113
210	0xbd12e42e	-0.03586214
211	0xbd10a9e8	-0.035318285
212	0xbd7f8751	-0.062384907
213	0x3c2e2446	0.010628765
214	0xbd1c448e	-0.038151316
215	0xbc8bce42	-0.017066125
216	0xbd02e010	-0.031951964
217	0x3c433370	0.011914119
218	0xbd64f874	-0.055901006
219	0xbd5b571d	-0.053549875
220	0xbd470280	-0.04858637
221	0x3c8e5e88	0.01737906
222	0xbd18d3d0	-0.037311375
223	0x3bd6c8e9	0.006554712
224	0xbcbd49d1	-0.023106487
225	0x3c0bddf7	0.008536807
226	0xbce339e3	-0.027737563
227	0xbcb81ae4	-0.02247376
228	0xbc586c08	-0.01320935
229	0xbd1eca6c	-0.038767263
230	0xbbcb2654	-0.0061996374
231	0xbda532e6	-0.08066349
232	0x3bc33960	0.0059577674
233	0x3d14e33e	0.036349528
234	0x3cf05c2c	0.029340826
235	0xbd4d4ab2	-0.050120063
236	0x3cc8bb22	0.024503294
237	0xbbb0ce0f	-0.005395658
238	0xbbcf0867	-0.0063181403
239	0xbc219fd0	-0.009864762
240	0xbd988fca	-0.074493006
241	0xbbbd2154	-0.0057717953
242	0xbd43a600	-0.04776573
243	0xbabce23f	-0.0014410688
244	0xbd7d896a	-0.061898626
245	0x3cb323bd	0.021867627
246	0x3c8d1c4d	0.017225409
247	0xbd831d4c	-0.06402072
248	0xbd5e451b	-0.054265123
249	0xbb37660c	-0.0027984409
250	0xbda4de86	-0.080502555
251	0xbc1b491a	-0.009477878
252	0xbc4236e5	-0.011853908
253	0x3d7d5c28	0.061855465
254	0x3d737de4	0.05944623
255	0xbc9232fc	-0.017846577

linearSequential.6.bias f4 [128]
0	0xbd483885	-0.048882026
1	0xbd589a2e	-0.052881412
2	0xbc803b70	-0.015653342
3	0xba56699b	-0.00081791886
4	0xbdb042f3	-0.086065196
5	0xbd9daf91	-0.07699502
6	0x3d52f43c	0.05150245
7	0xbdb1281f	-0.086502306
8	0xbd7d4cd6	-0.061840855
9	0xbcd1c68d	-0.025607372
10	0xbdddd26f	-0.10831153
11	0x3d43c01c	0.04779063
12	0xbddb0df3	-0.1069602
13	0xbd826fb0	-0.06368959
14	0xbcfb688f	-0.030689506
15	0xbcc6553d	-0.024210567
16	0x3b7e76d0	0.0038828142
17	0xbc487114	-0.012233991
18	0xbd2b929b	-0.04188786
19	0xbd47321e	-0.04863178
20	0xbcad8342	-0.021180753
21	0xbd6e94c0	-0.058247328
22	0x3cdd81e9	0.027039485
23	0xbcc5986e	-0.024120536
24	0xbd3315a5	-0.043721814
25	0xbc15f9b8	-0.009153776
26	0xbdab28c3	-0.08357384
27	0xbd827094	-0.06369129
28	0xbd547a2f	-0.051874336
29	0xbd5ccf7c	-0.05390881
30	0xbd934f20	-0.07192826
31	0xbd47caeb	-0.048777502
32	0xbbbc13ca	-0.0057396637
33	0x3d78c7f5	0.06073757
34	0xbc556775	-0.013025154
35	0xbd845bfe	-0.064628586
36	0xbcc773a0	-0.024347126
37	0xbd9422c7	-0.07233196
38	0xbd81def1	-0.06341351
39	0x3d147c54	0.03625138
40	0xbd160ba1	-0.036632184
41	0xbd015509	-0.031575236
42	0xbe09a8ac	-0.1344325
43	0xbd079365	-0.03309955
44	0xbcd58030	-0.026062101
45	0xbc99b72f	-0.018764107
46	0xbc1fa05d	-0.009742823
47	0x3e1e0968	0.15433276
48	0xbd03ef34	-0.032210544
49	0x3bb6f8d4	0.005583862
50	0xbd93a5fd	-0.07209394
51	0xbd00b45d	-0.031422008
52	0xbd596e17	-0.053083505
53	0xbd987ab8	-0.07445282
54	0xbdc94d97	-0.09829252
55	0xbd2a9e3d	-0.041654814
56	0x3c3c4a47	0.0114923185
57	0x3cc59d13	0.02412275
58	0xbd1cec38	-0.038311213
59	0xbd8bd612	-0.0682794
60	0xbc91cbd3	-0.017797386
61	0xbd1c064a	-0.038091935
62	0xbdc3afb6	-0.095549986
63	0xbdaa9b72	-0.0833043
64	0xbd2d2b77	-0.04227778
65	0xbdd23f59	-0.10265989
66	0xbd8e8c9b	-0.06960412
67	0xbd959c2c	-0.07305178
68	0x3c925b70	0.017865866
69	0x3d0b52b5	0.034014422
70	0xbcfaf588	-0.030634657
71	0xbba3c413	-0.004997739
72	0xbd9c01ee	-0.076175556
73	0xbe3dfcba	-0.18553439
74	0xbcf1bdcd	-0.02950945
75	0xbb588524	-0.0033038342
76	0xbd95915f	-0.07303118
77	0x3d28a877	0.041176286
78	0xbd83e8e0	-0.06440902
79	0xbc3fbbcb	-0.011702488
80	0x3e14166e	0.14461681
81	0xbd952527	-0.07282477
82	0xbd90a001	-0.07061768
83	0xbd4bcb3b	-0.049754363
84	0xbcd72d61	-0.026266756
85	0xbd8ddbda	-0.06926699
86	0xba9576c0	-0.0011403188
87	0xbdd911e7	-0.10599118
88	0xbe069075	-0.13141043
89	0xbd6a8c0c	-0.057262465
90	0xbdf7f43c	-0.12107131
91	0xbccbd667	-0.024882508
92	0xbccd81ee	-0.02508637
93	0x3b7c37f2	0.0038485494
94	0xbd38a2ff	-0.04507732
95	0xbbb04f80	-0.005380571
96	0xbcbb83b9	-0.022889959
97	0xbc478e93	-0.012179988
98	0x3b92b090	0.0044766143
99	0xbdde9ffc	-0.10870358
100	0xbda7d27f	-0.08194446
101	0xbd4e3103	-0.05033971
102	0xbcf2fa35	-0.029660324
103	0xbe07014d	-0.1318409
104	0xbade7908	-0.0016973326
105	0xbdbdf2be	-0.09274815
106	0x3d9da4aa	0.07697423
107	0xbd68dc39	-0.056850646
108	0xbdb52f2f	-0.0884689
109	0xbcd6920c	-0.026192687
110	0xbd8bfcce	-0.06835328
111	0xbc0b0a3c	-0.008486327
112	0xbd145a87	-0.036219146
113	0x3e10510d	0.14093418
114	0x3e01e093	0.12683325
115	0xbd4d7421	-0.050159577
116	0xbc551441	-0.013005317
117	0xbceb9747	-0.028758658
118	0xbd84f10d	-0.06491289
119	0x3dc53141	0.09628535
120	0xbd69aafe	-0.057047836
121	0xbccf8fae	-0.025337067
122	0xbc15f131	-0.009151743
123	0xbcec32db	-0.028832844
124	0xbc02c0ca	-0.007980535
125	0x3b3ba006	0.0028629317
126	0x3e1ebfa3	0.15502791
127	0xbda7ab81	-0.08187009
