nnwf/nets/state_dicts/nnwf01.pt (torch, 49491 bytes, 9 tensors)

linearSequential.0.weight f4 [128, 3]
0	0xbecdf9ee	-0.40229744
1	0xbed09462	-0.40738207
2	0x3f0bcb65	0.5460723
3	0x3b5ed401	0.0034000876
4	0x3d387d50	0.045041382
5	0xbf4181c7	-0.7558865
6	0xbdc27fc3	-0.09497025
7	0x3d77af0a	0.060469665
8	0x3e1efdbf	0.15526484
9	0x3e674c2b	0.2258765
10	0xbf13bcea	-0.57710135
11	0x3f583dd5	0.8446935
12	0xbf6a794b	-0.9159133
13	0x3e94ddf6	0.29075593
14	0x3eb9c4cb	0.36282954
15	0x3e16b5a8	0.14717734
16	0x3dfa1078	0.122101724
17	0xbf26a8ed	-0.6510151
18	0x3de871d5	0.11349837
19	0xbdbf7060	-0.09347606
20	0xbed549d7	-0.41657898
21	0xbd215474	-0.03938718
22	0xbf252052	-0.6450244
23	0xbebd43dd	-0.36965838
24	0x3bfc37d2	0.007697084
25	0xbf0e9db7	-0.55709404
26	0xbf483777	-0.7820963
27	0x3cb40e11	0.021979364
28	0xbdf0f986	-0.11766343
29	0x3d192047	0.037384298
30	0x3e493f69	0.19653095
31	0xbf2e3068	-0.6804261
32	0xbdd7050a	-0.10499008
33	0xbb90b54b	-0.004416143
34	0x3db82f8c	0.08993444
35	0xbe9237e5	-0.2855827
36	0x3dd0f2b3	0.10202541
37	0xbdd09151	-0.10183967
38	0xbd1108d2	-0.035408802
39	0x3ca6e776	0.020374041
40	0x3eb8862d	0.36039868
41	0xbfa4f7ef	-1.2888163
42	0xbf2fa0e2	-0.6860486
43	0x3f595922	0.8490163
44	0x3f4ffa5b	0.8124139
45	0x3dd563fe	0.104194626
46	0xbe49efce	-0.19720384
47	0xbef55cef	-0.47922465
48	0xbea8b11e	-0.3294763
49	0xbf42c5d6	-0.76083124
50	0x3e876d4a	0.26450568
51	0x3cec3dba	0.028838027
52	0xbf23404a	-0.6376997
53	0x3e96deff	0.29467008
54	0xbe819cd1	-0.25314954
55	0x3ea3b1d2	0.31971604
56	0x3e09ab85	0.13444336
57	0xbe2eefad	-0.17083617
58	0x3f003a44	0.50088906
59	0xbf51256e	-0.8169774
60	0xbeef6370	-0.46755552
61	0xbeb0b2f5	-0.34511533
62	0x3e876747	0.26445982
63	0xbdd39448	-0.10331017
64	0xbf3768a2	-0.7164403
65	0xbd524200	-0.051332474
66	0x3d9bfdd0	0.0761677
67	0x3ecdf3b4	0.40224993
68	0x3e4b9905	0.19882591
69	0xbeadb5a3	-0.3392764
70	0x3e95fde8	0.29295278
71	0x3e34f4be	0.17671487
72	0xbee4e5f4	-0.4470669
73	0xbd9edfb8	-0.07757515
74	0x3f6347d2	0.88781464
75	0xbbf23a07	-0.0073921713
76	0xbd02cdc3	-0.03193451
77	0xbeafe845	-0.34356895
78	0xbe018d38	-0.12651527
79	0x3f7e6197	0.9936766
80	0xbd9cc344	-0.076544315
81	0xbea59709	-0.32341793
82	0xbe9027e8	-0.28155446
83	0x3f8775d1	1.058283
84	0x3dfedce3	0.124444745
85	0xbf322506	-0.69587743
86	0xbf5f11df	-0.87136644
87	0x3eb693a2	0.3565951
88	0xbf0037c6	-0.50085104
89	0xbf9907fb	-1.195556
90	0xbed82e2f	-0.42222735
91	0x3f18addf	0.59640306
92	0x3eba7d73	0.36423835
93	0xbe902762	-0.28155047
94	0x3e7d3a78	0.24729335
95	0x3e86b074	0.26306498
96	0x3deac002	0.11462404
97	0x3e0fee79	0.14055814
98	0xbd557a24	-0.052118436
99	0x3e395131	0.18097378
100	0x3e16f50c	0.14741915
101	0xbf42c933	-0.76088256
102	0xbc35f20c	-0.011105072
103	0xbf2124f2	-0.62947
104	0xbd0fb586	-0.035085224
105	0x3f4d53b0	0.8020582
106	0xbf1ff8c5	-0.6248897
107	0x3eadfded	0.33982792
108	0x3f109644	0.5647929
109	0x3ea76034	0.32690585
110	0x3df4a769	0.119459935
111	0xbe85bb86	-0.26119632
112	0xbe7583d1	-0.23976065
113	0xbeaa160a	-0.3321994
114	0xbec3b61e	-0.38224882
115	0xbe7feb0d	-0.24992009
116	0xbcccc3a5	-0.024995634
117	0xbeecc7a8	-0.46246076
118	0x3e2398b9	0.15976228
119	0x3e9c2b17	0.30501625
120	0xbe842362	-0.25808245
121	0xbed6edf5	-0.41978422
122	0x3e7d10d5	0.24713452
123	0x3e36d496	0.17854533
124	0xbe0db5e6	-0.1383892
125	0xbdb58728	-0.0886367
126	0xbe881911	-0.26581624
127	0xbebd8252	-0.3701349
128	0x3f8ac24c	1.0840545
129	0xbf2cfdb4	-0.6757462
130	0x3f733f3d	0.9501837
131	0x3f54cfcc	0.8312957
132	0xbec67ce5	-0.38767162
133	0x3e8aefa2	0.2713595
134	0x3db6ff70	0.089354396
135	0x3e428b73	0.18998508
136	0xbd6160ba	-0.055023886
137	0xbe0f5182	-0.13995937
138	0xbe74a5d7	-0.23891388
139	0xbf61650f	-0.8804483
140	0xbee6d6ff	-0.45085904
141	0xbcc589dc	-0.024113588
142	0xbf071c68	-0.5277772
143	0xbdc03de4	-0.09386805
144	0xbf3a4735	-0.72764903
145	0x3e3809af	0.17972444
146	0xbde85e92	-0.11346163
147	0xbe6a9148	-0.22906983
148	0xbf1c1ba9	-0.60979706
149	0x3e883a86	0.2660715
150	0x3f756f8c	0.9587333
151	0xbf392aa0	-0.72330666
152	0x3e418dca	0.18901744
153	0x3f106779	0.56407887
154	0xbe8a0b6d	-0.26961842
155	0x3ede537d	0.43423072
156	0x3ea9e79b	0.33184513
157	0xbf479e1a	-0.7797562
158	0xbed90cf5	-0.42392698
159	0x3cdb1e24	0.02674777
160	0x3e5e7679	0.21724881
161	0xbfa3fee8	-1.2812166
162	0xbfedd259	-1.8579818
163	0xbc841db3	-0.016127443
164	0x3f3b4e16	0.73166025
165	0xbe49f0e4	-0.19720799
166	0xbd6fb22a	-0.05851952
167	0x3f495624	0.78647065
168	0xbdfb23d7	-0.12262695
169	0x3f39392d	0.7235287
170	0x3c9948ef	0.018711535
171	0xbeb4c717	-0.35308143
172	0x3ed75658	0.42058063
173	0x3ecda83b	0.40167412
174	0xbd56adc1	-0.0524118
175	0xbf2970ca	-0.6618773
176	0xbec80ca8	-0.39072156
177	0xbcc6103e	-0.024177667
178	0xbb9f7fb9	-0.0048675206
179	0x3d60a444	0.054844156
180	0xbf8cf98d	-1.1013657
181	0x3e9b0c97	0.30283043
182	0x3db4652e	0.08808361
183	0xbd2bf556	-0.041982017
184	0xbf1310c1	-0.5744744
185	0x3eb20763	0.3477126
186	0xbdaf570a	-0.08561523
187	0xbf054653	-0.5206043
188	0x3ebe7ec2	0.37206084
189	0xbd91e8ff	-0.071245186
190	0xbf0ac9c4	-0.5421412
191	0x3e070d0c	0.1318857
192	0x3e365d3a	0.17809
193	0xbd9bd0f3	-0.07608213
194	0x3da08368	0.07837564
195	0xbd03449d	-0.032047857
196	0x3f099b5a	0.5375267
197	0x3ecf22f8	0.40456367
198	0xbee28184	-0.44239438
199	0x3c94bb11	0.018155606
200	0xbd485553	-0.048909497
201	0xbe3f9f75	-0.18713172
202	0x3d7d11e1	0.06178463
203	0xbca0287c	-0.019550554
204	0xbe687cd6	-0.22703871
205	0xbdb1255e	-0.08649705
206	0x3db2c88d	0.08729658
207	0x3dfd5bea	0.12371047
208	0xbed55997	-0.41669914
209	0x3cf626c3	0.03004778
210	0x3ddd89bd	0.10817287
211	0xbecc7c26	-0.39938468
212	0xbd01da97	-0.031702604
213	0xbd77d7c1	-0.060508493
214	0xbf118669	-0.5684572
215	0x3dd97738	0.10618442
216	0xbee60416	-0.44924992
217	0x3f47cfc0	0.78051376
218	0x3ec8ac01	0.3919373
219	0x3edd4191	0.43214086
220	0xbeb191f8	-0.34681678
221	0xbf55175b	-0.8323876
222	0xbf9687e7	-1.1760224
223	0x3ee96ee8	0.45592427
224	0x3eb1c1a3	0.34718046
225	0x3ee4249f	0.4455919
226	0x3d223bcb	0.039607804
227	0xbe84c581	-0.25931934
228	0xbe63e5d2	-0.22255638
229	0xbe816c0f	-0.25277755
230	0x3f4b6164	0.7944548
231	0x3e9b7ee1	0.30370238
232	0x3d187314	0.037219122
233	0xbedeebdb	-0.43539318
234	0xbf754b9c	-0.95818496
235	0xbd868ed0	-0.06570208
236	0xbf5ade8f	-0.8549585
237	0x3c51eab7	0.012812308
238	0xbcc67ba9	-0.024228888
239	0xbe6b2ada	-0.22965565
240	0x3e2accbe	0.16679665
241	0xbf0c8953	-0.5489704
242	0xbddf9f41	-0.10919047
243	0x3e3307d4	0.17483455
244	0xbe2b4cc8	-0.16728508
245	0x3ca3ee50	0.020011097
246	0x3e2c6249	0.16834368
247	0xbe52049e	-0.20509574
248	0xbeb196aa	-0.3468526
249	0x3e9333e0	0.28750515
250	0xbf3aa2dd	-0.7290476
251	0xbe626d08	-0.22111905
252	0x3e751f03	0.23937611
253	0xbf21b826	-0.63171613
254	0x3f5507a6	0.83214796
255	0x3e27b4c8	0.16377556

linearSequential.0.bias f4 [128]
0	0xbdcf13a4	-0.10111168
1	0x3f20633a	0.6265141
2	0xbec93d47	-0.39304563
3	0xbf668f5b	-0.90062493
4	0xbf32d6eb	-0.6985919
5	0xbf26fefb	-0.6523282
6	0xbf12a86d	-0.5728825
7	0xbf494075	-0.7861398
8	0x3e869985	0.26289
9	0xbf1f1cf8	-0.6215358
10	0xbf8fe07b	-1.1240381
11	0xbebddf48	-0.37084413
12	0xbec03db0	-0.37547064
13	0xbf6d0161	-0.9258023
14	0xbdd81907	-0.105516486
15	0xbebbb5ab	-0.3666204
16	0x3ec871dd	0.3914937
17	0xbfb938ee	-1.4470499
18	0xbee200fb	-0.44141373
19	0x3e230fb2	0.15923956
20	0x3e6355c1	0.22200681
21	0xbf920105	-1.1406561
22	0xbf75c938	-0.9601016
23	0xbf206a26	-0.6266197
24	0xbe824457	-0.25442764
25	0xbf09e9d1	-0.538724
26	0xbec3fb0d	-0.38277474
27	0xbf2ba813	-0.67053336
28	0x3ebfd8b4	0.3747002
29	0xbd5cc305	-0.053896923
30	0xbec55e41	-0.38548473
31	0xbf0de36a	-0.5542513
32	0xbf33c577	-0.7022318
33	0xbf323d6a	-0.6962496
34	0x3f0248aa	0.50892127
35	0xbf849ab3	-1.035971
36	0xbf9fbc5d	-1.2479359
37	0xbf4ea898	-0.80726004
38	0x3f8c60f1	1.0967084
39	0xbe920734	-0.2852112
40	0xbf954074	-1.1660295
41	0xbef06015	-0.46948305
42	0xbf27e606	-0.6558536
43	0xbe65ef7a	-0.22454634
44	0xbf71e333	-0.94487303
45	0xbf134049	-0.57519966
46	0x3ecd10ca	0.40051872
47	0xbf5e39b8	-0.8680682
48	0xbf07f2be	-0.5310477
49	0x3ef43daf	0.4770331
50	0xbf7e1352	-0.9924823
51	0xbf776318	-0.9663558
52	0xbefd836c	-0.4951433
53	0x3f7bbc9c	0.9833467
54	0x3ea1e05f	0.31616494
55	0xbf319be3	-0.6937849
56	0xbedcb347	-0.43105528
57	0xbf0e470f	-0.55577177
58	0xbf4c808d	-0.7988365
59	0xbe418aef	-0.18900655
60	0xbee2b37e	-0.44277567
61	0xbf96a374	-1.1768632
62	0xbf85161a	-1.039737
63	0xbf89cd32	-1.0765746
64	0xbf23b8b0	-0.63953686
65	0xbf6522b9	-0.8950611
66	0x3f2946ca	0.6612364
67	0xbeb25b56	-0.3483531
68	0xbf02c855	-0.5108693
69	0xbf572a2d	-0.8404873
70	0xbf4ae5bf	-0.79256815
71	0xbf8d9443	-1.1060871
72	0xbf137a56	-0.57608545
73	0xbf232b4a	-0.6373793
74	0xbf4df19f	-0.8044681
75	0xbf49ec80	-0.78876495
76	0xbf088f54	-0.533437
77	0xbf45ac52	-0.77216065
78	0xbc647d9c	-0.013945963
79	0xbeb8a5c4	-0.3606397
80	0xbf5fd30d	-0.8743141
81	0xbf2a5e5a	-0.6655022
82	0xbefc15e6	-0.49235457
83	0xbe76a8f6	-0.24087891
84	0xbf40bee1	-0.7529126
85	0xbf7851ed	-0.9700001
86	0xbf4a4078	-0.7900462
87	0xbebb6325	-0.3659908
88	0xbdf7d72c	-0.12101588
89	0xbdcc2606	-0.0996819
90	0x3ea75c5b	0.3268765
91	0xbf84ed22	-1.0384867
92	0xbf816285	-1.0108191
93	0xbf718df4	-0.9435723
94	0xbfa3f540	-1.2809219
95	0xbf6675d4	-0.9002354
96	0xbf19ae7d	-0.60031873
97	0xbf56a54c	-0.83845973
98	0xbf36498d	-0.7120598
99	0xbf8c36db	-1.095424
100	0xbe39ebbc	-0.18156332
101	0x3eeb4355	0.45949808
102	0xbf2d766f	-0.6775884
103	0xbef79170	-0.48353148
104	0xbf5c516a	-0.8606173
105	0xbf01ee55	-0.5075429
106	0xbed75aeb	-0.42061552
107	0x3cd7a59b	0.026324084
108	0x3dcefe55	0.10107104
109	0xbf444cca	-0.7667967
110	0xbfa661a3	-1.2998546
111	0x3e8bfef9	0.27342966
112	0xbf05489f	-0.52063936
113	0xbf30d5a8	-0.69076014
114	0xbf999a5f	-1.2000235
115	0xbf6794ce	-0.9046143
116	0xbee2503c	-0.4420184
117	0xbeee256d	-0.4651293
118	0x3ec7cb38	0.3902223
119	0xbf6716f3	-0.9026939
120	0xbec84a49	-0.39119175
121	0xbf674de6	-0.9035324
122	0xbeb0f587	-0.34562322
123	0xbf3d35f4	-0.7391045
124	0xbf654a42	-0.89566433
125	0xbf8450f8	-1.033721
126	0x3f9a2987	1.2043923
127	0xbf9ec8d9	-1.2405044

linearSequential.2.weight f4 [64, 128]
0	0x3cc5f12f	0.024162857
1	0x3d12dee5	0.0358571
2	0x3cc716cc	0.024302863
3	0xbd7249cb	-0.059152406
4	0xbd1af80a	-0.037834205
5	0x3d2893a9	0.041156445
6	0xbd860e7e	-0.06545733
7	0xbcb1c9cc	-0.02170267
8	0xbe080e24	-0.13286644
9	0xbd9ddb09	-0.07707793
10	0x3d8a2b2d	0.067465164
11	0xbd652237	-0.055940833
12	0xbcccbbd7	-0.024991913
13	0xbcf85ad9	-0.030316757
14	0xbd05dd42	-0.03268171
15	0x3c474587	0.012162573
16	0x3cf81c4c	0.03028693
17	0xbd266737	-0.040625777
18	0xbdd30e95	-0.10305516
19	0xbcc6de74	-0.024275996
20	0x3d2e4780	0.042548656
21	0x3ba63c95	0.00507314
22	0xbde942b6	-0.11389677
23	0xbdc33f3f	-0.095335476
24	0xbcd30de9	-0.025763469
25	0x3c3fb79c	0.011701491
26	0xbdc1d0b0	-0.09463632
27	0x3d62bbf0	0.055355012
28	0xbda97177	-0.08273595
29	0xbd8e9ccb	-0.069635
30	0xbc6756b7	-0.0141197955
31	0xbc711852	-0.014715271
32	0x3ca03228	0.019555166
33	0xbd9f0c9f	-0.07766079
34	0xbdba6992	-0.09102167
35	0xbd3a16ec	-0.045432016
36	0xbdcbfe20	-0.0996058
37	0xbe03d743	-0.12875085
38	0xbe068137	-0.13135229
39	0x3858efc5	5.1721716e-05
40	0xbd87a279	-0.06622786
41	0xbd10bad7	-0.035334434
42	0xbcd62ab1	-0.026143404
43	0xbcb1f673	-0.021723961
44	0xbda568d1	-0.08076633
45	0xbdeb7eef	-0.1149882
46	0x3c913d53	0.017729437
47	0xbcd1d349	-0.025613444
48	0x3c8a5770	0.016887397
49	0xbd6aed5b	-0.057355266
50	0xbd4c4e68	-0.04987946
51	0xbd11411c	-0.035462484
52	0xbcaa19d9	-0.020764278
53	0xbceda120	-0.029007494
54	0xbdd1a578	-0.10236639
55	0x3d3d6d34	0.046246722
56	0xbc8afeaf	-0.016967146
57	0xbda80942	-0.08204891
58	0x3cc17e66	0.023619842
59	0xbdb1c30d	-0.08679781
60	0x3d6dedae	0.058087997
61	0xbdd86489	-0.105660506
62	0xbdd01782	-0.10160734
63	0xbc46219d	-0.012092975
64	0xbdc04a83	-0.09389212
65	0xbd996519	-0.07489986
66	0xba50e57d	-0.0007968767
67	0xbda92686	-0.08259301
68	0xbcb6cd18	-0.022314593
69	0xbd1fdab5	-0.039026935
70	0xbd2db630	-0.042410076
71	0x3d043860	0.032280326
72	0xbd8a5ebb	-0.0675635
73	0xbdb77530	-0.089578986
74	0x3d58cb02	0.05292798
75	0xbb9efdd1	-0.0048520346
76	0x3c4b29dc	0.012400117
77	0xbda9d5c1	-0.082927234
78	0xbcb816ed	-0.02247187
79	0x3d3f2418	0.04666528
80	0x3a46b163	0.0007579533
81	0xbceca191	-0.028885635
82	0xbabf7d2f	-0.0014609451
83	0xbb0a7b55	-0.002113064
84	0x3c24fbde	0.010069815
85	0x3d0e0af7	0.034678426
86	0xbde00856	-0.1093909
87	0xbdd641c8	-0.104617655
88	0x3d4c7863	0.049919497
89	0xbd07e45a	-0.033176757
90	0xbcbe3b8c	-0.023221754
91	0xbd16e0bf	-0.03683543
92	0xbdbeaafb	-0.09309956
93	0xbd01f36c	-0.031726286
94	0x3d068f4d	0.032851506
95	0x3d4d9ba5	0.050197262
96	0xbd7cad74	-0.061688855
97	0xbdd06dea	-0.101772144
98	0x3d8622b2	0.06549586
99	0xbd023a07	-0.03179362
100	0x3d4ebf8c	0.050475642
101	0xbe00c9e5	-0.12577017
102	0xbd8d8205	-0.06909565
103	0xbc0b4a62	-0.008501621
104	0x3bb2f69a	0.005461526
105	0xbdbaee04	-0.09127429
106	0xbddc798b	-0.1076537
107	0x3d06d71c	0.032919988
108	0x3c5c7935	0.013456632
109	0xbdd4c688	-0.10389429
110	0xbce58960	-0.028019607
111	0x3d5c8951	0.053841893
112	0xbd2dec32	-0.04246158
113	0xbd24eba9	-0.040263806
114	0xbda8f0b4	-0.082490355
115	0x3c7cc9cc	0.0154289715
116	0x3d0aab62	0.03385485
117	0xbccd107f	-0.02503228
118	0xbe12804a	-0.14306751
119	0x3d1b9ed4	0.037993267
120	0xbd099926	-0.03359332
121	0xbd17e89d	-0.03708707
122	0x3c18b266	0.009319877
123	0xb97051b0	-0.00022918615
124	0xbd357102	-0.044297226
125	0x3cd14a89	0.025548236
126	0xbdfd5739	-0.12370152
127	0xbcd7a83e	-0.026325341
128	0xbe335b82	-0.17515376
129	0xbd9941c6	-0.074832484
130	0xbdb65e84	-0.08904746
131	0xbd9238af	-0.07139718
132	0xbd98265a	-0.0742919
133	0xbe056bcb	-0.13029401
134	0xbce2208d	-0.027603412
135	0xbd405077	-0.046951737
136	0xbdd3f329	-0.103491135
137	0x3db345f9	0.087535806
138	0x3ce6b33c	0.028161637
139	0xbdbc152c	-0.09183726
140	0xbd65c433	-0.056095313
141	0xbd17748c	-0.036976382
142	0xbd805b53	-0.06267419
143	0xbdcda53d	-0.10041282
144	0xbe0a93ac	-0.13532895
145	0xbd3b048e	-0.04565864
146	0x3d510493	0.051029753
147	0x3c81251f	0.015764771
148	0xbe585c9f	-0.21129082
149	0x3d99a1df	0.075015776
150	0xbb970787	-0.0046090516
151	0xbdd63c19	-0.104606815
152	0xbe367067	-0.17816316
153	0xbb58286d	-0.003298308
154	0xbd8e8b8a	-0.06960209
155	0xbe3db124	-0.18524605
156	0x3ce45f77	0.027877552
157	0xbb198374	-0.00234243
158	0xbcffd6ad	-0.031230295
159	0xbcb03d2e	-0.021513548
160	0xbd1fd97c	-0.03902577
161	0x3cf479cd	0.029843235
162	0xbe23e34d	-0.16004677
163	0xbd7f80ed	-0.062378813
164	0xbd48a210	-0.04898268
165	0xbd88db9f	-0.066825144
166	0xbe026544	-0.12733942
167	0x3d0154ee	0.031575136
168	0x3a47a580	0.0007615909
169	0xbbd37d9d	-0.0064541833
170	0xbd7aa6c1	-0.061194185
171	0xbd4df199	-0.050279234
172	0x3d36b32e	0.044604473
173	0xbde4ef20	-0.11178422
174	0xbe105cb0	-0.14097857
175	0xbd08af6e	-0.033370428
176	0xbd2f447b	-0.042789917
177	0xbda7e86c	-0.08198628
178	0xbdc02f41	-0.09384013
179	0xbdb3406f	-0.08752524
180	0x3d2fa11f	0.042878266
181	0xbd8e9682	-0.06962301
182	0xbd07e341	-0.03317571
183	0x3a08ee00	0.0005223453
184	0xbc749405	-0.014927869
185	0xbdcb74f4	-0.099344164
186	0xbcf622a4	-0.030045815
187	0xbd0930cd	-0.033493806
188	0xbda91b04	-0.08257106
189	0x3d948ea9	0.07253773
190	0x3cccf960	0.025021255
191	0xbcfaaa9a	-0.030598927
192	0xbcc0b4b0	-0.023523659
193	0xbc88d452	-0.016702805
194	0x3c49ad73	0.01230942
195	0xbdba960a	-0.09110649
196	0xbd759512	-0.059956618
197	0xbd5b2a15	-0.05350693
198	0x3d92438b	0.07141789
199	0x3cda59bc	0.026654117
200	0xbd82fb5b	-0.063955985
201	0xba86011e	-0.0010223722
202	0xbce9020f	-0.028443364
203	0x3c01e4cc	0.007928085
204	0xbd60baeb	-0.05486576
205	0xbda7ad68	-0.081873715
206	0xbc4a9ae3	-0.012366029
207	0xbdf03981	-0.11729718
208	0xbd4e7699	-0.050406072
209	0xbdb3906c	-0.08767781
210	0x3bf70031	0.0075378646
211	0xbdda7100	-0.10666084
212	0xbd86de95	-0.06585423
213	0x3b361320	0.0027782395
214	0xbd4064cc	-0.046971127
215	0xbd7cda19	-0.06173143
216	0xbc9bd58c	-0.019022726
217	0xbd685d56	-0.056729637
218	0xbd44c0dc	-0.048035488
219	0xbda8a6a9	-0.08234913
220	0xbe0126cc	-0.12612456
221	0xbe610d8a	-0.21977821
222	0xbd6b7ad8	-0.0574902
223	0xbdda404a	-0.106567934
224	0xbdc5f6a4	-0.096661836
225	0x3d1a07b2	0.037604995
226	0xbe04a9ff	-0.12955473
227	0xbd834104	-0.06408885
228	0xbc8e1923	-0.01734597
229	0xbc4de526	-0.01256684
230	0xbd97c737	-0.07411044
231	0xbd038c99	-0.032116506
232	0xbe337dd0	-0.17528462
233	0x3c8aad6f	0.016928403
234	0xbdb2fbdc	-0.087394446
235	0xbd1ce2b7	-0.03830215
236	0xbdaa4e82	-0.083157554
237	0x3d51de0c	0.05123715
238	0x3dadf963	0.08494832
239	0xbe378bdf	-0.1792445
240	0x3a576b80	0.0008217618
241	0xbdc6ef97	-0.09713667
242	0x3cc188d7	0.02362482
243	0xbdaf10f4	-0.085481554
244	0xbbbee585	-0.0058257007
245	0xbe2c57d0	-0.16830373
246	0x3c8b4d57	0.017004652
247	0xbdb4ecea	-0.0883425
248	0xbe163c96	-0.14671549
249	0xbd97dfef	-0.07415759
250	0x3cc02fa9	0.023460226
251	0x3d8ca455	0.06867281
252	0xbdc714cc	-0.097207636
253	0xbc911eb4	-0.017714836
254	0xbe06b535	-0.13155062
255	0x3cb16266	0.021653365

linearSequential.2.bias f4 [64]
0	0xbd0febbb	-0.03513692
1	0xbd1821b0	-0.037141502
2	0xbe9b778c	-0.30364645
3	0xbf17c8c6	-0.5929073
4	0xbf26b5d2	-0.65121186
5	0xbda397f1	-0.07987965
6	0xbf1c3cfb	-0.6103055
7	0xbddef172	-0.10885896
8	0xbda9bab1	-0.08287562
9	0xbf24194a	-0.6410109
10	0xbf016e30	-0.5055876
11	0xbce58152	-0.028015766
12	0xbf6193a5	-0.8811591
13	0xbf6d02fe	-0.9258269
14	0xbecd8490	-0.401402
15	0x3cb6af4d	0.022300387
16	0xbeb2b8e3	-0.34906682
17	0xbe80a585	-0.2512628
18	0xbbd2e1e7	-0.006435621
19	0xbe16608d	-0.14685269
20	0xbdec77be	-0.115462765
21	0xbde36d26	-0.11104803
22	0xbd24dbc2	-0.04024864
23	0xbe8563ad	-0.2605261
24	0xbc1d7898	-0.009611271
25	0xbdbcb531	-0.09214247
26	0xbf1c9551	-0.6116534
27	0xbf192092	-0.59815323
28	0xbe372ab4	-0.17887384
29	0xbd6f102e	-0.05836504
30	0x3c9d659a	0.019213486
31	0xbdbcd7c3	-0.09220841
32	0xbdebe684	-0.11518577
33	0xbe222b18	-0.15836751
34	0xbe38baea	-0.18040052
35	0xbe7da4e6	-0.24769935
36	0xbe1e0db6	-0.15434918
37	0xbd738035	-0.05944844
38	0xbe42dbb8	-0.19029129
39	0xbf0ace18	-0.54220724
40	0x3e9a3050	0.30114985
41	0xbf8809aa	-1.0627949
42	0xbdb44f3e	-0.08804177
43	0xbe2ddd43	-0.16978936
44	0xbe019153	-0.12653093
45	0xbe3b616f	-0.18298887
46	0xbee3cab6	-0.44490594
47	0xbf18643c	-0.59527946
48	0xbe6df4c6	-0.23237905
49	0xbdcd5185	-0.10025314
50	0xbebe280b	-0.37139925
51	0xbe274d08	-0.16337979
52	0xbd84fc12	-0.06493391
53	0xbef712e1	-0.4825659
54	0xbeff782a	-0.49896365
55	0xbd9d3cd4	-0.07677618
56	0xbd8c9a23	-0.06865337
57	0xbe09d42a	-0.1345984
58	0xbdceabbf	-0.10091352
59	0xbe2d2395	-0.16908105
60	0xbf32402d	-0.69629174
61	0xbd968f65	-0.07351569
62	0x3d54b5e1	0.051931266
63	0xbf24c7ee	-0.6436757

linearSequential.4.weight f4 [32, 64]
0	0xbda630f1	-0.081148036
1	0xbc17275f	-0.009225695
2	0x3d2c0214	0.04199417
3	0xbbcb1181	-0.006197155
4	0xbdaa7634	-0.08323327
5	0x3b856e5b	0.0040719933
6	0xbdaddc42	-0.084892765
7	0xbd055af5	-0.032557447
8	0xbd379a63	-0.04482497
9	0x3cd9284e	0.026508477
10	0x3c44a552	0.012002306
11	0xbcab56c0	-0.020915389
12	0xbd7dadfc	-0.061933503
13	0x3d945c12	0.072441235
14	0xbdd97d4d	-0.10619602
15	0x3b9e5dcb	0.0048329583
16	0xbcbbc7ed	-0.02292248
17	0xbde32f0e	-0.11092959
18	0xbd270873	-0.040779542
19	0x3de19585	0.11014847
20	0x3d93a17c	0.07208535
21	0x3dbcb9c4	0.092151195
22	0x3d9847ce	0.07435571
23	0x3bc7ae60	0.006093785
24	0xb9e6d705	-0.0004402922
25	0xbca69775	-0.020335892
26	0x3d439393	0.04774816
27	0xbd791fb8	-0.060821265
28	0xbd618dab	-0.055066746
29	0xbc81d0f0	-0.0158467
30	0x3cde10a0	0.027107537
31	0x3dd5e125	0.104433335
32	0x3dc24535	0.094858564
33	0xbc4dbb58	-0.012556873
34	0xbb80362a	-0.003912707
35	0xbdb715a4	-0.089396745
36	0x3ba11123	0.004915373
37	0x3cc67d15	0.024229566
38	0xbe031a2c	-0.12802953
39	0xbdb70eba	-0.08938356
40	0xbe22e38d	-0.15907116
41	0x3c8e634b	0.017381331
42	0xbcaeb373	-0.021325802
43	0xbe06cbfa	-0.13163748
44	0xbc44ab61	-0.012003751
45	0x3d40a200	0.047029495
46	0xbdb711b3	-0.08938923
47	0x3d827f03	0.06371882
48	0x3b255f1b	0.002523369
49	0x3c3bef01	0.011470557
50	0xbcdf92fc	-0.027291767
51	0xbd3aaf85	-0.045577545
52	0x3d6b983a	0.05751822
53	0xbd94d572	-0.07267274
54	0xbd9f5239	-0.077793546
55	0xbcab7e8c	-0.020934366
56	0x3e1b1690	0.15145326
57	0x3e06bcf2	0.13158014
58	0x3cdb7edb	0.026793888
59	0xbdff838b	-0.12476262
60	0x3c0f6efa	0.008754486
61	0x3d52f4a0	0.051502824
62	0x3c02e033	0.007988024
63	0x3d15144d	0.036396313
64	0x3d92bf32	0.07165374
65	0xbda13638	-0.078716695
66	0xbd53b644	-0.051687494
67	0xbdeb0e54	-0.11477342
68	0xbebfbe57	-0.37449905
69	0xbde3863c	-0.111095876
70	0xbe0ac923	-0.1355329
71	0x3c7a94f3	0.015294301
72	0xbc6bd4e0	-0.014394015
73	0xbe328e92	-0.17437199
74	0xbe53cb25	-0.20682962
75	0x3b3bc840	0.0028653294
76	0xbf062190	-0.5239496
77	0xbe0714d3	-0.13191538
78	0xbc335f70	-0.010948047
79	0x3d56c415	0.052433092
80	0x3a974f24	0.0011543971
81	0xbdd33bf2	-0.10314168
82	0xbb182780	-0.0023216903
83	0x3d30866c	0.043096945
84	0x3cb57fc8	0.022155657
85	0x3ddf7aa6	0.10912065
86	0xbe5c71b0	-0.21527743
87	0x3d8f8bd2	0.070090905
88	0xbd6dc6c0	-0.05805087
89	0xbd135a3c	-0.035974726
90	0xbe3d57b5	-0.18490489
91	0xbdecc657	-0.11561268
92	0x3ea6e4a0	0.32596302
93	0x3cb50f56	0.02210204
94	0x3da3a515	0.07990471
95	0xbd3c8ba4	-0.04603161
96	0xbd09ae1c	-0.03361331
97	0xbc7abf2a	-0.015304366
98	0x3cd362ed	0.025804007
99	0xbdc5ed3a	-0.09664388
100	0xbc1776a0	-0.009244591
101	0xbce745f2	-0.028231595
102	0xbc93c778	-0.01803945
103	0x3db43ec5	0.08801035
104	0xbe5671f9	-0.20941915
105	0xbe8947f2	-0.26812702
106	0xbe3ec4d8	-0.18629777
107	0x3d5ea74a	0.054358758
108	0x3d6d7e0c	0.057981536
109	0xbe376c0c	-0.1791231
110	0x3ce5b7bc	0.028041713
111	0xbde9dac1	-0.11418677
112	0xbdc3d0c6	-0.09561305
113	0x3c9c245d	0.019060308
114	0xbd96d284	-0.073643714
115	0xbe22d5a6	-0.15901813
116	0xbad76100	-0.0016432106
117	0xbeea7373	-0.45791206
118	0xbe872083	-0.26391992
119	0xbdc821fe	-0.097721085
120	0xbc0dcd10	-0.008654848
121	0xbb4b86c0	-0.003105566
122	0xbde99a2a	-0.114063576
123	0xbf2affb2	-0.6679641
124	0x3d995547	0.074869685
125	0x3b88a020	0.004169479
126	0xbd9e1e3a	-0.07720609
127	0xbe0fb0a9	-0.14032234
128	0xbe0f6751	-0.14004256
129	0xbe12ea8e	-0.14347288
130	0x3da81412	0.08206953
131	0xbdf8ab3c	-0.12142035
132	0xbc1fc9f2	-0.009752737
133	0x3db86428	0.09003478
134	0xbe3d34f9	-0.18477239
135	0x3d1f3bd5	0.03887542
136	0x3d3862e1	0.045016173
137	0xbd348bbd	-0.044078577
138	0xbd46a6ad	-0.0484988
139	0xbdd67d05	-0.10473064
140	0xbd5643df	-0.05231082
141	0xbc7fb782	-0.0156077165
142	0xbddda094	-0.108216435
143	0xbdc2f973	-0.09520235
144	0xbd548d5f	-0.051892634
145	0x3d6933b8	0.05693409
146	0x3c1dc020	0.009628326
147	0xbd4a09c0	-0.049325705
148	0xbd857776	-0.06516926
149	0xbd2d3281	-0.042284492
150	0x3d270436	0.0407755
151	0xbd044a54	-0.032297447
152	0x3ceeb743	0.02914012
153	0x3d02d528	0.031941563
154	0xbdc7f4f1	-0.09763516
155	0x3d9f00e9	0.077638455
156	0xbdd88af3	-0.105733775
157	0xbcbc20d4	-0.022964872
158	0xbe07fe19	-0.13280524
159	0xbe161dee	-0.14659855
160	0xbdbe2704	-0.092847854
161	0xbcbfeea7	-0.023429228
162	0xbb928950	-0.0044719353
163	0xbca9299a	-0.02064972
164	0x3ddb6428	0.10712463
165	0xbbfb5040	-0.0076694787
166	0xbcb387c0	-0.021915317
167	0xbdba8251	-0.09106887
168	0xbd62083c	-0.055183634
169	0xbcf96e86	-0.03044821
170	0xbcdad103	-0.026710993
171	0xbdb662d6	-0.0890557
172	0x3dc015ac	0.093791336
173	0xbd2d9754	-0.042380646
174	0x3c95a7b1	0.018268438
175	0x3d1e65e7	0.0386714
176	0xbe158dce	-0.14604875
177	0xbda2dd84	-0.07952407
178	0x3ad65eff	0.0016355215
179	0x3d1552b4	0.036455825
180	0xbdaa1988	-0.08305651
181	0xbd00f1f4	-0.031480744
182	0x3d7d7cef	0.061886724
183	0xbdca1c7e	-0.09868716
184	0xbe149aed	-0.14512224
185	0xbb7d68c0	-0.0038667172
186	0xbd9d40a8	-0.07678348
187	0x3c50ecc8	0.012751766
188	0xbd823a3a	-0.06358762
189	0xbce9f3d8	-0.028558657
190	0xbd093a7c	-0.03350304
191	0xbde2feae	-0.110837325
192	0xbe0e0514	-0.13869125
193	0x3c1cc762	0.009569021
194	0x3d54d01c	0.05195628
195	0xbe09b638	-0.13448417
196	0x3c3ee1ef	0.011650546
197	0x3daa7f2d	0.08325038
198	0x3d67dbff	0.05660629
199	0xbd11f104	-0.03563024
200	0xbb7c9af9	-0.003854452
201	0x3b82eee3	0.0039957627
202	0x3cce0516	0.02514891
203	0x3e023cd2	0.12718514
204	0xbe63b2f0	-0.22236228
205	0x3c208c09	0.009799012
206	0xbc446f9e	-0.011989502
207	0xbd29da1a	-0.041467763
208	0xbd850547	-0.06495147
209	0x3dd5a5d4	0.1043202
210	0xbe093348	-0.13398468
211	0x3df35fa0	0.118834734
212	0xbc82698e	-0.015919473
213	0xbc85d55e	-0.016337093
214	0x3caad47b	0.020853272
215	0xbd0169d5	-0.03159507
216	0xbd0fd7b5	-0.035117824
217	0x3d70d8f8	0.058800668
218	0x3d2540d7	0.04034504
219	0x3d8a9950	0.06767523
220	0xbd911d4d	-0.07085667
221	0xbd9caf4b	-0.07650622
222	0xbd73f5d5	-0.059560616
223	0x3dcdc9df	0.100482695
224	0xbca85961	-0.020550432
225	0xbcf89dd6	-0.0303487
226	0xbd9125e8	-0.07087308
227	0x3ea0967d	0.31364813
228	0x3dd2b0a3	0.10287597
229	0x3d9260c0	0.0714736
230	0xbd820a3c	-0.06349608
231	0xbd55bcb2	-0.052181907
232	0xbe54b198	-0.20770872
233	0xbd4e5550	-0.05037433
234	0xbb641ee8	-0.003480846
235	0xbe280bda	-0.16410771
236	0x3d0728ca	0.032997884
237	0x3d956c4a	0.07296045
238	0xbd74077c	-0.05957745
239	0xbddbdd63	-0.107355855
240	0x3bb4b496	0.0055146916
241	0x3db604d3	0.08887639
242	0x3d800b15	0.06252114
243	0x3d5acd0c	0.053418204
244	0xbd191fc8	-0.037383825
245	0x3bffa4f8	0.007801648
246	0x3bb0638f	0.005382962
247	0x3df4a116	0.11944787
248	0xbd59fc8e	-0.05321937
249	0x3df03591	0.11728967
250	0x3ab7b540	0.0014015809
251	0xbdf112bd	-0.11771152
252	0xbe74b27f	-0.23896216
253	0x3db1d3be	0.08682965
254	0x3d073571	0.03300995
255	0x3d351c9f	0.04421675

linearSequential.4.bias f4 [32]
0	0xbe136209	-0.14392866
1	0xbe293957	-0.1652578
2	0xbe126782	-0.14297298
3	0xbe813af7	-0.252403
4	0xbe7c25e5	-0.2462383
5	0xbeb6710e	-0.3563313
6	0xbe18d39e	-0.14924476
7	0xbe975456	-0.2955653
8	0x3ec14b93	0.3775297
9	0xbf092864	-0.53577256
10	0xbf2dffa3	-0.67968196
11	0xbe395d47	-0.18101989
12	0xbf11f277	-0.57010597
13	0xbe134dbb	-0.1438512
14	0xbeefc485	-0.4682962
15	0xbda3d3ff	-0.079994194
16	0xbe306c84	-0.17228895
17	0xbe478c71	-0.19487168
18	0xbe97f77a	-0.29680997
19	0xbeb3f72b	-0.35149512
20	0xbe59c2d5	-0.21265729
21	0xbe278c48	-0.16362107
22	0xbe159261	-0.1460662
23	0xbd0699dd	-0.03286158
24	0xbe961514	-0.29312956
25	0xbec88574	-0.39164317
26	0xbea05922	-0.31318003
27	0xbe25bcbe	-0.1618528
28	0xbe5fb281	-0.21845438
29	0xbf1741af	-0.590846
30	0xbe1b4ade	-0.15165278
31	0xbe8ed5a8	-0.27897382

linearSequential.6.weight f4 [16, 32]
0	0xbdb28aaf	-0.08717858
1	0x39eae715	0.00044804128
2	0xbe070557	-0.1318563
3	0xbe918b0d	-0.284264
4	0xbe182dc4	-0.14861208
5	0xbe152d35	-0.14568026
6	0xbe408229	-0.18799652
7	0xbd594bc8	-0.053050786
8	0x3d235d34	0.039883807
9	0x3da0791f	0.07835602
10	0x3dd26917	0.102739505
11	0x3e24cd69	0.16093983
12	0x3c981a5b	0.018567255
13	0xbd867b43	-0.06566479
14	0xbd13def4	-0.036101297
15	0x3dba47f2	0.09095754
16	0xbdc47f9f	-0.09594654
17	0xbd3bef1c	-0.04588233
18	0xbe7e092e	-0.2480819
19	0xbd059b44	-0.032618776
20	0xbe1950b3	-0.1497219
21	0xbe788487	-0.24269305
22	0xbd97e4c0	-0.074166775
23	0xbd99ef1d	-0.0751631
24	0xbd626aa0	-0.055277467
25	0xbe4a31aa	-0.19745508
26	0xbe25396e	-0.16135189
27	0xbe10cb34	-0.14140016
28	0xbdfe027a	-0.12402816
29	0xbda691dd	-0.0813329
30	0x3cfda5a8	0.03096278
31	0x3d42c778	0.04755351
32	0xbe30650e	-0.1722605
33	0xbeefe8fa	-0.46857435
34	0xbe27f912	-0.16403607
35	0x3e8d5b71	0.27608827
36	0xbdcc12c2	-0.09964515
37	0xbeeccad9	-0.4624851
38	0x3bffbbf5	0.0078043886
39	0xbe2910a6	-0.16510257
40	0x3e54a724	0.20766884
41	0xbe6d3ccb	-0.23167722
42	0xbe9f6694	-0.31132948
43	0x3deb210a	0.11480911
44	0xbe9e3eba	-0.30907232
45	0xbe55a6b1	-0.20864369
46	0xbf2a27aa	-0.6646677
47	0x3a2f7500	0.00066931546
48	0x3ca67b4a	0.02032246
49	0x3d2bc8b8	0.041939467
50	0x3ddeeb70	0.1088475
51	0xbe0b438b	-0.13599984
52	0xbd660112	-0.056153364
53	0x3e448214	0.19190246
54	0xbf33f1a9	-0.7029062
55	0xbe428a98	-0.18998182
56	0xbcab5e98	-0.02091913
57	0xbe31d663	-0.17366938
58	0xbd320f6e	-0.043471746
59	0x3e4df228	0.20111907
60	0xbb9a1fe0	-0.004703507
61	0xbdf66033	-0.12030067
62	0xbe9bad8f	-0.30405852
63	0x3db8cb1a	0.090231135
64	0xbd5e70c6	-0.054306768
65	0x3ec051ab	0.37562308
66	0xbce6d4dd	-0.028177673
67	0x3e0d0f06	0.13775262
68	0xbd475cdb	-0.04867254
69	0x3e94a2f4	0.29030573
70	0x3dbd64ce	0.092477426
71	0xbe87130b	-0.26381716
72	0xbf8e09f7	-1.1096791
73	0x3c1a00a7	0.00939957
74	0xbb987de8	-0.004653681
75	0xbcec0a44	-0.028813489
76	0xbcfdfeac	-0.031005226
77	0xbd24287d	-0.040077675
78	0x3f412676	0.7544931
79	0x3dae3fc5	0.08508257
80	0xbdf0287a	-0.1172647
81	0xbd93d33b	-0.072180234
82	0x3dd38602	0.10328294
83	0xbe2cef94	-0.16888267
84	0xb920bd24	-0.0001532925
85	0xbd418ff8	-0.04725644
86	0x3dabdff0	0.08392322
87	0xbf53650c	-0.8257606
88	0x3e5bbdee	0.21459171
89	0xbd8858ea	-0.06657584
90	0xbde15dde	-0.11004232
91	0xbe07fca3	-0.13279967
92	0xbddc8df5	-0.10769264
93	0x3d22d595	0.03975447
94	0xbc399ea6	-0.011329329
95	0xbdb63521	-0.08896852
96	0x3b55adda	0.0032604844
97	0xbe09c8f6	-0.13455567
98	0xbcf9fd20	-0.030516207
99	0x3d3b60ac	0.04574649
100	0xbd661562	-0.056172736
101	0xbdce19f1	-0.10063542
102	0x3d50c3f8	0.05096814
103	0x3d9e52fe	0.07730673
104	0xbd7fa7f2	-0.062416025
105	0xbd38bb9c	-0.045100793
106	0xbda68dcc	-0.08132514
107	0xbe024730	-0.12722468
108	0xbe2f1f29	-0.1710173
109	0xbcce5630	-0.025187582
110	0x3a1dbd00	0.0006017238
111	0x3d955f98	0.07293624
112	0xbe0ec82f	-0.13943551
113	0x3e33879b	0.17532198
114	0x3d901568	0.07035333
115	0xbaa3e300	-0.0012503564
116	0xbda79da0	-0.081843615
117	0x3c777e10	0.015105739
118	0x3dc4ed52	0.09615578
119	0xbe317b36	-0.17332157
120	0x3dfe1f3a	0.124083
121	0x3dcd784a	0.10032709
122	0xbded4878	-0.11586088
123	0xbe4e6e74	-0.20159322
124	0xbdf9ccea	-0.121972874
125	0xbe1ccc07	-0.15312205
126	0x3e00ab4f	0.12565349
127	0x3e0e89d3	0.13919763
128	0xbd7bb052	-0.06144745
129	0x3d7010a4	0.05860962
130	0xbdc6564a	-0.09684427
131	0xbe1943d0	-0.14967275
132	0xbe335629	-0.17513336
133	0xbe13ecc3	-0.14445786
134	0xb89ba800	-7.4222684e-05
135	0xbd00ed0c	-0.031476066
136	0xbe17cd51	-0.14824416
137	0xbe108b2a	-0.14115587
138	0xbd20e5a0	-0.039281487
139	0xbdf3562c	-0.1188167
140	0xbd6fed64	-0.058576003
141	0xbd4f8b90	-0.050670207
142	0xbdab8c15	-0.08376328
143	0xbcdef1e8	-0.02721496
144	0x3e0a470b	0.13503663
145	0x3e174f95	0.14776452
146	0xbe204023	-0.15649466
147	0x3d007424	0.03136076
148	0xbda4d296	-0.080479786
149	0x3da02caa	0.07821019
150	0x3c602d90	0.013682738
151	0x3e28ade3	0.16472583
152	0x3d93da52	0.07219376
153	0xbe139d10	-0.14415383
154	0xbd0aa6bc	-0.033850417
155	0x3a1a1000	0.0005877018
156	0xbc6559d0	-0.013998464
157	0xbda0b929	-0.078478165
158	0xbdb5c53d	-0.08875511
159	0x3dc63f36	0.09680025
160	0xbd9a030c	-0.075201124
161	0xbdb9a1af	-0.09064042
162	0xbd995004	-0.07485965
163	0x3e041175	0.12897284
164	0xbde52109	-0.111879416
165	0xbe3e2ab1	-0.18570973
166	0xbd98cda5	-0.074610986
167	0x3d7fc694	0.06244524
168	0xbd9bccf7	-0.07607453
169	0xbea3c0e6	-0.31983107
170	0xbd5fc47e	-0.05463075
171	0xbdfe7642	-0.124249
172	0xbe3a0944	-0.18167597
173	0xbe20d99e	-0.15708014
174	0xbd70dae3	-0.058802497
175	0xbe11cd85	-0.14238556
176	0xbdf4f0ce	-0.11959992
177	0x3dae1f5e	0.085020766
178	0x3ce72228	0.02821453
179	0x3bb4afa0	0.0055141
180	0xbe309393	-0.17243795
181	0x3d930740	0.07179117
182	0x3e274d85	0.16338165
183	0x3e143d3f	0.14476489
184	0xbdccf980	-0.10008526
185	0xbe1a5b40	-0.15073872
186	0xbe8fe1a8	-0.2810185
187	0xbdb53c3f	-0.08849382
188	0x3dde6956	0.10859935
189	0x3c571f50	0.013130024
190	0xbddccfed	-0.10781846
191	0xbd87e933	-0.06636276
192	0x3d857f1a	0.06518383
193	0xbe36ccf4	-0.17851621
194	0x3b0835a7	0.0020783932
195	0x3d5b2425	0.053501267
196	0x3d6f44da	0.05841527
197	0x3e86353e	0.26212496
198	0xbc1dd71f	-0.009633808
199	0xbdcf80b3	-0.10131969
200	0xbef71713	-0.48259792
201	0x3bf57b6b	0.007491519
202	0xbd085fe0	-0.03329456
203	0xbd69effb	-0.05711363
204	0x3dbb5860	0.091477156
205	0x3db519fa	0.08842845
206	0x3efad526	0.48990744
207	0x3d07dc93	0.03316934
208	0xbe0fb2cc	-0.1403305
209	0x3e0ae72d	0.13564749
210	0xbd8e0a22	-0.069355264
211	0xbe0f395e	-0.13986728
212	0xbdc0ffad	-0.09423766
213	0xbde5db0c	-0.112234205
214	0xbe17f975	-0.14841254
215	0xbeeff319	-0.46865156
216	0x3b8dc413	0.0043263524
217	0x3ccd779a	0.025081445
218	0xbd7546ec	-0.05988209
219	0x3e4cc0cf	0.19995426
220	0xbdbbfd47	-0.09179168
221	0x3be4e289	0.006985013
222	0xbe077f80	-0.13232231
223	0x3d9db0c7	0.07699733
224	0xbe23ff85	-0.16015442
225	0x3e02495f	0.12723301
226	0xbc9ea6f8	-0.019366726
227	0x3d8fad95	0.0701553
228	0x3e29e16b	0.16589896
229	0xbe14358b	-0.1447355
230	0x3e3387db	0.17532293
231	0xbdf8328f	-0.12119018
232	0xbde516d5	-0.111859955
233	0xbe41e447	-0.18934737
234	0xbe226e2c	-0.1586234
235	0xbd41f7c0	-0.047355413
236	0x3d12f177	0.03587481
237	0xbe03d4bb	-0.12874119
238	0x3d90b382	0.070654884
239	0xbdbc463b	-0.09193083
240	0xbd91e08d	-0.07122908
241	0xbd536178	-0.051606625
242	0xbd93422f	-0.07190358
243	0xbe21d374	-0.15803319
244	0x3c8053af	0.015664903
245	0xbcbfa660	-0.023394763
246	0xbe93f549	-0.28898075
247	0x3e1a1de9	0.15050472
248	0x3e15048f	0.1455252
249	0xbe36f638	-0.17867362
250	0x3d1a9de5	0.037748236
251	0xbbd95960	-0.006632969
252	0x3cd8e070	0.026474208
253	0x3bbe3265	0.0058043473
254	0x3e11a887	0.14224444
255	0x3d9a210a	0.07525833

linearSequential.6.bias f4 [16]
0	0xbe805ffb	-0.25073227
1	0xbd9efe48	-0.07763344
2	0x3e29516e	0.16534969
3	0xbe434c50	-0.1907208
4	0xbe315e42	-0.17321113
5	0xbe9d5ea2	-0.30736262
6	0x3e2ef75d	0.17086549
7	0xbe43584b	-0.1907665
8	0xbd9d45d3	-0.076793335
9	0xbe689203	-0.22711949
10	0xbd576130	-0.05258292
11	0xbe6e4c21	-0.23271228
12	0xbdeff1f2	-0.11716069
13	0xbe668c57	-0.22514473
14	0x3e2a1e6a	0.16613165
15	0xbdccdb15	-0.10002724

linearSequential.9.weight f4 [1, 16]
0	0x3d93d1c9	0.07217748
1	0xbd896c0b	-0.06710061
2	0x3e38bf88	0.18041813
3	0xbd0d3270	-0.03447193
4	0x3d34fa70	0.04418415
5	0xbdf549c6	-0.11976962
6	0x3e176b54	0.14787036
7	0xbc9650c4	-0.018349059
8	0xbd89142b	-0.066933
9	0x39d70ff6	0.00041019887
10	0xbd9ae773	-0.07563677
11	0xb9f6ec2a	-0.00047096732
12	0xbe7ea8fa	-0.24869147
13	0x3c8ab549	0.016932147
14	0x3e3af34e	0.18256876
15	0xbe52f438	-0.20600975
