nnwf/nets/state_dicts/nnwf01.pt (torch, 50579 bytes, 10 tensors)

linearSequential.0.weight f4 [128, 5]
0	0x3dc2851d	0.094980456
1	0xbdfe443c	-0.124153584
2	0x3e2820a2	0.16418698
3	0xbe969eb2	-0.2941795
4	0x3e1949bf	0.14969538
5	0xbd3de770	-0.046363294
6	0x3f695c0b	0.9115607
7	0xbef82ac3	-0.48470125
8	0x3c8dfcc6	0.017332446
9	0x3c7c06eb	0.015382509
10	0xbefb00ac	-0.4902395
11	0xbe921334	-0.28530276
12	0x3d2cce7d	0.04218911
13	0x3e60f567	0.21968614
14	0xbf0cc3e1	-0.5498639
15	0x3f1009ba	0.5626484
16	0x3f7857dc	0.9700906
17	0xbec1c0b5	-0.37842336
18	0xbf23cdc6	-0.6398586
19	0xbe5ea535	-0.21742709
20	0xbf0cc9de	-0.54995525
21	0x3d068910	0.032845557
22	0x3f8dd0fd	1.1079403
23	0xbe079ea1	-0.13244106
24	0xbec11008	-0.37707543
25	0x3f8e66ba	1.11251
26	0xbefa386f	-0.4887118
27	0x3d496db2	0.04917688
28	0xbf263f22	-0.64940083
29	0xbaba3e16	-0.0014209177
30	0x3f268f21	0.6506215
31	0xbf313669	-0.6922365
32	0xbf106aee	-0.5641316
33	0xbdb54a1c	-0.08852026
34	0x3d5e6686	0.054296993
35	0x3e1b64c5	0.1517516
36	0xbdf7ca14	-0.1209909
37	0x3e4df7d9	0.20114078
38	0xbe31af40	-0.17352009
39	0xbe274384	-0.16334349
40	0x3e0f84c4	0.1401549
41	0xbecdead5	-0.40218225
42	0x3e85b9a9	0.2611821
43	0xbe33e748	-0.17568696
44	0xbe3610a1	-0.17779781
45	0xbadd6387	-0.0016890623
46	0x3dacee17	0.084438495
47	0xbf0bf908	-0.54676867
48	0xbf110630	-0.56650066
49	0xbe72576c	-0.23666161
50	0xbf639ad3	-0.8890812
51	0x3ea62013	0.32446346
52	0x3f273704	0.6531832
53	0x3df1bd9d	0.11803744
54	0xbeae7ed4	-0.34081137
55	0xbda6bb4a	-0.08141191
56	0xbf86f1de	-1.0542562
57	0x3d574f6c	0.052565977
58	0x3ea3fd6c	0.32029283
59	0xbe5ac4a2	-0.21364072
60	0x3eccb023	0.39978132
61	0x3e6a0ee7	0.22857247
62	0x3ee43076	0.44568223
63	0x3eef89fb	0.46784958
64	0x3db12e10	0.08651364
65	0x3dc76b7e	0.097372994
66	0x3db5f00e	0.088836774
67	0xbe6ea70b	-0.2330591
68	0xbe463e59	-0.19359721
69	0xbcdbedcb	-0.026846787
70	0x3dd69a98	0.10478705
71	0xbf086db9	-0.53292423
72	0x3ddb6b2f	0.10713803
73	0xbd83c240	-0.064335346
74	0xbd1f9b6a	-0.038966574
75	0xbe8d7d73	-0.27634773
76	0x3d913873	0.07090845
77	0x3edd4605	0.43217483
78	0xbd81a26f	-0.0632981
79	0xbe35a424	-0.17738396
80	0x3e51057c	0.20412248
81	0xbec6e41b	-0.38845906
82	0x3f2ba6a3	0.6705114
83	0xbe589f19	-0.21154441
84	0xbd7730e5	-0.060349364
85	0xbf4c9906	-0.79920995
86	0x3ec3fc16	0.38278264
87	0xbdd7aa3b	-0.10530516
88	0xbed5232e	-0.41628402
89	0xbf65a1cc	-0.8970001
90	0xbee355a2	-0.4440127
91	0x3f0179d5	0.50576526
92	0xbdc52477	-0.09626096
93	0x3e46326b	0.1935517
94	0xbe10d0e9	-0.14142193
95	0x3cefab73	0.029256558
96	0x3f7b09cb	0.9806182
97	0xbe4c1fd5	-0.19934018
98	0xbf2af283	-0.66776294
99	0x3e3016b9	0.17196168
100	0xbd471f1f	-0.048613664
101	0xbf194510	-0.59871006
102	0xbf08dd95	-0.5346311
103	0x3e65394b	0.22385137
104	0xbd18862a	-0.037237324
105	0xbf61b5e4	-0.8816817
106	0x3f0ff279	0.5622936
107	0x3eee3dc6	0.46531504
108	0x3db784ea	0.08960898
109	0x3e3072c7	0.17231284
110	0x3e5ac34d	0.21363564
111	0xbeb0f1eb	-0.3455957
112	0xbe01b62d	-0.12667151
113	0xbe2117fe	-0.15731809
114	0x3a88b50c	0.0010429933
115	0x3da74a62	0.08168484
116	0xbf590bfe	-0.84783924
117	0xbe3b5887	-0.18295489
118	0xbedbe8f7	-0.42951176
119	0xbf6602c0	-0.89847946
120	0x3e6c0375	0.23048194
121	0xbefb4459	-0.49075583
122	0xbea10eb9	-0.31456545
123	0x3e671700	0.22567368
124	0x3c6caa45	0.014444892
125	0x3ea830f9	0.32849863
126	0x3e9f50dd	0.3111638
127	0x3eeb1a85	0.4591867
128	0xbe050bff	-0.12992857
129	0x3de95658	0.11393422
130	0xbe081323	-0.1328855
131	0xbd101579	-0.035176728
132	0xbed7b1b1	-0.42127755
133	0xbf5fa9f9	-0.8736873
134	0xbd6ceb50	-0.0578416
135	0x3e31890f	0.1733744
136	0xbe2f3b07	-0.17112361
137	0xbe1d585e	-0.1536574
138	0x3e601562	0.21883157
139	0x3e7456eb	0.23861282
140	0xbe44188e	-0.19149992
141	0x3e44b195	0.19208367
142	0xbe45afde	-0.1930537
143	0xbed99311	-0.42495015
144	0x3d07317f	0.033006188
145	0x3e946264	0.28981316
146	0xbeeee658	-0.46660113
147	0x3da61e1d	0.081112124
148	0xbf0ec340	-0.5576668
149	0xbde55cc4	-0.11199334
150	0x3f006f01	0.5016938
151	0x3f29cb6f	0.6632604
152	0xbf615fa6	-0.8803657
153	0x3ed22cb0	0.4104972
154	0x3e834003	0.25634775
155	0x3b5e7118	0.003394192
156	0xbd0f5b52	-0.0349992
157	0xbda3e823	-0.08003261
158	0x3cfc1e72	0.030776236
159	0xbdac8223	-0.08423259
160	0xbe3fbae9	-0.18723644
161	0xbe031e78	-0.12804592
162	0xbeaacad3	-0.33357868
163	0x3dc2b146	0.095064685
164	0x3d23b640	0.03996873
165	0x3f2bf6fd	0.6717375
166	0xbf344951	-0.7042437
167	0xbf18713f	-0.595478
168	0xbcc22449	-0.023698943
169	0x3cd4b5ee	0.025965657
170	0xbf02ac2c	-0.51043963
171	0xbdd10eaa	-0.10207875
172	0xbf26ea27	-0.6520104
173	0x3e8d37f4	0.2758175
174	0xbdb8e56b	-0.09028133
175	0x3e076492	0.13221958
176	0xbf2a71ab	-0.66579694
177	0xbf5ad3d3	-0.8547947
178	0x3d97b6e0	0.074079275
179	0x3cdd43c1	0.027009847
180	0xbc00b494	-0.007855553
181	0x3c11c362	0.008896681
182	0x3d800d46	0.06252532
183	0xbec2f396	-0.38076466
184	0xbe02f4d3	-0.12788706
185	0x3e416089	0.18884481
186	0x3f0d7d2b	0.55269116
187	0x3f11576c	0.5677402
188	0x3eb7ee26	0.3592388
189	0x3e0687d3	0.1313775
190	0x3e934481	0.28763202
191	0x3e35f126	0.17767772
192	0xbc7e742f	-0.01553063
193	0x3ec315c9	0.38102558
194	0xbf917374	-1.1363358
195	0x3dfd5f2f	0.123716705
196	0xbd45ab35	-0.04825898
197	0x3d8fdc3c	0.07024428
198	0xbea2e551	-0.3181558
199	0x3e4a3681	0.19747354
200	0xbee3996f	-0.44452998
201	0x3d4a8c39	0.049450133
202	0x3ece5774	0.40301096
203	0x3e80b81b	0.2514046
204	0x3e15aa00	0.14615631
205	0x3c7b801e	0.01535037
206	0x3df16865	0.1178749
207	0x3ea400a6	0.32031745
208	0xbe4d8eeb	-0.2007405
209	0x3d705113	0.05867107
210	0x3e2086f8	0.15676486
211	0x3f580a3a	0.84390604
212	0x3da25bc3	0.079276584
213	0x3eac1df6	0.33616608
214	0xbf46ce0a	-0.7765814
215	0x3e0e0944	0.13870722
216	0xbebab190	-0.36463594
217	0xbf0a0c84	-0.5392535
218	0x3e764581	0.24049951
219	0xbe1a99df	-0.1509776
220	0x3e2e0d12	0.16997173
221	0x3efe21fb	0.496353
222	0x3dabd9f9	0.08391184
223	0xbfa72fb8	-1.3061438
224	0xbe471819	-0.19442786
225	0xbe8803cd	-0.265654
226	0x3ed887c3	0.42291078
227	0x3d8b7b9d	0.06810687
228	0xbe31f7e1	-0.17379715
229	0xbd058522	-0.03259767
230	0xbf0e0ec0	-0.55491257
231	0xbf16aee4	-0.5886061
232	0xbf702044	-0.93799233
233	0xbf1374d8	-0.57600164
234	0xbe301b5b	-0.17197935
235	0xbd82b6a8	-0.06382495
236	0x3dd1918f	0.10232841
237	0x3d897fa8	0.067138016
238	0x3c2562a5	0.0100943195
239	0xbccf71a3	-0.02532274
240	0x3daf4d30	0.08559644
241	0xbbf47380	-0.0074600577
242	0xbd913fa6	-0.07092218
243	0xbe5f001d	-0.21777387
244	0xbcf5e3b8	-0.030015811
245	0x3e153810	0.14572167
246	0xbe09f7f9	-0.134735
247	0x3d797b24	0.06090845
248	0xbe693122	-0.22772649
249	0x3c67dbc2	0.014151515
250	0x3eb6751c	0.35636222
251	0x3ea007a1	0.3125582
252	0x3e413174	0.18866521
253	0xbed6347e	-0.41836923
254	0x3e1a906f	0.1509416
255	0xbe2af8c0	-0.16696453

linearSequential.0.bias f4 [128]
0	0xbd204917	-0.039132204
1	0x3d992e33	0.07479515
2	0xbf3c1b2f	-0.7347898
3	0xbf57379e	-0.8406924
4	0xbf5297f9	-0.8226314
5	0xbef47714	-0.477471
6	0xbf87f697	-1.0622128
7	0x3e226a0f	0.1586077
8	0xbf345ff6	-0.70458925
9	0x3ee0e75e	0.4392652
10	0x3d9e927f	0.07742786
11	0xbee00385	-0.43752685
12	0xbf5c1115	-0.85963565
13	0x3da9b2c6	0.082860515
14	0xbf527c2f	-0.8222074
15	0x3ea503b7	0.32229397
16	0xbf6bc0b5	-0.9209092
17	0xbf27aba0	-0.65496254
18	0xbcc5f114	-0.024162807
19	0x3e863e0c	0.26219213
20	0xbf71b41c	-0.9441545
21	0xbf777f37	-0.9667849
22	0xbe8fdf2c	-0.28099954
23	0xbf7c879b	-0.9864442
24	0x3e456b11	0.19279124
25	0xbf8a687c	-1.0813136
26	0xbf095ac5	-0.5365413
27	0xbe855e05	-0.26048294
28	0x3e32bb54	0.17454273
29	0xbe927fe0	-0.28613186
30	0xbfa378a4	-1.2771192
31	0xbdefb18c	-0.11703786
32	0xbf0937a7	-0.53600544
33	0xbf7b9959	-0.98280865
34	0xbf186472	-0.5952827
35	0xbf401820	-0.7503681
36	0xbea23480	-0.3168068
37	0xbf84be71	-1.0370618
38	0xbe94139c	-0.2892121
39	0x3ed7f314	0.4217764
40	0xbf895bf9	-1.0731193
41	0xbf4ace64	-0.7922118
42	0xbf680c99	-0.9064422
43	0xbe33e9a8	-0.17569602
44	0xbd7a5fd2	-0.061126538
45	0xbf153f80	-0.5830002
46	0xbef4896f	-0.47761104
47	0xbe45f7c4	-0.19332796
48	0x3c89427b	0.016755333
49	0x3e8a912c	0.27063882
50	0xbaa9de2b	-0.0012959888
51	0xbe429097	-0.19000469
52	0xbefa3a5f	-0.4887266
53	0xbf0efdae	-0.55855834
54	0xbe62e105	-0.2215615
55	0xbef74f82	-0.48302847
56	0xbf289d4c	-0.65865016
57	0xbe0321c6	-0.12805852
58	0xbe89d206	-0.26918048
59	0xbf45a667	-0.77207035
60	0x3ea4c040	0.32177925
61	0x3dbb9ec7	0.09161144
62	0xbdd9ccb3	-0.106347464
63	0xbe3ca7b5	-0.1842335
64	0x3ddb661e	0.10712837
65	0xbda8d9d7	-0.08244675
66	0xbda20994	-0.07911983
67	0xbf2d04a6	-0.6758522
68	0x3e68ba41	0.227273
69	0xbf522e27	-0.8210167
70	0x3dab0f6e	0.08352552
71	0xbf77f105	-0.9685214
72	0x3e0da3d7	0.13832031
73	0xbea990c0	-0.33118248
74	0xbe26d85c	-0.16293472
75	0xbe2d83e6	-0.16944847
76	0x3db8cb9e	0.09023212
77	0xbeb38167	-0.35059664
78	0xbe88fda2	-0.26756006
79	0xbeceb0d3	-0.4036928
80	0xbf7be366	-0.9839386
81	0xbf28c848	-0.65930605
82	0xbe98610c	-0.2976154
83	0xbe44a4c3	-0.19203477
84	0xbf8e0b7c	-1.1097255
85	0xbf9312f7	-1.1490163
86	0xbf0a9ade	-0.5414256
87	0xbec10918	-0.3770225
88	0x3c9a1798	0.018810079
89	0xbfb897fc	-1.4421382
90	0x3ea8349a	0.32852632
91	0xbf0e95ba	-0.55697215
92	0xbf176da2	-0.5915166
93	0xbe569a19	-0.20957221
94	0xbf702047	-0.9379925
95	0x3dea5d59	0.11443586
96	0xbe8f33e3	-0.27969274
97	0x3ce0d3be	0.027444717
98	0xbf0db7c8	-0.5535855
99	0x3dabb60c	0.08384332
100	0xbedd4568	-0.43217015
101	0xbdee9d73	-0.11651125
102	0xbef0bb9b	-0.47018132
103	0x3db79887	0.08964639
104	0x3e82d3a0	0.25552082
105	0xbf5da2ed	-0.8657673
106	0xbf7a9171	-0.97878176
107	0xbdff2bce	-0.12459527
108	0xbe1dfd56	-0.15428671
109	0xbe6f21ca	-0.23352733
110	0x3c99104e	0.018684532
111	0xbe75d98f	-0.24008773
112	0xbf09e5ac	-0.53866076
113	0xbf5c608c	-0.8608482
114	0xbecb2c74	-0.39682353
115	0xbd5250b5	-0.0513465
116	0x3eb565e8	0.3542931
117	0xbc097405	-0.008389478
118	0xbf5b1668	-0.85581064
119	0xbf5590b4	-0.83423924
120	0xbe0d2729	-0.1378447
121	0x3be153b5	0.0068764337
122	0xbe7ec71e	-0.24880645
123	0xbebf38d7	-0.37348053
124	0x3d4b616f	0.049653467
125	0x3e056a73	0.13028888
126	0xbe9a53db	-0.30142102
127	0xbef5cc63	-0.48007497

linearSequential.2.weight f4 [64, 128]
0	0xbd829076	-0.0637521
1	0xbcf22530	-0.029558748
2	0xbe1e710e	-0.15472814
3	0x3d566307	0.052340534
4	0xbd8fc29a	-0.07019539
5	0x3d3a3bc6	0.04546716
6	0xbda071a6	-0.07834177
7	0xbd30e796	-0.043189608
8	0xbda598ab	-0.0808576
9	0xbd9c3e19	-0.07629032
10	0xbe13932e	-0.14411613
11	0x3d46e335	0.048556525
12	0xbbc1ec1f	-0.0059180404
13	0xbda689c1	-0.08131743
14	0x3d0a278c	0.03372912
15	0xbe3b2747	-0.18276702
16	0xbac93080	-0.0015349537
17	0xbdf01426	-0.11722593
18	0xbe1e0966	-0.15433273
19	0xbd570c90	-0.052502215
20	0xbdc61084	-0.09671119
21	0xbdfc3951	-0.1231562
22	0xbdd3da58	-0.1034438
23	0x3d16a973	0.036782693
24	0xbded968f	-0.116009824
25	0xbd5d36b7	-0.05400726
26	0x3c971ff7	0.01844786
27	0x3c4855f8	0.012227528
28	0x3b975ebe	0.0046194484
29	0xbd1d2a66	-0.038370512
30	0x3d24bb91	0.04021794
31	0xbd41a1f5	-0.047273595
32	0xbcc2a0e8	-0.023758367
33	0xbdbb80c3	-0.09155419
34	0x3d2b0dc6	0.041761182
35	0x3ced72d3	0.028985417
36	0xbd1b2c4f	-0.037884053
37	0xbc82e23c	-0.015977018
38	0x3d031736	0.032004558
39	0xbe37a9d6	-0.17935881
40	0x3d150636	0.036382876
41	0x3d251a52	0.040308304
42	0x3d2c6a41	0.04209352
43	0x3cdbedfe	0.026846882
44	0x3af5ee59	0.001876305
45	0xbd8904f5	-0.066903986
46	0x3ca7f8c4	0.020504363
47	0xbe46a070	-0.1939714
48	0xbcbc69ac	-0.022999607
49	0x3d40d73d	0.047080267
50	0xbd81e06d	-0.06341634
51	0xbd11f772	-0.035636373
52	0x3d0327b4	0.032020286
53	0xbdeab758	-0.11460751
54	0xbcc8bd06	-0.024504196
55	0xbe77bfe8	-0.241943
56	0x3cc257ab	0.023723444
57	0xbd43ddc7	-0.047818925
58	0xbda1edeb	-0.079067074
59	0xbe57d56c	-0.21077508
60	0x3c090017	0.008361838
61	0xbe0f2653	-0.13979463
62	0xbdf81caf	-0.12114846
63	0xbda7f7e9	-0.08201582
64	0xbde5c8f2	-0.11219968
65	0xbd944c67	-0.07241135
66	0xbd94ddc2	-0.072688594
67	0xbe303379	-0.17207135
68	0xbd78f7bc	-0.060783133
69	0x3d103852	0.03520996
70	0xbddc16ec	-0.107465595
71	0xbda6f803	-0.08152773
72	0xbc38103f	-0.011234342
73	0xbd7216a6	-0.05910363
74	0xbd9e99ba	-0.07744165
75	0xbd48e469	-0.049045954
76	0x3d462aab	0.048380535
77	0xbdd9308b	-0.10604962
78	0xbd839c27	-0.06426268
79	0xbd208177	-0.039185967
80	0xbb51b660	-0.0031999573
81	0xbce57dcf	-0.028014092
82	0x3ca985e4	0.020693727
83	0xbd66d3b8	-0.056354254
84	0x3d83bbef	0.0643233
85	0x3da098b3	0.07841625
86	0xbd16a4fc	-0.036778435
87	0xbe187bfc	-0.14891046
88	0xbe4e984f	-0.20175289
89	0xbd9a275a	-0.07527037
90	0xbe5c53a0	-0.21516275
91	0x3d795d0a	0.060879745
92	0xbe1daeba	-0.15398684
93	0x3b2e756b	0.002662028
94	0xbd88d189	-0.06680591
95	0xbd83c6a4	-0.06434372
96	0x3c5f290d	0.013620627
97	0xbddad3dd	-0.10684941
98	0xbd1a262a	-0.037634052
99	0xbcb29efd	-0.021804327
100	0x3d2767cb	0.04087047
101	0xbdc9eac6	-0.098592326
102	0x3d5029ae	0.050821
103	0xbca3d8b7	-0.020000799
104	0xbd1e9cc3	-0.03872372
105	0xbc5e7b68	-0.013579227
106	0xbdc24ebb	-0.09487673
107	0xbdc18858	-0.09449834
108	0xbd22f260	-0.039781928
109	0xbd6b464b	-0.057440083
110	0xbe0a072b	-0.13479297
111	0xbdc8b6eb	-0.09800514
112	0xbe2e47ce	-0.17019579
113	0xbd5b9259	-0.053606365
114	0x3cffe9e8	0.031239465
115	0xbcb8cd33	-0.022558784
116	0xbdd7abee	-0.1053084
117	0xbdb14a0c	-0.086567014
118	0xbc7070b8	-0.014675312
119	0xbde37445	-0.11106161
120	0xbcb402a6	-0.02197392
121	0xb96fac25	-0.00022856945
122	0x3ce3746a	0.027765471
123	0xbdd05456	-0.10172336
124	0xbdc1152d	-0.09427867
125	0x3d2c8bd3	0.042125534
126	0xbc665ba0	-0.014059931
127	0xbceee370	-0.029161185
128	0x3d6d7342	0.057971247
129	0x3d04a0cd	0.032379914
130	0xbd765233	-0.060136985
131	0xbc4e7120	-0.012600213
132	0xbd147e64	-0.036253348
133	0xbd0d27fa	-0.034461953
134	0x3c743c4c	0.014906954
135	0xbdfbca6b	-0.122944675
136	0xb9beec1f	-0.00036415548
137	0xbe0a3043	-0.13494973
138	0xbd862b31	-0.06551207
139	0xbca69629	-0.020335274
140	0xbdac8577	-0.08423894
141	0x3cb1b16f	0.021691052
142	0x3cf9ea44	0.030507214
143	0xbe0547bd	-0.13015647
144	0xbda06f1d	-0.07833693
145	0x3ce9c59a	0.028536607
146	0xbde2ba72	-0.11070718
147	0xbdf85a84	-0.121266395
148	0xbd4666a9	-0.048437748
149	0x3b7b9c0e	0.0038392576
150	0xbc076da2	-0.008265885
151	0x3d5f5deb	0.054532927
152	0x3d105e93	0.035246443
153	0xbd9ff1e0	-0.07809806
154	0xbdf4146f	-0.1191796
155	0xbdde0bc9	-0.108420916
156	0x3cb533ba	0.022119392
157	0xbda172ec	-0.07883248
158	0xbdf0723c	-0.117405385
159	0xbd83fe30	-0.06444967
160	0xbda3a9f9	-0.07991404
161	0xbda8dd90	-0.08245385
162	0xbdced029	-0.10098297
163	0x3d111c3e	0.035427324
164	0xbd930217	-0.07178133
165	0xbbd19162	-0.006395505
166	0xbda78ec0	-0.08181524
167	0xbda8d0b1	-0.0824293
168	0xbd13af25	-0.036055703
169	0xbc4bbc90	-0.0124350935
170	0xbcbe2e5b	-0.023215463
171	0xbd911d85	-0.070857085
172	0xbb8de7d7	-0.004330616
173	0x3c379f00	0.011207342
174	0xbdbb232f	-0.0913757
175	0xbdc0636f	-0.093939655
176	0xbd670214	-0.056398466
177	0xbdf35177	-0.118807726
178	0xbd9406ba	-0.072278455
179	0xbd341ba7	-0.043971684
180	0x3d3aa5fa	0.045568444
181	0xbddb309e	-0.10702632
182	0xbe008ec2	-0.12554458
183	0xbde67aa9	-0.11253864
184	0x3ca3fdd3	0.020018494
185	0xbd9c86c6	-0.076428935
186	0xbcd72130	-0.026260942
187	0x3d6acde2	0.05732525
188	0xbd7ffc37	-0.06249639
189	0xbb0eecd0	-0.0021808632
190	0x3b92894d	0.004471934
191	0xbd2b132a	-0.041766323
192	0xbd7a700d	-0.061142016
193	0xbd8e03ce	-0.069343194
194	0xbdcf95ff	-0.10136031
195	0xbcae0355	-0.021241823
196	0x3d20f13b	0.039292555
197	0xbd7f6c5b	-0.062359195
198	0xbdaa7a1b	-0.08324071
199	0x3ca5b35e	0.02022713
200	0xbd1617a9	-0.036643658
201	0xbc837a11	-0.016049417
202	0xbd828c1e	-0.063743815
203	0xbdd28e38	-0.10281032
204	0xbba67f70	-0.0050811097
205	0xbdb25b30	-0.08708799
206	0xbc974c2a	-0.018468935
207	0xbd70d666	-0.058798216
208	0xbd219f51	-0.039458577
209	0x3b396bbc	0.0028292974
210	0xbc91833b	-0.01776277
211	0xbdd26021	-0.102722414
212	0xbd515505	-0.05110647
213	0xbcfb9ad9	-0.030713486
214	0x3d46e70a	0.04856018
215	0x3d2f4a95	0.042795736
216	0x3cc18827	0.023624493
217	0xbdc40f72	-0.095732585
218	0xbdefb74c	-0.11704883
219	0x3d19d95b	0.037560802
220	0x3d1fcb04	0.03901197
221	0xbd08e9c5	-0.033426065
222	0xbc9b7e0a	-0.018980999
223	0xbd2df2a3	-0.042467725
224	0xbd861cc1	-0.06548453
225	0xbdcb7fc4	-0.09936479
226	0xbd0e6e77	-0.034773316
227	0xbd6e1d9d	-0.05813371
228	0xbd31ff33	-0.043456268
229	0x3d291600	0.041280746
230	0x3d11f8dc	0.03563772
231	0x3c1388d4	0.00900479
232	0xbdbe0d39	-0.09279866
233	0xbd871d82	-0.06597425
234	0xbcba1400	-0.022714615
235	0xbcb6790f	-0.022274522
236	0xbd4550e5	-0.04817285
237	0xbc7cd33a	-0.01543122
238	0xbd6ee567	-0.058324244
239	0xbb894924	-0.0041896272
240	0xbd393ae8	-0.045222193
241	0xbdaa9d6f	-0.08330809
242	0xbddc305b	-0.107514106
243	0x3be502c3	0.0069888546
244	0xbd453f12	-0.04815585
245	0xbdd447dc	-0.103652686
246	0xbca4c803	-0.020114904
247	0xbd5f5992	-0.05452878
248	0xbd8c1022	-0.068390146
249	0xbc5d0e6d	-0.013492209
250	0xbd89b2f9	-0.067235895
251	0x3d1686a4	0.036749497
252	0xbd9f9264	-0.07791594
253	0x3c8fa0ed	0.01753279
254	0xbd9c4c3a	-0.076317266
255	0xbdb9598b	-0.09050282

linearSequential.2.bias f4 [64]
0	0x3be4b3b1	0.0069794287
1	0x3c622b96	0.013804337
2	0x3d8f835f	0.07007479
3	0x3dcff65e	0.10154413
4	0xbdec224b	-0.11529978
5	0x3ec7cd00	0.3902359
6	0xbbb51e75	-0.0055273124
7	0xbdcd9d8e	-0.10039817
8	0xbe740422	-0.23829702
9	0x3e5b2c88	0.21403706
10	0xbdad0c5f	-0.08449625
11	0x3cc23155	0.023705164
12	0xbd4e8f66	-0.050429724
13	0xbd2387cd	-0.03992443
14	0x3d09c872	0.033638425
15	0xbcc34596	-0.023836892
16	0x3ebaef05	0.36510482
17	0xbdaf791f	-0.08568024
18	0x3da9d560	0.08292651
19	0x3d35428d	0.04425292
20	0x3eb5b844	0.35492146
21	0x3e092c6e	0.13395855
22	0xb9f67e75	-0.00047014994
23	0x3ee992f7	0.45619938
24	0xbe43f7d4	-0.19137508
25	0xbd869312	-0.0657102
26	0x3d4b2206	0.049592994
27	0xbe58eb41	-0.21183492
28	0x3ca9727a	0.02068447
29	0x3d263630	0.04057902
30	0xbdf75adb	-0.12077876
31	0xbe48a452	-0.19593933
32	0xbde0734b	-0.109594904
33	0xbda23455	-0.07920138
34	0x3cd3c92b	0.02585276
35	0xbda31389	-0.079627104
36	0x3f0ca215	0.5493482
37	0xbda262a1	-0.07928968
38	0xbe1c1dec	-0.1524579
39	0x3e26c8e5	0.16287573
40	0xbe14ae8a	-0.14519706
41	0x3ecf5a78	0.4049871
42	0xbd1092f5	-0.0352964
43	0xbcd20eaa	-0.025641758
44	0x3ea9914d	0.33118668
45	0xbe33ead3	-0.17570047
46	0x38273fb0	3.9875216e-05
47	0xbd805334	-0.0626587
48	0xbc5c27c1	-0.013437212
49	0xbce19d83	-0.027540928
50	0x3e8264d0	0.2546754
51	0xbd83d896	-0.06437795
52	0xbd936451	-0.07196868
53	0xbdf09f61	-0.11749149
54	0x3e92f87a	0.28705198
55	0xbca1ca70	-0.01974985
56	0xbd507050	-0.05088836
57	0xbd37e631	-0.044897262
58	0x3d2915c9	0.04128054
59	0x3c3801e2	0.011230918
60	0xbdd2700b	-0.10275277
61	0x3d20eeb1	0.039290134
62	0xbcb5f45e	-0.02221125
63	0x3e3012d7	0.17194687

linearSequential.4.weight f4 [32, 64]
0	0xbda4ab9f	-0.080405466
1	0x3db15540	0.08658838
2	0xbe58f332	-0.21186522
3	0xbdabb126	-0.08383398
4	0x3d2dbc28	0.042415768
5	0xbd134c2e	-0.035961322
6	0xbf0bbfef	-0.5458974
7	0x3d2b8619	0.041875932
8	0xbdc2df57	-0.09515255
9	0xbe3b32ef	-0.18281148
10	0x3d9f095e	0.077654585
11	0xbbffe7b9	-0.007809606
12	0xbd19f9b4	-0.03759165
13	0xbd679cd8	-0.056546062
14	0x3d4ec5e6	0.0504817
15	0xbe116fb2	-0.14202765
16	0x3f48f362	0.7849637
17	0xbc7cc1ed	-0.015427095
18	0xbecbe818	-0.3982551
19	0xbdfd785e	-0.12376474
20	0xbf1961cf	-0.5991487
21	0xbeaf6188	-0.34254098
22	0xbce90008	-0.028442398
23	0xbf2d8da1	-0.67794234
24	0x3e10fd35	0.14159091
25	0x3d9362af	0.07196557
26	0x3d75f3a8	0.06004682
27	0xbdb5f60b	-0.088848196
28	0x3f3f9dc0	0.7485008
29	0xbdf9cd47	-0.12197357
30	0xbcee7470	-0.029108256
31	0x3d1b7be1	0.037959937
32	0xbe1b1dfd	-0.15148158
33	0x3ddfce0e	0.10927974
34	0xbe10e86a	-0.14151159
35	0x3dabfbbb	0.08397623
36	0xbdb3c68f	-0.087781064
37	0x3d922ac0	0.0713706
38	0xbc707c17	-0.014678023
39	0xbf033267	-0.5124878
40	0x3dcea754	0.10090509
41	0x3c02afad	0.007976455
42	0xbe161800	-0.14657593
43	0xbe0e341d	-0.13887067
44	0x3e86dd9d	0.26340953
45	0x3a93af7c	0.0011267508
46	0xbe371c5b	-0.1788191
47	0xbf30e96a	-0.6910616
48	0x3d2f89d0	0.042856038
49	0xbe6e443b	-0.23268215
50	0xbf2022ea	-0.62553275
51	0xbc9b41f3	-0.018952345
52	0xbc3178a0	-0.010831982
53	0xbdf34ae0	-0.11879516
54	0xbf4c308b	-0.7976157
55	0xbd75f990	-0.060052454
56	0x3d79ccfe	0.06098651
57	0xbd67929f	-0.056536313
58	0xbe4f6b51	-0.20255782
59	0xbd83189d	-0.06401179
60	0x3b87b800	0.0041418076
61	0x3ac56db0	0.0015062597
62	0xbbc2f71b	-0.0059498674
63	0x3ed9b120	0.42517948
64	0xbda42f15	-0.08016793
65	0xbc8716f3	-0.016490435
66	0x3e596fae	0.21234009
67	0xbefbe6f5	-0.49199644
68	0x3d71a49d	0.058994878
69	0xbf76acb7	-0.9635729
70	0xbca34094	-0.019928254
71	0xbe1186f8	-0.14211643
72	0xbd0d7390	-0.034534037
73	0xbe298e48	-0.16558182
74	0x3de5271c	0.111891
75	0x3ccb660c	0.024828933
76	0x3d7fc82f	0.06244677
77	0xbde431f8	-0.11142343
78	0xbd830c7a	-0.06398864
79	0x3cc568ab	0.024097761
80	0xbea0ed96	-0.31431264
81	0xbe1533ee	-0.14570591
82	0xbd9d6430	-0.07685125
83	0xbe05e3c1	-0.13075162
84	0xbea5e541	-0.3240147
85	0xbeac3626	-0.33635062
86	0x3cf61acc	0.030042075
87	0xbf5e344e	-0.8679856
88	0xbee9805f	-0.45605752
89	0xbcb68c29	-0.02228363
90	0x3d894a09	0.06703574
91	0x3dc0cd38	0.09414142
92	0x3d929917	0.07158106
93	0xbdbd34fe	-0.09238623
94	0xbcf667ca	-0.030078787
95	0xbc7ffc16	-0.015624067
96	0xbe2d3fe5	-0.16918905
97	0x3ce3c2c0	0.027802825
98	0xbdb0f3e9	-0.08640272
99	0xbd2e615e	-0.042573325
100	0xbf909859	-1.1296493
101	0x3d2fb15f	0.042893764
102	0xbcb65ca3	-0.02226097
103	0x3e37db34	0.17954713
104	0xbe290a3a	-0.16507807
105	0xbf070b1a	-0.52751315
106	0xbd42798f	-0.04747921
107	0x3c3f2884	0.0116673745
108	0x3bea8a00	0.007157564
109	0xbe3339d6	-0.17502531
110	0xbd81e14b	-0.06341799
111	0x3dae5a97	0.085133724
112	0xbd9a97f6	-0.075485155
113	0x3d4ef87b	0.05052994
114	0x3d36b6ad	0.044607807
115	0x3d7faa01	0.062417988
116	0xbd83aeb6	-0.06429808
117	0x3d74b4bc	0.059742674
118	0xbead21de	-0.338149
119	0x3d9c8520	0.07642579
120	0x3d61989a	0.055077173
121	0xbe2908e4	-0.16507298
122	0xbe543ad5	-0.20725568
123	0xbd8446b4	-0.06458798
124	0x3d8a2cba	0.06746812
125	0x3e86015c	0.26172912
126	0x3cf40d2d	0.029791439
127	0xbd0aa1bb	-0.033845644
128	0x3ce5da2d	0.028058136
129	0x3cc9c87a	0.024631727
130	0x3d3654be	0.04451441
131	0xbd3ebfea	-0.046569742
132	0xbdb46c1d	-0.088096835
133	0xbdfda591	-0.12385095
134	0xbd87544f	-0.066078775
135	0x3d301989	0.042993102
136	0xbd953000	-0.07284546
137	0xbcb09c2e	-0.021558847
138	0xbd4af07c	-0.04954575
139	0x3d993c84	0.074822456
140	0xbd5bad1d	-0.05363189
141	0x3da2885b	0.07936164
142	0x3dc9f716	0.09861581
143	0x3dc25cdb	0.09490367
144	0xbd6619c7	-0.056176927
145	0x3d7a680b	0.06113438
146	0x3de05102	0.10952951
147	0x3d021f1f	0.03176796
148	0x3d9c919e	0.07644962
149	0xbc077d8c	-0.008269679
150	0x3da5d059	0.0809638
151	0x3c980fea	0.018562276
152	0x3d8593b4	0.06522313
153	0xbce89ff4	-0.028396584
154	0x3d5de40d	0.054172564
155	0x3d91aa0f	0.07112514
156	0xbd884777	-0.06654256
157	0x3ddd00e3	0.10791185
158	0x3de3e87b	0.111283265
159	0x3e1bb082	0.15204051
160	0x3d18fef9	0.037352536
161	0xbd428e4e	-0.047498994
162	0xbd52081c	-0.051277265
163	0x3dfeb183	0.124362014
164	0xbe1282a5	-0.1430765
165	0x3d6c3c2b	0.05767457
166	0x3cda8da8	0.026678875
167	0xbd13e0df	-0.036103126
168	0x3d32da79	0.043665383
169	0xbdc456f5	-0.09586898
170	0xbdcae8c7	-0.0990768
171	0x3c8347f8	0.016025528
172	0x3dda4a2e	0.1065868
173	0x3c777572	0.015103685
174	0xbd101093	-0.035172056
175	0x3cbda988	0.023152128
176	0x3d1299dc	0.035791263
177	0x3cf98f96	0.030463975
178	0xbdc9e611	-0.09858335
179	0xbd0726b0	-0.03299588
180	0x3d85a007	0.065246634
181	0x3d7dda27	0.061975624
182	0xbe092a81	-0.1339512
183	0xbdae63ab	-0.08515104
184	0x3c802f20	0.015647471
185	0x3d93676d	0.07197461
186	0xbd3bf5ab	-0.045888584
187	0x3cf88d64	0.030340858
188	0xbc42b82f	-0.011884733
189	0x3d80b9fc	0.06285474
190	0xbdd01e46	-0.10162024
191	0x3db848a5	0.08998231
192	0x3d115b88	0.03548768
193	0x3cd94348	0.02652134
194	0x3e0c498c	0.13699931
195	0xbe33a171	-0.17542054
196	0x3d0b24f0	0.033970773
197	0xbde7554d	-0.11295567
198	0xbdf840a8	-0.12121707
199	0x3dc5dfb4	0.096618086
200	0x3db61a66	0.08891754
201	0xbc05b7b8	-0.008161478
202	0x3c68b820	0.014204055
203	0x3c4e4dc0	0.012591779
204	0x3c5536f0	0.013013586
205	0x3d7d9435	0.06190892
206	0x3d8da6a4	0.0691655
207	0xbdf7880e	-0.12086497
208	0x3cf48b12	0.02985147
209	0x3d09ceec	0.0336446
210	0xbd01f750	-0.031729996
211	0xbda19efe	-0.078916535
212	0xbe3309f4	-0.17484266
213	0x3caeec1a	0.021352816
214	0xbde357b6	-0.11100714
215	0xbda0244d	-0.07819424
216	0xbcc4dd52	-0.024031315
217	0xbdc9d7fc	-0.09855649
218	0xbd59e8e5	-0.05320062
219	0xbd981a70	-0.074269176
220	0xbd331f05	-0.043730754
221	0xbbd161e0	-0.0063898414
222	0x3ddec89a	0.108781055
223	0x3d87b49e	0.06626247
224	0xbc691aa0	-0.014227539
225	0x3e185f1a	0.14880028
226	0xbd025c84	-0.03182651
227	0xbd293764	-0.04131259
228	0x3ce7b502	0.028284553
229	0xbda18766	-0.07887153
230	0xbd9d5a52	-0.07683243
231	0x3dbb37a2	0.091414705
232	0x3d4a596b	0.049401682
233	0xbd258fe4	-0.040420428
234	0x3d595a84	0.053064838
235	0xbda5e6ea	-0.08100684
236	0xbe013cae	-0.12620804
237	0xbe14fb90	-0.14549088
238	0xbd8c91cf	-0.06863748
239	0x3da08bb9	0.0783915
240	0x3e03ee64	0.12883908
241	0xbd34ae68	-0.04411164
242	0x3dac7697	0.08421057
243	0xbd412a78	-0.047159642
244	0xbdb25d9a	-0.08709259
245	0x3dcbd24e	0.09952222
246	0xbe332291	-0.17493655
247	0x3db79e4c	0.089657396
248	0x3cc5c3e0	0.024141252
249	0x3dd3938c	0.10330877
250	0xbdafd7f6	-0.08586113
251	0xbd178654	-0.03699334
252	0xbd8bfa8c	-0.068348974
253	0x3e123827	0.14279233
254	0xbc108380	-0.008820415
255	0x3d01d70a	0.031699218

linearSequential.4.bias f4 [32]
0	0x3f421656	0.7581533
1	0x3e0d5e80	0.1380558
2	0xbe5f96b5	-0.21834834
3	0xbea4475e	-0.320857
4	0xbda2f7ef	-0.07957446
5	0xbe1f5339	-0.1555909
6	0xbd99dc14	-0.0751268
7	0xbdd9b0bd	-0.10629413
8	0xbdae1e0b	-0.08501824
9	0x3e1b3875	0.15158255
10	0x3eeb5be7	0.45968553
11	0xbe298ff4	-0.1655882
12	0xbe88f1cc	-0.26746976
13	0xbea08c93	-0.3135725
14	0xbe490c8a	-0.1963369
15	0xbe10a12d	-0.14123984
16	0xbea3c571	-0.31986573
17	0xbd87a04f	-0.06622373
18	0xbe919d14	-0.28440154
19	0xbe35d860	-0.17758322
20	0xbdff883d	-0.12477157
21	0xbcd242e8	-0.025666669
22	0x3dce2aa2	0.10066725
23	0xbe1ebe95	-0.15502389
24	0xbd8d8789	-0.06910617
25	0xbe0d3c7b	-0.13792603
26	0xbe57995e	-0.21054599
27	0x3eb1d337	0.34731457
28	0xbea3ca0d	-0.3199009
29	0xbddacd49	-0.10683686
30	0xbe1c2092	-0.152468
31	0xbd8923ac	-0.06696257

linearSequential.6.weight f4 [16, 32]
0	0x3e9c5824	0.30535996
1	0x3ebcdaa9	0.36885574
2	0x3db84987	0.08998399
3	0xbca1ce6c	-0.01975175
4	0xbddbd3c1	-0.10733748
5	0x3cf926c0	0.030413985
6	0xbdb2f2f1	-0.08737744
7	0x3e41e773	0.18935947
8	0xbd538b78	-0.05164668
9	0x3da272e7	0.07932072
10	0x3e91ea97	0.2849929
11	0x3d56b69b	0.05242024
12	0xbd443bfc	-0.047908768
13	0x3c91da48	0.01780428
14	0xbf23fafd	-0.6405485
15	0xbe309f85	-0.17248352
16	0xbd6adffc	-0.057342514
17	0x3d477374	0.04869409
18	0xbf250e37	-0.64474815
19	0x3e124b6d	0.14286585
20	0x3d033224	0.03203024
21	0x3e87987c	0.26483524
22	0x3e70ca2e	0.23514625
23	0xbf1bc61a	-0.60849154
24	0x3df9eaea	0.122030094
25	0x3de0c27e	0.109745964
26	0xbe10032a	-0.14063707
27	0x3f0fc2d4	0.5615666
28	0x3d757c66	0.05993309
29	0x3dd36b65	0.10323218
30	0xbee31ca9	-0.44357803
31	0xbe151ca4	-0.14561707
32	0xbf554e81	-0.8332291
33	0xbd6be12c	-0.057587788
34	0x3d268cd6	0.040661655
35	0xbcff1379	-0.031137215
36	0xbe2a6e27	-0.16643582
37	0xbe2158e8	-0.15756571
38	0x3e1f5afe	0.15562055
39	0x3e2a331a	0.16621056
40	0xbdeb8ec4	-0.1150184
41	0xbe4d47be	-0.20046899
42	0xbeef33d1	-0.4671922
43	0x3d0b30fe	0.03398227
44	0xbe1de1c6	-0.15418157
45	0xbdbe2365	-0.09284095
46	0x3e765da4	0.24059159
47	0x3cbb8a0a	0.02289297
48	0x3dd1196d	0.10209928
49	0x3d4c87a7	0.049934056
50	0xbe9f7b52	-0.31148773
51	0xbde96b30	-0.113973975
52	0x3d2d6276	0.042330228
53	0x3d5be25b	0.053682666
54	0xbe0824a7	-0.13295232
55	0xbd825c80	-0.06365299
56	0xbc56b5e7	-0.013104892
57	0xbd634970	-0.055489957
58	0x3ddd9362	0.10819127
59	0xbd3ca20a	-0.04605297
60	0xbcae3f8a	-0.021270532
61	0xbc99e85f	-0.018787561
62	0xbc2dc5da	-0.0106062535
63	0xbe096358	-0.13416803
64	0x3cfde508	0.030993
65	0x3d4dc210	0.0502339
66	0xbe34badd	-0.17649408
67	0x3b242fc0	0.0025052875
68	0xbe174269	-0.14771427
69	0xbde93c81	-0.11388493
70	0xbe322e2c	-0.17400426
71	0xbe177b8b	-0.14793222
72	0xbd9c759f	-0.07639622
73	0xbc8f5088	-0.017494455
74	0xbddb30bc	-0.10702655
75	0x3d791148	0.060807496
76	0xbe0a24b4	-0.13490564
77	0x3d8c27e4	0.06843546
78	0xbe46ac72	-0.1940172
79	0xbdc04e21	-0.09389902
80	0x3d95f70e	0.073225126
81	0xbe00802c	-0.12548894
82	0x3e05a4c3	0.13051133
83	0x3c544960	0.012956947
84	0xbe1ee672	-0.15517595
85	0xbcdb2f38	-0.026755914
86	0xbbacf2a0	-0.0052779466
87	0xbea1cd09	-0.31601742
88	0x3de5ed72	0.1122693
89	0x3d7ee4f0	0.06223005
90	0x3d99ebfa	0.07515712
91	0xbc9a3908	-0.018826023
92	0x3e206491	0.15663363
93	0xbe1a7fee	-0.15087864
94	0x3c6f0b4b	0.014590095
95	0x3e10c7c9	0.14138712
96	0x3bd4a9a0	0.0064899474
97	0x3e122141	0.14270498
98	0xbca9f830	-0.020748228
99	0x3d145818	0.036216825
100	0xbbe768c0	-0.0070620477
101	0x3ddae658	0.10688466
102	0xbdfb642c	-0.12274966
103	0xbd656777	-0.056006875
104	0x3e1a2ecd	0.15056916
105	0xbd5b1c7b	-0.053493958
106	0xbd62ff5c	-0.05541931
107	0xbd419028	-0.04725662
108	0xbd91a60f	-0.07111751
109	0x3e0cc9e7	0.13748895
110	0x3cedc2b4	0.029023506
111	0x3cba6b47	0.022756232
112	0xbbd83834	-0.006598497
113	0x3e129dfb	0.14318077
114	0x3d66a5d4	0.05631049
115	0x3db07c26	0.086174294
116	0xbd89983d	-0.0671849
117	0xbcaf6be4	-0.021413751
118	0xbdabf44d	-0.08396206
119	0xbe1e4eaf	-0.15459703
120	0xbe0723ac	-0.13197201
121	0x3df2c3b2	0.11853732
122	0xbd304658	-0.043035835
123	0xbc972688	-0.01845099
124	0x3c491220	0.012272388
125	0x3c4337d8	0.01191517
126	0xbc7a9b1e	-0.015295772
127	0x3db609ee	0.08888613
128	0x3e809fd8	0.2512195
129	0x3f0f7f11	0.5605326
130	0xbe541716	-0.20711932
131	0x3e1c7a31	0.15280987
132	0x3a88524f	0.0010400506
133	0x3e0ff10f	0.140568
134	0xbe18855b	-0.14894621
135	0xbe4061fc	-0.18787378
136	0x3d90c707	0.070692115
137	0xbd6c2308	-0.057650596
138	0x3e3042a3	0.1721292
139	0x3dc58c28	0.09645873
140	0x3dc0ff3a	0.094236806
141	0x3db987da	0.09059115
142	0xbf131c8f	-0.5746545
143	0xbe993f80	-0.2993126
144	0xbcc72c06	-0.024312984
145	0xbdae7757	-0.08518856
146	0xbddd8e87	-0.108182006
147	0xbe00e5e7	-0.12587701
148	0xbdfdbfa1	-0.12390066
149	0xbc6adc9c	-0.014334824
150	0x3ee4f00c	0.4471439
151	0xbe4eeeb1	-0.20208241
152	0xbc321524	-0.010869298
153	0xbdab37f7	-0.08360284
154	0x3d6a6cc8	0.057232648
155	0x3f04f51d	0.51936513
156	0x3b9bde0d	0.004756695
157	0x3e974309	0.2954333
158	0xbef71d28	-0.48264432
159	0x3ea5b23e	0.3236255
160	0xbd884d03	-0.06655314
161	0x3d27984c	0.040916726
162	0x3d91fd8f	0.071284406
163	0x3df1fe8a	0.118161276
164	0xbccc9dd0	-0.024977595
165	0xbe16c618	-0.14724004
166	0x3c4aee81	0.012385965
167	0xbda26b93	-0.079306744
168	0xbe3312bb	-0.17487614
169	0xbc4fe257	-0.012688241
170	0xbe302b1c	-0.17203945
171	0xbcf7c9a0	-0.03024751
172	0x3d1d5f24	0.03842081
173	0xbc5cc780	-0.013475299
174	0xbd22dde8	-0.039762408
175	0xbe35f1fe	-0.17768094
176	0x3db4808e	0.08813582
177	0xbcce50e8	-0.025185063
178	0x3db08362	0.08618809
179	0xbe20822b	-0.15674655
180	0x3de3d536	0.11124651
181	0xbba28288	-0.004959408
182	0x3e082c55	0.13298161
183	0xbe9c7f1e	-0.30565733
184	0x3db9ddc6	0.09075503
185	0xbd1b9df0	-0.037992418
186	0x3c8b35c8	0.016993418
187	0x3bcf45a0	0.0063254386
188	0xbdc0405e	-0.09387277
189	0xbdf4c0e8	-0.119508564
190	0xbdfddc58	-0.12395543
191	0xbce90ef8	-0.02844952
192	0xbeaf0c34	-0.34188998
193	0xbe624574	-0.22096807
194	0xbdee8b93	-0.116477154
195	0x3e421547	0.18953429
196	0x3e8cfe56	0.27537793
197	0xbc13c24f	-0.009018495
198	0x3de91984	0.1138182
199	0x3d55ed9c	0.052228555
200	0x3e33dbd6	0.1756433
201	0x3eaa54b9	0.33267763
202	0xbf2edb69	-0.68303543
203	0xbd5046b4	-0.050848678
204	0xbc27e6e0	-0.010247916
205	0xbe16fdee	-0.14745304
206	0x3e354d91	0.1770537
207	0xbea14851	-0.31500486
208	0xbe685e6a	-0.22692266
209	0xbd6eb836	-0.058281146
210	0xbe1f9eff	-0.15587996
211	0x3dd9e39b	0.106391154
212	0x3c2aa4e7	0.010415292
213	0x3cb42635	0.021990875
214	0xbe9a93f6	-0.3019101
215	0x3e110793	0.14163046
216	0x3dd4a26f	0.10382544
217	0x3ce9d8b9	0.028545724
218	0x3ea50999	0.32233885
219	0xbe58f54e	-0.21187326
220	0x3dbf8ad2	0.0935265
221	0x3e1e58f1	0.15463616
222	0xbbfa2edd	-0.007634981
223	0xbdf207e5	-0.11817912
224	0xbe0696ce	-0.13143465
225	0xbd8f6562	-0.07001759
226	0x3d8e76f8	0.06956285
227	0xbe16559b	-0.14681093
228	0x3d86e96e	0.06587492
229	0xbd8e6c48	-0.06954247
230	0x3e165987	0.1468259
231	0x3d4eb08c	0.050461337
232	0x3dade942	0.08491756
233	0xbe0c376a	-0.13693014
234	0xbe1ddefc	-0.15417093
235	0xbe2cf078	-0.16888607
236	0xbdfa6058	-0.12225407
237	0xbe0136ee	-0.1261861
238	0xbdd67d0b	-0.10473069
239	0xbdf4b2fd	-0.11948202
240	0x3ddf1a1a	0.1089365
241	0x3d868246	0.065678164
242	0xbd0bfcd0	-0.034176648
243	0xbe29f3c7	-0.165969
244	0x3e2c47cf	0.16824268
245	0x3b7697c1	0.0037627073
246	0x3b64f9c0	0.0034938902
247	0xbe077cab	-0.13231151
248	0xbe0b30fb	-0.13592903
249	0xbdb7f68f	-0.08982574
250	0xbd66af16	-0.05631932
251	0x3d1311f8	0.03590581
252	0xbe20bd87	-0.15697299
253	0xbd3f0dde	-0.046644084
254	0x3a6a49ce	0.00089373894
255	0xbd3b774c	-0.045768067

linearSequential.6.bias f4 [16]
0	0x3dbd8d3d	0.09255455
1	0x3d471289	0.04860166
2	0xbe8d9cc2	-0.2765866
3	0xbe2095dd	-0.15682168
4	0x3dfc9ee2	0.12334992
5	0xbea3d139	-0.31995562
6	0x3d6562e4	0.056002513
7	0xbd3074f5	-0.04308029
8	0x3d5e9ce9	0.05434886
9	0x3cb4658f	0.022021083
10	0xbce1ebac	-0.027578197
11	0xbe96034e	-0.29299396
12	0x3d99f507	0.075174384
13	0xbe39ef17	-0.18157612
14	0xbdc859c5	-0.09782747
15	0xbe9aba53	-0.3022028

linearSequential.9.weight f4 [2, 16]
0	0xbd086738	-0.033301562
1	0xbd135451	-0.035969082
2	0x3d0655c5	0.03279664
3	0x3d516569	0.051122103
4	0xbc97b185	-0.018517265
5	0xbd3bfc84	-0.045895115
6	0x3daa9185	0.08328537
7	0x3e45516e	0.19269344
8	0xbd0b6edf	-0.03404128
9	0x3e7c10c9	0.24615778
10	0x3cc026b5	0.023455957
11	0xbe76568c	-0.24056453
12	0x3d9e52be	0.077306256
13	0xbd4fc3b5	-0.05072375
14	0x3e373419	0.17890967
15	0x3d8a4347	0.067511134
16	0xbe987854	-0.29779303
17	0x3e46d97e	0.19418904
18	0x3c33c6f3	0.010972726
19	0x3c9f29fb	0.019429198
20	0xbe9c05b3	-0.30473098
21	0x3e96cc25	0.29452625
22	0x3e3df2ec	0.18549699
23	0xbdc6af5c	-0.09701416
24	0x3e24f493	0.16108923
25	0xbdabc42d	-0.08387027
26	0x3a3059ba	0.00067272375
27	0xbdc45b15	-0.09587685
28	0x3e38d971	0.18051697
29	0x3cb1df1c	0.021712832
30	0x3d910f70	0.070830226
31	0xbe0b5422	-0.13606313

linearSequential.9.bias f4 [2]
0	0x3e82cada	0.25545388
1	0x40573f06	3.3632216
