nnwf/nets/state_dicts/nnwf_state.pt (torch, 984399 bytes, 15 tensors)

linearSequential.0.weight f4 [128, 26]
0.13346699 0.0918199 -0.048711423 -0.029210916 0.05920083 0.16174175 0.15985589 -0.03657956
0.028293312 -0.114913724 -0.10263504 0.2931765 0.19457862 0.1306753 -0.11733594 0.047086712
-0.14388147 0.008336545 0.17136803 -0.07556561 0.026535206 -0.022272011 0.008639103 0.10592375
0.15362753 0.3062407 -0.15419242 0.019960875 0.09269906 -0.1681564 -0.006403092 -0.15893756
-0.07236575 -0.10222827 -0.08108986 -0.15903682 -0.06762899 0.14378771 -0.15608515 -0.03811107
0.1748137 0.016047271 -0.024407873 -0.14414059 -0.08629933 0.009747343 -0.005732703 -0.0066086124
-0.063249536 -0.17921926 -0.16942002 -0.12753226 -0.045099415 -0.10924231 -0.035294324 0.22218174
0.14426163 0.18132846 0.10976666 -0.17126283 -0.061908413 -0.02227942 -0.037779804 0.21474923
-0.0767142 -0.08334058 0.06582714 0.15701066 0.16159065 0.16484658 0.20938896 0.117404774
-0.04961868 0.0355402 -0.002358613 -0.086072676 0.2835284 0.060452677 0.053719763 0.08003646
0.1252078 0.052333094 -0.20032011 0.2517007 -0.16455974 0.17828214 0.15006454 0.041472588
0.07021788 0.0328543 0.15367657 0.19538791 0.02210238 0.18002394 0.008201758 -0.10514088
0.08613136 0.15831296 -0.042281967 0.1882295 -0.044536974 0.015678473 0.19815613 0.0017435047
-0.14626533 -0.0726981 0.1185596 0.21882075 -0.03696044 0.1473784 0.21999216 0.053605907
0.1419631 -0.13206287 -0.041302558 0.008069084 0.12135196 -0.21200737 0.15106414 -0.10209612
0.24049506 0.14378458 0.046530474 0.14061502 0.018753884 0.05224536 0.109983526 0.10960328
0.2456507 -0.03746252 -0.09102769 -0.004351031 0.20228177 0.107203394 -0.03203531 -0.015664438
0.14203916 -0.15439226 -0.019311152 0.036844794 -0.06834914 0.037845753 0.02051409 -0.09030098
0.21858817 -0.003725665 -0.14060028 -0.14219756 0.1406964 -0.15006556 0.1402134 0.06340388
0.09426417 -0.025622802 -0.11067345 -0.095545925 -0.20294604 -0.04464136 0.110023975 0.21124072
0.15354855 0.123095885 0.1145297 -0.06969819 -0.13462758 -0.009040522 -0.13861467 0.32815742
0.013125392 -0.22440837 0.13414598 0.069009475 0.178507 -0.079262175 -0.024117254 0.10219884
-0.085818835 0.12855516 0.22009642 0.07398628 0.28909382 0.10666098 0.075909 0.09388936
0.0472174 -0.021701064 -0.062497646 -0.048335575 -0.021674762 -0.1462633 0.018005235 -0.12279493
0.03826678 0.002510558 0.15541793 0.027141888 0.13553438 0.22408667 -0.026662685 -0.15806192
0.037223183 -0.015080401 -0.11334867 0.22685528 0.075902626 0.0039557135 0.033372667 -0.006354353
0.063208744 -0.0433155 0.13776642 0.018283343 -0.06175123 0.09286151 0.14734814 0.111849934
-0.095047414 -0.0214935 -0.06967236 0.17276253 -0.079465345 -0.043983266 0.17930323 -0.10183222
0.1558898 0.031557042 0.18764499 0.121212356 0.14638619 0.1736388 -0.21638036 0.14104846
0.18450157 0.03814659 -0.27100062 -0.06366673 0.11147988 0.015125062 -0.07705475 0.0315996
-0.022972884 -0.11281805 0.034198124 -0.07552458 -0.050549332 0.02445424 0.061341383 -0.1802407
0.21128951 -0.0292065 -0.15810324 0.08924402 -0.107874095 0.02567937 0.11628342 0.047142293
00000000: 92ab 083e 120c bc3d a185 47bd bb4b efbc
00000010: 927c 723d a19f 253e 43b1 233e 73d4 15bd
00000020: 60c7 e73c e357 ebbd 5232 d2bd 3b1b 963e
00000030: 9e3f 473e bfcf 053e d34d f0bd ffdd 403d
00000040: aa55 13be 0196 083c 1a7b 2f3e 24c2 9abd
00000050: 5c60 d93c cb73 b6bc 068b 0d3c 8dee d83d
00000060: 8950 1d3e 95cb 9c3e 9ee4 1dbe fd84 a33c
00000070: 01d9 bd3d 3131 2cbe 07d1 d1bb 87c0 22be
00000080: 7f34 94bd 0e5d d1bd 7112 a6bd 8cda 22be
00000090: 1181 8abd 163d 133e c9d4 1fbe 5a1a 1cbd
000000a0: 5d02 333e 9175 833c 05f3 c7bc 9799 13be
000000b0: b4bd b0bd 52b3 1f3c 66d9 bbbb 0f8d d8bb
000000c0: f988 81bd 4185 37be 717c 2dbe d197 02be
000000d0: 2aba 38bd 6fba dfbd c890 10bd 9c83 633e
000000e0: 52b9 133e 2bae 393e 58cd e03d 865f 2fbe
000000f0: ad93 7dbd 5583 b6bc ffbe 1abd 39e7 5b3e
00000100: 561c 9dbd 77ae aabd 61d0 863d 67c7 203e
00000110: 0578 253e 8bcd 283e 0f6a 563e ea71 f03d
00000120: f53c 4bbd 9a92 113d f692 1abb df46 b0bd
00000130: a22a 913e 3a9d 773d 4109 5c3d 28ea a33d
00000140: 7936 003e 3a5b 563d b720 4dbe eade 803e
00000150: 5982 28be 988f 363e 85aa 193e 29df 293d
00000160: 64ce 8f3d 3b92 063d 645d 1d3e c513 483e
00000170: 0d10 b53c 3258 383e ab60 063c 1a54 d7bd
00000180: a365 b03d cb1c 223e db2f 2dbd 3cbf 403e
00000190: 676c 36bd 2470 803c 71e9 4a3e 4f86 e43a
000001a0: 94c6 15be bee2 94bd 60cf f23d 8c12 603e
000001b0: d563 17bd 5dea 163e a045 613e de91 5b3d
000001c0: c65e 113e 7d3b 07be df2c 29bd 3134 043c
000001d0: 6087 f83d 7618 59be 8fb0 1a3e c517 d1bd
000001e0: 5644 763e 443c 133e bd96 3e3d 62fd 0f3e
000001f0: bfa1 993c 3bff 553d 0b3f e13d af77 e03d
00000200: db8b 7b3e 4d72 19bd ba6c babd 1893 8ebb
00000210: f422 4f3e 748d db3d 7537 03bd b552 80bc
00000220: b772 113e 0119 1ebe 6c32 9ebc 91ea 163d
00000230: a2fa 8bbd 2604 1b3d 2a0d a83c b8ef b8bd
00000240: 94d5 5f3e 492a 74bb 85f9 0fbe 3d9c 11be
00000250: b812 103e c9aa 19be 1a94 0f3e e5d9 813d
00000260: 930d c13d e9e6 d1bc c3a8 e2bd 95ad c3bd
00000270: 16d1 4fbe dcd9 36bd 4054 e13d 7d4f 583e
00000280: d53b 1d3e b219 fc3d 8c8e ea3d edbd 8ebd
00000290: d0db 09be b31e 14bc 01f1 0dbe 4004 a83e
000002a0: e20b 573c 4fcb 65be 905d 093e d754 8d3d
000002b0: 8aca 363e 3554 a2bd 8c91 c5bc a04d d13d
000002c0: c9c1 afbd f7a3 033e f560 613e 1e86 973d
000002d0: 1b04 943e 1271 da3d 2e76 9b3d 1149 c03d
000002e0: 0867 413d 6ec6 b1bc 88fd 7fbd 86fb 45bd
000002f0: 458f b1bc 0cc6 15be b77f 933c e97b fbbd
00000300: a1bd 1c3d 2d88 243b e125 1f3e aa58 de3c
00000310: 86c9 0a3e fa76 653e b46b dabc fcda 21be
00000320: 5677 183d c913 77bc 5923 e8bd c04c 683e
00000330: d672 9b3d ee9e 813b c7b1 083d 2d38 d0bb
00000340: 9673 813d 986b 31bd a412 0d3e f3c6 953c
00000350: dcee 7cbd 2d2e be3d 6ee2 163e 9411 e53d
00000360: 38a8 c2bd 2313 b0bc 62b0 8ebd a9e8 303e
00000370: babe a2bd cc27 34bd 449b 373e 698d d0bd
00000380: 93a1 1f3e f541 013d 0226 403e 2f3e f83d
00000390: 43e6 153e 5fce 313e d092 5dbe 026f 103e
000003a0: fbed 3c3e 993f 1c3d 98c0 8abe b463 82bd
000003b0: 904f e43d 1ccf 773c e1ce 9dbd 956e 013d
000003c0: a131 bcbc 260d e7bd 5513 0c3d a2ac 9abd
000003d0: d10c 4fbd 4254 c83c 1a41 7b3d 0591 38be
000003e0: 475c 583e 7842 efbc d1e5 21be 92c5 b63d
000003f0: 18ed dcbd 8b5d d23c 0026 ee3d 4718 413d

linearSequential.0.bias f4 [128]
-0.026863117 0.04422838 -0.09181057 -0.16815753 0.013955412 0.15805043 -0.1413459 -0.09434228
-0.1229315 0.18872632 -0.005523328 0.08606891 -0.10096788 -0.021791873 -0.069729 0.08666986
-0.15388824 -0.038981076 -0.21490063 -0.08799362 -0.08037861 0.123742566 0.12410945 0.11198892
-0.0631923 -0.02437982 -0.04706988 0.088329755 0.038879305 0.17317528 -0.086077414 0.11654522
0.10375229 0.18826605 -0.0014765224 -0.012626653 0.10187531 0.10946044 0.102485895 -0.15856202
-0.038309406 -0.006598086 -0.07969358 -0.069775246 -0.0058939094 -0.036725797 -0.13933752 -0.04835423
-0.10361619 -0.07517111 -0.15371096 0.06970265 0.04647767 0.055944078 -0.14381492 0.17993708
-0.1564123 -0.06715139 0.08610089 0.099524386 -0.10289677 -0.13326588 0.14463724 0.16833614
-0.1062265 0.11884327 0.09989432 -0.048103515 -0.0043994854 -0.037279893 0.15049285 -0.057477098
-0.052607443 -0.050993264 0.058166295 0.043216884 0.07874139 -0.15969238 -0.07742582 -0.16753516
0.14399406 0.13070375 -0.13684435 -0.027117293 0.06558127 -0.12663257 -0.031371024 -0.13718611
0.1044486 -0.09033911 -0.051296003 0.10069682 0.0074755964 -0.09152713 -0.007896987 -0.024470106
-0.18999223 -0.015976306 -0.19250958 -0.21959274 0.012920818 0.1025059 -0.18120474 -0.053120404
-0.19155574 -0.014456639 0.19086045 -0.17874445 -0.20136917 -0.13566077 -0.17304844 -0.2041411
-0.12209503 0.14200746 0.17369822 -0.10705323 -0.07616856 0.12283501 -0.12167409 -0.18345022
0.1253211 -0.10310621 -0.0532461 -0.0062881922 0.022448305 -0.105231464 -0.09086524 -0.013603797
00000000: 0a10 dcbc d128 353d 2e07 bcbd 7d31 2cbe
00000010: 3ea5 643c f9d7 213e fbbc 10be 8636 c1bd
00000020: 83c3 fbbd 7941 413e 09fd b4bb e644 b03d
00000030: 3fc8 cebd df84 b2bc 14ce 8ebd f87f b13d
00000040: e194 1dbe 9faa 1fbd e90e 5cbe 0036 b4bd
00000050: 8a9d a4bd be6c fd3d 182d fe3d 725a e53d
00000060: f76a 81bd 30b8 c7bc 59cc 40bd 3be6 b43d
00000070: e83f 1f3d dc54 313e 5b49 b0bd 43af ee3d
00000080: 157c d43d d1c8 403e df87 c1ba 05e0 4ebc
00000090: 01a4 d03d cc2c e03d 20e4 d13d 155e 22be
000000a0: 53ea 1cbd c234 d8bb 6336 a3bd 53e6 8ebd
000000b0: b221 c1bb ca6d 16bd 7fae 0ebe 160f 46bd
000000c0: ba34 d4bd 50f3 99bd 6866 1dbe 43c0 8e3d
000000d0: 5f5f 3e3d 9e25 653d 3844 13be 6d41 383e
000000e0: 8c2a 20be ab86 89bd aa55 b03d 71d3 cb3d
000000f0: 8bbb d2bd da76 08be c91b 143e 4f60 2c3e
00000100: 478d d9bd 1a64 f33d 6595 cc3d 3108 45bd
00000110: 8f29 90bb cdb2 18bd cc1a 1a3e 1b6d 6bbd
00000120: e77a 57bd 50de 50bd c83f 6e3d 3004 313d
00000130: 2a43 a13d 6686 23be 6e91 9ebd 568e 2bbe
00000140: 2e73 133e 34d7 053e ed20 0cbe 1625 debc
00000150: 794f 863d f8ab 01be e77e 00bd 847a 0cbe
00000160: 26e9 d53d b603 b9bd c21b 52bd 223a ce3d
00000170: d9f5 f43b 9372 bbbd 5d62 01bc 8875 c8bc
00000180: 538d 42be bee0 82bc 3b21 45be ebdc 60be
00000190: d7b1 533c 9dee d13d bc8d 39be c894 59bd
000001a0: 3027 44be 8adb 6cbc ec70 433e c908 37be
000001b0: b833 4ebe a8ea 0abe 9c33 31be 5d0a 51be
000001c0: f60c fabd 676a 113e f2dd 313e b93e dbbd
000001d0: 43fe 9bbd ec90 fb3d 4430 f9bd 60da 3bbe
000001e0: 2d54 003e 5929 d3bd 9518 5abd 2e0d cebb
000001f0: 82e5 b73c 9883 d7bd 8e17 babd 76e2 5ebc

linearSequential.2.weight f4 [512, 128]
0.08485553 -0.0032188704 0.072141506 0.07772589 -0.055419307 -0.06450179 0.04070244 -0.052430652
0.08926776 -0.079122804 -0.0437391 0.024634155 -0.017319752 0.10054423 -0.03571072 -0.08923799
0.0019378463 0.080465645 -0.0328701 0.08133361 0.116077974 0.018934071 -0.0034873628 -0.043271143
0.08001703 0.12150019 0.006714101 -0.12451436 0.02369708 0.024255194 0.107667014 0.024799036
-0.0642317 0.0022815478 -0.071721464 -0.03207439 0.019678202 -0.0027239209 0.052145988 0.074057214
0.10047352 -0.02837384 0.09055725 0.092858404 -0.005789337 0.061056 0.039657604 0.02594697
0.039755248 0.08010202 0.06899981 0.01296673 0.123821884 0.09368647 0.021519262 0.016865112
-0.0037956247 0.10773297 -0.0030555371 0.022761395 0.05541661 0.08540888 -0.055827163 -0.008825146
0.056288417 -0.0045091882 -0.05960988 0.08336008 0.046399884 0.05160616 0.060559563 0.075064056
0.08417364 0.09266683 0.07208696 -0.06683258 0.01621343 0.042771187 0.040894613 -0.011900193
-0.003042246 -0.06518988 0.12581883 -0.069190554 -0.040097974 0.027531192 0.10010409 0.078418516
0.04217215 0.06744482 -0.02524317 -0.046613663 -0.00785086 0.14463417 -0.012539307 0.11192003
0.08388338 -0.008617356 -0.067116894 0.055638053 -0.040914714 -0.03618456 -0.012426622 0.07905621
0.04903755 -0.12017761 -0.054063287 0.04830461 -0.028588526 -0.05629132 0.015060936 -0.0028999036
0.054794654 -0.008710392 0.058863908 0.062290367 0.030409437 -0.040891204 0.07995491 -0.009660925
-0.10612125 0.019314032 -0.015626507 0.03497595 0.057879146 -0.12090199 -0.09769936 0.009346321
0.13066436 -0.014028666 -0.0019559623 -0.026191631 0.046798714 -0.05131769 0.10532932 -0.06821658
-0.0014759254 0.08996806 -0.04187837 -0.012346921 -0.0781917 0.06500337 0.10775327 0.0010689972
0.053834774 -0.039671514 -0.014339362 -0.021913627 0.050854906 -0.08130314 0.08374115 0.01238163
0.04732162 0.006915018 -0.0044015767 -0.07363197 0.021496326 -0.004516232 0.08972927 -0.0014551226
-0.053407777 0.032090914 -0.013246691 0.08726595 0.039839536 0.016895784 -0.00306084 0.05130483
0.0033514248 0.013014521 0.12856701 0.110268645 0.06136713 0.018731883 0.18333739 -0.012081192
0.025550775 -0.020055687 0.051516183 -0.049388785 0.11469583 0.013273611 0.05210052 0.0744661
0.06238899 0.018080195 0.034500834 -0.03668617 0.01252372 -0.021693572 -0.0555537 0.049669646
0.0742477 0.009859778 -0.0043157176 -0.06430556 0.03446403 0.10685126 0.03143905 0.047936093
0.12117555 -0.018643495 0.100898735 0.031281747 -0.05487468 0.1303255 0.01296438 -0.037519064
-0.022812787 -0.05870927 0.07746821 0.040191412 0.0677296 0.16877948 -0.033144478 -0.003371745
-0.04950094 0.03402474 0.07289161 0.033149607 0.0074899048 -0.014452864 0.032264356 0.09893439
0.03220855 0.06121549 -0.061978247 0.004831708 -0.006481613 -0.02055492 0.13614964 -0.064302094
-0.0022963323 -0.0037755368 0.060547356 -0.054232102 -0.022706145 0.024400696 -0.031874195 -0.05246088
0.047531325 0.015878784 0.0896923 0.113069 -0.019320784 -0.08335055 0.13229723 -0.004225501
0.06682926 0.104121104 -0.06167746 -0.08530719 -0.0013671777 0.014611585 -0.054700404 0.032493517
00000000: bcc8 ad3d aff3 52bb edbe 933d c02e 9f3d
00000010: 5bff 62bd 8419 84bd 9ab7 263d 86c1 56bd
00000020: 04d2 b63d 230b a2bd c527 33bd 91cd c93c
00000030: 27e2 8dbc 22ea cd3d 6745 12bd 68c2 b6bd
00000040: 55ff fd3a 2ccb a43d cca2 06bd 3c92 a63d
00000050: 4aba ed3d a01b 9b3c 3d8c 64bb 153d 31bd
00000060: f8df a33d 17d5 f83d f601 dc3b 6301 ffbd
00000070: 6120 c23c d4b2 c63c 8680 dc3d 5927 cb3c
00000080: e98b 83bd 0586 153b b4e2 92bd 7060 03bd
00000090: 2e34 a13c cf83 32bb 0897 553d 4fab 973d
000000a0: 10c5 cd3d 4170 e8bc 1476 b93d 8c2c be3d
000000b0: 7bb4 bdbb db15 7a3d 0370 223d bd8e d43c
000000c0: 66d6 223d 870c a43d c64f 8d3d 6872 543c
000000d0: 5496 fd3d b1de bf3d 2a49 b03c b428 8a3c
000000e0: 04c0 78bb 1aa3 dc3d 683f 48bb 1b76 ba3c
000000f0: 87fc 623d daea ae3d 06ab 64bd 5897 10bc
00000100: af8e 663d d0c1 93bb 7d29 74bd b1b8 aa3d
00000110: ce0d 3e3d fb60 533d 4e0d 783d 2fbb 993d
00000120: 3b63 ac3d 1bc8 bd3d 54a2 933d 85df 88bd
00000130: 07d2 843c d730 2f3d 1c81 273d 07f9 42bc
00000140: 6b60 47bb 4682 85bd a7d6 003e c7b3 8dbd
00000150: c63d 24bd 1889 e13c 6003 cd3d e399 a03d
00000160: b4bc 2c3d 8320 8a3d c4ca cebc f8ed 3ebd
00000170: e5a0 00bc fb1a 143e aa71 4dbc 5436 e53d
00000180: 0dcb ab3d d02f 0dbc 9574 89bd bae4 633d
00000190: 3096 27bd 4336 14bd 0899 4bbc 39e8 a13d
000001a0: 99db 483d ae1f f6bd 7771 5dbd 0edb 453d
000001b0: 7c32 eabc ba91 66bd 25c2 763c 4f0c 3ebb
000001c0: 5c70 603d 08b6 0ebc 481b 713d 2f24 7f3d
000001d0: 361d f93c 897d 27bd 66bf a33d db48 1ebc
000001e0: 1956 d9bd 7638 9e3c 2903 80bc f142 0f3d
000001f0: af12 6d3d 769b f7bd 9a16 c8bd 5021 193c
00000200: e1cc 053e 7dd8 65bc 9a2f 00bb d58f d6bc
00000210: 02b0 3f3d 8032 52bd e6b6 d73d 22b5 8bbd
00000220: d773 c1ba 2d41 b83d a788 2bbd bd4a 4abc
00000230: f822 a0bd 7d20 853d bfad dc3d 981d 8c3a
00000240: da81 5c3d 997e 22bd a5ef 6abc 3584 b3bc
00000250: 3c4d 503d 4382 a6bd 7b80 ab3d 52dc 4a3c
00000260: 51d4 413d 6097 e23b 1a3b 90bb 5ccc 96bd
00000270: 1019 b03c e6fc 93bb fbc3 b73d d0b9 beba
00000280: 1dc2 5abd c371 033d a608 59bc 7eb8 b23d
00000290: c82e 233d 0769 8a3c 6098 48bb 0325 523d
000002a0: 94a3 5b3b dc3a 553c 12a7 033e 87d4 e13d
000002b0: 1a5c 7b3d 9b73 993c ccbc 3b3e 31f0 45bc
000002c0: dc4f d13c d34b a4bc a202 533d e54b 4abd
000002d0: a6e5 ea3d 8f79 593c 5b67 553d af81 983d
000002e0: 998b 7f3d eb1c 943c bf50 0d3d 3d44 16bd
000002f0: 4a30 4d3c b8b6 b1bc 478c 63bd 6672 4b3d
00000300: 2e0f 983d e88a 213c dd6a 8dbb a2b2 83bd
00000310: 282a 0d3d d5d4 da3d 3cc6 003d a358 443d
00000320: e32a f83d 3eba 98bc ffa3 ce3d 4a21 003d
00000330: 46c4 60bd 0c74 053e 8d68 543c 97ad 19bd
00000340: e2e1 babc 2279 70bd a7a7 9e3d c09f 243d
00000350: d1b5 8a3d 87d4 2c3e 81c2 07bd 7ff8 5cbb
00000360: 7fc1 4abd 875d 0b3d 3248 953d e2c7 073d
00000370: e06d f53b b5cb 6cbc a127 043d 1d9e ca3d
00000380: 1ded 033d 18bd 7a3d e7dc 7dbd 4e53 9e3b
00000390: b663 d4bb cb62 a8bc d06a 0b3e d1b0 83bd
000003a0: 107e 16bb ff6e 77bb 8100 783d 7b22 5ebd
000003b0: 3d02 babc f8e3 c73c 848e 02bd 38e1 56bd
000003c0: 35b0 423d 3914 823c 99b0 b73d b890 e73d
000003d0: 9f46 9ebc b1b3 aabd ed78 073e 1276 8abb
000003e0: c7dd 883d 723d d53d 81a1 7cbd 89b5 aebd
000003f0: df32 b3ba 6e65 6f3c 880d 60bd ec17 053d

linearSequential.2.bias f4 [512]
-0.095978424 0.026204923 0.009176627 0.046831977 0.036175314 -0.03694146 0.015675152 0.060134534
0.06858771 -0.01433321 -0.06570479 -0.06668317 -0.05435015 0.034579676 -0.03621779 -0.042737942
0.04889753 -0.025058728 -0.074448444 -0.096139155 -0.02054495 0.07722794 -0.012202914 -0.045921065
-0.053105816 -0.0034525855 -0.079512715 -0.014208497 0.06590548 -0.002476861 -0.03601691 -0.038065515
0.015606281 -0.08136655 -0.08569122 0.021211391 -0.046876244 0.021210646 0.06128747 0.0069570914
0.08642509 0.006250322 -0.0127730295 -0.034598846 0.048254877 -0.1039656 -0.011416736 0.03801126
-0.035789922 -0.09151478 0.03179585 -0.08100853 -0.051685277 -0.024111118 -0.079605885 -0.062460326
-0.0720361 0.0714729 -0.091350704 -0.032886773 -0.055989232 0.017101835 0.04663344 -0.07811418
-0.02441483 0.007386649 0.007844341 0.053632773 -0.07741979 -0.043742955 0.047987737 -0.00068236666
-0.037329137 0.025016662 0.0647772 -0.0037565066 -0.08371529 -0.022022668 0.029390572 -0.09890044
-0.07784328 0.085241005 0.047762126 0.07025526 -0.022218734 -0.022334024 -0.082608335 -0.07226904
-0.015085055 -0.014517911 0.019846205 -0.05995212 0.031629402 0.024910713 -0.02357729 -0.002623925
0.057743344 0.0020678446 -0.014982743 0.05728222 0.005905734 0.0065127425 0.03633607 -0.04904471
0.02626547 -0.03827273 0.07457249 0.0068853307 -0.05104313 -0.026035588 -0.009409442 -0.059757546
0.0641918 0.08815837 0.037330464 0.044800833 -0.08091294 0.067829 -0.060125332 0.026328674
-0.083599254 -0.06363118 0.0876142 0.042805668 -0.014642475 -0.0941058 -0.045934714 -0.10345718
-0.05484288 -0.03161865 0.027034763 0.035296608 0.055626575 0.008766933 0.08944173 -0.05203589
-0.0029501002 -0.06330339 -0.034006666 0.020176131 0.072917104 0.040005438 -0.07015106 0.08770662
0.0028407716 -0.044874616 -0.047796734 -0.09668504 -0.030139167 -0.08630172 -0.053070918 0.07551341
0.07072204 -0.09220616 -0.070918 0.060910895 -0.048406728 -0.048734307 -0.074847355 -0.051358026
-0.033085495 -0.0510459 0.012647079 -0.04580235 -0.098912284 0.068291605 -0.028937643 -0.023131669
0.05109841 0.037326258 -0.06346922 0.045735553 -0.07004335 -0.09475377 -0.031058304 -0.019196203
-0.047606193 0.05257868 0.03804529 0.06819957 -0.020513711 -0.08160134 -0.048598193 0.0694862
-0.007608977 -0.09664036 0.0088343425 -0.027467402 -0.086395 0.03211636 0.071018204 0.032221865
-0.082410604 -0.044329226 -0.03766897 0.026704963 -0.013718021 -0.0631649 -0.007507452 -0.09562876
-0.055001874 -0.06528579 -0.0448149 -0.06411525 0.08446327 -0.087364115 -0.07227104 -0.012667215
-0.06789289 0.07245091 -0.078104995 -0.049303167 -0.08400836 0.0028031452 -0.09291961 -0.032777663
-0.09125504 -0.0020443115 0.05748807 0.050593473 -0.09588254 0.039080366 -0.055009108 0.047595717
0.06867276 0.071941726 -0.0857378 -0.061735436 -0.04254995 -0.06405655 0.07727533 0.03556266
0.045300905 -0.011652462 -0.0096937185 0.07360413 -0.102420025 -0.020824969 -0.05733493 -0.03256613
0.028179584 -0.076897636 0.031086339 -0.023332817 0.003649075 0.00522576 -0.040986322 0.044346973
-0.05932719 0.045580596 0.029511962 0.060598176 0.055038687 0.06906375 -0.05742762 -0.04477843
00000000: 5690 c4bd b5ab d63c 9059 163c e3d2 3f3d
00000010: 912c 143d ee4f 17bd 2d69 803c a14f 763d
00000020: b777 8c3d d7d5 6abc 3c90 86bd 3091 88bd
00000030: 439e 5ebd 6ba3 0d3d 1b59 14bd fb0d 2fbd
00000040: c748 483d f647 cdbc 6d78 98bd 9be4 c4bd
00000050: e24d a8bc af29 9e3d bbee 47bc ba17 3cbd
00000060: 7c85 59bd c644 62bb 90d7 a2bd c1ca 68bc
00000070: 74f9 863d d552 22bb 7886 13bd 96ea 1bbd
00000080: 7db1 7f3c 81a3 a6bd e17e afbd 83c3 ad3c
00000090: 4e01 40bd f3c1 ad3c 9208 7b3d 50f8 e33b
000000a0: a3ff b03d 80cf cc3b f845 51bc 85b7 0dbd
000000b0: e8a6 453d ebeb d4bd 430d 3bbc b2b1 1b3d
000000c0: 7498 12bd 1a6c bbbd 5d3c 023d cde7 a5bd
000000d0: f1b3 53bd ae84 c5bc 6908 a3bd 66d6 7fbd
000000e0: aa87 93bd 6260 923d 1416 bbbd 48b4 06bd
000000f0: f754 65bd 2619 8c3c b502 3f3d 54fa 9fbd
00000100: 9c01 c8bc b40b f23b 8d85 003c 0aae 5b3d
00000110: 448e 9ebd d02b 33bd ca8e 443d dae0 32ba
00000120: 70e6 18bd beef cc3c e9a9 843d b92f 76bb
00000130: ec72 abbd e268 b4bc 7fc4 f03c 508c cabd
00000140: 4c6c 9fbd d692 ae3d 38a2 433d fde1 8f3d
00000150: 1004 b6bc d8f5 b6bc 8f2e a9bd ca01 94bd
00000160: 4e27 77bc 88dc 6dbc 8294 a23c 5b90 75bd
00000170: d58d 013d 8d11 cc3c 2925 c1bc 28f6 2bbb
00000180: 4984 6c3d ad84 073b 2e7a 75bc c3a0 6a3d
00000190: e384 c13b d868 d53b 22d5 143d 1be3 48bd
000001a0: af2a d73c dec3 1cbd 76b9 983d 579e e13b
000001b0: 9a12 51bd 9648 d5bc 0f2a 1abc 54c4 74bd
000001c0: fe76 833d 608c b43d d4e7 183d 1481 373d
000001d0: afb5 a5bd eee9 8a3d fb45 76bd 3baf d73c
000001e0: 1636 abbd 1051 82bd 136f b33d ff54 2f3d
000001f0: fee6 6fbc 8bba c0bd 0a26 3cbd 5ce1 d3bd
00000200: eea2 60bd 8f82 01bd 0278 dd3c 2d93 103d
00000210: b1d8 633d 2fa3 0f3c 3a2d b73d 9623 55bd
00000220: 7856 41bb 35a5 81bd 934a 0bbd 6a48 a53c
00000230: 9055 953d bedc 233d 5cab 8fbd 879f b33d
00000240: 3d2c 3a3b 72ce 37bd 82c6 43bd ce02 c6bd
00000250: 6ae6 f6bc f5be b0bd e460 59bd c6a6 9a3d
00000260: b8d6 903d 95d6 bcbd 753d 91bd b47d 793d
00000270: 2246 46bd a09d 47bd 9249 99bd cb5c 52bd
00000280: a884 07bd 8115 51bd b235 4f3c 3f9b 3bbd
00000290: 8692 cabd 78dc 8b3d a30e edbc a07e bdbc
000002a0: 914c 513d 6be3 183d 27fc 81bd 3455 3b3d
000002b0: e372 8fbd 440e c2bd fc6d febc 5b41 9dbc
000002c0: b6fe 42bd be5c 573d 61d5 1b3d 37ac 8b3d
000002d0: 5f0c a8bc 9a1e a7bd e60e 47bd c84e 8e3d
000002e0: ba54 f9bb 62eb c5bd ebbd 103c 5103 e1bc
000002f0: ddef b0bd 728c 033d fe71 913d 13fb 033d
00000300: e4c6 a8bd 9092 35bd c74a 1abd 5ec4 da3c
00000310: 8dc1 60bc 995c 81bd 1201 f6bb 03d9 c3bd
00000320: a549 61bd 8eb4 85bd d48f 37bd db4e 83bd
00000330: 14fb ac3d f5eb b2bd d702 94bd 278a 4fbc
00000340: 6d0b 8bbd 2561 943d 83f5 9fbd 1ef2 49bd
00000350: 930c acbd f9b4 373b a34c bebd df41 06bd
00000360: ece3 babd dbf9 05bb 9c78 6b3d 1a3b 4f3d
00000370: 115e c4bd bc12 203d 3b51 61bd baf3 423d
00000380: 4ea4 8c3d 2f56 933d 4d97 afbd 4cde 7cbd
00000390: db48 2ebd 1530 83bd 8742 9e3d 27aa 113d
000003a0: 718d 393d f8e9 3ebc 67d2 1ebc c3bd 963d
000003b0: 97c1 d1bd 2099 aabc 08d8 6abd 1064 05bd
000003c0: dfd8 e63c 827c 9dbd c7a8 fe3c 7724 bfbc
000003d0: 5225 6f3b da3c ab3b 46e1 27bd 2ca5 353d
000003e0: 1101 73bd b8b2 3a3d 12c3 f13c cb35 783d
000003f0: 3f70 613d 4c71 8d3d 3939 6bbd 9669 37bd

linearSequential.4.weight f4 [256, 512]
0.009853486 -0.026824677 -0.042675644 0.028751565 -0.04753205 -0.031727824 -0.016211076 0.020714557
-0.029550733 0.023699185 -0.023285817 0.03759696 -0.0028742626 -0.026601845 0.016895188 0.03020041
-0.031694267 0.010518199 -0.012086462 -0.036536664 0.024859676 0.0017501401 0.03905564 -0.016945899
0.007679419 -0.0425171 -0.029982451 0.019985026 0.0061417585 -0.013304802 -0.009039551 -0.023208
-0.02482228 -0.05012896 0.01489272 -0.04964408 -0.039351694 -0.0007717635 -0.0141899595 -0.030347526
-0.025449587 0.0023980832 -0.008014136 -0.031627376 -0.020168347 -0.01626508 0.012245419 -0.046771128
0.031416144 -0.0045302063 -0.031124527 0.020755839 0.025521336 -0.029233506 0.013180152 0.0055487966
-0.022677058 0.030088196 0.026621135 0.018207356 -0.0016572438 -0.020133529 -0.045574974 0.02286366
0.018721268 0.035673935 0.029536435 -0.030052966 0.02823178 0.025039418 0.030326393 0.02056915
-0.039148305 -0.01940451 0.027748862 0.029226419 -0.023149854 0.004830491 0.022116182 -0.017285855
-0.02800559 0.018560497 -0.027748296 -0.04130189 0.029110847 0.030943189 0.0026578493 0.025584571
-0.034242492 -0.043353748 -0.0015656651 0.03053872 -0.033712044 0.022507932 -0.0069794264 0.024147347
0.038331043 -0.01666034 0.036789943 -0.042140655 0.011130835 -0.051768437 -0.0017303277 -0.021711592
0.026495405 -0.0063942107 -0.0006014719 0.04189438 0.03038365 0.020871116 -0.039416984 -0.0412794
-0.028981175 0.023961073 -0.030427806 0.03326399 0.015898393 -0.05143016 -0.021734191 -0.013388462
0.01751722 -0.02089909 0.016897056 -0.019153195 -0.03932392 -0.03491559 -0.024364345 0.039154124
-0.013052905 0.027993912 0.026076745 0.0060525243 -0.048232403 0.0024654942 -0.04000311 0.025537547
0.031754866 -0.0062322877 0.008381279 -0.010374572 -0.029049136 -0.0038044963 -0.032722272 -0.043691974
-0.022234173 0.022704326 -0.037983008 0.032452423 0.024016725 0.03002361 0.022042133 0.020422999
0.01663879 -0.028528474 0.035797764 0.015187641 0.042626407 -0.028189648 0.013353537 0.01380581
0.029713007 0.031746294 0.019714512 0.009832874 0.017831031 0.02337449 -0.047358397 -0.0259805
0.009022079 -0.015460635 -0.037466872 0.0050230003 -0.030872306 -0.033877537 -0.041791674 0.024883157
-0.0016095601 0.02917279 -0.029601922 -0.006975101 -0.03895709 -0.008507252 0.006035743 -0.029605763
0.016621556 0.0025239475 0.0026533783 0.031033898 0.016513985 -0.00022324298 -0.012312407 0.026283618
0.03649215 -0.016972946 -0.02009728 0.013203581 0.029610453 -0.0056198724 -0.037647884 0.011474762
-0.036300305 -0.03830575 -0.00787615 -0.022968346 -0.0058853985 -0.040234413 -0.043449633 0.03275949
-0.032994688 -0.0005890863 -0.044932898 -0.035376266 0.031339873 -0.0041273995 0.0440795 -0.026233362
0.021809319 0.027823249 0.035889372 -0.023482494 -0.010603171 0.0051353225 -0.008880742 -0.0067075505
0.020799937 0.017777516 -0.004631897 0.0064534135 -0.004743799 -0.026118034 -0.01854259 0.01589874
-0.026236186 0.004985238 -0.034801405 0.018832874 -0.0038060285 0.036005232 0.00046075508 -0.02687238
0.023542313 0.02864224 0.0010457804 -0.051371425 -0.009375479 -0.016912313 -0.030046966 -0.031378813
-0.024481654 0.030021738 -0.009832893 -0.012091146 0.0124259 -0.0041772122 -0.0060767494 -0.023892546
00000000: 8470 213c 6dbf dbbc a8cc 2ebd 6788 eb3c
00000010: f8b0 42bd 09f5 01bd 17cd 84bc 93b1 a93c
00000020: 6114 f2bc cb24 c23c e6c1 bebc 45ff 193d
00000030: 205e 3cbb 1dec d9bc c767 8a3c da66 f73c
00000040: d9d1 01bd 8654 2c3c 4c06 46bc 78a7 15bd
00000050: 85a6 cb3c f564 e53a cff8 1f3d 20d2 8abc
00000060: a3a3 fb3b 6926 2ebd c29d f5bc a3b7 a33c
00000070: ce40 c93b 62fc 59bc a01a 14bc b41e bebc
00000080: 1858 cbbc 0654 4dbd 9800 743c 9757 4bbd
00000090: 3e2f 21bd 2c50 4aba 017d 68bc 609b f8bc
000000a0: a77b d0bc 2929 1d3b b94d 03bc b58b 01bd
000000b0: 1738 a5bc 583e 85bc 03a1 483c 1593 3fbd
000000c0: 37ae 003d 2072 94bb ddf8 febc 2608 aa3c
000000d0: 1f12 d13c 1b7b efbc 90f1 573c aed2 b53b
000000e0: 3dc5 b9bc 857b f63c 9114 da3c 9827 953c
000000f0: e037 d9ba 12ef a4bc d3ac 3abd 924c bb3c
00000100: 585d 993c d51e 123d 65f6 f13c a331 f6bc
00000110: 5546 e73c 771f cd3c 0e6f f83c a280 a83c
00000120: f959 20bd 35f6 9ebc 9551 e33c 3e6c ef3c
00000130: c3a4 bdbc 1849 9e3b ff2c b53c 119b 8dbc
00000140: fb6b e5bc 2f0c 983c 6550 e3bc 2c2c 29bd
00000150: df79 ee3c 927c fd3c 502f 2e3b bc96 d13c
00000160: db41 0cbd b393 31bd 0137 cdba 562c fa3c
00000170: a415 0abd 8e62 b83c acb3 e4bb a8d0 c53c
00000180: 0301 1d3d 447b 88bc 0db1 163d ae9b 2cbd
00000190: 1b5e 363c 240b 54bd 2acc e2ba 82dc b1bc
000001a0: e40c d93c 8786 d1bb 19ac 1dba 7199 2b3d
000001b0: 22e7 f83c e7f9 aa3c b473 21bd 9714 29bd
000001c0: ee69 edbc 034a c43c bc43 f9bc d23f 083d
000001d0: 593d 823c 6ea8 52bd e70b b2bc 485b 5bbc
000001e0: 4680 8f3c 9234 abbc b26b 8a3c 29e7 9cbc
000001f0: 1e12 21bd a603 0fbd bc97 c7bc 1360 203d
00000200: dadb 55bc 7d53 e53c e69e d53c 4154 c63b
00000210: 578f 45bd 2194 213b 4dda 23bd 1e34 d13c
00000220: 6411 023d 3838 ccbb a251 093c 1cfa 29bc
00000230: 74f8 edbc db54 79bb ca07 06bd 5bf6 32bd
00000240: 7124 b6bc 6cfe b93c 1294 1bbd d5ec 043d
00000250: b9be c43c 13f4 f53c b491 b43c 224e a73c
00000260: 124e 883c 8cb4 e9bc ada0 123d 95d5 783c
00000270: 0799 2e3d faed e6bc cbc8 5a3c c431 623c
00000280: b168 f33c 6708 023d 5480 a13c 101a 213c
00000290: 6212 923c dc7b bf3c e1fa 41bd 0fd5 d4bc
000002a0: 58d1 133c 9a4e 7dbc dd76 19bd fb97 a43b
000002b0: ebe7 fcbc 2cc3 0abd bf2d 2bbd c3d7 cb3c
000002c0: e0f7 d2ba c6fb ee3c bb7f f2bc 638f e4bb
000002d0: 7891 1fbd 0062 0bbc 7bc7 c53b c987 f2bc
000002e0: ee29 883c d068 253b 4de4 2d3b cd3a fe3c
000002f0: 5648 873c 5516 6ab9 fab9 49bc be50 d73c
00000300: cb78 153d d90a 8bbc 0da3 a4bc d553 583c
00000310: 9f91 f23c e826 b8bb ab34 1abd a400 3c3c
00000320: a1af 14bd 7de6 1cbd f80a 01bc 1d28 bcbc
00000330: 4dda c0bb d7cc 24bd 3ef8 31bd d12e 063d
00000340: 7025 07bd ea6c 1aba 8f0b 38bd b4e6 10bd
00000350: 3d5e 003d 233f 87bb b58c 343d 59e7 d6bc
00000360: 75a9 b23c 95ed e33c bc00 133d 5c5e c0bc
00000370: ecb8 2dbc 3546 a83b 8880 11bc 03cb dbbb
00000380: a164 aa3c 27a2 913c 2bc7 97bb 2877 d33b
00000390: df71 9bbb 7df5 d5bc a1e6 97bc 133e 823c
000003a0: 45ed d6bc 355b a33b eb8b 0ebd 6647 9a3c
000003b0: 906e 79bb 397a 133d 8091 f139 7723 dcbc
000003c0: cfdb c03c 22a3 ea3c 9112 893a d86a 52bd
000003d0: 9c9b 19bc b18b 8abc 0e25 f6bc 1287 00bd
000003e0: c08d c8bc 26f0 f53c 241a 21bc f119 46bc
000003f0: 0196 4b3c ffe0 88bb 781f c7bb 4dba c3bc

linearSequential.4.bias f4 [256]
0.034318272 -0.035568405 -0.013098025 -0.01614178 -0.020808866 0.030055203 0.00031575141 -0.03741911
-0.03449472 -0.012443598 0.034760796 0.030304229 0.014856212 0.034254532 0.03554148 -0.027200663
-0.026370997 0.034232512 0.051854238 -0.042654153 -0.008014929 0.03165925 0.049195293 0.0334207
0.0023576454 0.009202989 0.027255943 -0.0417927 0.03863946 -0.0008096879 -0.050655983 0.005504541
0.010488585 0.008092726 -0.004028626 -0.02907021 0.045716453 -0.009077152 0.00850393 -0.008862605
-0.0018502164 -0.036376316 0.030324284 -0.018302355 0.009274092 -0.004324021 -0.018695876 0.0051581524
-0.024461798 -0.03189529 0.018230194 -0.031780224 0.022336865 -0.0040091584 -0.00092434767 -0.04512797
0.022158105 0.012390893 0.015510231 -0.03812043 -0.038234 -0.007455889 0.04730404 0.0142052
0.01565874 -0.014368419 0.033250477 -0.026700424 -0.029985156 -0.0012702976 0.0116271395 -0.030237759
-0.001490211 -0.027479645 -0.025236366 -0.011072936 0.037893016 -0.009139879 -0.017212847 -0.0044559226
-0.044749197 0.03353926 0.031593245 -0.019250698 0.023437783 -0.017637813 0.024640683 0.021026574
0.0040286616 -0.039575968 -0.013874758 -0.025756203 0.019704616 -0.014295739 0.021639628 -0.027869068
0.0055138543 0.02120399 -0.023101712 -0.0019350415 0.019400744 -0.020894658 -0.045861185 0.0042730374
-0.0015673281 0.042743873 -0.04368073 -0.011477908 0.024965225 0.024897646 -0.01261159 0.00765498
0.040517516 -0.04509579 0.0153176645 -0.013942585 -0.0013501011 -0.023068385 0.045865826 0.010734556
-0.04603109 -0.036658246 0.045588985 0.026850287 0.030998077 0.019434134 0.0069693318 0.015063822
0.0076841833 0.033613782 -0.0398119 0.008443819 -0.0074841306 0.033800147 -0.008038764 -0.0013150356
0.034862995 0.026003752 -0.045729302 -0.032035995 0.0047141076 -0.04123692 -0.005338578 0.018957917
0.04035972 0.043660656 -0.03557313 -0.026233694 -0.019519586 -0.021819621 0.006331503 -0.025207838
0.009711718 0.034619886 -0.011169345 0.02200381 -0.043875985 0.057454456 -0.011701432 0.020082384
0.0013091316 0.021876514 -0.043804985 0.015439116 0.011231121 0.007997524 0.014578673 0.0022487217
-0.011643493 -0.03838738 -0.032226063 -0.01687538 -0.029133417 0.029789662 0.014279224 0.031209437
-0.025067486 -0.022075549 -0.025358109 0.0003525346 0.0001858964 -0.014145395 -0.013765821 -0.030971153
-0.028901896 0.041940503 -0.02557835 -0.025442557 -0.04336317 0.022413412 0.014262271 -0.01778607
-0.041009694 -0.0085064 -0.019395718 0.00058466976 -0.02900251 -0.0035425718 -0.01705045 -0.014995316
0.04402502 -0.0018161192 0.013651349 -0.012200923 0.008537665 -0.024978478 -0.040568344 0.022036536
0.029854208 0.004790675 -0.03505208 0.0054964744 -0.020967424 0.04555255 0.034682482 0.0010190383
0.010886555 0.026969774 0.023383936 -0.023566566 -0.025050046 0.02249103 0.0066840095 0.045150645
0.034728367 -0.034172527 0.049559236 0.02293661 -0.0030024669 -0.010921931 -0.018905148 0.026642019
0.028352939 -0.047141697 0.012951679 -0.036289774 -0.0425786 0.028381247 0.02772687 -0.015601101
0.03401972 0.018135672 0.037931383 -0.012327172 0.00943688 -0.037592195 0.013738862 0.0005278588
-0.03256166 -0.0071256836 0.016951613 0.046630513 -0.028440205 0.03466034 0.029244933 -0.047520824
00000000: 5191 0c3d 2db0 11bd 1999 56bc c43b 84bc
00000010: 5b77 aabc 5436 f63c 708b a539 c844 19bd
00000020: 564a 0dbd 3ce0 4bbc 5661 0e3d 9340 f83c
00000030: 7867 733c 7b4e 0c3d f193 113d edd3 debc
00000040: fd07 d8bc 6437 0c3d 1c65 543d 1fb6 2ebd
00000050: 0c51 03bc 21ad 013d 0181 493d 25e4 083d
00000060: ba82 1a3b 22c8 163c db47 df3c d22e 2bbd
00000070: 6944 1e3d 3c41 54ba a67c 4fbd 705f b43b
00000080: 50d8 2b3c 5a97 043c 9002 84bb a624 eebc
00000090: 2d41 3b3d 56b8 14bc 1154 0b3c 7634 11bc
000000a0: f682 f2ba 55ff 14bd a26a f83c d2ee 95bc
000000b0: 5cf2 173c 84b0 8dbb 1828 99bc b805 a93b
000000c0: 1c64 c8bc a3a4 02bd 7d57 953c fb2b 02bd
000000d0: cdfb b63c 425f 83bb ec4f 72ba 1bd8 38bd
000000e0: ea84 b53c 2c03 4b3c a01e 7e3c 2b24 1cbd
000000f0: 419b 1cbd 8850 f4bb e2c1 413d edbc 683c
00000100: c246 803c 8469 6bbc a731 083d d9ba dabc
00000110: 6ea3 f5bc 1d80 a6ba c27f 3e3c 2db5 f7bc
00000120: 2f53 c3ba fe1c e1bc 7fbc cebc 426b 35bc
00000130: b535 1b3d 6ebf 15bc f501 8dbc fd02 92bb
00000140: ef4a 37bd 7760 093d eb67 013d a4b3 9dbc
00000150: 9800 c03c 2d7d 90bc 42db c93c ec3f ac3c
00000160: dd02 843b 691a 22bd f452 63bc acfe d2bc
00000170: 936b a13c ad38 6abc 9745 b13c ac4d e4bc
00000180: 90ad b43b fdb3 ad3c cd3f bdbc 38a1 fdba
00000190: 4fee 9e3c 462b abbc f0d8 3bbd d604 8c3b
000001a0: ce6e cdba 3314 2f3d 91ea 32bd d60d 3cbc
000001b0: df83 cc3c 26f6 cb3c d8a0 4ebc a0d6 fa3b
000001c0: b2f5 253d 5db6 38bd f1f6 7a3c 716f 64bc
000001d0: e0f5 b0ba e9f9 bcbc cedd 3b3d fedf 2f3c
000001e0: 198b 3cbd f526 16bd 84bb 3a3d 22f5 db3c
000001f0: aeef fd3c 5534 9f3c fe5e e43b 40ce 763c
00000200: 9acb fb3b 9bae 093d ce11 23bd f257 0a3c
00000210: 703d f5bb 0672 0a3d 05b5 03bc 465d acba
00000220: 80cc 0e3d d205 d53c a64e 3bbd 2d38 03bd
00000230: cd78 9a3b 0be8 28bd 3def aebb a24d 9b3c
00000240: 3c50 253d 84d5 323d 21b5 11bd 0be8 d6bc
00000250: 8ae7 9fbc 10bf b2bc 7f78 cf3b ab80 cebc
00000260: e61d 1f3c 95cd 0d3d a1ff 36bc 5641 b43c
00000270: 4eb7 33bd 5d55 6b3d 5db7 3fbc d083 a43c
00000280: 2b97 ab3a 6036 b33c db6c 33bd 59f4 7c3c
00000290: bc02 383c 0c08 033c 63db 6e3c 4a5f 133b
000002a0: 59c4 3ebc 163c 1dbd 7aff 03bd 3d3e 8abc
000002b0: 34a9 eebc 7309 f43c 68f3 693c efaa ff3c
000002c0: 545a cdbc c8d7 b4bc cfbb cfbc 65d4 b839
000002d0: 2fed 4239 16c2 67bc 0a8a 61bc 37b7 fdbc
000002e0: abc3 ecbc cec9 2b3d b089 d1bc e96c d0bc
000002f0: 949d 31bd 559c b73c 4dac 693c 18b4 91bc
00000300: c8f9 27bd 6d5e 0bbc c5e3 9ebc 8644 193a
00000310: ac96 edbc 7e2a 68bb 63ad 8bbc eaae 75bc
00000320: 9453 343d d90a eeba e8a9 5f3c 61e6 47bc
00000330: 90e1 0b3c aa9f ccbc fe2a 26bd f785 b43c
00000340: d090 f43c 18fb 9c3b c592 0fbd c51b b43b
00000350: e0c3 abbc 5095 3a3d 380f 0e3d 4091 853a
00000360: 855d 323c b7ef dc3c ab8f bf3c ac0e c1bc
00000370: c135 cdbc 1c3f b83c 8905 db3b e2ef 383d
00000380: 553f 0e3d 7ef8 0bbd a0fe 4a3d 8fe5 bb3c
00000390: 09c5 44bb e6f1 32bc f8de 9abc 5d40 da3c
000003a0: 6c44 e83c a717 41bd 4733 543c 96a4 14bd
000003b0: e666 2ebd ca7f e83c 7623 e33c c39b 7fbc
000003c0: 4358 0b3d 4391 943c f05d 1b3d e8f7 49bc
000003d0: 259d 1a3c 46fa 19bd f718 613c 0160 0a3a
000003e0: 605f 05bd 917e e9bb 1cde 8a3c a3ff 3e3d
000003f0: 6ffb e8bc 00f8 0d3d 1293 ef3c 32a5 42bd

linearSequential.6.weight f4 [128, 256]
-0.04859642 0.026984492 -0.035246 0.06832569 0.001237754 0.042014588 -0.03949756 -0.029172823
0.06407019 0.06208086 -0.023446536 -0.027521513 0.03475932 0.04499402 -0.041618824 -0.04350371
0.05272925 0.011362309 -0.0366817 0.051464774 0.050002992 -0.0067011304 0.026736913 0.03277317
0.0010135757 0.03240783 0.035797358 0.025772428 0.011442978 -0.031315345 0.0017298716 0.056002036
-0.055082858 -0.04463673 -0.03364782 0.009263851 -0.045806088 0.014761907 0.05925087 0.017742217
0.021268627 0.06432474 -0.0033945418 -0.032221302 -0.036029205 0.030899234 0.0053361435 0.03210375
-0.04170847 -0.047321808 0.052048903 -0.00839334 0.02561926 -0.027279148 0.031786606 -0.048989624
-0.014439572 -0.019400578 -0.009080276 0.024324147 -0.054699052 -0.018739652 0.035109565 -0.018131338
0.027061157 0.012267344 -0.023617042 0.0095450925 -0.02906618 -0.029865406 0.0037214241 -0.023433538
0.04535863 -0.029459648 -0.036169942 0.022071572 -0.039088357 0.03496838 -0.0069915843 0.006788125
0.014719258 0.017424416 0.059726372 0.01804619 -0.051022198 0.007598424 0.0533756 0.047634494
0.00026007553 -0.021226399 -0.022982962 -0.028551335 -0.051176146 -0.0064228144 -0.029575014 0.05304633
0.061672494 0.00634519 0.044149194 0.03213777 0.036213048 0.0251128 -0.037704483 0.038274918
-0.055716578 0.03725838 0.04337386 0.06291774 -0.012205282 0.015282247 -0.05301339 -0.042646952
0.008357386 -0.016101193 0.051215783 0.008466474 0.05621752 0.011914437 0.066165745 0.014556399
-0.042110372 -0.0207559 0.0013598253 0.024103954 0.03049268 0.044418994 -0.023025874 0.0141783785
0.028966729 0.033275962 -0.015283307 -0.019550106 0.0486357 0.04367348 0.025084678 -0.014651893
0.06627613 -0.040252633 -0.034045238 -0.047222182 0.016325576 0.044862073 0.052040733 -0.01191158
-0.009855399 -0.035135746 0.0054105637 0.05935368 0.033181474 -0.020019252 0.02559043 0.046315633
-0.0023477057 0.007323352 -0.051580377 0.01940427 -0.007854624 0.031910446 0.035359774 0.019559972
0.05439487 0.04845324 -0.0017248169 0.012366774 -0.030067217 0.03949414 -0.032930862 -0.024959281
0.03970481 0.00065180956 -0.008739593 -0.023635263 0.043663483 -0.037140306 -0.031106574 -0.046206005
0.051930144 -0.010146518 -0.03274987 0.06601212 0.021618789 0.0022340245 0.060108814 0.052656747
-0.03544426 0.026048956 0.054816723 -0.057065323 -0.038602047 -0.039308406 0.044696372 -0.040969986
0.017401941 0.055938516 0.0425135 -0.03844315 -0.0018808395 -0.05315345 -0.060663335 0.048071276
0.052382223 0.018284367 -0.025813423 0.014632717 0.06283742 0.06994616 -0.0524066 0.045106053
-0.007382706 -0.014557731 0.050384026 -0.032689832 0.001206763 -0.044532698 0.034985565 0.05506462
0.06347393 0.037006557 0.011767772 -0.023053342 -0.026654616 0.0118748285 0.061673325 0.035078496
-0.030956691 0.022106187 0.05386696 -0.04520977 0.0650608 0.0011133867 0.019403346 -0.054611806
0.021667898 0.012145821 0.006314529 0.0013351254 0.009703776 -0.0059291814 0.009970062 -0.03454688
0.010212526 -0.013447545 -0.009688584 -0.060533963 -0.020000866 -0.031939007 -0.008235946 0.043883067
-0.04702115 0.0293545 0.031466648 0.06830662 -0.032227993 -0.0154595245 -0.007070448 -0.018580712
00000000: 0a0d 47bd 950e dd3c 1c5e 10bd 57ee 8b3d
00000010: 223c a23a 7d17 2c3d 32c8 21bd d8fb eebc
00000020: 3b37 833d 8048 7e3d f312 c0bc cc74 e1bc
00000030: ca5f 0e3d a64b 383d 8078 2abd f230 32bd
00000040: a0fa 573d fa28 3a3c 8d3f 16bd bacc 523d
00000050: f0cf 4c3d 2895 dbbb 5f07 db3c 293d 063d
00000060: f5d9 843a 13be 043d 40a0 123d b320 d33c
00000070: 547b 3b3c 8544 00bd dcbc e23a 6462 653d
00000080: 909e 61bd 01d5 36bd 4cd2 09bd 68c7 173c
00000090: 2a9f 3bbd eddb 713c 0ab1 723d 2058 913c
000000a0: 8b3b ae3c b0bc 833d f676 5ebb 7cfa 03bd
000000b0: 5c93 13bd 6420 fd3c d1da ae3b 397f 033d
000000c0: 80d6 2abd 83d4 41bd 3b31 553d 3884 09bc
000000d0: 7bdf d13c 8578 dfbc ac32 023d 58a9 48bd
000000e0: f493 6cbc f6ed 9ebc 70c5 14bc 6f43 c73c
000000f0: 1d0c 60bd e683 99bc 0ccf 0f3d 2c88 94bc
00000100: 5caf dd3c f8fc 483c 8778 c1bc 0563 1c3c
00000110: 331c eebc 4ca8 f4bc 23e3 733b b1f7 bfbc
00000120: f9c9 393d 5c55 f1bc ef26 14bd 71cf b43c
00000130: 1d1b 20bd 013b 0f3d a919 e5bb eb6e de3b
00000140: 0b29 713c a6bd 8e3c a4a3 743d 9ad5 933c
00000150: a7fc 50bd 33fc f83b 60a0 5a3d 631c 433d
00000160: bf5a 8839 fce2 adbc c446 bcbc 7de4 e9bc
00000170: 149e 51bd 7976 d2bb 4d47 f2bc 1c47 593d
00000180: 4c9c 7c3d 50eb cf3b c9d5 343d e5a2 033d
00000190: 2254 143d 5cb9 cd3c 0470 1abd 29c6 1c3d
000001a0: 1137 64bd 3e9c 183d caa8 313d 04db 803d
000001b0: aaf8 47bc 6462 7a3c 9224 59bd 92ae 2ebd
000001c0: 6bed 083c a6e6 83bc a4c7 513d f7b6 0a3c
000001d0: 5844 663d c534 433c e881 873d f67d 6e3c
000001e0: ed7b 2cbd 4708 aabc 2a3c b23a a875 c53c
000001f0: c9cb f93c b1f0 353d c2a0 bcbc 6e4c 683c
00000200: a24b ed3c 604c 083d d666 7abc 8b27 a0bc
00000210: 3a36 473d f7e2 323d 627e cd3c 7e0e 70bc
00000220: c8bb 873d f2df 24bd 0573 0bbd 0c6c 41bd
00000230: 37bd 853c 4bc1 373d aa28 553d ca28 43bc
00000240: 8a78 21bc 80ea 0fbd 194b b13b d81c 733d
00000250: 4ce9 073d 6aff a3bc 05a3 d13c 76b5 3d3d
00000260: f7db 19bb bbf8 ef3b f245 53bd b4f5 9e3c
00000270: aeb0 00bc 87b4 023d 69d5 103d 3c3c a03c
00000280: 28cd 5e3d e876 463d 4013 e2ba 029e 4a3c
00000290: 864f f6bc 9bc4 213d 83e2 06bd 6877 ccbc
000002a0: 83a1 223d 33de 2a3a 8330 0fbc bd9e c1bc
000002b0: 7bd8 323d 6f20 18bd 37d3 febc 8242 3dbd
000002c0: b4b4 543d 953d 26bc ba24 06bd 5d31 873d
000002d0: e319 b13c b668 123b a934 763d 9aae 573d
000002e0: 002e 11bd 9f64 d53c 8087 603d 54bd 69bd
000002f0: 2e1d 1ebd da01 21bd 8b13 373d 25d0 27bd
00000300: 848e 8e3c c91f 653d a322 2e3d 9176 1dbd
00000310: 8086 f6ba 6fb7 59bd 1e7a 78bd 63e6 443d
00000320: be8e 563d 19c9 953c ac76 d3bc 10be 6f3c
00000330: e8b0 803d ef3f 8f3d 4ea8 56bd 20c1 383d
00000340: a0ea f1bb 8d83 6ebc 7b5f 4e3d c6e5 05bd
00000350: 3f2c 9e3a eb67 36bd 064d 0f3d 708b 613d
00000360: 9ffe 813d 3094 173d 9dcd 403c 5dda bcbc
00000370: c85a dabc a48e 423c 2b9d 7c3d 78ae 0f3d
00000380: e398 fdbc 0918 b53c 9aa3 5c3d e12d 39bd
00000390: 993e 853d 0fef 913a c4f3 9e3c a1b0 5fbd
000003a0: e080 b13c 44ff 463c 1cea ce3b 60ff ae3a
000003b0: 96fc 1e3c 9449 c2bb 7959 233c 0781 0dbd
000003c0: 7052 273c 1753 5cbc debc 1ebc 76f2 77bd
000003d0: dbd8 a3bc 7ad2 02bd 10f0 06bc bbbe 333d
000003e0: 4099 40bd d978 f03c 2ce3 003d 57e4 8b3d
000003f0: 8001 04bd f249 7dbc 37af e7bb 9436 98bc

linearSequential.6.bias f4 [128]
-0.016907224 0.048496563 -0.021662682 -0.024067907 -0.02973632 0.00012650341 -0.00083175406 0.011112488
-0.04127355 0.050894894 -0.021461649 -0.0523481 -0.0504155 0.021281116 -0.012154882 -0.019040031
-0.011573463 0.037718736 0.038183533 0.022494651 -0.024104472 0.028070685 -0.049009923 -0.011797249
0.022480953 0.0050225114 -0.052114427 -0.021980554 0.025113635 -0.0052690217 0.023638858 0.07338362
-0.029063674 -0.044852193 -0.010590591 0.058245085 0.040419884 -0.07323827 -0.030340174 0.020414863
-0.028329084 -0.021223538 -0.055930287 -0.04339482 -0.0061108274 -0.021379514 -0.046802588 0.04564442
-0.050729796 -0.0462323 -0.036916755 -0.06347992 0.044083003 0.00832805 -0.045458104 0.02423502
0.019400008 -0.01296068 0.049414404 0.036910497 0.014141098 0.007764624 -0.04127083 0.04699997
0.021803493 -0.004546106 0.03754102 0.047407735 0.039048202 0.025872823 0.046627197 0.03208331
-0.057818446 -0.005288571 0.07989811 -0.0048448713 -0.023918927 0.041335255 0.008326598 0.04811421
0.018649664 -0.057387263 0.054566298 0.04578641 -0.04728455 0.0035312981 -0.06916012 0.015158401
-0.065085895 0.0482299 -0.046353545 0.050223842 -0.006018147 0.050218422 0.07214559 0.0168786
-0.03158193 0.014026761 -0.020384908 -0.018930642 -0.028564297 -0.015429957 0.013172378 -0.027431984
-0.057489395 0.0038499467 0.042151406 -0.030848697 -0.044733934 -0.027221859 0.039952833 -0.0588878
0.042915113 -0.020254709 -0.035927612 0.0636847 0.07234378 -0.06158612 -0.04837258 0.054141574
0.106520556 0.06103794 0.053538486 -0.033923812 0.03430323 0.047015045 -0.027294004 0.053166002
00000000: 0581 8abc 55a4 463d f075 b1bc 0f2a c5bc
00000010: 9599 f3bc 00a6 0439 120a 5aba 2711 363c
00000020: 740e 29bd 2a77 503d 57d0 afbc f66a 56bd
00000030: 7c80 4ebd bc55 ae3c 4525 47bc d7f9 9bbc
00000040: 9f9e 3dbc f67e 1a3d 5666 1c3d b446 b83c
00000050: be76 c5bc 7ef4 e53c a1be 48bd 4049 41bc
00000060: fa29 b83c e193 a43b f075 55bd 9010 b4bc
00000070: 1cbb cd3c c2a7 acbb 47a6 c13c 274a 963d
00000080: f116 eebc efb6 37bd 2884 2dbc 6692 6e3d
00000090: 528f 253d f2fd 95bd f58b f8bc 123d a73c
000000a0: 6512 e8bc fcdc adbc 2817 65bd c4be 31bd
000000b0: 563d c8bb 1724 afbc 12b4 3fbd a5f5 3a3d
000000c0: 0cca 4fbd 155e 3dbd 0636 17bd c301 82bd
000000d0: 6190 343d 6072 083c 4732 3abd 8588 c63c
000000e0: c4ec 9e3c 0859 54bc c266 4a3d 762f 173d
000000f0: 10b0 673c 636e fe3b 9a0b 29bd 0a83 403d
00000100: 3d9d b23c 80f7 94bb 9dc4 193d 9d2e 423d
00000110: 02f1 1f3d 3ef3 d33c 29fc 3e3d ca69 033d
00000120: 09d3 6cbd c04b adbb 9fa1 a33d bac1 9ebb
00000130: a0f1 c3bc 284f 293d 496c 083c 6813 453d
00000140: 2ec7 983c e80e 6bbd e980 5f3d 888a 3b3d
00000150: 72ad 41bd 5a6d 673b d2a3 8dbd f15a 783c
00000160: c14b 85bd b78c 453d 37dd 3dbd 84b7 4d3d
00000170: e033 c5bb d5b1 4d3d 11c1 933d fd44 8a3c
00000180: 0e5c 01bd 80d0 653c 40fe a6bc 6f14 9bbc
00000190: acff e9bc eecd 7cbc f5d0 573c 0ab9 e0bc
000001a0: 007a 6bbd 634f 7c3b f4a6 2c3d 68b6 fcbc
000001b0: ee3a 37bd 6000 dfbc 95a5 233d 5534 71bd
000001c0: c2c7 2f3d 34ed a5bc d528 13bd 206d 823d
000001d0: fa28 943d ba41 7cbd 5422 46bd 8ec3 5d3d
000001e0: 7327 da3d eb02 7a3d 2c4b 5b3d b2f3 0abd
000001f0: 8b81 0c3d d992 403d ad97 dfbc 98c4 593d
