nnwf/nets/state_dicts/nnwf01.pt (torch, 49555 bytes, 10 tensors)

linearSequential.0.weight f4 [128, 3]
000000 b9 62 36 3f 12 21 0c bf cf 80 2e 3d fa 37 6e 3f
       0.7124439 -0.5473796 0.04260331 0.93054163
000010 d7 68 3c bf ef 10 01 3d 2a 32 23 bf 57 c4 36 3e
       -0.7359747 0.03151029 -0.6374842 0.17848335
000020 d2 e5 a5 be fc 4c 91 3e 22 58 46 be 20 0e 12 bd
       -0.324019 0.28379047 -0.19369557 -0.035658002
000030 dc 75 b2 3d d5 a7 0d 3d 2c 0a ac bd 1c c3 39 bf
       0.08713886 0.034583885 -0.08400378 -0.7256334
000040 39 83 a7 3e 6a 43 9b be 2a e2 09 be 56 61 1f bd
       0.32717302 -0.3032487 -0.13465181 -0.038911186
000050 f1 57 2c 3e ba 3c a4 bd 95 ef b6 3d 4d 60 9c 3d
       0.16830422 -0.08019395 0.089324154 0.076355554
000060 f9 37 c5 3e 97 0e c8 3e b8 9b 37 bf 9f 22 95 bb
       0.38519266 0.3907363 -0.7172198 -0.0045512463
000070 5e 24 bf 3e 38 b1 c3 3e af 4d 15 3f 8b a2 12 3f
       0.37332433 0.38221145 0.5832166 0.5727927
000080 46 56 0d 3e 4c 01 fd 3c f3 7e 3a bd c4 65 8b 3e
       0.13802442 0.030884407 -0.045531224 0.2722608
000090 cd 94 54 3a 76 48 a6 b9 4e ea 37 ba 31 79 cb 3e
       0.0008109331 -0.00031715975 -0.000701581 0.397409
0000a0 4c 15 f1 be cc b2 85 bf 40 db b1 bb 5c cb 92 3c
       -0.4708656 -1.044519 -0.005427748 0.017919235
0000b0 02 d5 6f 3a 9b 09 31 bd a4 35 5d be c6 74 06 3f
       0.0009148867 -0.04322205 -0.21602494 0.5252193
0000c0 62 07 2d bc 35 f6 65 bd 9e 16 01 3f cd 77 33 be
       -0.010560842 -0.056143004 0.50425136 -0.17526169
0000d0 54 be d6 3e 57 9d 39 bf 5d 86 fc 3e 1c d3 ab be
       0.41942084 -0.72505707 0.4932126 -0.335595
0000e0 7c 64 40 bf 28 61 4f be 04 e1 96 ba e0 a0 ca 3d
       -0.75153327 -0.20251906 -0.0011511152 0.09893966
0000f0 b2 74 41 3c 83 db 16 bf 93 39 f1 be 31 ec 1b bf
       0.0118076075 -0.589287 -0.47114238 -0.60907274
000100 43 34 1b bd 9c 54 77 3e b7 88 0e be 19 04 a7 bd
       -0.037891638 0.2415337 -0.1391934 -0.081550784
000110 42 2e 1e 3e 72 22 11 be 33 23 14 3e ab 00 6b 3d
       0.15447333 -0.14173296 0.14466552 0.057373684
000120 5a 36 58 3d 93 86 82 be 5a 06 00 3f 3f 8e 21 be
       0.05278621 -0.25493297 0.5000969 -0.15776919
000130 15 e0 e7 3e 20 88 39 bf 98 d3 16 3e 24 9c f8 3e
       0.4528815 -0.72473335 0.14729154 0.48556626
000140 5d 7c 22 3e cd 0d 76 be 85 bc a7 be e3 c6 4c 3e
       0.15867753 -0.24028702 -0.32761016 0.19997744
000150 81 13 40 3e e0 d4 3c 3c 82 d1 02 bf 1f 47 fb be
       0.1875744 0.011525363 -0.51100934 -0.490777
000160 e3 bc b1 3d 81 8b 12 3e 6d 6a 6a bf bc 05 e3 3e
       0.086786054 0.14311029 -0.9156864 0.44340312
000170 08 54 28 3e 1e 51 f5 3d 5b dd 30 bf 0d 02 25 bf
       0.16438305 0.119783625 -0.6908776 -0.64456254
000180 34 f9 bf 3e c2 f7 ff 3d 78 9a 13 bf 29 81 bb bd
       0.37494814 0.12498428 -0.57657576 -0.09155495
000190 84 28 29 3e e4 08 e0 bd d0 69 15 bf 74 6d 81 be
       0.16519362 -0.10939196 -0.5836458 -0.2527882
0001a0 2d 98 cb 3e 52 37 26 be b0 c5 c9 bd 4b 47 dd 3e
       0.39764538 -0.1623204 -0.09852159 0.43218455
0001b0 f6 08 b8 3e 4c f2 ad 3e b7 63 2b bf 83 09 3b bf
       0.35944337 0.3397392 -0.6694903 -0.7306139
0001c0 c7 39 18 3f 2e ca fc be 17 06 05 3e af 18 39 bd
       0.5946316 -0.49373 0.12990604 -0.045189556
0001d0 2a 3e 68 3d 92 4a 04 3f 28 6b ac be 54 43 8f be
       0.05669991 0.51676285 -0.33675504 -0.27981055
0001e0 44 e9 47 be e8 fd c6 be 7c 2b d3 be 21 2e 23 3e
       -0.19522578 -0.3886559 -0.41244113 0.15935566
0001f0 82 d3 6b 3e f1 b2 f5 be ab 03 e4 bc 43 b7 a4 3d
       0.23029903 -0.47988084 -0.02783378 0.08042767
000200 07 31 f6 3e 0b 4e 2d be 34 3b ab 3d 27 ec 02 3e
       0.4808428 -0.16924302 0.083609015 0.12785397
000210 9b 4b 6c be ff 99 1e 3e 64 4c 56 be 6e e8 82 3d
       -0.23075716 0.15488432 -0.20927578 0.06391989
000220 8f 4b 02 be 18 a1 1b be 29 1d 8e be 2f f5 6e 3e
       -0.12724136 -0.15198171 -0.27756622 0.23335718
000230 13 be 2a be 08 7d fc 3c 19 4d ce bc aa 2f 82 bc
       -0.1667407 0.030821338 -0.025183247 -0.015891869
000240 7a 4b 5d bd 0e b2 1f 3e a2 41 ce be 67 6a bb bd
       -0.05402706 0.15595266 -0.4028445 -0.09151154
000250 12 77 22 3e 77 b8 7f 3e 03 4a b5 be 13 64 77 3f
       0.15865734 0.24972712 -0.3540803 0.96637076
000260 b9 00 52 3e dd 21 09 3e f8 45 2c 3f a6 27 66 3e
       0.20508088 0.13391824 0.67294264 0.22476062
000270 62 89 5f be 4b c1 a9 3e f4 a1 27 be 8a 51 46 bf
       -0.21829751 0.33155283 -0.16370374 -0.7746817
000280 ed 28 2e 3f 91 b6 24 3e 63 0d 08 3e 18 27 0e bf
       0.680312 0.16085269 0.13286357 -0.555284
000290 11 d4 d5 bf 99 c2 04 3f 19 14 65 be 23 3b 4f 3d
       -1.6705343 0.5185943 -0.22370948 0.050593507
0002a0 96 7a cc 3b ea 47 7a 3e d9 be bc 3d 7b d7 87 be
       0.0062401993 0.24441496 0.09216089 -0.26531586
0002b0 eb f3 37 3e 98 5b 2e 3d 08 09 30 bf a9 2d 77 be
       0.17964141 0.04256782 -0.6876378 -0.24138512
0002c0 fe 80 f0 bd b3 db 13 bf c7 1c a0 be fd 15 66 be
       -0.11743353 -0.5775711 -0.31271955 -0.22469325
0002d0 01 a6 01 bf 0d 18 88 bb c3 a9 7e be 80 bc 98 3b
       -0.50643927 -0.0041532577 -0.24869446 0.004661143
0002e0 b0 e2 4f bd a0 54 a4 3d c8 3b 01 3f ba ac 0c bf
       -0.050753295 0.080239534 0.50481844 -0.5495106
0002f0 d1 fe 31 bf 01 4b 4e bf a3 01 06 3e 3f 5d 29 3e
       -0.69529444 -0.80583197 0.13086562 0.16539477
000300 79 27 1b be e8 f3 32 bf fb c6 4a bf 76 49 d3 3d
       -0.15151776 -0.6990342 -0.7920987 0.10316746
000310 ad 57 b7 bd ac 9b cd bd fb 04 09 bf e7 11 57 3f
       -0.0895227 -0.10039458 -0.53523225 0.8401169
000320 10 f7 b3 3d fe 28 45 3f 7b 8d 0c 3f 81 6d 21 3e
       0.08787358 0.77015674 0.5490338 0.15764429
000330 c3 8e 65 3d 51 80 03 bf 3b 9f b2 be df ac 28 3d
       0.05604435 -0.5136767 -0.34887108 0.041180488
000340 30 9e 0c 3f 94 f5 2b 3e a6 db bf bd b9 03 93 3d
       0.54928875 0.167929 -0.093680665 0.071784444
000350 e1 82 21 3d f5 c5 60 3e 59 f4 9a be 35 bc 43 be
       0.039431456 0.21950515 -0.30264547 -0.19114764
000360 b7 21 e6 bd 7f f7 1a 3e ec db 23 be 43 86 5e 3f
       -0.11236899 0.15133475 -0.16001862 0.8692362
000370 5d 5f 2f bf a6 57 e2 3c 0d 1e 38 be b9 73 aa 3e
       -0.6850489 0.027629685 -0.17980213 0.33291414
000380 93 ca 30 3f 68 93 38 bc fc c6 88 3c 4a 34 70 b9
       0.69059104 -0.011265613 0.016696446 -0.00022907663
000390 d1 09 af be ca 9e 13 bf ea 05 ae be ca 30 38 3f
       -0.34187177 -0.5766417 -0.33988887 0.71949446
0003a0 1f 2b b5 be 01 5e 97 bd 98 4a 3e bf 3f c1 8b be
       -0.3538446 -0.07390977 -0.7433257 -0.27295873
0003b0 37 b7 bb be d5 46 62 be 05 9c 88 3d 3c b2 29 bd
       -0.3666322 -0.22097333 0.06670383 -0.041429743
0003c0 de 6d ac bd 70 c8 2e 3e b6 08 c3 be 72 94 0e be
       -0.08419393 0.17068648 -0.38092583 -0.13923815
0003d0 94 92 22 3e d2 50 8e 3e 96 96 14 3e 43 ed a5 bd
       0.15876228 0.27796036 0.14510569 -0.08101895
0003e0 39 cd ad bd be 84 70 3d 43 9f 05 3f 68 6e 26 3e
       -0.08486409 0.058720343 0.5219614 0.16253054
0003f0 6a 60 eb 3e 74 1b 79 3b 84 37 b6 3e c3 a5 03 3d
       0.45971996 0.0038010748 0.3558923 0.032140505

linearSequential.0.bias f4 [128]
000000 19 04 86 bf d8 c2 ad bf 16 6a 63 bf db ef ae 3d
       -1.047 -1.3575087 -0.8883375 0.085418426
000010 e8 24 52 3d 97 20 8f bf 0f 3c 9b bd ca 28 0d be
       0.051304728 -1.1181821 -0.07579815 -0.13785091
000020 4a 6e 64 bf 39 5e a5 3d e3 62 35 bf 55 8e 20 3e
       -0.8923079 0.08074612 -0.70854014 0.15679295
000030 fd 0f 55 bb ff 1c 8b be af 2c 12 bd ed 12 02 bf
       -0.003251075 -0.2717056 -0.035687145 -0.5081013
000040 7d 4d 0e bf cf 4f 83 bf 10 54 ea be cf 2c f1 bc
       -0.5558699 -1.0258731 -0.4576726 -0.029440312
000050 2f f5 38 bf 02 4c 36 bf a1 83 b0 3e 2f fc 5c 3e
       -0.7224912 -0.7120973 0.34475425 0.21580575
000060 dc 5b 4f be 7e ad 82 bf ad 97 21 bf cb bb 83 bf
       -0.20249885 -1.0209196 -0.63122064 -1.0291685
000070 6f 61 20 bf 68 7a b7 be e6 7e eb bd 53 46 5c bf
       -0.6264867 -0.35835576 -0.11498813 -0.86044806
000080 ee 90 de 3e 24 b2 63 3d a5 64 2f bf 23 6b 00 bf
       0.43469948 0.05558981 -0.68512946 -0.5016348
000090 53 16 52 bf 20 23 83 bf 56 50 e2 3d 33 a4 a1 3d
       -0.82065314 -1.0245094 0.11050479 0.07892647
0000a0 47 b7 50 bf aa 34 28 bf ed 05 d2 3e 56 14 3a bf
       -0.8152966 -0.6570536 0.41020146 -0.7268728
0000b0 6e 1a 62 3e 95 87 f1 be c4 61 9e 3e 17 3b cd bd
       0.22080395 -0.47173753 0.30933964 -0.10021036
0000c0 1d c4 e6 3e 0e 14 f5 3d 62 91 ef bd 0c 50 1f bf
       0.45071498 0.11966716 -0.116976514 -0.62231517
0000d0 25 8f dd 3d e0 b3 a6 3b 10 76 a3 be 17 b0 77 bf
       0.10818318 0.0050873607 -0.31926012 -0.96753067
0000e0 07 20 8d be b8 cf f5 be bb 6e ff be f7 da 60 bf
       -0.27563497 -0.4801004 -0.49889168 -0.87834114
0000f0 98 14 02 bf b6 d6 cb be 77 a9 dc be 05 f0 fc be
       -0.50812674 -0.3981225 -0.4309804 -0.4940187
000100 0d e7 65 bf d9 50 7f be ca 48 f2 bc c8 92 42 bf
       -0.8980568 -0.24933185 -0.029575724 -0.7600522
000110 48 0a 4d bf 60 c4 14 bf 8e 72 c6 bb 41 52 49 be
       -0.8009381 -0.58112144 -0.0060561365 -0.19660284
000120 5b de 86 3e 79 ba a2 bf 6c a0 16 bf e7 15 3b bd
       0.2634152 -1.2713157 -0.58838534 -0.045675185
000130 ea c1 63 bf 87 1c 9c bf 10 2d 5d bf 82 97 b5 be
       -0.88967764 -1.2196206 -0.86396885 -0.35467154
000140 2d 2e 2d bf 5f 4a e8 3d 07 19 1e bf de 4b 0f bf
       -0.67648584 0.1134231 -0.6175694 -0.5597514
000150 9e ef 39 bf 5e ad 8c be f5 23 44 bf 58 96 10 3e
       -0.7263125 -0.2747602 -0.76617366 0.14119852
000160 12 91 c1 3d be 6f 6b bf 6e 2b 15 bf 8f 79 a3 be
       0.09451498 -0.9196738 -0.58269393 -0.3192868
000170 cf 06 82 bf 73 dd 44 be cb 8f 46 3e 44 1d 13 be
       -1.0158328 -0.19225101 0.1939079 -0.14366633
000180 cb 88 1d bf 99 6b 89 be 51 11 5c bf 3d 5e 72 bf
       -0.61536855 -0.26839903 -0.8596392 -0.94675046
000190 85 3e 0c 3e de d5 1d bf 09 71 56 bf bc 92 4a bf
       0.13695724 -0.6165446 -0.8376623 -0.7913015
0001a0 d8 1e ce be 13 fe 16 bf 67 5b e2 3e e7 d4 4f 3e
       -0.40257907 -0.58981436 0.4421036 0.2029606
0001b0 d1 b8 1f bf dd 7b 22 bf 31 68 17 bf d7 a6 ae bd
       -0.6239138 -0.6347025 -0.5914336 -0.08527916
0001c0 a9 50 2c bf d3 02 dc be 65 22 aa be 1a e5 4d bf
       -0.6731058 -0.42970905 -0.33229366 -0.80427706
0001d0 21 9d f5 3d 6a bc 6b bf f0 61 ae bd 72 e5 43 bf
       0.119928606 -0.9208437 -0.08514774 -0.7652198
0001e0 fe a8 ac 3e 6f 27 48 bf 80 90 5f bf 70 db 69 bf
       0.3372268 -0.7818517 -0.87329865 -0.9135046
0001f0 fb 4c 04 be ab a2 ac 3e a3 8f 35 bc 5f 92 42 bf
       -0.1291999 0.33717856 -0.011081609 -0.76004595

linearSequential.2.weight f4 [64, 128]
000000 6e 4b 52 3f 12 ee 35 3f a8 5b d4 bd 6b 2f 2a bd
       0.82146347 0.7106639 -0.103690445 -0.041549128
000010 20 db 55 3d 14 ce 3d be 92 ff b0 bd c3 42 03 be
       0.052210927 -0.18535644 -0.08642496 -0.12818436
000020 80 3d c7 be 15 f9 f3 bd 48 58 a8 be 1d 59 d8 bd
       -0.38914108 -0.11912743 -0.32879853 -0.10563872
000030 dc 91 78 bb 85 dd 0f bf 3c 68 3c bd d2 03 9b 3c
       -0.0037928736 -0.56197387 -0.045997843 0.01892272
000040 eb 18 d4 bd 23 e5 11 bf d6 bc 2b bf 7b 3a fb ba
       -0.10356315 -0.5699026 -0.67085016 -0.0019167209
000050 65 8c 09 be 49 7b 88 be 82 d3 f1 bb 5a 9a 76 3d
       -0.13432463 -0.2665656 -0.00737995 0.060205795
000060 ea 27 96 bd 66 7b 06 bf 36 50 17 be 08 d2 88 be
       -0.07331832 -0.5253204 -0.14776692 -0.2672274
000070 42 71 5a be 14 7b d6 be b4 ef d7 be c0 a3 22 be
       -0.21332267 -0.41890776 -0.42175066 -0.15882778
000080 06 e7 aa 3e a0 24 64 bc fc 08 ca be 05 d1 82 bc
       0.33379382 -0.013924748 -0.3945998 -0.015968809
000090 4c d2 f8 be 1b ad a1 be 97 c9 b8 3d c7 a7 12 3e
       -0.48597944 -0.31577381 0.09022825 0.14321814
0000a0 55 65 f1 be fc 90 3b be b4 ff 2f 3b bb 2f 66 bd
       -0.47147623 -0.18317026 0.0026855292 -0.056197863
0000b0 c0 d0 fb 3d da 01 67 bd d9 97 50 3e 47 82 82 bd
       0.12295675 -0.05639825 0.20370425 -0.06372505
0000c0 cc 50 91 3e 87 64 91 bd 64 dc be bd 9e 88 9c be
       0.28381956 -0.07099252 -0.0931938 -0.3057298
0000d0 62 38 19 3c 19 cd dd be bc 48 3f bf 3c 06 bb 3e
       0.009351822 -0.4332054 -0.7472036 0.36528194
0000e0 9d 8a 7a 3d f7 9d 91 3d 55 a7 d4 be eb f9 6b be
       0.06116735 0.071102075 -0.41533914 -0.23044555
0000f0 26 23 fd bd 6d 71 92 bd da 5c 11 bf 64 8b 24 bf
       -0.1236022 -0.071505405 -0.56782305 -0.64275193
000100 1d 53 0e be e6 95 04 3d b9 e1 2a be c9 9e 56 be
       -0.13898893 0.032369517 -0.16687669 -0.20959009
000110 fb e8 fa bd bf be 97 bd a6 d1 47 bc eb 4e 01 bd
       -0.12251469 -0.07409429 -0.01219598 -0.031569403
000120 b1 8a 27 3e b1 2e 8b 3f c3 62 dc be b6 11 39 3d
       0.163615 1.0873624 -0.430441 0.045182906
000130 99 21 6c be 5a b3 45 3e c0 c4 ee be b7 2b 20 bd
       -0.23059691 0.19306698 -0.46634483 -0.03910419
000140 f2 f6 50 bd 11 90 f6 bd e3 e2 cc 3d 7a 22 26 3d
       -0.051016755 -0.12039197 0.10004213 0.040560223
000150 9a d9 1a 3d 13 69 05 be 68 b1 dd be 95 d1 eb 3d
       0.037805177 -0.13028364 -0.43299413 0.11514584
000160 6a 50 99 ba de df 98 be 34 60 7b bd 8b aa 29 be
       -0.0011696939 -0.29858297 -0.061371043 -0.16568963
000170 7c 69 f0 3c ca a3 da 3d 68 a7 01 bc 7e 74 b8 3d
       0.029347174 0.106757715 -0.007913448 0.09006594
000180 e4 8d 53 bd d9 4a 4d bd 2e 43 b8 be 73 72 1e be
       -0.05164899 -0.05012021 -0.35988754 -0.15473346
000190 9e 1b da bd 60 d3 9c 3c 74 f4 54 be c1 fa 22 be
       -0.10649799 0.01914376 -0.20796376 -0.15915968
0001a0 5d 80 0c be 71 80 d9 be c3 1c b6 3c 0d 9b cf bc
       -0.13720842 -0.42480806 0.022230512 -0.025342489
0001b0 79 4a 96 bd 66 b6 05 be 88 c3 bc bc 78 c5 01 be
       -0.07338423 -0.1305786 -0.023042455 -0.12672985
0001c0 6d 32 3f bd 71 6d 37 bf 1c 0e bd be 0e d7 bc bc
       -0.04667895 -0.7165137 -0.36924827 -0.023051765
0001d0 b3 39 67 be 62 96 04 3e cc 0b 14 be 26 49 fc bc
       -0.22580604 0.12947991 -0.14457625 -0.030796599
0001e0 7f c9 a9 3e 30 02 6c bd 89 d5 9c be 31 61 ff be
       0.33161542 -0.057619274 -0.30631664 -0.4987884
0001f0 eb 8b 07 be 27 5c b7 3e 0d 88 0b 3e 3b 1b 32 3e
       -0.13236968 0.35812494 0.13626118 0.173932
000200 8d 68 d4 bd 9a 7b 6d bb 2b 8b 23 be 01 58 5e be
       -0.10371504 -0.0036237002 -0.15971057 -0.21713258
000210 bf 12 35 bd 39 70 c8 bd a4 32 46 be fb 09 fb bd
       -0.04420733 -0.0978703 -0.19355255 -0.12257763
000220 b3 e9 58 bd 03 ff de bd a4 9b 07 bd 28 0f 07 3d
       -0.052957248 -0.108884834 -0.033107415 0.03297344
000230 44 10 67 be c3 42 0a be 96 49 70 b9 64 01 45 be
       -0.22564799 -0.1350203 -0.00022915596 -0.19238812
000240 f3 2e 8c bd be db 6b 3d 9d 98 ad 3c 80 2b 3e be
       -0.06844892 0.05758261 0.021190936 -0.18571281
000250 60 c4 d8 bd f4 3b 00 be b4 29 75 be df ac 21 3d
       -0.105843306 -0.1252287 -0.2394169 0.039471503
000260 69 74 de bb c0 97 7d bc 6f 99 47 bb dd f3 a7 bd
       -0.0067887795 -0.015478075 -0.0030456444 -0.0820081
000270 4d 9e 0a 3d 06 ce 54 be 0c 1b 28 be c2 14 d7 bd
       0.033842374 -0.20781717 -0.16416568 -0.10502006
000280 2f 78 29 3d b4 97 c9 bd a9 6c 0b be 94 08 0e be
       0.04137438 -0.09843388 -0.1361567 -0.1387046
000290 a6 e3 af bd f3 99 d3 bd 85 86 20 bd a5 5a 4d be
       -0.08588342 -0.10332098 -0.039190788 -0.2005411
0002a0 dd d3 12 be c9 14 3c bd b1 f9 f3 bd 0f 62 e8 bd
       -0.14338632 -0.04591826 -0.11912859 -0.11346828
0002b0 c7 9f 6d be ca de 9e bd 1a ae 25 be a3 16 02 bc
       -0.23205481 -0.077573374 -0.16179696 -0.007939967
0002c0 13 85 6f be 84 52 da bc 68 7c 98 3c e0 14 8a bd
       -0.23390608 -0.026650675 0.018614009 -0.06742263
0002d0 29 43 5e be 17 bb 4c be cc cb 7c be f4 b8 f6 bd
       -0.21705307 -0.19993244 -0.24687117 -0.12046996
0002e0 f0 de fe bb 6e 31 2d be 07 58 a7 bd eb 9a 04 be
       -0.007778041 -0.16913387 -0.08171087 -0.12949722
0002f0 4d 56 3b be fa 6c 48 3d 6e db 27 be 74 7d 66 be
       -0.1829464 0.048932053 -0.163923 -0.22508794
000300 84 db 28 be 5e aa b0 bc dd 1f 44 bd c0 1f 15 3d
       -0.16489989 -0.021565612 -0.04788195 0.036407232
000310 4d 82 65 be d5 72 55 bd d5 98 52 be 65 06 2a bd
       -0.22412987 -0.052111465 -0.20566113 -0.041510005
000320 10 f3 a0 bd f4 06 ed bd a4 48 bb 3c 21 79 01 bc
       -0.078588605 -0.11573592 0.022861786 -0.007902415
000330 94 20 8f bd 37 09 7c 3c 0c 83 65 be 66 65 ad bd
       -0.06988636 0.015383056 -0.22413272 -0.08466606
000340 10 6b a1 bd be 8d 54 be f6 80 30 bd 21 9b 44 3d
       -0.07881749 -0.20757195 -0.043091737 0.047999505
000350 43 e2 20 bd 92 ea 8b bc 9e 22 b7 bd 02 ca ae bd
       -0.03927828 -0.017079625 -0.089421496 -0.08534624
000360 6b 60 7d be 6b 47 8e bd 48 d3 9f bd a6 7c 87 bd
       -0.24743812 -0.06947216 -0.078039706 -0.06615572
000370 b0 48 b1 bb 2a f0 eb bd 3f 5d 3a be a2 81 fc bc
       -0.0054102764 -0.11520417 -0.18199633 -0.030823532
000380 45 3b e3 bc ea b1 f1 bd 84 d7 9e 3c 85 4b f5 bd
       -0.027738223 -0.118015125 0.019389875 -0.11977295
000390 38 da 8a be a4 75 da bd da f3 6e bd 65 06 a8 bd
       -0.27119613 -0.106669694 -0.058338024 -0.08204345
0003a0 58 7c d3 bc bf e9 1f 3d c3 fa 62 be 0e 26 6e be
       -0.025816128 0.039041277 -0.2216597 -0.23256704
0003b0 70 12 4b be cb b1 51 bc f5 ac 28 be 8f c6 9a bd
       -0.19831252 -0.012798737 -0.16472228 -0.07557403
0003c0 a6 44 e9 bd 4f 07 ea bd a4 7f 21 bd d7 64 e2 3c
       -0.11390047 -0.11427175 -0.03942837 0.027635975
0003d0 36 2d 8c bd 96 f6 92 bd 55 8e 1a be e0 fb 32 be
       -0.06844561 -0.07175939 -0.15093358 -0.17478895
0003e0 8c 21 c0 bd 84 b7 64 3c 8b 17 c1 bd 74 51 16 be
       -0.093813986 0.013959769 -0.094283186 -0.1467951
0003f0 f8 f4 97 3b 3f fd 7a bd 16 06 32 be ce 33 68 bd
       0.004637357 -0.06127667 -0.17385134 -0.05669003

linearSequential.2.bias f4 [64]
000000 33 d5 0a 3e 84 8a 84 be 27 00 18 be 78 2a bf 3d
       0.13557892 -0.2588693 -0.14843808 0.09334272
000010 9b d7 5c 3e e8 e7 80 bd c1 8b f0 3d a1 e2 b6 bd
       0.21566622 -0.062942326 0.11745406 -0.08929945
000020 ec 98 9b bd 7c df d1 3e 53 4a 99 3d 3b 01 a7 bd
       -0.07597527 0.40990818 0.07484879 -0.081545316
000030 e0 4d 37 3d 2d 50 13 bd db 8b ab bd 10 49 e7 3d
       0.044752 -0.035965133 -0.08376285 0.112932324
000040 d2 05 84 3e 64 ff 3a 3e c0 4f aa bd 5b 15 03 be
       0.2578569 0.18261486 -0.08315992 -0.12801115
000050 c2 f1 ad bd a6 5b 46 be bb 4b 9f 3e 88 e2 b5 be
       -0.08493377 -0.19370899 0.31112465 -0.35524392
000060 3a 63 4d 3e 94 61 df bc 62 96 aa 3d df c0 2f 3e
       0.20057383 -0.027268209 0.083294645 0.17163418
000070 e5 66 92 3e 2b 21 5c 3e 5c 9a 3a be e8 31 0c be
       0.28594127 0.21497028 -0.18222946 -0.13690913
000080 38 23 a9 3e 84 17 49 bd 40 2e df bd 2a 7b d0 bc
       0.33034682 -0.049094692 -0.10897493 -0.025449354
000090 a0 9d 84 be 38 3a b3 bc 93 62 09 3f 9b 7b a6 3c
       -0.25901508 -0.021878347 0.5366604 0.020322612
0000a0 a3 30 8b be ac 58 ee bd 6e 9e 44 be eb 9c 1e be
       -0.27185544 -0.116380066 -0.19201061 -0.15489547
0000b0 2f a7 a0 be 37 e9 f3 bd 83 29 b4 bd 72 2e 59 3c
       -0.3137755 -0.119097166 -0.0879698 0.013255702
0000c0 a4 b6 9a 3d 7c 2f ab 3d 49 fe a2 ba 39 7f 94 bd
       0.07554367 0.08358666 -0.0012435402 -0.07250828
0000d0 0a 9a 90 bd 9e 5b 69 bd 2a da fc 3d 62 45 1f bd
       -0.070606306 -0.05697214 0.12346299 -0.038884528
0000e0 b8 83 2b be 52 a6 af be f1 d2 60 be bf f0 af 3d
       -0.16749465 -0.3430658 -0.21955468 0.085908405
0000f0 b8 d0 3f 3e 4b 55 1c bd 9d 91 10 be b6 e3 35 bd
       0.18731964 -0.03816728 -0.14118047 -0.044406615

linearSequential.4.weight f4 [32, 64]
000000 3e a2 12 be 0e 31 80 bd 60 3d 15 3e db e7 79 3d
       -0.14319703 -0.062593564 0.14574194 0.06101213
000010 25 4c 0b be 4a 42 b2 3e c9 55 1c be bc 22 63 bd
       -0.13603266 0.348162 -0.152671 -0.055453047
000020 21 07 19 3d 40 0f a5 3e 6c 79 39 be 6a f7 c4 bc
       0.037360314 0.32238197 -0.18112725 -0.024043757
000030 d3 30 fd bd 04 2c a3 bd 3e 77 c2 bc e8 68 69 3b
       -0.12362828 -0.0796738 -0.0237385 0.0035615508
000040 51 90 c8 bd 06 40 9a be d8 bb 32 bd 24 21 07 be
       -0.09793151 -0.3012697 -0.043636173 -0.13196236
000050 b9 64 de bc de ef 8c 3d bf 89 39 bf 33 5b 7e be
       -0.027147638 0.068816885 -0.7247581 -0.24839477
000060 2b e8 c2 bd 5a 8f 85 be 09 53 c0 bc fb 69 97 3d
       -0.09516939 -0.2608593 -0.023477094 0.07393261
000070 9e 0a c1 be 4f a0 e3 be a8 91 31 3e 44 f3 0a bd
       -0.37703413 -0.44458243 0.1734072 -0.033923402
000080 cb 8d 0a bf 4c 16 23 3d 1b c6 6f bc a2 d2 08 bd
       -0.5412261 0.039816186 -0.014634634 -0.033404
000090 06 0f 91 be fa 24 1f be 61 6c 39 3e b9 17 a2 3c
       -0.28331774 -0.15541449 0.1810775 0.019786702
0000a0 59 fd 98 be fa 0d 1d 3d c8 22 55 3b 49 82 29 3e
       -0.2988079 0.038343407 0.0032521952 0.16553606
0000b0 39 50 3c be d1 4f 04 3d 0f 72 d8 bc bd 9a 4d 3e
       -0.18389978 0.03230268 -0.026421575 0.20078559
0000c0 f5 6c 0f 3e 16 ab d9 bb 19 38 b3 3c e1 f1 10 3d
       0.14006408 -0.0066427095 0.021877335 0.035386924
0000d0 84 e9 b5 3b 63 79 80 3d 09 fb 64 3d 5f 06 a7 3d
       0.005551519 0.06273153 0.05590347 0.08155512
0000e0 49 bf 47 3e 4a f2 96 be 83 1a eb bd 04 63 2c be
       0.19506563 -0.29481727 -0.11479666 -0.16834646
0000f0 e1 7a 34 bd f2 e9 40 3d b2 f4 99 be c3 5d 63 bd
       -0.0440625 0.047098108 -0.300695 -0.05550934
000100 41 31 88 bd f0 d4 1b bc 63 13 67 3b d5 b0 c8 3c
       -0.066500194 -0.0095112175 0.0035259358 0.024498383
000110 d8 56 7f 3d 1c fe 0b be fc a2 b7 bd ce eb b0 3d
       0.06233868 -0.13671154 -0.08966634 0.08638726
000120 77 19 bb bd 7a 07 4f be a6 06 83 3d 27 b6 b9 3d
       -0.091357164 -0.20217696 0.063977525 0.09067946
000130 dc fd f7 bc aa 83 e0 bd 9c 79 66 bd e9 51 b0 bd
       -0.030272417 -0.10962613 -0.05626832 -0.08609373
000140 43 b2 78 3d 37 cd 21 be 4c 18 73 bd d6 67 f8 bd
       0.06071688 -0.1580094 -0.059349343 -0.1212918
000150 88 21 d6 bc a7 56 80 3d ae ba 14 be ec d8 e6 bd
       -0.026139036 0.062665276 -0.14524338 -0.11271843
000160 1f a0 db 3c e8 cd f0 3c cb 77 1f be c8 9d e0 bd
       0.02680975 0.029395059 -0.15573041 -0.109675944
000170 9e 1a 27 bd ff bf b3 bd 10 7e ae bc 9a 53 50 3d
       -0.04079687 -0.08776855 -0.021300346 0.05086098
000180 4d c3 15 be d8 b2 71 bd f1 dd 83 3c f6 6b b6 3a
       -0.14625283 -0.05900845 0.01609704 0.0013917673
000190 e8 4c 3e 3d 8c 09 10 be 23 8e 64 be ba 6c 66 bd
       0.046460062 -0.14066142 -0.22319846 -0.056256033
0001a0 5f 1e 7c bd fa 85 1b bd 8d 00 21 3b 74 e0 11 3d
       -0.0615524 -0.037969567 0.0024566979 0.035614446
0001b0 57 d0 a7 3e b0 b4 ad bd 39 58 80 bd f4 dc d1 bb
       0.32776138 -0.08481729 -0.06266827 -0.0064045135
0001c0 ce bc 71 3c 9f a1 bb bd 51 e4 8b bd ec 9d 8d bd
       0.014754487 -0.09161686 -0.06830657 -0.06914887
0001d0 1f d1 01 bd 64 92 82 bd b5 e0 45 be 3f 4f f0 bc
       -0.031693574 -0.06375578 -0.19324 -0.029334662
0001e0 c0 b4 2d 3c 09 2b cd 3d 00 7d 1b 3d 12 38 87 3c
       0.010602176 0.10017974 0.037961006 0.016506229
0001f0 b2 2a ec bd 95 4e 0a be b0 e9 6a bd 8a 30 bc 3c
       -0.11531581 -0.13506539 -0.057351768 0.022972364
000200 84 58 da 3c b4 12 9d 3c 9d cf 96 3c 64 02 e3 bc
       0.026653536 0.019173957 0.018409545 -0.0277111
000210 76 ce df bd a9 36 0a be 46 9b 70 be 66 2a 5e 3e
       -0.10928051 -0.13497414 -0.23496732 0.21695861
000220 0e 56 93 3d e6 42 83 bd 5a 52 14 be 03 51 77 3d
       0.07194148 -0.06409244 -0.1448454 0.060379993
000230 c0 76 b5 bd 0a 4d f7 3b 8e 97 bb 3c 0e fc c7 bd
       -0.088605404 0.0075470256 0.022899415 -0.097648725
000240 2b cb c1 bd a8 fc f5 bd 6a 7a a0 bd 0c dc 70 bd
       -0.09462579 -0.12011081 -0.07835849 -0.058803603
000250 fc c2 f7 3d d0 d7 46 bd 22 b5 27 3f 57 26 29 3e
       0.12097737 -0.04854566 0.6551076 0.16518532
000260 22 d4 5f be aa 11 a0 bd ad b2 85 3c dd 4e 60 bd
       -0.21858266 -0.07815869 0.01632055 -0.05476271
000270 ba e4 e1 be 9c b8 91 3e ef c7 24 be a0 c0 8e 3d
       -0.44119817 0.28461158 -0.16091894 0.06970334
000280 a7 c9 4a be ea 00 af 3c 88 41 6f bd 8c 7f b2 bd
       -0.19803487 0.02136274 -0.058412105 -0.08715734
000290 54 a8 4d 3d ad e1 6b 3d 3a 5e 44 be 50 32 1c bd
       0.05020936 0.057588268 -0.1917657 -0.03813392
0002a0 d7 d3 2b be ab ea f7 3c 89 96 25 be e0 85 1f 3d
       -0.16780029 0.030263266 -0.16170706 0.038946033
0002b0 54 1b 40 3d f0 7e 5e be e0 21 c3 bc ba 4e 6e bd
       0.046901062 -0.2172811 -0.023819864 -0.05818055
0002c0 b6 c7 21 be e8 0c 10 bd 76 64 f1 bc 51 e2 d5 bc
       -0.1579884 -0.03516856 -0.029466849 -0.026108893
0002d0 57 30 88 3c eb b2 53 bb 3b d5 1e be 96 b5 dd bc
       0.016624613 -0.0032302688 -0.15511028 -0.027064126
0002e0 88 bb 8c bc 2e f1 6f bd 4a 45 2f bd 82 09 ed 3b
       -0.017179266 -0.058579616 -0.04279069 0.0072337994
0002f0 91 9b 47 bd d6 e4 46 bd 35 0f 48 3c 89 d4 81 bd
       -0.048732344 -0.04855808 0.012210657 -0.06339366
000300 63 1f 90 3b e8 c6 c3 bd 78 2d 6a bd 0b 57 0b be
       0.004398273 -0.09559423 -0.05717227 -0.13607423
000310 7a c0 98 bc 84 7d fd bd a2 41 9b bd c0 b6 fd 3b
       -0.018646467 -0.12377456 -0.07580878 0.0077427328
000320 a2 12 21 be 72 eb bc bd 38 5f fa bc 42 39 8a 3d
       -0.15729764 -0.09224595 -0.030562982 0.06749202
000330 7a 9f 02 3d 93 6b bd bd ed 5f 80 3d 1b 6b 14 be
       0.03189037 -0.09249034 0.062682964 -0.14493982
000340 c2 38 0a be b1 e8 d7 bd 9a 5f ba bd 98 b8 fb 3a
       -0.13498214 -0.10542429 -0.09100266 0.0019204793
000350 36 6d d3 3d c4 22 85 bd 5e 35 dd bd ce 9d 7e bc
       0.10323565 -0.06500772 -0.108011946 -0.015540553
000360 1c a1 0c be d8 29 81 3d e5 9d 7d 3d 4c ef 4c bd
       -0.13733333 0.06306809 0.061918158 -0.0500329
000370 6b 19 b8 3c eb 42 0f be 14 89 27 3c 41 19 11 be
       0.022473058 -0.13990371 0.010225553 -0.1416979
000380 8d 51 8a bd 02 ff f9 3d 32 d0 f0 3d 46 60 d6 bd
       -0.06753836 0.12206842 0.1175846 -0.104675815
000390 59 48 b4 bc ff 65 29 3d e9 56 8a bc 88 28 9d bd
       -0.022007154 0.041357037 -0.016887145 -0.07673746
0003a0 10 37 31 3c 44 3d 8f 3d da 66 b9 bd a4 4f 38 bd
       0.010816351 0.06994107 -0.090528205 -0.044997826
0003b0 e9 4d b6 3e bd 33 95 bc 60 31 f7 3b 34 cb 91 bd
       0.35606316 -0.018213147 0.0075437278 -0.07118836
0003c0 bc 57 3e bd c9 57 04 bc c6 17 b4 3d 38 ba 0b bd
       -0.04647039 -0.00807757 0.08793597 -0.03411314
0003d0 54 f7 d4 bd 73 bd b7 bb bb 9d fb 3c d5 83 b8 3d
       -0.103987366 -0.005607301 0.03071486 0.0900952
0003e0 4c a4 eb bd 65 31 41 ba 6c ab 29 3c 6f d5 30 be
       -0.115059465 -0.0007369726 0.010355812 -0.17268918
0003f0 bd 04 aa 3d 1c 7a c2 bd 22 63 32 3d 5a 7b fd 3d
       0.08301685 -0.09495947 0.04355157 0.12377043

linearSequential.4.bias f4 [32]
000000 5a 91 9a 3d 36 38 86 be 45 de 3e bd a3 3f 07 be
       0.07547255 -0.2621476 -0.04659869 -0.13207869
000010 02 ea 18 bd 22 21 a1 be 3e 7c e2 bd ed 50 bc bc
       -0.037332542 -0.3147059 -0.110588536 -0.022987807
000020 07 37 d8 bc 70 90 0b 3f 10 6d 35 be be c8 bb be
       -0.026393427 0.5451727 -0.17717385 -0.36676592
000030 0e 7b 37 3d 3b f7 85 be b0 f6 46 be 35 a2 5d bc
       0.04479509 -0.26165184 -0.19430041 -0.013527443
000040 50 91 20 3d 57 eb fa bc 11 94 91 3b 58 59 cf 3d
       0.03920108 -0.030629797 0.0044426997 0.10124463
000050 51 61 08 be 70 87 11 b9 15 01 52 3f 0d 69 aa be
       -0.13318373 -0.00013878732 0.820329 -0.33283272
000060 29 bc 4a bd 1b 42 a9 be 01 78 70 bc 1f 92 ad 3e
       -0.04949585 -0.33058247 -0.014677049 0.33900544
000070 95 0f 63 bd cc d9 ff 3d 6a 18 bc bd a5 e6 5a be
       -0.055434782 0.12492713 -0.09184344 -0.21377046

linearSequential.6.weight f4 [16, 32]
000000 65 ec e7 bd 78 15 95 bc ad 92 8a be c7 70 20 3e
       -0.113243856 -0.018198714 -0.2706503 0.15668021
000010 01 84 e7 bd f1 74 32 be f0 16 03 bd 53 90 81 bd
       -0.113044746 -0.17427422 -0.032004297 -0.06326356
000020 2b 75 18 be 10 ae 3e be b7 93 d3 be d7 1a 1b be
       -0.14888446 -0.18621087 -0.41323635 -0.15146957
000030 b9 41 c8 bd d2 ed ff 3d 97 a6 24 bd e8 41 99 bc
       -0.097781606 0.124965325 -0.040197935 -0.018708184
000040 a0 25 8a be bc d0 d6 bd 80 8b 13 bc 90 cc 0b be
       -0.2698183 -0.10489032 -0.009005427 -0.13652253
000050 a9 92 a0 bd 59 72 25 be c2 7a ee bd e0 23 bf 3e
       -0.07840473 -0.16156901 -0.11644508 0.37332058
000060 47 b7 f6 bc b0 92 64 bc 39 3e 32 be 56 d4 cd bc
       -0.03011669 -0.013950989 -0.17406549 -0.025125664
000070 97 08 20 be 33 8e 2a bd 5b 61 8d bd 58 dd d1 bc
       -0.15628277 -0.041639518 -0.06903335 -0.02561824
000080 92 06 98 3e fb ca 09 bb b6 b3 fc be 34 e2 1c bd
       0.29692513 -0.0021025527 -0.4935586 -0.03830166
000090 c3 c8 b1 be d3 29 03 be 93 b3 05 3e 9d 88 31 be
       -0.34723482 -0.12808923 0.13056783 -0.1733727
0000a0 bd e7 16 be 10 7a cd bd 64 cc 12 be a3 ce 0e be
       -0.14736839 -0.10033047 -0.14335781 -0.13946013
0000b0 0e 56 1f 3e 0c d8 29 be e2 79 78 bd 55 6b 58 be
       0.15560171 -0.16586322 -0.06066311 -0.21134694
0000c0 cc 69 b8 3d 83 e2 07 39 c6 74 50 3c e0 07 ca 3e
       0.09004554 0.00012958985 0.012723153 0.39459133
0000d0 89 e8 31 be 9d 38 2d 3e 39 a4 7d be 53 f6 a6 3d
       -0.17373861 0.16916128 -0.24769677 0.08152451
0000e0 64 e2 05 3d 6f d8 6d be 99 4b 24 bd 79 f9 9f be
       0.032686606 -0.23227094 -0.040111158 -0.3124502
0000f0 ce 20 7f be f7 10 09 3f ef 53 1e bc 2d a5 2e 3e
       -0.24914858 0.5354151 -0.009663566 0.17055197
000100 c2 30 21 be 1e ec df bd 93 68 9d bd d9 be a5 bd
       -0.15741256 -0.10933708 -0.076859616 -0.08093042
000110 6b 90 e7 bd 95 2b d3 bd 0a 4a d0 bd 4d b6 1d be
       -0.113068424 -0.10311047 -0.10170372 -0.15401573
000120 33 94 31 be f8 14 f0 be 80 91 6b 3c 8a 92 89 3d
       -0.1734169 -0.46890998 0.014377952 0.06717403
000130 bf 8e 9b 3b 3e 60 c0 bd 50 3b 0f 3c b0 ce 1c be
       0.0047472413 -0.09393357 0.008742169 -0.1531322
000140 26 ad 4a bd 65 82 5a be b8 95 4d 3d bf e7 c0 bd
       -0.049481533 -0.21338804 0.05019161 -0.09419202
000150 0b cc fe bd b3 c6 5a be ad f6 db bd fd eb c8 bb
       -0.12441262 -0.2136486 -0.10740409 -0.0061316476
000160 4a 7d b9 bd 13 fd 39 3e e0 7c a6 be 29 a0 95 3c
       -0.090571 0.18162946 -0.32517147 0.018264847
000170 e6 16 8f be 4e 04 fc bd ad 36 49 be 52 97 f7 3d
       -0.27947158 -0.123055086 -0.19649763 0.12089409
000180 82 ed 4b be 7d 4b 7c be a8 d7 47 bd 83 25 46 bd
       -0.19914821 -0.24638171 -0.04878965 -0.048375618
000190 80 84 52 be 37 60 b3 bc e0 c2 fc bd 52 d5 2f 3e
       -0.20558357 -0.021896465 -0.12341857 0.17171219
0001a0 5b d4 39 3b d7 b8 f0 be 75 13 49 3e 97 c0 33 3d
       0.0028355333 -0.47016022 0.19636329 0.04388484
0001b0 10 87 7f bf 20 24 c6 3c 76 c4 ef 3d d8 97 1f 3a
       -0.99815464 0.024187148 0.11707394 0.0006087995
0001c0 fa f5 0d bd 55 99 b4 bd 2e 6b 87 be 61 c8 70 3d
       -0.03465841 -0.08818308 -0.2644896 0.058784846
0001d0 c5 64 a2 bd ed 1c 1f 3e c6 5d e7 bd 9b 89 13 bf
       -0.079293765 0.15538378 -0.11297183 -0.57631844
0001e0 15 5f 27 be e8 e3 90 be 8d 02 d8 3d fd ba 6a bf
       -0.16344865 -0.2829888 0.105473615 -0.9169157
0001f0 c0 7a 72 3d 48 9e 11 3e 14 0e cc bd 99 3d 60 be
       0.059199095 0.14220536 -0.09963623 -0.21898498
000200 72 4d 30 bf 65 15 0b 3e cf ab 4d be b6 7e 3d 3e
       -0.6886817 0.1358238 -0.20085071 0.18505368
000210 12 2b 64 bd 5d e5 7b be ac 2d 01 3e 6a f4 c0 bd
       -0.055705138 -0.24599214 0.12615079 -0.09421618
000220 d8 40 d1 ba ef ec 30 bf aa 1c 98 3e d7 df 17 be
       -0.001596476 -0.6911153 0.2970937 -0.14831482
000230 de 5e 82 be 80 bb 50 bc 97 88 27 3d 95 71 42 3d
       -0.25463003 -0.012740016 0.040901747 0.0474716
000240 c8 17 88 3c ed e1 5c bd 82 94 ee be 52 52 45 be
       0.016612902 -0.053926397 -0.46597677 -0.19269684
000250 93 ad 78 bc ce 34 1e 3e e8 6b fc be 58 09 93 3e
       -0.015178102 0.15449831 -0.49301076 0.28718066
000260 ec 8e 16 3e 6e e1 92 3d 8b 1d 9c 3d e7 10 cb be
       0.14702958 0.071719036 0.076228224 -0.39661333
000270 90 86 9d bc 1d b7 92 bc d9 ed 95 3d 06 64 5b 3d
       -0.019229203 -0.01790958 0.073207565 0.053562187
000280 45 2b b0 3e dc 00 a4 be a7 f1 b7 be da e9 ec bd
       0.34408012 -0.32031906 -0.35926554 -0.11568041
000290 da 6a ab bd 60 8c 83 be 71 7f 4f be 5e ad c5 bc
       -0.0836999 -0.25693035 -0.20263459 -0.02413052
0002a0 66 4b dc bd c9 05 49 be bb 19 17 be 0e 1a ce bd
       -0.107565686 -0.19631113 -0.14755909 -0.10063563
0002b0 4e 46 21 3d ab 0b 2a be b0 fd 00 be af 14 43 3d
       0.03937369 -0.16606013 -0.12596774 0.047627147
0002c0 1d aa c6 bd 94 5e 2c 3d a9 38 c2 bd 0c 14 de 3a
       -0.09700415 0.042082384 -0.09483463 0.001694323
0002d0 62 d6 99 be 15 8e 01 3e 31 1b e8 be 72 db 95 be
       -0.30046374 0.12651856 -0.45333245 -0.29268986
0002e0 b3 89 3f be 0c ab 84 be 82 76 ab 3d 38 a5 9f bc
       -0.18704872 -0.25911748 0.08372213 -0.019487962
0002f0 9d 30 36 bd 81 c3 c5 3e 34 b3 8e be c0 f2 c5 3b
       -0.044479955 0.3862572 -0.27871096 0.006040901
000300 a2 c3 30 be 32 37 17 be 91 62 bc bd 5c ec 73 3d
       -0.17262128 -0.14767149 -0.091984876 0.05955158
000310 ea 9b 7b bd 19 ac 8b bd 94 7a 1e 3d f6 aa 2e bd
       -0.061427988 -0.068199344 0.03869112 -0.04264351
000320 98 35 c4 3b 22 de f7 be 02 62 e6 3d 06 b5 3a 3d
       0.005987834 -0.4841166 0.11249162 0.045582794
000330 98 42 47 be ba e2 c1 3d 20 2d 4c bb a0 dc 2d 3d
       -0.19458997 0.09467073 -0.0031154826 0.042446733
000340 35 a6 f6 3d 24 66 03 3d f9 75 e9 be 1f e9 cb 3d
       0.1204342 0.03207983 -0.45597818 0.09956574
000350 6b f6 b9 3d bc 8e c4 bc bb 82 32 bf f1 ab 3f be
       0.090802036 -0.023993842 -0.6973073 -0.18717934
000360 ed fb 0b 3d 6a 22 94 be 68 82 2c 3e 61 a9 ee 3c
       0.034175802 -0.28932506 0.16846621 0.0291335
000370 8a 49 54 bd 36 a9 f2 3c 12 e7 17 bd 11 37 42 bd
       -0.051827945 0.029621702 -0.0370856 -0.047415797
000380 76 27 e4 be 3a b1 57 be 9b 78 40 3d 39 48 93 bd
       -0.44561356 -0.210637 0.04699002 -0.0719151
000390 c5 e3 77 be 5a c5 c5 be dd 32 0d be 23 74 58 be
       -0.24207981 -0.3862713 -0.13788934 -0.21138053
0003a0 84 2a f9 3d 12 f7 35 bf 83 f7 a4 bd 9c 31 8e bd
       0.12166312 -0.71080124 -0.080550216 -0.06943056
0003b0 69 4b ab bf aa ec 9f 3d aa 97 b0 bd 6d e8 18 3e
       -1.3382388 0.07808812 -0.086226776 0.14932413
0003c0 9d 6d 1b bd 90 32 4c be dd 53 19 bf db 55 24 3e
       -0.037946332 -0.19941163 -0.5989359 0.16048376
0003d0 31 f3 08 be 7e b4 1f 3d ae a4 28 be 73 a2 63 be
       -0.1337402 0.03899049 -0.1646907 -0.22229938
0003e0 74 3b a5 bd d1 50 ba bd ca 44 84 3d 4e 19 86 bf
       -0.080679804 -0.09097446 0.06458433 -1.0476472
0003f0 bb 95 01 bd db 5d 2b 3e 47 67 af bc e2 bd 3a be
       -0.031636935 0.16735022 -0.021411551 -0.18236497

linearSequential.6.bias f4 [16]
000000 a5 44 d4 bd 73 6a 8c bc 48 ca 68 be fa ea 6e 3e
       -0.103646554 -0.017140603 -0.22733414 0.23331824
000010 a3 ea 60 3e 3b eb 4c bd 1a 59 6e 3e 67 ff 88 3e
       0.21964507 -0.05002902 0.23276177 0.26757357
000020 89 6c 41 be 7c 5b 21 3e 78 22 a4 be 4e 05 49 bd
       -0.18889059 0.15757555 -0.32057548 -0.049077325
000030 e5 bb 7b bd 8a 04 90 3e 83 ec 46 be 37 8b 69 bd
       -0.061458487 0.28128463 -0.1942616 -0.05701753

linearSequential.9.weight f4 [2, 16]
000000 7b ea 7f 3d 15 87 2f 3e 1f bc 93 3c f9 3e 0e 3d
       0.062479477 0.17141373 0.018034039 0.034728024
000010 56 47 65 bd 07 87 ea 3d 56 58 ce bc fb 58 e5 3a
       -0.055976234 0.11451536 -0.025188606 0.0017497832
000020 d3 e2 38 bd f5 fd 5d 3d eb 64 50 3c e8 af 8c 3d
       -0.04513819 0.05419727 0.012719373 0.06869489
000030 34 fd fb 3d 73 92 8c bc 15 55 a0 3c f5 6e fd 3c
       0.12304154 -0.017159676 0.01957182 0.030936697
000040 c9 16 c7 3e be 6c e8 3c d8 d9 5a bc 31 54 1a 3e
       0.3888457 0.028372165 -0.013357602 0.15071179
000050 ac 0c eb 3d 92 05 3b 3d c6 29 f4 3d 6a e1 25 3e
       0.11477026 0.04565961 0.1192203 0.1619927
000060 aa ca 2f be 17 35 95 3d 93 cf bc bd 64 d3 30 be
       -0.17167154 0.07285517 -0.09219279 -0.17268139
000070 70 35 05 be 3d 1d 00 3e 23 00 6a be 0b ae 3a be
       -0.13008666 0.12511154 -0.22851615 -0.18230455

linearSequential.9.bias f4 [2]
000000 69 f2 8f 3e 10 a9 59 40
       0.28114632 3.4009438
