nnwf/nets/state_dicts/nnwf01.pt (torch, 50579 bytes, 10 tensors)

linearSequential.0.weight f4 [128, 5]
0	0xbd5b1d4b	-0.053494733
1	0xbcdfb7fc	-0.02730941
2	0xbc2ae533	-0.010430622
3	0xbcae0176	-0.021240931
4	0x3cb15d7c	0.021651022
5	0xbe3d4ecd	-0.18487091
6	0xbe8e5c9c	-0.2780503
7	0x3ccef35b	0.025262525
8	0x3da68b36	0.08132021
9	0xbf2f76ea	-0.68540823
10	0xbebaa2bb	-0.36452278
11	0x3e5711ee	0.21002933
12	0xbeb4d3e5	-0.35317913
13	0x3da6876c	0.081312984
14	0xbec14c1b	-0.37753376
15	0x3d78b935	0.060723502
16	0xbdc6938d	-0.09696112
17	0xbdb1487b	-0.08656403
18	0x3e8645da	0.26225168
19	0x3d9848df	0.07435774
20	0x3e3b62c2	0.18299392
21	0xbe4df6d2	-0.20113686
22	0x3e58bd38	0.21165931
23	0xbc3b5e1c	-0.011436012
24	0xbec07a84	-0.37593472
25	0x3eab98be	0.3351497
26	0x3f6ff1b8	0.9372821
27	0x3e90c286	0.2827341
28	0x3e10c4b7	0.14137541
29	0xbe512a20	-0.20426226
30	0xbf0f8d92	-0.56075394
31	0xbcf8fda9	-0.030394392
32	0x3f1ceec9	0.6130186
33	0xbe228d88	-0.15874302
34	0xbd506135	-0.050873954
35	0x3a45fa58	0.0007552258
36	0x3c6e0026	0.014526403
37	0xbe80b5dc	-0.25138748
38	0xbd5d15f6	-0.05397602
39	0xbabcfaff	-0.0014418064
40	0x3efe31ba	0.49647313
41	0x3f82d886	1.0222328
42	0xbe8fbd67	-0.2807419
43	0xbf5151ac	-0.81765246
44	0xbeb9fd67	-0.36326143
45	0xbe760a47	-0.24027358
46	0x3d5e4903	0.05426885
47	0xbf3de480	-0.7417679
48	0xbed4f016	-0.4158942
49	0xbcad16c0	-0.021129012
50	0xba1ca3f0	-0.00059753563
51	0x3ed6c934	0.4195038
52	0x3cf8a216	0.030350726
53	0xbd61eed5	-0.05515941
54	0xbe2a735f	-0.16645573
55	0xbef4c453	-0.47806033
56	0x3f70853b	0.93953294
57	0x3e8e1bba	0.2775553
58	0x3ec3d5db	0.38249096
59	0xbe4fea78	-0.20304286
60	0x3e571c31	0.21006848
61	0xbea9a0cb	-0.33130488
62	0xbbcbd2a9	-0.006220181
63	0xbf54c323	-0.83110255
64	0xbdc7e122	-0.097597376
65	0x3dab9b70	0.08379257
66	0xbd82e9c5	-0.06392244
67	0xbd0f9076	-0.035049878
68	0x3eb3cb21	0.35115913
69	0xbf7fbc3d	-0.99896604
70	0x3f4b2b8b	0.79363316
71	0x3ee89418	0.45425487
72	0x3df95028	0.12173492
73	0xbe9e4bdb	-0.30917248
74	0x3d201af3	0.0390882
75	0xbef6ab25	-0.48177448
76	0x3e952b20	0.29134464
77	0xbef5525c	-0.47914398
78	0xbf0b6e7b	-0.54465455
79	0x3e6039f3	0.21897106
80	0x3f018afc	0.506027
81	0xbd5e8a04	-0.05433084
82	0xbed5273a	-0.4163149
83	0x3a7808f9	0.0009461786
84	0xbe7b5bfb	-0.24546807
85	0x3d6fd212	0.058549948
86	0xbcf830a9	-0.03029664
87	0xbe4e7683	-0.20162396
88	0x3c411ba1	0.011786372
89	0xbddc23c0	-0.10749006
90	0x3f049988	0.5179677
91	0x3f862455	1.0479838
92	0xbe53456c	-0.20631951
93	0xbf49d65d	-0.7884272
94	0xbeb06d34	-0.34458315
95	0xbe7fcf81	-0.249815
96	0x3de06690	0.10957062
97	0x3c8982ad	0.016785944
98	0xbdb1c9a4	-0.08681038
99	0x3e8a78a2	0.2704516
100	0xbd6f3cb3	-0.058407497
101	0x3dc430f4	0.095796496
102	0xbed963b3	-0.42458877
103	0xbf2eaee0	-0.6823559
104	0x3c24a4de	0.010049073
105	0xbeafc2dd	-0.34328356
106	0x3ec9007b	0.3925818
107	0x3d9a1443	0.07523396
108	0xbe3f3f6c	-0.18676537
109	0xbcafc513	-0.021456277
110	0xbf1c4284	-0.61038995
111	0xbe5b9eb3	-0.21447258
112	0x3f0cf5ca	0.55062544
113	0xbc844292	-0.016145024
114	0x3d1fb98b	0.038995307
115	0xbf42436e	-0.7588414
116	0x3d92add0	0.07162058
117	0x3f4aa183	0.791527
118	0x3d3aa231	0.045564834
119	0xbb1a2319	-0.0023519455
120	0x3c41abc5	0.011820738
121	0x3e35c7bd	0.17751975
122	0x3dd991d3	0.10623517
123	0xbe03d3aa	-0.12873712
124	0xbdde9f84	-0.10870269
125	0x3c729cef	0.014807924
126	0xbe06b470	-0.13154769
127	0xbe225bec	-0.15855378
128	0x3d9270ba	0.07150407
129	0xbdb922b7	-0.090398245
130	0x3f77a709	0.9673925
131	0xbe9f96c9	-0.31169727
132	0x3e4a3b6b	0.19749229
133	0xbd715bf2	-0.058925577
134	0x3d448e14	0.04798706
135	0x3e0e98fc	0.13925546
136	0xbe672f6f	-0.22576688
137	0x3a9b92c0	0.0011869296
138	0xbd190beb	-0.03736488
139	0xbd4c8f17	-0.04994115
140	0x3f47f9ca	0.7811552
141	0xbe9b4963	-0.30329427
142	0xbea305e1	-0.31840423
143	0x3dc3798f	0.0954467
144	0xbd8f27b2	-0.06989993
145	0x3d5fd063	0.054642092
146	0xbe94eebe	-0.29088396
147	0xbdc7e62b	-0.09760698
148	0xbe2a8906	-0.16653833
149	0xbde0e83c	-0.10981795
150	0x3d42125d	0.047380794
151	0x3cf3e75e	0.02977341
152	0xbd88d95d	-0.06682084
153	0xbe80c201	-0.25148013
154	0xbd80ccd6	-0.06289069
155	0x3e677995	0.22604974
156	0xbe9c2485	-0.30496612
157	0x3f03aebd	0.51438504
158	0x3d963005	0.07333378
159	0xbeecfa13	-0.4628454
160	0x3d7c7715	0.061637003
161	0x3d6f8de9	0.058484945
162	0xbd2f03be	-0.04272818
163	0xbe411a4a	-0.18857685
164	0xbd8e6328	-0.06952506
165	0x3ec5ec59	0.3865688
166	0xbf24e133	-0.64406127
167	0xbe6a8ca7	-0.22905217
168	0xbefce9e5	-0.49397197
169	0xbd77912f	-0.060441192
170	0xbd00e457	-0.03146776
171	0xbc4213d6	-0.01184555
172	0xbc6a598e	-0.014303578
173	0xbbe70acc	-0.0070508476
174	0xbdbee413	-0.093208455
175	0x3e247d52	0.16063431
176	0xbf68fdfd	-0.91012555
177	0xbe19980b	-0.14999406
178	0x3e04e081	0.12976266
179	0x3e887312	0.26650292
180	0xbe98586f	-0.2975497
181	0xbd198197	-0.037477102
182	0xbe6f6281	-0.2337742
183	0xbc72a708	-0.014810331
184	0x3da500ce	0.08056794
185	0xbe531169	-0.2061211
186	0x3d5e883b	0.05432914
187	0xbe761b1b	-0.24033777
188	0xbd1d7f21	-0.038451318
189	0x3d2f17d4	0.042747334
190	0x3ec438c3	0.38324556
191	0xbe3ffb08	-0.18748105
192	0xbed43cb3	-0.4145256
193	0xbe1eed5f	-0.15520237
194	0x3c749381	0.014927746
195	0xbde29c7a	-0.11065002
196	0xbb6b6e10	-0.0035923757
197	0xbc791479	-0.015202635
198	0x3dd3c04d	0.10339413
199	0x3be35bb5	0.0069384226
200	0x3d80267d	0.06257341
201	0xbd039d32	-0.032132335
202	0x3de1a445	0.1101766
203	0xbf0c092a	-0.54701483
204	0xbeb7d1f0	-0.35902357
205	0xbe86cc4b	-0.26327738
206	0x3f06b53b	0.52620286
207	0xbe2dd524	-0.16975838
208	0xbedbba96	-0.4291579
209	0xbbf53c58	-0.007484
210	0x3db0da65	0.086354055
211	0xbcef4b32	-0.02921066
212	0xbe9125c3	-0.28349122
213	0x3d7e7cad	0.06213062
214	0xbdc9c2e9	-0.09851629
215	0xbd91279f	-0.07087635
216	0xbf5be928	-0.85902643
217	0xbe9c24d9	-0.30496863
218	0x3d048afd	0.032359112
219	0xbe6711e5	-0.2256542
220	0x3e093fb3	0.13403206
221	0xbdcb3444	-0.09922078
222	0x3df78872	0.12086572
223	0x3ebc981b	0.36834797
224	0xbf9c69fe	-1.2219846
225	0x3e3093f3	0.17243938
226	0xbf308b5f	-0.68962663
227	0xbe94357d	-0.28947058
228	0x3eca1672	0.3947025
229	0xbe8466d6	-0.25859708
230	0xbd57d24f	-0.0526908
231	0x3d4c11c7	0.04982164
232	0x3d857139	0.06515736
233	0xbd082799	-0.03324089
234	0xbd2a8d0d	-0.041638423
235	0xbd72b429	-0.059253845
236	0xbf138a7d	-0.5763319
237	0xbd475286	-0.048662685
238	0x3e7acd65	0.24492414
239	0xbf103981	-0.56337744
240	0xbed1a056	-0.4094264
241	0x3f7622dc	0.9614694
242	0x3e90df3d	0.28295317
243	0xbd8de85d	-0.069290854
244	0xbe13bbf2	-0.14427164
245	0x3e9e8479	0.30960444
246	0xbf63c066	-0.8896545
247	0xbd4f42cd	-0.050600816
248	0x3df2f176	0.11862461
249	0x3e69ad65	0.22820051
250	0x3df9208d	0.12164412
251	0xbe237fd0	-0.15966725
252	0xbdd759b4	-0.105151564
253	0x3dcf9aa6	0.10136919
254	0xbee80136	-0.45313424
255	0x3f5c2faf	0.8601026

linearSequential.0.bias f4 [128]
0	0xbe9105d5	-0.28324762
1	0xbf5021a3	-0.81301326
2	0x3da21b46	0.07915358
3	0x3db7ce85	0.08974937
4	0xbf5b8ec5	-0.85764724
5	0xbf45544f	-0.7708177
6	0xbf29f9c9	-0.66396767
7	0xbd729c12	-0.05923087
8	0xbf3b9e13	-0.7328808
9	0xbf0703a6	-0.5273994
10	0xbf249cfe	-0.6430205
11	0xbebb8cc1	-0.36630824
12	0xbedb30be	-0.42810625
13	0x3d3201c3	0.04345871
14	0xbf96cccb	-1.1781248
15	0xbf1608ea	-0.5860735
16	0x3e848888	0.25885415
17	0xbe938a98	-0.28816676
18	0xbf2f2fc6	-0.6843227
19	0x3ee326a7	0.44365427
20	0xbe9bbd74	-0.3041798
21	0x3e680544	0.22658259
22	0xbf9cd554	-1.2252603
23	0xbf51a608	-0.8189397
24	0x3d3a0218	0.045412153
25	0xbe8add99	-0.2712219
26	0xbf4c9d21	-0.7992726
27	0xbf0395ba	-0.5140034
28	0xbf681364	-0.9065459
29	0xbddd7b3e	-0.10814522
30	0xbe34dc05	-0.17662056
31	0x3e932412	0.28738457
32	0xbd385913	-0.045006823
33	0xbea730d2	-0.32654434
34	0xbe8ab106	-0.27088183
35	0xbf442c91	-0.766305
36	0xbea44848	-0.32086396
37	0xbdfe3f8e	-0.12414466
38	0xbebfe1fd	-0.37477103
39	0xbe764fec	-0.24053925
40	0xbdefe46b	-0.11713489
41	0x3cead1c9	0.028664486
42	0xbea0e2df	-0.3142309
43	0xbf6a3380	-0.9148483
44	0xbcc96bea	-0.02458759
45	0xbf1a1bd3	-0.60198706
46	0x3d6ecca4	0.05830063
47	0xbf58ae1e	-0.8464068
48	0xbf1525f5	-0.5826104
49	0xbf2a9cdf	-0.66645616
50	0xbdc45e07	-0.09588247
51	0xbf1fb61d	-0.6238726
52	0xbeee137c	-0.4649924
53	0xbef08ba8	-0.4698155
54	0xbf6d0d9e	-0.92598903
55	0x3e328a2f	0.17435525
56	0xbdbad435	-0.091225065
57	0xbe19ca2e	-0.15018532
58	0xbfba9509	-1.4576732
59	0x3d57c026	0.05267348
60	0xbb80bf4f	-0.0039290558
61	0xbed011bb	-0.40638527
62	0xbf82a0c7	-1.0205315
63	0xbed00987	-0.4063227
64	0x3e274329	0.16334213
65	0xbf16a66d	-0.58847696
66	0xbf962ccc	-1.1732421
67	0xbf0acd5d	-0.5421961
68	0x3dc551da	0.096347526
69	0x3e558cd4	0.20854503
70	0xbbbd7e24	-0.0057828594
71	0x3c412a5d	0.011789885
72	0xbec024a9	-0.3752797
73	0xbf157559	-0.58382183
74	0xbdc88167	-0.097903065
75	0xbe1d6c99	-0.15373458
76	0xbe8d6aca	-0.27620536
77	0xbccf1f56	-0.025283497
78	0xbe998964	-0.29987633
79	0xbf54a7f6	-0.8306879
80	0xbf0cf0cc	-0.55054927
81	0xbdae1416	-0.08499925
82	0xbd3cecaf	-0.046124157
83	0xbf8d705f	-1.1049918
84	0xbf7aced2	-0.9797183
85	0xbf6b2c7d	-0.9186476
86	0xbf0392a4	-0.5139563
87	0xbe84d2ee	-0.25942177
88	0xbf0285e2	-0.5098554
89	0xbf454bae	-0.77068603
90	0x3f01b74e	0.50670326
91	0xbdc61d49	-0.096735545
92	0xbe558932	-0.20853117
93	0xbe13194c	-0.14365119
94	0x3d685fcc	0.056731984
95	0x3de74932	0.11293258
96	0xbf314f85	-0.6926196
97	0xbec27515	-0.37979952
98	0xbf365361	-0.71220976
99	0xbf191d18	-0.5981002
100	0xbf9c0b25	-1.2190901
101	0xbe257418	-0.16157568
102	0xbf5e7946	-0.869038
103	0xbe468802	-0.1938782
104	0x3cdd9f41	0.027053477
105	0xbf2e5331	-0.6809569
106	0xbf2c68de	-0.67347515
107	0xbd861249	-0.06546456
108	0xbd7b8e3f	-0.061414953
109	0xbf160187	-0.5859608
110	0xbb5a39ab	-0.0033298533
111	0xbf3e72f3	-0.7439415
112	0xbf84d4d5	-1.0377451
113	0xbe24be64	-0.16088253
114	0x3e782a45	0.24234875
115	0xbf211ac5	-0.6293147
116	0xbf020bf3	-0.50799483
117	0xbee5fa14	-0.44917357
118	0xbed2fd99	-0.41209105
119	0xbf5198eb	-0.8187396
120	0x3e97b108	0.29627252
121	0xbd7b30b5	-0.061325748
122	0xbee0720e	-0.43837017
123	0x3e93ffc1	0.28906062
124	0x3bfc2d90	0.007695861
125	0x3e05735e	0.1303229
126	0xbfa76a88	-1.3079386
127	0x3e8eac5c	0.27865875

linearSequential.2.weight f4 [64, 128]
0	0x3d0de5e2	0.03464306
1	0xbcf9ca12	-0.030491862
2	0xbdb179fc	-0.08665845
3	0x3d2bce77	0.041944947
4	0xbd960474	-0.07325068
5	0x3ba5e06d	0.005062154
6	0x3d940297	0.072270565
7	0xbb52277b	-0.003206699
8	0xbd942e93	-0.07235446
9	0xbdf7548e	-0.120766744
10	0xbd62dfa9	-0.05538908
11	0x3c2af971	0.010435448
12	0xbdec1f41	-0.11529399
13	0xbc6998db	-0.014257635
14	0x3d5eb175	0.054368455
15	0xbd55793c	-0.05211757
16	0xbaf148f4	-0.0018408583
17	0xbd017635	-0.03160687
18	0x3c7aea55	0.015314658
19	0x3cb34e13	0.021887815
20	0xbba6f9da	-0.0050957026
21	0xbdd59461	-0.10428692
22	0xbd39bf4e	-0.045348458
23	0xbdd19e87	-0.10235315
24	0xbd81f64d	-0.06345806
25	0xbd5d44d0	-0.054020703
26	0x3d4873e4	0.048938647
27	0xbd7198a6	-0.058983468
28	0x3d11a5dd	0.03555857
29	0x3cee3f3e	0.02908289
30	0x3c47f784	0.012205008
31	0xbdfa439c	-0.12219927
32	0xbdfb5346	-0.122717425
33	0xbd2e47ce	-0.042548947
34	0xbd9b369f	-0.075787775
35	0xbd86e5c7	-0.06586795
36	0xbd99e5da	-0.07514544
37	0xbd52c95d	-0.051461566
38	0xbdda9b35	-0.10674135
39	0xbdcd3977	-0.10020726
40	0xbdaf9cdf	-0.08574843
41	0x3bb4231e	0.0054973504
42	0x3cfc787f	0.030819176
43	0xbda0bee4	-0.078489095
44	0x3c6ad4f9	0.014333003
45	0x3d9a37ed	0.07530198
46	0xbdb475f9	-0.08811564
47	0x3ca28870	0.01984045
48	0xbda4ad21	-0.08040834
49	0xbd6a0c4c	-0.057140633
50	0x3d195f4b	0.037444394
51	0xbd806a90	-0.06270325
52	0xbcd1f7c6	-0.025630843
53	0xbd5010a6	-0.050797127
54	0x3d432523	0.04764284
55	0x3cd6b80f	0.026210813
56	0x3a071c89	0.00051540934
57	0xbd385cb2	-0.045010276
58	0xbd6a8b7f	-0.05726194
59	0xbcff34e7	-0.031153155
60	0xbcbf2897	-0.023334784
61	0xbda73ecd	-0.08166275
62	0xbd86db5a	-0.06584807
63	0xbd0a2ef9	-0.033736203
64	0xbcdfd890	-0.027324945
65	0xbc95c1e7	-0.018280936
66	0xbd97bfba	-0.07409616
67	0xbdcbcc92	-0.09951128
68	0xbd260e89	-0.040541206
69	0xbd88d9a8	-0.0668214
70	0xbd8087d5	-0.06275908
71	0x3c032b3c	0.008005913
72	0xbd06a1aa	-0.03286902
73	0xbd9d164c	-0.076702684
74	0xbda0a820	-0.07844567
75	0xbdec6736	-0.115431234
76	0x3ca1c2d3	0.01974622
77	0xbd7f869a	-0.062384225
78	0xbd28dd38	-0.041226596
79	0x3d3459f8	0.044031113
80	0x3d530c21	0.05152524
81	0xbde9bcf6	-0.114129946
82	0x3c63f672	0.013913738
83	0x3d66aac6	0.056315206
84	0xbb855f55	-0.0040702024
85	0xbddaef7c	-0.10690209
86	0xbb667faf	-0.003517132
87	0x3a652b36	0.00087420957
88	0xbcfc0408	-0.030763641
89	0x3c8a14ad	0.016855562
90	0xbd8bde63	-0.06829526
91	0xbda6cc1f	-0.08144402
92	0x3c66576f	0.014058932
93	0xbd64bcc8	-0.0558441
94	0xbd98019d	-0.07422183
95	0xbda801c4	-0.08203462
96	0x3ca9228c	0.020646356
97	0xbc8f6b81	-0.017507317
98	0xbd14667f	-0.03623056
99	0x3d5194e6	0.05116739
100	0x3c8c43a4	0.017122097
101	0x3cfce786	0.030872118
102	0xbd054e45	-0.032545347
103	0xbdbb4a87	-0.09145074
104	0xbbcd421d	-0.006263985
105	0x3cd8d4db	0.026468685
106	0xbd3da8bb	-0.046303492
107	0xbd7ca62f	-0.061681923
108	0x3c883100	0.016624928
109	0xbd37f807	-0.04491427
110	0xbc94ee0d	-0.018179918
111	0x3cb9894d	0.022648478
112	0xbdc41e9c	-0.09576151
113	0x3c3fd159	0.011707627
114	0xbde4d1a0	-0.11172795
115	0x3d24d03d	0.040237654
116	0xbbe56289	-0.0070002717
117	0xbdb8c537	-0.09021991
118	0xbd4de9e9	-0.050271902
119	0xbdfbfc93	-0.12304034
120	0xbdb95ec4	-0.09051278
121	0xbcd2e1e7	-0.025742484
122	0x3c42f182	0.0118984
123	0xbdb5b750	-0.08872855
124	0xbde342c4	-0.11096719
125	0x3c7772a5	0.015103017
126	0xbd8ba119	-0.06817836
127	0xbe00977e	-0.1255779
128	0xbd2cc1e8	-0.04217711
129	0xbda06825	-0.07832364
130	0x3d2bfda7	0.04198995
131	0xbd6b3cde	-0.057431094
132	0xbeaa06e1	-0.33208373
133	0xbc278a34	-0.010225821
134	0x3ea96956	0.33088177
135	0xbcb41986	-0.021984827
136	0xbf004247	-0.5010113
137	0x3f286a51	0.65787226
138	0xbdaf923a	-0.085728124
139	0xbf8d9fea	-1.1064427
140	0x3e9e723c	0.3094653
141	0xbf16114b	-0.58620137
142	0xbef8e3dd	-0.48611346
143	0x3ef2a2a8	0.47389722
144	0xbe45f729	-0.19332565
145	0x3d74f2b5	0.059801776
146	0xbed267c2	-0.41094786
147	0x3e11b7f5	0.1423033
148	0x3e6a661d	0.22890516
149	0xbc38e305	-0.011284594
150	0x3debb7a5	0.11509637
151	0xbc8af0d4	-0.016960539
152	0xbe32ea5e	-0.17472216
153	0x3d8c8ec7	0.0686317
154	0x3c48f5a2	0.012265595
155	0xbdbd63fd	-0.09247587
156	0xbe3c336f	-0.18378995
157	0x3e2ce9e4	0.16886097
158	0x3d255593	0.040364813
159	0x3dc1d8d1	0.094651826
160	0x3c2bd92d	0.01048879
161	0x3e9ec72f	0.3101134
162	0xbd68cc8c	-0.056835696
163	0xbd824a7b	-0.06361862
164	0x3e51d5d8	0.20491731
165	0x3e56c3be	0.20973107
166	0xbe606ec6	-0.21917257
167	0xbe21deeb	-0.15807693
168	0xbead9653	-0.3390375
169	0x3e3eea3f	0.18644045
170	0x3d1410bb	0.036148768
171	0xbddd27c7	-0.107986026
172	0xbf240120	-0.64064217
173	0xbeba285b	-0.36358914
174	0xbd1028bc	-0.035195097
175	0xbe231fa9	-0.15930046
176	0xbe906bf3	-0.2820736
177	0x3deffcdf	0.11718153
178	0xbd337975	-0.043817002
179	0x3e92fa7a	0.28706723
180	0xbf490347	-0.78520626
181	0x3dfb3f43	0.122679256
182	0x3e1bdc63	0.1522079
183	0x3d56d703	0.052451145
184	0x3dbf6986	0.09346299
185	0xbde2c85d	-0.110733725
186	0x3f0b33d3	0.5437595
187	0x3e1f391f	0.15549134
188	0xbd57ba81	-0.0526681
189	0xbeedbcd3	-0.46433124
190	0xbd9ae086	-0.07562356
191	0x3b70a7c3	0.0036721088
192	0xbfa03167	-1.2515076
193	0x3eaea826	0.34112662
194	0xbe6494b5	-0.22322352
195	0x3e672229	0.22571625
196	0x3db20f7e	0.08694361
197	0x3dfd37b0	0.12364137
198	0xbe13e410	-0.14442468
199	0x3e5240bc	0.20532507
200	0x3ca87431	0.020563217
201	0x3def3e50	0.11681807
202	0xbeda6c09	-0.4266055
203	0x3e3870b8	0.18011749
204	0xbd6fbf77	-0.058532204
205	0x3e2af5d4	0.16695338
206	0xbde3cd9d	-0.11123202
207	0xbe930cd6	-0.2872073
208	0x3e1f49c9	0.1555549
209	0x3d1ef1c2	0.038804777
210	0xbcc39f02	-0.023879532
211	0xbe1bfd1a	-0.1523327
212	0x3e03964e	0.12850305
213	0xbdcdb538	-0.1004433
214	0x3cd6d31c	0.026223712
215	0x3e509c9d	0.20372243
216	0xbe536034	-0.20642167
217	0xbe61872f	-0.22024225
218	0xbda4b7d6	-0.080428764
219	0x3c9a073e	0.018802281
220	0xbd806318	-0.06268901
221	0xbe254d6c	-0.16142815
222	0x3bcc324a	0.006231581
223	0xbe830c1a	-0.2559517
224	0xbe24cfc4	-0.16094881
225	0xbcff0b93	-0.031133449
226	0xbea1d1a1	-0.31605247
227	0xbb4a5ed2	-0.0030879271
228	0xba3e26f9	-0.0007253732
229	0x3de45170	0.111483455
230	0xbc020ca4	-0.007937584
231	0xbea9ef5a	-0.33190423
232	0xbcc85584	-0.02445484
233	0x3e2485ee	0.16066715
234	0xbf892a59	-1.0716048
235	0x3d61768a	0.05504469
236	0x3eaf000b	0.3417972
237	0x3c990e9d	0.018683726
238	0xbdc14c57	-0.09438389
239	0xbec80704	-0.39067852
240	0xbf8e6f0d	-1.112764
241	0x3e14fdf7	0.14550005
242	0xbef2209f	-0.47290513
243	0xbe1a0683	-0.15041547
244	0xbee869d5	-0.45393243
245	0x3ec6a735	0.38799444
246	0xbd826b99	-0.06368179
247	0xbfe18211	-1.7617818
248	0x3e90bb76	0.2826802
249	0xbd2e5a64	-0.042566672
250	0x3d424ee8	0.047438532
251	0xbd00d362	-0.03145159
252	0x3d7cbe42	0.06170488
253	0x3de5ba12	0.11217131
254	0x3e41b6c1	0.18917371
255	0xbdba8284	-0.09106925

linearSequential.2.bias f4 [64]
0	0xbce1cf11	-0.027564557
1	0x3e0d4ab5	0.1379803
2	0x3d15a135	0.036530692
3	0xbc38b47a	-0.011273498
4	0xbe54cf72	-0.20782259
5	0xbe254bbb	-0.1614217
6	0xbd68c8e7	-0.05683222
7	0xbdfb8eeb	-0.12283119
8	0x3e83c564	0.25736535
9	0x3e17b45b	0.14814894
10	0x3d185f03	0.037199985
11	0x3e6a5dba	0.22887316
12	0xbb9109e9	-0.00442623
13	0x3b9dbe5b	0.004813952
14	0x3cbc9dc2	0.023024444
15	0x3e47bf3f	0.19506548
16	0xbd55b823	-0.05217756
17	0x3d13cf36	0.036086284
18	0xbd948901	-0.07252694
19	0xbe0ed17c	-0.139471
20	0xbd5f0d4e	-0.054456048
21	0xbd27d013	-0.04096992
22	0x3eabc5b1	0.33549264
23	0x3edc5c3f	0.43039128
24	0x3e7cec43	0.24699502
25	0xbceb3010	-0.028709441
26	0x3e8cafbf	0.27477834
27	0x3e077109	0.13226713
28	0x3d5a4ea8	0.05329767
29	0x3e889d9b	0.26682743
30	0x3d88528f	0.06656372
31	0xbe9c453c	-0.30521572
32	0x3e9ff859	0.31244162
33	0x3cde5238	0.027138814
34	0x3eb9d808	0.3629763
35	0x3ea15317	0.31508705
36	0xbdcdb5d3	-0.10044446
37	0x3d06436a	0.032779135
38	0xbe0c072a	-0.13674608
39	0xbd5ed56f	-0.054402765
40	0xbd16053d	-0.03662609
41	0xbd75b3c4	-0.05998589
42	0x3e5d8da1	0.21636058
43	0x3ee298d4	0.44257224
44	0x3dacb556	0.084330246
45	0x3e0d70c9	0.13812555
46	0x3d45d7e3	0.04830159
47	0x3f3459f3	0.7044975
48	0xbd3e082e	-0.04639452
49	0xbd3294c3	-0.0435989
50	0x3e08c483	0.13356213
51	0x3e889a69	0.26680306
52	0x3e47bf4d	0.19506569
53	0x3cf571e1	0.029961528
54	0xbd1817f2	-0.03713221
55	0xbd5131c8	-0.051072866
56	0x3b6c8e3c	0.003609552
57	0x3dace612	0.0844232
58	0xbd4aafa7	-0.04948392
59	0x3e071843	0.13192849
60	0xbdf59165	-0.119906224
61	0x3d0d4f81	0.03449965
62	0xbdea04ba	-0.11426683
63	0x3cc4d2d6	0.024026316

linearSequential.4.weight f4 [32, 64]
0	0xbe168c2e	-0.14701912
1	0xbe8c10d5	-0.27356592
2	0xbdaca60a	-0.08430107
3	0xbe1ead6e	-0.15495846
4	0xbe02169c	-0.12703937
5	0x3e66a4d7	0.22523819
6	0x3cd385d0	0.025820643
7	0xbd1ef901	-0.038811687
8	0xbdc6bdb8	-0.09704155
9	0xbdee30cd	-0.11630402
10	0xbe11d4e3	-0.14241366
11	0xbe0036a2	-0.12520841
12	0xbcb7a407	-0.022417082
13	0x3c72e9db	0.014826263
14	0xbe08d6d1	-0.13363196
15	0xbd55046f	-0.05200618
16	0xbe04fdd0	-0.12987447
17	0xbdfc2bc6	-0.123130366
18	0xbe37b709	-0.17940916
19	0x3de16674	0.110058695
20	0xbdf29530	-0.118448615
21	0x3d8a3da9	0.06750042
22	0xbdc3329e	-0.09531139
23	0xbc6bf7aa	-0.014402309
24	0xbc2a76d5	-0.010404308
25	0xbc438b26	-0.011935031
26	0xbd88ec68	-0.06685716
27	0xbdf6dd2f	-0.12053906
28	0xbbd9643c	-0.0066342633
29	0xbe34d8f5	-0.17660888
30	0xbdf87a1e	-0.12132667
31	0x3db97e9b	0.09057351
32	0xbe696137	-0.22790991
33	0xbe6230ee	-0.22088978
34	0xbe4d129f	-0.20026635
35	0xbe6baae5	-0.2301441
36	0xbde45a79	-0.11150069
37	0xbdfa27e5	-0.122146405
38	0x3d74a7d4	0.059730366
39	0x3d0e67a6	0.034766816
40	0x3d1785dd	0.036992896
41	0xbda93ec9	-0.082639284
42	0xbd5dcbb6	-0.054149352
43	0xbdfc4b3c	-0.12319037
44	0xbdb19506	-0.08671002
45	0xbdb17250	-0.086643815
46	0xbe1c9fcc	-0.15295333
47	0xbdf8a3ac	-0.12140593
48	0x3d7ae259	0.06125102
49	0xbcd3511e	-0.025795516
50	0xbe19be3b	-0.15013973
51	0xbc9cc9ac	-0.019139133
52	0x3953f278	0.00020212855
53	0x3d89c472	0.06726922
54	0xbe15b096	-0.14618143
55	0xbdf32707	-0.11872678
56	0xbce61a00	-0.02808857
57	0xbe7bef26	-0.24602947
58	0xbdcf97d4	-0.10136381
59	0xbdbc7f93	-0.0920402
60	0xbdc0646c	-0.09394154
61	0xbd55c0f5	-0.05218597
62	0xbd0523ec	-0.03250496
63	0xbd19adcc	-0.03751926
64	0xbd137959	-0.036004398
65	0xbe16a7e3	-0.14712481
66	0xbcd092d6	-0.025460642
67	0xbb87980e	-0.0041379994
68	0x3e241a11	0.16025569
69	0x3d585949	0.052819524
70	0xbce8ec77	-0.028433068
71	0xbd0e0ae0	-0.03467834
72	0xbd86f6f6	-0.06590073
73	0x3d63f951	0.05565769
74	0xbd4e5e87	-0.050383117
75	0x3d84e32c	0.06488642
76	0x3d34cc0e	0.044139914
77	0x3cbe519b	0.023232272
78	0xbd9c7b2a	-0.07640679
79	0x3e21951f	0.15779541
80	0xbdc4597a	-0.09587379
81	0xbc377031	-0.011196182
82	0xbda2c669	-0.07948
83	0x3bdb21f4	0.006687397
84	0x3db6c174	0.08923617
85	0xbb257662	-0.0025247564
86	0xbd9a1763	-0.07523992
87	0x3bb3cacf	0.005486823
88	0xbd9dac73	-0.07698908
89	0x3d47f012	0.048812933
90	0x3ea6f272	0.32606846
91	0xbcbe1933	-0.023205375
92	0x3c740f63	0.014896247
93	0xbdbcaa68	-0.0921219
94	0x3e1d0545	0.15334041
95	0x3de6275a	0.112379745
96	0x3ce0cb5b	0.027440717
97	0xbcc07713	-0.023494279
98	0x3d1ecdb9	0.03877041
99	0xbe02cc93	-0.12773351
100	0x3dd9837f	0.10620784
101	0xbc6d7393	-0.014492887
102	0xbd909eb6	-0.07061522
103	0xbd9efd5e	-0.0776317
104	0x3e1158f5	0.1419409
105	0x3da0a640	0.0784421
106	0xbd6098ed	-0.05483334
107	0xbdf2eb46	-0.11861281
108	0x3d633ed2	0.055479832
109	0xbae2eff6	-0.0017313946
110	0x3da19596	0.078898594
111	0xbe45556b	-0.19270866
112	0x3dd9336b	0.1060551
113	0x3d82c5f3	0.06385412
114	0xbd403a28	-0.046930462
115	0x3c68fcf6	0.014220467
116	0x3c913fe6	0.017730664
117	0x3e100cae	0.14067337
118	0xbdc105a4	-0.09424904
119	0x3c8e72eb	0.017388782
120	0xbdd601da	-0.10449572
121	0xbc8d4ed1	-0.017249497
122	0xbdcc811e	-0.09985565
123	0x3b2a5771	0.002599206
124	0x3c43cc9e	0.01195064
125	0x3c857a7d	0.016293759
126	0xbc2cc21b	-0.010544325
127	0x3e177365	0.14790113
128	0x3c0f3a8c	0.008741986
129	0xbd40a083	-0.047028076
130	0x3d8596e1	0.065229185
131	0xbd8444b1	-0.06458414
132	0xbd75ded7	-0.06002697
133	0x3e0009f6	0.125038
134	0xbc291884	-0.010320786
135	0xbd03ecde	-0.032208316
136	0xbed8b8af	-0.42328402
137	0xbe033fd2	-0.12817314
138	0xbc8805c4	-0.016604312
139	0x3c6f576e	0.014608247
140	0x3d265b44	0.04061438
141	0x3e00133c	0.12507337
142	0xbea4eff5	-0.32214323
143	0xbd0add7a	-0.033902623
144	0xbcec65bd	-0.028857106
145	0xbc2c0b04	-0.010500673
146	0xbd8603cb	-0.06543692
147	0xbe035969	-0.12827076
148	0x3ed182fb	0.40920243
149	0x3df574c6	0.119851634
150	0x3c4b87b8	0.012422495
151	0xbe9dafea	-0.30798274
152	0xbdd66894	-0.104691654
153	0x3d13531d	0.035967935
154	0xbd712889	-0.058876548
155	0xbd58896f	-0.052865442
156	0xbe25347b	-0.16133301
157	0xbe4afc75	-0.19822867
158	0xbd4ae76a	-0.0495371
159	0xbd755c07	-0.059902217
160	0xbe359599	-0.17732848
161	0xbe181bf3	-0.14854412
162	0xbd9df8f9	-0.077135034
163	0xbee1dea7	-0.44115183
164	0x3ccda604	0.025103576
165	0xbe173e51	-0.14769866
166	0x3dd16de9	0.10226042
167	0xbdc4a4c0	-0.09601736
168	0xbc6aa7a8	-0.014322199
169	0xbc6a93a9	-0.0143174315
170	0xbe6ee739	-0.23330392
171	0xbb73610f	-0.003713671
172	0xbe2f5f2a	-0.17126146
173	0xbde3868f	-0.111096494
174	0x3ce99313	0.028512513
175	0x3d781101	0.06056309
176	0xbd2ee0b8	-0.042694777
177	0x3da0b70c	0.078474134
178	0xbdfd1317	-0.12357157
179	0xbe418dbf	-0.18901728
180	0xbddcb18e	-0.10776053
181	0x3e02f28d	0.12787838
182	0x3cd3218f	0.025772838
183	0xbdcb9e50	-0.09942305
184	0xbce02318	-0.027360484
185	0x3be819f2	0.007083171
186	0x3d60d88b	0.05489401
187	0x3da13294	0.07870975
188	0xbd324c96	-0.04353007
189	0xbd088e44	-0.0333388
190	0xbd80a196	-0.0628082
191	0x3d973add	0.07384274
192	0x3d8fbb78	0.07018179
193	0xbe775901	-0.24155046
194	0x3db16304	0.08661464
195	0xbd3d7920	-0.046258092
196	0xbd84d51e	-0.064859614
197	0x3de93bd8	0.113883674
198	0x3e02ca08	0.12772381
199	0xbca4e504	-0.020128734
200	0x3c866454	0.016405262
201	0x3e67decd	0.22643586
202	0xbd8d73f4	-0.06906882
203	0x3dd6d527	0.10489874
204	0xbccad08a	-0.024757642
205	0x3d7208ab	0.059090298
206	0x3e059951	0.13046767
207	0x3d79c8ca	0.060982503
208	0xbd829679	-0.06376357
209	0x3dcee02f	0.101013534
210	0xbd32953a	-0.043599345
211	0xbe30e1cb	-0.17273633
212	0xbda41fa4	-0.080138475
213	0xbd99e925	-0.07515172
214	0x3d6fcc63	0.058544528
215	0xbe49b057	-0.19696175
216	0x3da98ad0	0.082784295
217	0xbd0eb4ef	-0.03484052
218	0x3d9cfdc0	0.076655865
219	0xbd8f2ce2	-0.069909826
220	0xbdfbc29b	-0.122929774
221	0xbdc28846	-0.09498648
222	0xbcb2490f	-0.021763353
223	0xbe0c01f9	-0.13672628
224	0xbe80cd75	-0.2515675
225	0xbca9c4ba	-0.02072369
226	0x3d706d69	0.05869809
227	0x3e72bd2a	0.23704973
228	0x3dd61c96	0.10454671
229	0xbdd803e1	-0.10547615
230	0x3e862ad6	0.26204556
231	0xbd81dfb0	-0.06341493
232	0xbce7235c	-0.028215103
233	0x3d99be65	0.07507018
234	0x3980d33a	0.0002457144
235	0x3e04dc3f	0.12974642
236	0xbe0855f3	-0.13314037
237	0xbebe0d24	-0.371194
238	0x3d11acee	0.03556531
239	0xbd328374	-0.043582395
240	0x3d6d4817	0.05793008
241	0x3de8d51f	0.113687746
242	0xbde10b4c	-0.10988483
243	0x3d9095c3	0.07059815
244	0x3cd6d117	0.026222749
245	0x3d976fea	0.07394393
246	0xbdaf200b	-0.085510336
247	0xbc9ca65f	-0.0191223
248	0x3d561ad6	0.052271686
249	0x3cd00e6b	0.0253975
250	0xbe346170	-0.17615294
251	0xbe3c98ad	-0.18417616
252	0x3dd770b7	0.105195455
253	0x3d80d664	0.06290892
254	0x3d9fa7d0	0.077956796
255	0xbcc5685c	-0.024097614

linearSequential.4.bias f4 [32]
0	0xbe088100	-0.1333046
1	0xbe0c8ad5	-0.13724835
2	0xbea9b5a6	-0.331464
3	0xbc251a11	-0.0100770155
4	0x3d5a9830	0.053367794
5	0xbd367d9b	-0.04455338
6	0x3f135f8e	0.5756768
7	0xbe75528a	-0.23957267
8	0xbe831acf	-0.2560639
9	0xbde14c30	-0.1100086
10	0xbe83bbdb	-0.2572926
11	0xbb5f48ff	-0.0034070609
12	0xbeb95fba	-0.36205846
13	0xbe63bd2a	-0.22240129
14	0xbe9b4647	-0.30327055
15	0x3d617631	0.055044357
16	0xbd9909d3	-0.07472577
17	0x3ec69db3	0.3879219
18	0xbea3d3aa	-0.31997424
19	0x3d0cc109	0.03436378
20	0xbd5bb7ff	-0.05364227
21	0xbe7a153b	-0.24422161
22	0xbbd8fce8	-0.0066219456
23	0xbe32f8a8	-0.17477667
24	0xbe9d06e4	-0.3066932
25	0x3dfa841b	0.12232228
26	0x3db22e8b	0.087002836
27	0xbdbbcaeb	-0.09169563
28	0xbdf4cecc	-0.11953506
29	0x3f4db7d8	0.8035865
30	0xbdb425ed	-0.08796296
31	0xbe642497	-0.22279583

linearSequential.6.weight f4 [16, 32]
0	0x3c84456a	0.01614638
1	0xbd9e6039	-0.07733197
2	0x3e07f74f	0.13277934
3	0xbd87b5d2	-0.06626476
4	0x3e5af6c6	0.21383199
5	0xbdc570d3	-0.0964066
6	0xbf05e3f6	-0.52300966
7	0xbe42d614	-0.19026977
8	0xbdc70715	-0.09718148
9	0xbe030961	-0.12796547
10	0xbe3727c8	-0.17886269
11	0x3d35b435	0.044361312
12	0xbdd2a882	-0.102860466
13	0xbd6bfaeb	-0.05761234
14	0x3e20804a	0.15673938
15	0x3db35da2	0.087580934
16	0xbef86de1	-0.4852133
17	0xbed2488c	-0.41070974
18	0x3db16582	0.08661939
19	0xbb6b9d7c	-0.0035952022
20	0x3ce95939	0.028484927
21	0x3dcf3094	0.101166874
22	0x3dac5af4	0.084157854
23	0x3dfa5e40	0.12225008
24	0xbd2ab31a	-0.04167471
25	0xbdf0a86c	-0.11750874
26	0xbb3d8c57	-0.002892276
27	0x3e1810c9	0.14850153
28	0x3dc3f807	0.09568792
29	0xbe74963f	-0.2388544
30	0x3e24a958	0.16080225
31	0x3dd3bc4c	0.10338649
32	0xbd9fe38c	-0.07807073
33	0x3d914b8b	0.07094487
34	0x3d6592ba	0.056048132
35	0xbd4d5609	-0.050130878
36	0x3e2db54b	0.16963689
37	0xbe5d068a	-0.21584526
38	0xbe8ff282	-0.28114706
39	0xbe1fb68e	-0.15596983
40	0x3e5657df	0.20931958
41	0x3de65ad0	0.1124779
42	0xbb04391b	-0.002017564
43	0x3d03d2de	0.03218352
44	0xbe1154aa	-0.14192453
45	0xbde8797d	-0.11351297
46	0x3da6787c	0.08128449
47	0xbe222131	-0.15832974
48	0x3d647a2f	0.055780586
49	0xbf4c7547	-0.7986645
50	0x3dff4bcb	0.12465628
51	0xbda0b1a9	-0.07846386
52	0xbd1681e2	-0.03674496
53	0xbdbe4752	-0.09290947
54	0x3d2ac29d	0.041689504
55	0x3e3e98a2	0.18612912
56	0x3cf66c71	0.030081006
57	0x3c8a6617	0.016894383
58	0x3de47782	0.11155607
59	0x3d34c856	0.044136368
60	0xbce89ec6	-0.028396022
61	0xbf1d61ad	-0.61477166
62	0x3e0ae05e	0.13562152
63	0x3d128aae	0.035776787
64	0x3de36a2e	0.111042365
65	0x3dec34e2	0.11533524
66	0xbe0d761e	-0.1381459
67	0xbe0ac4fa	-0.13551703
68	0xbe0d60ea	-0.13806501
69	0x3e14dbcd	0.14536972
70	0xbd708f20	-0.058730245
71	0xbc2d9520	-0.010594636
72	0x3e3069cd	0.1722786
73	0xbde46ff9	-0.111541696
74	0x3e158d09	0.14604582
75	0x3ce92bf8	0.028463349
76	0x3daba7ae	0.08381592
77	0x3e17bd2f	0.14818262
78	0x3c71ae0c	0.014750969
79	0xbe269648	-0.16268265
80	0xbdd2eb8c	-0.10298833
81	0xbd86ad82	-0.06576063
82	0x3a3c9900	0.00071944296
83	0xbc37b5ef	-0.01121281
84	0xbdf451d4	-0.1192967
85	0x3d42dd18	0.047574133
86	0xbdeac46c	-0.11463246
87	0xbd301454	-0.042988136
88	0x3c486960	0.012232155
89	0xbdb5faf2	-0.08885755
90	0xbd496d58	-0.049176544
91	0x3bcceda0	0.006253913
92	0xbdd1f5f3	-0.10251989
93	0xbd86a753	-0.06574883
94	0x3de9a4e6	0.11408405
95	0xbe27ee3f	-0.16399477
96	0x3d387137	0.045029845
97	0x3e05cb10	0.13065743
98	0xbe92d5dc	-0.28678787
99	0x3da33e40	0.079708576
100	0xbd0d0ba4	-0.03443493
101	0x3e0ecaa9	0.13944496
102	0x3e6b74f4	0.22993833
103	0x3ea3ac17	0.31967232
104	0x3df1349c	0.117776126
105	0x3daa05d9	0.083018966
106	0x3d10db54	0.035365418
107	0x3e6b4360	0.2297492
108	0xbe0f427b	-0.13990204
109	0xbe0ccdf4	-0.1375044
110	0x3d59448b	0.053043883
111	0x3e6f2f41	0.2335787
112	0x3dc4e505	0.096139945
113	0x3ea29c9b	0.31760105
114	0x3ceb2306	0.028703224
115	0xbc75068a	-0.014955172
116	0xbf28349f	-0.65705293
117	0x3bd41196	0.006471823
118	0xbe45d817	-0.19320713
119	0xbd9a389c	-0.07530329
120	0x3d2460ac	0.040131256
121	0x3ee49f96	0.44653004
122	0xbdd90c30	-0.10598028
123	0xbe361175	-0.17780097
124	0x3c711501	0.01471448
125	0x3d0eb3a5	0.03483929
126	0x3f1feded	0.6247242
127	0xbd612ffc	-0.054977402
128	0xbe2ff7f2	-0.17184427
129	0x3db7d29a	0.08975716
130	0xbd4a1910	-0.049340308
131	0xbe1bd0b2	-0.1521633
132	0xbce7c560	-0.028292358
133	0xbd9cdfb8	-0.076598585
134	0xbe2852fa	-0.16437903
135	0xbe31a419	-0.17347755
136	0x3dd523fa	0.104072526
137	0x3d8d1788	0.06889254
138	0x3e2819ff	0.16416167
139	0x3dbc4782	0.091933265
140	0x3d8cc642	0.06873752
141	0x3c8b2cb0	0.016989082
142	0xbcdbd050	-0.02683273
143	0xbe27aeae	-0.16375229
144	0xbdae33db	-0.085059844
145	0x3d0d39bc	0.034478888
146	0x3d94bece	0.072629556
147	0xbd9dec8e	-0.07711135
148	0xbdd6259d	-0.10456393
149	0xbdb2aa24	-0.08723858
150	0xbd316260	-0.04330671
151	0x3dcecd82	0.10097791
152	0x3db765ca	0.089549616
153	0xbe1d0b84	-0.15336424
154	0x3a508900	0.0007954985
155	0x3d51aecc	0.05119209
156	0x3dd0fe6e	0.102047786
157	0x3dc03ee2	0.09386994
158	0x3ddb9c5e	0.10723184
159	0x3ddb327a	0.10702987
160	0xbdf0ecd5	-0.11763922
161	0xbd24137c	-0.040057644
162	0xbf6b8d38	-0.9201236
163	0x3e8a0e58	0.26964068
164	0x3df51d98	0.11968535
165	0x3d888c3e	0.06667374
166	0xbe8179ae	-0.25288147
167	0xbd914d03	-0.07094767
168	0xbe296b79	-0.16544904
169	0xbc88132e	-0.016610708
170	0xbe83a6c6	-0.25713176
171	0x3e849586	0.25895327
172	0xbea1846d	-0.31546345
173	0x3aaf5180	0.0013375729
174	0xbec42a41	-0.38313487
175	0xbd3785c7	-0.044805314
176	0xbf2b955c	-0.6702478
177	0xbe8db92e	-0.27680343
178	0xbeaecf42	-0.341425
179	0xbf1b87ba	-0.6075398
180	0xbf1d1cb7	-0.6137194
181	0xbe11a98c	-0.14224833
182	0xbe0a32b1	-0.134959
183	0xbd804552	-0.06263222
184	0xbe0b56dc	-0.13607353
185	0x3eaa6c58	0.33285785
186	0xbdc92e96	-0.09823339
187	0xbe03ee7e	-0.12883946
188	0xbcc20df8	-0.023688301
189	0xbf1554b5	-0.5833238
190	0xbd219e46	-0.039457582
191	0x3d9ffc2e	0.07811771
192	0xbdfa2a13	-0.12215056
193	0xbddb3bb9	-0.107047506
194	0xbe108b96	-0.14115748
195	0xbd2b90c5	-0.04188611
196	0xbcef4b3f	-0.029210685
197	0x3da540fe	0.08069037
198	0xbdb2c6fd	-0.0872936
199	0x3d88cd66	0.06679802
200	0x3df8acb6	0.12142317
201	0x3d81e348	0.063421786
202	0x3d6530a4	0.05595459
203	0xbe033c47	-0.12815963
204	0xbe2b8757	-0.16750847
205	0xbe2344ed	-0.15944262
206	0x3cd4a90c	0.025959514
207	0x3d79a131	0.06094474
208	0xbd45529d	-0.04817449
209	0x3e03e8df	0.12881802
210	0x3c82a770	0.015948981
211	0xbe04e2a8	-0.12977087
212	0x3d6b01d6	0.057374798
213	0x3af56c80	0.0018724352
214	0xbd9842c6	-0.07434611
215	0xbd86ae0a	-0.06576164
216	0x3e01d147	0.12677489
217	0xbdc923d0	-0.09821284
218	0x3cf8bc12	0.030363116
219	0x3a80377b	0.000978216
220	0x3e1844af	0.1486995
221	0xbd7d5bd6	-0.06185516
222	0xbd64e492	-0.055882044
223	0x3ddad8e2	0.10685898
224	0xbe1bbce9	-0.15208782
225	0x3e3abae7	0.1823536
226	0x3e3782af	0.17920946
227	0xbe0f1d35	-0.13975985
228	0xbed862e8	-0.4226296
229	0xbe1c642f	-0.15272592
230	0x3e9f1c88	0.31076455
231	0xbd9629ff	-0.07332229
232	0xbd4d1789	-0.050071273
233	0x3cf090b5	0.029365877
234	0xbe0ffef9	-0.14062108
235	0xbefb3ac4	-0.49068272
236	0x3dec6fcd	0.11544762
237	0x3ca93d48	0.020659104
238	0xbe0e9f15	-0.13927872
239	0x3ec89c51	0.3918176
240	0xbd5d64a6	-0.054051064
241	0x3f115112	0.5676433
242	0xbe4222b4	-0.1895855
243	0xbeba05f6	-0.36332673
244	0xbe67abea	-0.22624174
245	0xbd37c36e	-0.04486411
246	0xbf0f0e90	-0.55881596
247	0xbd85efff	-0.06539916
248	0x3dbbdd8e	0.091731176
249	0x3e13ba08	0.14426434
250	0x3e5aa429	0.21351685
251	0xbb2bbc32	-0.0026204702
252	0xbd9ddb17	-0.07707804
253	0x3f323c72	0.6962348
254	0xbde98337	-0.1140198
255	0x3ca21b8e	0.01978853

linearSequential.6.bias f4 [16]
0	0x3e2e662d	0.17031164
1	0x3e57a482	0.21058849
2	0xbe9ad809	-0.30242947
3	0x3dad9f73	0.08477678
4	0xbe10593a	-0.14096537
5	0x3e5853c5	0.21125706
6	0xbe9fa3ae	-0.31179565
7	0xbe202231	-0.15638043
8	0x3e16616f	0.14685605
9	0xbe10f030	-0.14154124
10	0x3e842323	0.25808057
11	0x3e50285c	0.20327896
12	0x3e8a2d0b	0.2698749
13	0xbe11a7b7	-0.14224134
14	0x3e6eedda	0.2333292
15	0x3e592d85	0.2120877

linearSequential.9.weight f4 [2, 16]
0	0x3b5b538c	0.0033466546
1	0xbbbc841a	-0.0057530524
2	0xbd268ef8	-0.04066369
3	0x3e733830	0.23751903
4	0x3decabc8	0.11556202
5	0x3de8e8d9	0.11372537
6	0xbe81f1b7	-0.25379726
7	0xbc4d8e60	-0.012546152
8	0x3dd799e8	0.10527402
9	0x3eb7cf0b	0.3590015
10	0xbca7e5ab	-0.020495256
11	0xbaaf0a1c	-0.0013354453
12	0xbc554dc4	-0.013019029
13	0x3e5c0314	0.21485549
14	0xbc12022c	-0.008911651
15	0xbd1006e4	-0.03516282
16	0x3e28a891	0.16470553
17	0x3e046d6a	0.12932363
18	0x3e0a1efd	0.13488384
19	0xbe0720dd	-0.1319613
20	0x3e7ade6e	0.24498913
21	0x3dfaf64c	0.12254009
22	0xbbfe7212	-0.007765063
23	0xbe8a5a0d	-0.27021828
24	0x3de064c7	0.10956722
25	0x3c9a1e7d	0.018813366
26	0x3dfbc88d	0.122941114
27	0x3e1acd66	0.15117416
28	0x3e215ec0	0.157588
29	0x3d77b6de	0.06047713
30	0x3e3a52f1	0.18195702
31	0x3df99e65	0.121884145

linearSequential.9.bias f4 [2]
0	0x3e71d981	0.23618127
1	0x404e125a	3.21987
