nnwf/nets/state_dicts/nnwf01.pt (torch, 982351 bytes, 15 tensors)

linearSequential.0.weight f4 [128, 22]
0	0xbdcc8574	-0.09986392
1	0xbec2460e	-0.37944072
2	0x3d1a1604	0.037618652
3	0x3de4c838	0.11171001
4	0x3e57aa22	0.21060994
5	0x3e025b7b	0.1273021
6	0x3d140ae4	0.0361432
7	0xbd6df1ec	-0.058092043
8	0xbd419730	-0.047263324
9	0xbdb39652	-0.08768906
10	0xbe303cd4	-0.17210704
11	0x3dcbf1e6	0.09958248
12	0x3e79d206	0.24396524
13	0xbe97c698	-0.29643703
14	0xbe02e76d	-0.12783594
15	0xbe8873e7	-0.26650926
16	0x3e0dd2b0	0.13849902
17	0xbb425590	-0.002965305
18	0xbe497bc0	-0.19676113
19	0x3dfb26f6	0.122632906
20	0x3dc4937e	0.095984444
21	0xbeac7fad	-0.3369116
22	0xbd0e1585	-0.03468849
23	0xbe97f185	-0.29676452
24	0xbdad6aa4	-0.08467606
25	0xbe1a78ae	-0.15085098
26	0x3e0bf975	0.13669379
27	0xbbdf1cfe	-0.006808876
28	0xbe177fd0	-0.1479485
29	0x3e15ab33	0.14616089
30	0xbd9e6cc1	-0.07735587
31	0x3e2967e7	0.16543542
32	0xbc44026a	-0.011963466
33	0xbda65407	-0.08121496
34	0xbe8b5072	-0.27209812
35	0x3d6bffea	0.057617106
36	0xbdc43e6c	-0.095822185
37	0xbe53483f	-0.20633028
38	0xbde7eb12	-0.11324133
39	0x3e4d8985	0.20071991
40	0xbe6e3fe0	-0.23266554
41	0xbc3cce3a	-0.011523778
42	0x3e3e76b1	0.18599965
43	0xbe153bf0	-0.14573646
44	0xbd28402c	-0.041076824
45	0x3d8f6be2	0.07002999
46	0x3da40eeb	0.08010658
47	0xbb771439	-0.0037701263
48	0xbc4a4d4e	-0.012347532
49	0x3d562bc4	0.052287832
50	0x3da3169f	0.07963299
51	0x3da64e61	0.08120418
52	0xbe3a84e5	-0.18214758
53	0xbcf120a2	-0.029434506
54	0x3d4efb42	0.050532587
55	0xbe1ce120	-0.15320253
56	0xbe4112bb	-0.18854801
57	0xbe1045f6	-0.14089188
58	0x3e608f85	0.21929748
59	0xbe677512	-0.22603253
60	0xbcbb3f32	-0.022857282
61	0x3d98bf16	0.07458322
62	0x3e3d2b4b	0.18473546
63	0x3d9fb3c2	0.07797958
64	0xbc89b9b2	-0.01681218
65	0x3cfb6296	0.030686658
66	0xbd9bac62	-0.07601239
67	0x3e4c4cd5	0.19951184
68	0xbdd5533d	-0.10416267
69	0xbd4bc550	-0.04974872
70	0x3e02bc61	0.12767173
71	0x3e00f0b6	0.12591824
72	0xbd44d80c	-0.0480576
73	0x3d789e64	0.060697928
74	0xbe082b46	-0.13297758
75	0x3d90aff4	0.070648104
76	0xbdb0a961	-0.086260565
77	0xbe8a71af	-0.2703986
78	0x3ddc0b2d	0.10744319
79	0x3d48efb3	0.04905672
80	0xbc24046b	-0.010010819
81	0xbe5e8d85	-0.21733673
82	0xbb6a45b3	-0.003574711
83	0x3db2a785	0.08723358
84	0x3e07b8cf	0.13254093
85	0x3e454d4a	0.19267765
86	0xbef0d87e	-0.4704017
87	0xbbd0b00c	-0.0063686427
88	0x3e0a75ba	0.13521472
89	0xbcef64d0	-0.029222876
90	0xbe05f4e5	-0.13081701
91	0xbd7e7e30	-0.06213206
92	0xbe669962	-0.22519448
93	0xbe8c2be2	-0.2737723
94	0xbdb27aa8	-0.08714801
95	0x3d201e4e	0.0390914
96	0xbe2e0cb5	-0.16997035
97	0x3dfeef74	0.12448016
98	0x3df128ab	0.11775335
99	0xbbd549b2	-0.0065090293
100	0x3e493101	0.196476
101	0xbda7d668	-0.081951916
102	0x3e05d2b3	0.13068657
103	0x3e1563da	0.14588872
104	0x3df63a81	0.120228775
105	0x3e3b52e3	0.18293338
106	0xbe159b67	-0.14610063
107	0xbcd4f6af	-0.025996534
108	0x3a718d10	0.00092144404
109	0xbe217f0f	-0.15771125
110	0x3db36388	0.087592185
111	0xbdbbe8ab	-0.09175237
112	0xbd707160	-0.058701873
113	0xbeccbc1a	-0.3998726
114	0xbd875943	-0.06608822
115	0xbcb1ad49	-0.021689074
116	0xbe4e08c8	-0.20120537
117	0xbba3001a	-0.0049743773
118	0x3e370b69	0.17875446
119	0xbec661fe	-0.38746637
120	0x3e07c3dd	0.1325831
121	0x3eaac003	0.33349618
122	0x3e3db752	0.18526962
123	0xbdd26b30	-0.10274351
124	0xbea6d718	-0.32585979
125	0x3e35749f	0.17720269
126	0x3e064521	0.13112308
127	0xbe34cfaa	-0.17657343
128	0xbc210555	-0.009827931
129	0x3e9d5dcc	0.30735624
130	0xbec69304	-0.3878404
131	0x3ddb1e65	0.10699157
132	0x3df84f0c	0.12124452
133	0xbc029766	-0.0079706665
134	0xbdd03fc8	-0.10168415
135	0x3d9f4302	0.077764526
136	0xbe015696	-0.12630686
137	0xbd3e8012	-0.046508856
138	0x3e65f577	0.22456919
139	0xbd56d6a0	-0.052450776
140	0xbe3ec8a6	-0.18631229
141	0xbdc16746	-0.09443526
142	0x3dcde37e	0.10053156
143	0x3c35fa4d	0.01110704
144	0xbdccb01d	-0.099945284
145	0x3dbc9ba7	0.09209376
146	0xbe5d9e8e	-0.21642515
147	0xbe161fc2	-0.14660552
148	0x3e2f8991	0.17142321
149	0xbeb53691	-0.35393193
150	0x3c5c908a	0.013462195
151	0xbd790786	-0.06079819
152	0x3da7d6ea	0.081952885
153	0x3c0c0292	0.008545535
154	0xbe2f310c	-0.17108554
155	0x3dda45b1	0.10657824
156	0xbe44b4cd	-0.19209595
157	0xbe5a9e2b	-0.21349399
158	0xbdffe38b	-0.12494572
159	0x3e0351c9	0.12824167
160	0x3d4f9a38	0.050684184
161	0xbe34d790	-0.17660356
162	0xbe757ec5	-0.2397414
163	0x3e57c1f0	0.21070075
164	0xbe0ba4d6	-0.13637099
165	0xbc816230	-0.01579389
166	0xbd636671	-0.055517618
167	0x3dba9cab	0.09111913
168	0xbe2b612c	-0.16736287
169	0xbe18ac28	-0.14909422
170	0xbb7892ce	-0.00379293
171	0x3e205bae	0.15659973
172	0x3e3d03c3	0.18458466
173	0x3bc590fe	0.0060292473
174	0xbc2786d2	-0.010225015
175	0x3e712767	0.23550187
176	0xbe34c8a1	-0.17654659
177	0x3e133ac5	0.14377888
178	0xbe161dd1	-0.14659812
179	0xbc0ccb3d	-0.008593378
180	0x3cb2e12c	0.021835886
181	0x3da89bc7	0.08232837
182	0x3e79030c	0.24317569
183	0xbb98fc1c	-0.0046687257
184	0x3e4a8eaf	0.19780992
185	0x3b8a04ef	0.004212014
186	0xbe0df6bb	-0.13863651
187	0x3d8af8ae	0.06785713
188	0xbe9381a7	-0.28809854
189	0xbd4b85fe	-0.04968833
190	0xbeb34334	-0.3501221
191	0xbc474865	-0.012163256
192	0x3cf9be4c	0.030486248
193	0xbc84fa02	-0.016232494
194	0x3ed9e09b	0.42554173
195	0x3e8a0080	0.26953506
196	0xbf1d5ad7	-0.61466736
197	0xbcbcb5a1	-0.023035826
198	0xbdb3802b	-0.087646805
199	0xbe5524cc	-0.20814818
200	0xbd55ab01	-0.052165035
201	0x3e48e75d	0.19619508
202	0xbdc6d162	-0.09707905
203	0x3dbc3f6d	0.09191785
204	0xbdbfc6dd	-0.09364102
205	0x3e4284f5	0.18996032
206	0x3ded4edc	0.11587307
207	0x3d6ccce6	0.057812594
208	0xbd5be4bc	-0.053684935
209	0xbde1218b	-0.10992726
210	0x3d8b1640	0.06791353
211	0x3dd9ef47	0.10641342
212	0x3df600a3	0.1201184
213	0xbdb8b783	-0.09019377
214	0x3be6b07f	0.007040083
215	0x3e4b99f4	0.19882947
216	0x3e16244e	0.14662287
217	0xbd7ada0a	-0.061243095
218	0xbf17111e	-0.59010494
219	0x3dae7d82	0.085200325
220	0x3e8c1ac6	0.27364177
221	0x3b8d2daf	0.0043084244
222	0xbe177ae4	-0.14792973
223	0xbe8fbb2f	-0.28072497
224	0x3e02f364	0.12788159
225	0x3cc4936f	0.023996083
226	0x3d9c107a	0.0762033
227	0xbe112e69	-0.1417786
228	0xbe84f7e1	-0.25970367
229	0xbdfe878c	-0.12428197
230	0xbd2ad4e4	-0.041706935
231	0x3dac629e	0.08417247
232	0xbe16b372	-0.1471689
233	0x3ee1a7ab	0.44073233
234	0xbd879dc2	-0.06621887
235	0xbd10d562	-0.035359748
236	0x3d60aa8f	0.054850157
237	0xbe998249	-0.29982212
238	0xbe1cee0c	-0.15325183
239	0xbe1efe83	-0.15526776
240	0x3e04e946	0.12979612
241	0x3d52be7b	0.051451188
242	0xbcce60d0	-0.025192648
243	0xbe00f6e4	-0.12594181
244	0x3d8b8a98	0.06813544
245	0x3ce25428	0.02762802
246	0x3e4e8736	0.20168766
247	0x3e80ac69	0.2513154
248	0xbdb0d821	-0.08634973
249	0x3d16a5c2	0.036779173
250	0x3e8b5ab7	0.27217647
251	0x3ceac1e5	0.02865691
252	0x3e8b5b73	0.27218208
253	0xbe452b6d	-0.19254847
254	0x3d839dcb	0.06426581
255	0xbebecf22	-0.37267405

linearSequential.0.bias f4 [128]
0	0xbed52946	-0.41633052
1	0xbea0fc9a	-0.3144272
2	0xbf05262c	-0.5201137
3	0x3ed3cf5d	0.41369143
4	0xbeb9ded4	-0.36302817
5	0xbeb8f9ae	-0.3612799
6	0xbdf8a249	-0.121403284
7	0xbf00bbf2	-0.5028678
8	0xbe14a4c0	-0.14515972
9	0x3e990e3c	0.29893672
10	0x3da9a73f	0.08283853
11	0x3d4d5213	0.0501271
12	0x3e979fb8	0.29614043
13	0xbe1c4723	-0.15261512
14	0x39abc11e	0.00032759545
15	0x3db76465	0.089546956
16	0x3d5ecce5	0.05439462
17	0xbee8bb18	-0.4545524
18	0x3e6b76b9	0.22994508
19	0xbe6f9e81	-0.23400308
20	0xbe7840cb	-0.24243467
21	0xbeea1d67	-0.45725557
22	0x3e802e64	0.25035393
23	0xbdee33ab	-0.11630949
24	0xbec9d3b1	-0.3941932
25	0x3e61464a	0.2199947
26	0xbee09f99	-0.43871763
27	0xbde01c83	-0.10942938
28	0xbd83a161	-0.06427265
29	0xbe48b7e8	-0.19601405
30	0xbe9cd2bc	-0.30629528
31	0xbec82421	-0.39090064
32	0x3eae4891	0.3403974
33	0xbe98bb15	-0.29830232
34	0xbe9661ef	-0.29371592
35	0xbe973496	-0.29532307
36	0x3ec3350c	0.3812641
37	0x3e2f6f16	0.1713222
38	0x3e815579	0.25260523
39	0xbf0074ec	-0.5017841
40	0xbdfce2d9	-0.12347955
41	0xbdc15408	-0.09439856
42	0x3e4165af	0.18886445
43	0x3efdc7dc	0.49566543
44	0xbd1acaf6	-0.037791215
45	0x3ee882ef	0.45412394
46	0xbed69de9	-0.4191735
47	0xbd7ae88f	-0.06125694
48	0xbea22ba2	-0.31673914
49	0x3d8a271f	0.06745743
50	0x3e98798a	0.29780227
51	0xbe971451	-0.29507688
52	0xbed618d8	-0.4181583
53	0xbcea66b2	-0.028613422
54	0x3e82b8b9	0.25531557
55	0x3da5acb7	0.08089583
56	0x3db60546	0.088877246
57	0xbea1247a	-0.31473142
58	0x3ee9555c	0.45572937
59	0xbe89b2f1	-0.26894334
60	0xbdd2b89f	-0.1028912
61	0x3f2b5502	0.66926587
62	0xbe367f8d	-0.17822094
63	0x3eb64db0	0.35606146
64	0xbdd5b7c6	-0.104354426
65	0xbeae9359	-0.34096792
66	0x3ecd2384	0.4006616
67	0xbec1c41a	-0.37844926
68	0xbeecbc21	-0.4623728
69	0x3dba9a19	0.09111423
70	0xbe7b4d67	-0.24541245
71	0xbe81a332	-0.2531982
72	0xbf18b880	-0.59656525
73	0x3e114344	0.14185816
74	0xbe17271f	-0.14761017
75	0xbef9dff5	-0.48803678
76	0xbecc80ce	-0.3994202
77	0xbe328520	-0.17433596
78	0x3f0c140c	0.5471809
79	0xbe84392f	-0.25824878
80	0x3cc17a2a	0.023617823
81	0xbd8aab33	-0.06770935
82	0xbece7f86	-0.40331668
83	0x3f242fa9	0.64135224
84	0x3d931538	0.071817815
85	0xbeab57da	-0.33465463
86	0xbef6f598	-0.48234248
87	0xbeb8b751	-0.3607736
88	0x3e0868da	0.13321248
89	0xbecce2ad	-0.4001669
90	0x3cd8d119	0.026466893
91	0x3e549565	0.20760114
92	0xbe86ad9c	-0.26304328
93	0xbe49c087	-0.1970235
94	0xbe317f6b	-0.17333762
95	0x3cef6408	0.029222503
96	0xbe78f734	-0.2431305
97	0xbed2dff0	-0.41186476
98	0xbebe3c19	-0.37155226
99	0xbe4e097e	-0.20120808
100	0xbee9c8af	-0.45660922
101	0xbf1a7f29	-0.6035028
102	0xbf009568	-0.50227976
103	0xbe707dcc	-0.23485488
104	0xbea1d536	-0.3160798
105	0x3e153a60	0.1457305
106	0x3b5c1ce6	0.003358656
107	0x3e78d30c	0.24299258
108	0xbebafd0d	-0.36521187
109	0xbeffdbaf	-0.49972293
110	0x3eaf4d5d	0.3423871
111	0xbeca1885	-0.39471832
112	0xbe8eb691	-0.27873662
113	0xbeb9eb82	-0.3631249
114	0xbcef7840	-0.029232144
115	0xbef28326	-0.47365683
116	0xbe3c040b	-0.18360917
117	0xbda9c97d	-0.08290384
118	0xbe327318	-0.17426717
119	0x3e8ccea1	0.27501395
120	0xbe470edf	-0.19439267
121	0xbe04f62b	-0.1298453
122	0x3e7a5fc3	0.24450593
123	0xbecbdd75	-0.39817396
124	0x3eb8905c	0.36047637
125	0xbedaf494	-0.42764723
126	0x3e0214db	0.12703268
127	0xbebb776b	-0.36614546

linearSequential.2.weight f4 [512, 128]
0	0xbe239992	-0.15976551
1	0x3deace09	0.11465079
2	0x3d72546c	0.059162542
3	0xbead07e2	-0.33795077
4	0x3dea8679	0.1145143
5	0x3e4b17a5	0.19833238
6	0x3d99ad86	0.075038
7	0x3dc7059d	0.097178675
8	0xbdb2fdd9	-0.08739824
9	0xbddeca81	-0.10878468
10	0xbce39ffb	-0.027786246
11	0xbe456a70	-0.19278884
12	0xbcc66a20	-0.024220526
13	0x3d291dc5	0.041288156
14	0x3bee6292	0.007274934
15	0xbb59cc80	-0.0033233464
16	0x3d36aeb3	0.0446002
17	0x3c365a25	0.011129891
18	0xbf2537ed	-0.6453846
19	0x3cf87459	0.030328916
20	0x3d36a1df	0.044587966
21	0x3e6c974a	0.23104587
22	0x3b2fc170	0.0026818179
23	0xbde991bb	-0.11404749
24	0x3dd8a49e	0.10578273
25	0xbeb88379	-0.36037806
26	0x3e82fe08	0.25584435
27	0xbc2af8f4	-0.010435332
28	0x3cb41135	0.021980861
29	0xbe1fceb7	-0.15606199
30	0xbc1e923f	-0.0096784225
31	0x3d922c45	0.0713735
32	0xbc4fe861	-0.012689681
33	0x3d9d88f8	0.0769214
34	0xbe5d4148	-0.21606934
35	0x3d9309c5	0.07179598
36	0xbe27eeff	-0.16399764
37	0xbd948227	-0.07251387
38	0xbe011f4d	-0.12609597
39	0x3cc80344	0.02441562
40	0xb9cea706	-0.00039415824
41	0xbdc03dab	-0.09386762
42	0xbe51b00a	-0.2047731
43	0x3d02f4e7	0.03197184
44	0x3cee2cf0	0.029074162
45	0xbe6ae65f	-0.22939442
46	0x3dd782f0	0.10523021
47	0x3d59af3c	0.053145632
48	0x3e0bfbd0	0.13670278
49	0xbce3d7ab	-0.0278128
50	0xbf0768b3	-0.52894133
51	0x3cef8fda	0.029243398
52	0x3da24675	0.07923595
53	0xbdbfa6e0	-0.09358001
54	0x3d8dc3b3	0.06922092
55	0xbf1a46f1	-0.602645
56	0xbd953eee	-0.072873935
57	0x3d77cc1d	0.060497392
58	0xbe9bd0a3	-0.30432615
59	0xbd0a3114	-0.03373821
60	0xbda6a77e	-0.08137415
61	0xbf2200b5	-0.6328233
62	0xbc80e13c	-0.0157324
63	0xbdbd53a3	-0.09244468
64	0xbc5fcca1	-0.013659627
65	0x3dfaac45	0.12239889
66	0xbe88ad05	-0.26694503
67	0x3d9d50d9	0.07681436
68	0xbd4bf01e	-0.04978954
69	0x3d663d3c	0.05621074
70	0xbdccc0dd	-0.09997723
71	0xbda743d3	-0.08167233
72	0x3d0b2e50	0.033979714
73	0x3cadb622	0.021205012
74	0xbd1ffc78	-0.039059132
75	0x3dd03919	0.101671405
76	0x3e2ebb80	0.17063713
77	0xbdcc6161	-0.09979511
78	0xbdf13769	-0.11778147
79	0xbe923637	-0.28556988
80	0xbe9981b8	-0.2998178
81	0xbb92c44d	-0.0044789673
82	0xbbc4a902	-0.0060015926
83	0xbf32ad95	-0.69796115
84	0xbd1d168f	-0.03835159
85	0x3e092461	0.13392784
86	0xbd3caad9	-0.04606137
87	0xbe025d10	-0.12730813
88	0xbdbe2019	-0.09283466
89	0x3c8484de	0.016176637
90	0xbdd4300e	-0.10360728
91	0xbd911d31	-0.07085646
92	0x3e037976	0.12839302
93	0x3dd1d75c	0.10246155
94	0xbd538dcc	-0.0516489
95	0xbcd4695a	-0.025929142
96	0xbd4fbf4d	-0.050719548
97	0xbd8f5d39	-0.07000203
98	0xbcf4a1b4	-0.029862262
99	0x3deb5742	0.114912525
100	0xbd6457ec	-0.05574791
101	0x3d40aaa2	0.047037728
102	0x3d423f23	0.047423493
103	0x3cc2a0d7	0.023758335
104	0x3e60fac8	0.21970665
105	0x3b2cd2cd	0.0026370764
106	0x3e068de6	0.13140067
107	0xbc1236d0	-0.008924201
108	0x3e287571	0.1645105
109	0x3de9ba78	0.11412519
110	0xbdd7237d	-0.10504816
111	0x3d176eef	0.03697103
112	0x3e3712cf	0.17878269
113	0x3dd08456	0.10181491
114	0xbe5f936d	-0.21833582
115	0x3d8d9d14	0.06914726
116	0xbd6f4299	-0.05841312
117	0xbe0f0f35	-0.13970645
118	0x3de41904	0.11137584
119	0xbf2cfffd	-0.6757811
120	0xbeb196bc	-0.34685314
121	0x3b012489	0.0019705615
122	0xbdbace41	-0.09121371
123	0xbc6fb8f2	-0.014631497
124	0xbe957ad1	-0.29195264
125	0x3e2feec9	0.17180933
126	0xbbec58b8	-0.0072127245
127	0x3db04fce	0.086089715
128	0xbdf48c8f	-0.11940872
129	0xbd8f85ae	-0.07007919
130	0xbdb8b1b2	-0.09018268
131	0xbe02bf91	-0.1276839
132	0x3e563f06	0.20922479
133	0x3e1db13c	0.15399641
134	0xbe629038	-0.22125328
135	0xbda35234	-0.079746634
136	0xbe02be56	-0.1276792
137	0x3d9d069f	0.076672785
138	0xbd9a2985	-0.075274505
139	0xbec287e5	-0.37994304
140	0xbd800d27	-0.062525086
141	0x3d48f6ac	0.04906337
142	0x3d8f8b28	0.07008964
143	0xbda8ea7b	-0.082478486
144	0x3d920514	0.07129875
145	0x3eafac5e	0.34311193
146	0xbef45786	-0.47723025
147	0x3decf60e	0.11570369
148	0x3d38d0fc	0.045121178
149	0xbecfeb91	-0.4060941
150	0x3ce37631	0.027766319
151	0x3e2946ce	0.16530916
152	0x3c4fe36b	0.012688498
153	0xbe033deb	-0.12816589
154	0x3e04130b	0.1289789
155	0xbe473beb	-0.1945645
156	0x3cf9bce4	0.030485578
157	0x3db6d749	0.08927781
158	0xbe227d8a	-0.15868202
159	0x3d922c05	0.07137302
160	0x3e382bbd	0.17985435
161	0x3d28168b	0.041037124
162	0x3e358924	0.17728096
163	0x3dc1aafb	0.0945644
164	0x3e00382c	0.12521428
165	0xbe25ec5e	-0.16203448
166	0x3dad2d21	0.08455873
167	0xbd498d98	-0.0492073
168	0x3d967577	0.073466234
169	0xbd1c337d	-0.03813504
170	0xbd4fbd55	-0.05071767
171	0x3c0f888f	0.008760585
172	0x3b8f8cc9	0.0043807966
173	0xbe4fa17e	-0.20276448
174	0x3d79918e	0.060929827
175	0xbcbe6760	-0.023242652
176	0x3dee1e6f	0.116268985
177	0x3d91d311	0.07120336
178	0xbea71ea2	-0.32640558
179	0x3c803ab6	0.015652996
180	0x3b99b4af	0.0046907286
181	0xbe3d5d98	-0.18492734
182	0xbe8c6bbd	-0.27425948
183	0x3dbfdc5c	0.09368202
184	0xbe717a10	-0.2358172
185	0x3d0935b2	0.033498473
186	0x38c927f8	9.591872e-05
187	0x3e01cb4c	0.12675208
188	0xbe61e9ac	-0.22061795
189	0x3c2c60f0	0.010521159
190	0xbd6c63ba	-0.057712294
191	0x3e580f0b	0.21099488
192	0x3e8269f2	0.25471455
193	0xbd85ed9c	-0.06539461
194	0xbe81d728	-0.25359464
195	0xbe2f2ef2	-0.17107752
196	0xbdbb3733	-0.09141388
197	0xbe781a96	-0.24228892
198	0xbe8e85de	-0.27836508
199	0x3de3c965	0.11122397
200	0xbebacdea	-0.36485225
201	0xbed4c78a	-0.41558486
202	0xbd0d506d	-0.034500528
203	0xbe5db965	-0.21652754
204	0x3cc53c48	0.024076596
205	0x3e938a8b	0.28816637
206	0xbdf3747c	-0.11887452
207	0xbd705139	-0.05867121
208	0x3c6dfe2c	0.014525931
209	0x3d05d88a	0.03267721
210	0x3e389fe0	0.18029737
211	0xbe06f351	-0.13178755
212	0xbb8c5016	-0.004282008
213	0xbdf4871e	-0.11939834
214	0xbe33fbe5	-0.17576559
215	0x3e05ce01	0.13066866
216	0x3de0472d	0.10951076
217	0xbd9e1851	-0.07719482
218	0xbb85117a	-0.0040609213
219	0xbba54341	-0.0050434177
220	0xbe6c967f	-0.23104285
221	0x3c39bc1a	0.011336351
222	0xbdb8d104	-0.090242416
223	0x3d8b8d75	0.0681409
224	0x3cbc745e	0.023004707
225	0x3cf212c0	0.029549956
226	0xbe128533	-0.14308624
227	0xbc9e9c89	-0.019361751
228	0xbdc273e5	-0.094947614
229	0x3dbe9b7c	0.09307
230	0xbe7e03a3	-0.24806075
231	0x3d15ed85	0.03660347
232	0xbe07a0ff	-0.13245009
233	0x3d7d3b88	0.06182435
234	0xbc3b87f9	-0.011445993
235	0xbe26c6bc	-0.16286749
236	0x3c414c0f	0.011797919
237	0xbde9ee70	-0.114224315
238	0xbe6ff719	-0.23434104
239	0x3e7287e2	0.23684648
240	0x3d8409d2	0.064471856
241	0x3df80627	0.121105485
242	0xbe2c714f	-0.16840099
243	0xbde405a8	-0.11133891
244	0x3d9461f6	0.07245247
245	0x3e9438f7	0.2894971
246	0x3d18f49b	0.03734265
247	0x3d6044c3	0.054753076
248	0xbd97a1cb	-0.074039064
249	0x3d816ebd	0.0631995
250	0xbe9f464a	-0.31108314
251	0x3e97a10b	0.29615054
252	0xbd97ffe7	-0.074218564
253	0xbe3235c0	-0.17403316
254	0xbe0eda67	-0.13950501
255	0x3e5577b1	0.2084644

linearSequential.2.bias f4 [512]
0	0xbe09592a	-0.1341292
1	0xbe59c31e	-0.21265838
2	0xbb825608	-0.003977541
3	0xbe833add	-0.25630847
4	0xbe1a5112	-0.15069988
5	0xbe77a2a3	-0.24183135
6	0xbd9729e2	-0.073810354
7	0xbe0f2cdf	-0.1398196
8	0xbe0a81df	-0.13526104
9	0xbda08c69	-0.07839281
10	0xbd3f60a5	-0.046723027
11	0xbda82085	-0.082093276
12	0xbd8b762b	-0.06809648
13	0xbeac932c	-0.33706033
14	0x3d178bd6	0.036998592
15	0xbd88d126	-0.06680517
16	0x3ea19190	0.31556368
17	0xbe17aacb	-0.14811246
18	0xbe43299c	-0.19058841
19	0xbd0bd497	-0.03413829
20	0xbe7a4384	-0.24439818
21	0xbd4f0b46	-0.05054786
22	0xbde61256	-0.11233966
23	0xbe4b49a7	-0.19852315
24	0x3eb44991	0.35212377
25	0xbe38d645	-0.18050487
26	0xbdee99f0	-0.11650455
27	0xbe30c9aa	-0.17264429
28	0x3e6e030e	0.23243353
29	0x3e80d227	0.25160334
30	0xbe31dc77	-0.17369257
31	0xbebaa89a	-0.36456758
32	0xbdeedde8	-0.11663419
33	0xbd9846b4	-0.074353606
34	0xbd48db24	-0.049037114
35	0x3cf66f82	0.030082468
36	0xbe6d1834	-0.23153764
37	0xbe067dcd	-0.13133927
38	0xbe99307e	-0.2991981
39	0xbe1ace1a	-0.15117684
40	0xbe8371a8	-0.2567265
41	0xbda13918	-0.07872218
42	0xbe27d11b	-0.16388361
43	0xbe876257	-0.26442215
44	0xbe08e7fe	-0.13369748
45	0xbe0e59da	-0.13901463
46	0xbdf27bfc	-0.118400544
47	0xbe9fd6f8	-0.31218696
48	0xbd0b1dad	-0.033963848
49	0xbd41afc6	-0.04728677
50	0xbe98a969	-0.2981675
51	0x3dcbbb88	0.09947878
52	0xbec9c48e	-0.39407772
53	0xbd569e69	-0.052397165
54	0xbe1f4086	-0.15551957
55	0xbdecfb95	-0.11571423
56	0xbdc66636	-0.09687464
57	0xbd57984e	-0.052635483
58	0xbe99f038	-0.30066085
59	0xbe040aab	-0.12894695
60	0xbeb39a4e	-0.35078663
61	0xbd296de7	-0.041364577
62	0xbe00c57a	-0.12575331
63	0xbd84f89f	-0.06492733
64	0xbe2ec332	-0.17066649
65	0xbdcbc9cc	-0.09950599
66	0xbe1853d9	-0.14875735
67	0xbdab5016	-0.083648846
68	0xbe20db65	-0.15708692
69	0xbde59cc6	-0.11211543
70	0xbd2e31d3	-0.042527985
71	0xbcfd707c	-0.030937426
72	0xbe029b98	-0.12754667
73	0xbd9f22da	-0.07770319
74	0xbd290997	-0.04126891
75	0xbdabadd3	-0.08382764
76	0xbe30b158	-0.17255151
77	0x3e2fcf88	0.1716901
78	0xbe383569	-0.17989124
79	0xbe8e6818	-0.27813792
80	0xbd8cf7d5	-0.06883208
81	0xbdf0913d	-0.11746452
82	0xbd31169f	-0.043234464
83	0xbe5a6c15	-0.21330293
84	0xbe2f7a21	-0.17136432
85	0x3e24a7ca	0.16079631
86	0xbea75bea	-0.32687312
87	0xbe61c6c3	-0.22048478
88	0xbe4d509a	-0.20050278
89	0xbd135bf8	-0.03597638
90	0xbe9fa68a	-0.31181747
91	0xbe0d5425	-0.1380163
92	0xbdc48b9b	-0.0959694
93	0xbe9c2e28	-0.30503964
94	0x3c27526f	0.010212525
95	0xbe1b723d	-0.15180297
96	0xbdc328e8	-0.095292866
97	0xbe712a0f	-0.235512
98	0xbe053842	-0.13009742
99	0xbbba757d	-0.005690275
100	0xbe028675	-0.12746604
101	0xbdda20f1	-0.10650814
102	0x3dbfa587	0.09357744
103	0x3da3b144	0.07992795
104	0xbe2b7d23	-0.16746955
105	0xbe18a259	-0.1490568
106	0xbe74daaf	-0.23911546
107	0xbdffe63f	-0.12495088
108	0xbd73b2b6	-0.059496604
109	0xbb0710b1	-0.0020609314
110	0xbde7d5c5	-0.1132007
111	0xbd307a45	-0.043085355
112	0xbe296dbf	-0.16545771
113	0x3dd13f40	0.10217142
114	0x3ef402ea	0.47658473
115	0xbd517bf5	-0.051143605
116	0xbd92da7d	-0.071705796
117	0xbe278022	-0.16357473
118	0xbe42792e	-0.18991539
119	0xbe1c2493	-0.15248327
120	0xbd984bdf	-0.07436346
121	0xbe0a87c1	-0.13528349
122	0x3e0b0321	0.13575412
123	0xbe2ad81c	-0.16684002
124	0xbd5e6ef4	-0.054305032
125	0xbe0444a6	-0.12916812
126	0xbd8720f4	-0.06598082
127	0xbe426d6d	-0.18987055
128	0xbe065e64	-0.13121945
129	0xbe43cbf9	-0.19120778
130	0xbe702dc4	-0.23454958
131	0xbd5e3fbe	-0.054260008
132	0xbdccdee3	-0.1000345
133	0xbe121f31	-0.14269711
134	0xbdbc660b	-0.09199151
135	0xbe5f30e3	-0.21795993
136	0xbdcb5c01	-0.09929658
137	0xbd86bfda	-0.065795615
138	0x3e0e23a8	0.1388079
139	0xbea398bb	-0.31952462
140	0xbe96fb55	-0.29488626
141	0xbdd85488	-0.10562998
142	0x3c07e52b	0.008294384
143	0xbdd80754	-0.10548273
144	0xbe152542	-0.14564994
145	0xbdcccca5	-0.0999997
146	0xbd3fab49	-0.04679421
147	0xbe63acb2	-0.22233847
148	0xbe34dbef	-0.17662023
149	0xbdec4014	-0.115356594
150	0xbde5e1e1	-0.112247236
151	0xbda713e9	-0.081580944
152	0xbe5938ec	-0.2121312
153	0xbd763f36	-0.060118876
154	0xbe6abf57	-0.22924553
155	0xbe0a99bb	-0.13535206
156	0x3e804f73	0.25060615
157	0xbdd594a0	-0.104287386
158	0xbe2c0e95	-0.16802438
159	0xbe97a15f	-0.29615304
160	0xbe8ea391	-0.27859166
161	0xbd580e55	-0.052748043
162	0x3ee14704	0.43999493
163	0xbe643128	-0.22284377
164	0x3cef0999	0.029179381
165	0xbd0d1787	-0.034446266
166	0xbd8dcb78	-0.06923574
167	0x3e96c1a2	0.29444605
168	0xbe7b143d	-0.24519439
169	0xbe8bfe91	-0.27342656
170	0xbe4f1eb4	-0.20226556
171	0xbd0e0c1d	-0.03467952
172	0xbe70bbf6	-0.23509201
173	0x3e9f6c48	0.311373
174	0xbe73a59f	-0.23793648
175	0xbdf7d0dc	-0.12100384
176	0xbd91481f	-0.07093834
177	0xbe13d7d8	-0.14437807
178	0xbd28d83c	-0.041221842
179	0xbddee175	-0.10882846
180	0x3cd37e24	0.025816984
181	0xbca9ae4e	-0.020712998
182	0xbe31578c	-0.17318553
183	0xbeaf7a5c	-0.3427304
184	0xbc8ab562	-0.016932193
185	0xbdb2f3d7	-0.08737915
186	0xbde471e0	-0.111545324
187	0xbcb1a40d	-0.02168467
188	0x3e5c15c7	0.21492682
189	0xbe854a8c	-0.26033437
190	0xbda7a8f3	-0.081865214
191	0xbaf2b169	-0.0018516007
192	0xbd876466	-0.06610946
193	0xbce8d5db	-0.028422287
194	0xbc8fd12d	-0.017555797
195	0xbe9d9c33	-0.30783233
196	0xbd4a5c92	-0.04940469
197	0xbe60c330	-0.21949458
198	0xbd656e70	-0.056013525
199	0xbe126031	-0.14294507
200	0xbe542f79	-0.20721234
201	0xbe603b44	-0.21897608
202	0xbdfd866c	-0.123791546
203	0xbda97978	-0.082751215
204	0xbd2e765c	-0.042593345
205	0xbded9e16	-0.11602418
206	0xbe435958	-0.1907705
207	0xbe259bce	-0.16172716
208	0xbe2f7bfe	-0.17137143
209	0x3ef22e9a	0.4730118
210	0xbedcc418	-0.43118358
211	0xbda806d5	-0.08204428
212	0xbe2249e2	-0.15848497
213	0x3de42f00	0.11141777
214	0xbdc65d35	-0.096857466
215	0xbe465dbc	-0.19371694
216	0x3e33cc9f	0.17558526
217	0xbe6e3644	-0.23262888
218	0xbe0c87da	-0.13723698
219	0xbdd9804c	-0.10620174
220	0xbe14ccb2	-0.1453121
221	0xbe205660	-0.1565795
222	0xbda1ec37	-0.079063825
223	0xbc964446	-0.018343102
224	0x3d04fc06	0.03246691
225	0x3e80e40c	0.25173986
226	0xbe2f68a8	-0.17129767
227	0xbda92479	-0.0825891
228	0xbd4b7fea	-0.049682535
229	0xbe7b15f5	-0.24520095
230	0xbe6fae9f	-0.23406456
231	0xbe1896a3	-0.14901213
232	0xbda9ed50	-0.08297217
233	0xbe44c286	-0.1921483
234	0xbd94d170	-0.072665095
235	0xbdce16e6	-0.10062961
236	0xbe7ade97	-0.24498974
237	0xbcbc0135	-0.022949794
238	0x3cfd4e26	0.030921053
239	0xbd3d00ae	-0.046143226
240	0x3d008450	0.031376183
241	0xbdf6f37c	-0.1205816
242	0xbe3a5573	-0.18196659
243	0xbdee37a7	-0.116317086
244	0xbed5d87a	-0.4176672
245	0xbdcf5c28	-0.10124999
246	0xbda3b1ed	-0.07992921
247	0xbdd43288	-0.103612006
248	0xbc8bcc02	-0.017065052
249	0xbd5b9eff	-0.053618427
250	0xbe475142	-0.19464591
251	0xbe1a614c	-0.15076178
252	0xbe79cd9e	-0.24394843
253	0xbdc5a126	-0.09649877
254	0xbe940a61	-0.28914168
255	0xbd4237e5	-0.047416586

linearSequential.4.weight f4 [256, 512]
0	0x3cdf3159	0.02724521
1	0x3d560f6c	0.0522608
2	0x3cdf450d	0.027254606
3	0xbd121e24	-0.035673276
4	0xbbfb0e38	-0.007661607
5	0xbc46e331	-0.012139128
6	0xbd632804	-0.055458084
7	0x3cfdb252	0.030968819
8	0xbcb5782f	-0.022152035
9	0xbb6ff49f	-0.0036614311
10	0x3d3c1a17	0.04592332
11	0xbd282b7e	-0.041057102
12	0x3cd539a1	0.026028456
13	0xbcc43a89	-0.023953693
14	0x3d59f882	0.05321551
15	0x3d5bb88a	0.053642787
16	0xbe719920	-0.23593569
17	0xbbd41067	-0.006471682
18	0xbc539826	-0.012914693
19	0xbb47ca5c	-0.0030485606
20	0xbd44b25c	-0.04802166
21	0xbc0ba11b	-0.008522297
22	0x3c921bf9	0.017835604
23	0xbd2c0bcc	-0.042003438
24	0xbe368dba	-0.17827502
25	0xbd9e5da9	-0.07732708
26	0x3df2a846	0.11848502
27	0xbc0da392	-0.008644955
28	0x3a88d77f	0.0010440199
29	0xbe12876a	-0.14309469
30	0xbca1c147	-0.019745482
31	0xbd5239a3	-0.051324498
32	0xbc299576	-0.010350576
33	0xbd2a1fba	-0.041534163
34	0xbd5b118e	-0.05348354
35	0xbcda869a	-0.026675511
36	0x3d614354	0.05499585
37	0xbd5ad5f5	-0.0534267
38	0xbc64696b	-0.013941149
39	0xbc91f451	-0.017816694
40	0x3d8f4d13	0.069971226
41	0xbd49eb26	-0.04929652
42	0xbc28dc16	-0.010306379
43	0xbd9224d0	-0.07135928
44	0xbd525726	-0.051352642
45	0x3c840353	0.016114866
46	0xbcf2ffa9	-0.029662924
47	0xbd7f6e33	-0.062360954
48	0xbbc3235c	-0.005955143
49	0x3b56070b	0.0032658007
50	0x3d0f909b	0.035050016
51	0xbd940656	-0.07227771
52	0x3e662eb5	0.22478755
53	0xbb9ce34f	-0.0047878395
54	0x3a9fbf71	0.0012187791
55	0x3c13ac3c	0.009013232
56	0xbd1a0d3e	-0.037610285
57	0xbc900500	-0.01758051
58	0x3e4f3656	0.20235571
59	0x3d12b274	0.035814717
60	0xbd9f9da0	-0.077937365
61	0x3d0210bd	0.031754244
62	0xbdfd75ca	-0.12375982
63	0x3cb67aab	0.02227529
64	0xbdd390fd	-0.10330389
65	0x3bac0080	0.005249083
66	0x3dc59f14	0.09649482
67	0xbd03f255	-0.032213528
68	0xbd1a45f9	-0.037664387
69	0xbd7dc381	-0.061954025
70	0xbcab4b17	-0.020909829
71	0x3bae6b58	0.005322855
72	0x3cda9d66	0.026686382
73	0xbd8ec876	-0.06971829
74	0x3dc577c0	0.09641981
75	0xbc898f14	-0.016791858
76	0x3decbf6f	0.115599506
77	0xbdc8d050	-0.098053575
78	0xbd84d5a1	-0.06486059
79	0xbd034007	-0.032043483
80	0x3ccbcd8a	0.024878282
81	0xbd1586af	-0.036505397
82	0x3c8c4396	0.017122071
83	0xbcf9e013	-0.030502355
84	0xbe76ebea	-0.24113432
85	0xbe37b04f	-0.1793835
86	0x3df3b6d7	0.11900108
87	0xbd860eea	-0.065458134
88	0xbc9f59aa	-0.019451935
89	0xbb3b4184	-0.0028572986
90	0x3c94c22c	0.018158995
91	0x3c25db12	0.010123031
92	0x3c4a781d	0.012357739
93	0x3dd38256	0.10327594
94	0x3d048600	0.032354355
95	0xbd26b6a7	-0.040701535
96	0xbc5fc084	-0.013656739
97	0xbc954c67	-0.018224908
98	0x3e1c77ec	0.15280122
99	0xbe42060d	-0.1894762
100	0x3d9776ff	0.073957436
101	0x3cf2843f	0.029604075
102	0xbdf66085	-0.120301284
103	0xbe11fe58	-0.1425718
104	0xbcb2bc0f	-0.021818189
105	0x3d220f3f	0.03956532
106	0x3c586db2	0.013209747
107	0x3d0ca5c6	0.03433778
108	0x3bea1f71	0.0071448614
109	0x3cde94e6	0.02717061
110	0xbce08a8d	-0.027409816
111	0x3cafd9cb	0.021466156
112	0x3d42ac37	0.047527518
113	0xbdb0540e	-0.08609782
114	0xbeab60c7	-0.33472273
115	0xb927ba5a	-0.00015995782
116	0xbd7da3f1	-0.061923925
117	0x3c80063a	0.015627969
118	0xbd7c6048	-0.06161526
119	0xbcc7f296	-0.024407666
120	0xbd11f09a	-0.035629846
121	0xbd05e1bf	-0.03268599
122	0xbe29fc9d	-0.1660027
123	0xbdb22b16	-0.08699624
124	0xbc038531	-0.008027361
125	0xbc8d11ff	-0.017220495
126	0xbc28722c	-0.010281127
127	0x3d6e7b5c	0.058223113
128	0xbd2be105	-0.041962642
129	0xbdc5abee	-0.096519336
130	0xbd50e7ac	-0.05100219
131	0xbcffa029	-0.0312043
132	0x3e42fe31	0.19042279
133	0x3dbb51cd	0.09146462
134	0x3c8bd8b3	0.017071104
135	0x3e454113	0.19263105
136	0xbcd2e82a	-0.02574547
137	0xbc4137f2	-0.011793124
138	0xbe8a0e5f	-0.2696409
139	0xbd89d465	-0.06729964
140	0x3d43ac89	0.047771964
141	0x3cf791e5	0.030220935
142	0xbb90caf3	-0.0044187247
143	0xbc443a5d	-0.0119768055
144	0x3d057fb8	0.032592505
145	0xbb5ed616	-0.0034002117
146	0xbd28d0ad	-0.041214634
147	0xbdce9e83	-0.100888275
148	0xbd105601	-0.03523827
149	0xbdad01d4	-0.08447614
150	0x3c9fb728	0.019496515
151	0xbdab73e4	-0.08371714
152	0xbd310599	-0.04321823
153	0xbc960c8f	-0.018316535
154	0xbd6fe890	-0.0585714
155	0x3b82603e	0.003978758
156	0xbe84a337	-0.25905773
157	0xbc08f693	-0.008359569
158	0xbd0f65ef	-0.03500932
159	0x3cadb521	0.021204533
160	0xbd0ef0f6	-0.034897767
161	0x3d0d66a4	0.034521714
162	0xbe69078f	-0.2275679
163	0x3c9de88e	0.01927593
164	0xbcc06be0	-0.023488939
165	0xbd015bc9	-0.031581674
166	0x3db668de	0.089067206
167	0xbe987010	-0.29772997
168	0xbbf855a6	-0.0075785695
169	0xbc7d7581	-0.01546991
170	0xbd95fe98	-0.073239505
171	0x3c8e32eb	0.017358264
172	0x3d4c7d08	0.049923927
173	0xbeab8fa2	-0.3350802
174	0x3abd7fab	0.0014457604
175	0xba1fa741	-0.00060902914
176	0x3bd201be	0.006408899
177	0x3bc85c7e	0.0061145416
178	0x3d26e504	0.04074575
179	0xbc928a7e	-0.017888304
180	0xb9cc6324	-0.00038983778
181	0x3c58712b	0.013210575
182	0xbc8c5de0	-0.017134607
183	0xbc9422c8	-0.018082991
184	0xbde9c0aa	-0.11413701
185	0x3b809ae0	0.0039247125
186	0xbb879f88	-0.0041388907
187	0xbb8f1e03	-0.0043675913
188	0xbe6609c3	-0.22464661
189	0xbe4af2c8	-0.19819176
190	0xbd17e0c2	-0.03707958
191	0xbd6b89fa	-0.05750463
192	0xbcb75713	-0.022380387
193	0xbd10b68f	-0.03533035
194	0xbd8246ba	-0.06361146
195	0x3df60a30	0.12013662
196	0x3ca51c29	0.02015503
197	0x3d34dd70	0.04415649
198	0xbd4e914b	-0.05043153
199	0x3bc8ca7f	0.006127655
200	0x3d8bf1e8	0.06833249
201	0xbd7a2c75	-0.061077554
202	0x3c626488	0.013817914
203	0x3b0861f9	0.002081035
204	0x3b68fb8c	0.0035550324
205	0xbc6e1ed5	-0.014533718
206	0x3cf9e2f8	0.030503735
207	0x3e04cdeb	0.12969176
208	0xbc67a501	-0.014138461
209	0xbe39b0f7	-0.18133913
210	0x3e87b19c	0.26502693
211	0xbcf58194	-0.029969014
212	0xbd65156e	-0.05592864
213	0xbe851579	-0.25992945
214	0x3bfb9675	0.007677848
215	0xbc992bfa	-0.018697727
216	0xbe3f2b13	-0.18668775
217	0xbcdafe4d	-0.026732588
218	0x3cdf3fde	0.027252134
219	0xbd4ec968	-0.050485045
220	0xbd36139e	-0.044452302
221	0xbd297f8d	-0.041381408
222	0x3c3491e2	0.011021109
223	0xbcf48733	-0.029849624
224	0xbe2c150b	-0.16804902
225	0xbea1db74	-0.31612742
226	0x3cf385cc	0.029726885
227	0x3ce18858	0.027530834
228	0xbe2ec12e	-0.1706588
229	0xbca987d1	-0.020694645
230	0xbcc539c8	-0.024075404
231	0xbbed3c6a	-0.007239868
232	0xbc62e45e	-0.013848392
233	0xbd8931a1	-0.06698919
234	0x3c158a3d	0.009127197
235	0x3cd25557	0.025675459
236	0x3d191c7c	0.03738068
237	0x3d606dab	0.054792088
238	0x3d5677db	0.052360397
239	0x3ce4b673	0.02791903
240	0x3ddbd16a	0.10733302
241	0xbd65bfad	-0.056091
242	0xbcb613c7	-0.022226227
243	0x3b3a903c	0.0028467318
244	0xbe09aab0	-0.13444018
245	0xbd33ae44	-0.043867365
246	0x3d5faaad	0.05460613
247	0x3e006926	0.12540111
248	0xbe9b3194	-0.30311263
249	0x39ba3520	0.00035516266
250	0x3dcf4e80	0.101223946
251	0x38f6adba	0.00011762553
252	0x3d8673aa	0.0656503
253	0xbc2e173f	-0.0106256595
254	0xbd16d356	-0.03682264
255	0xbd887520	-0.06662965

linearSequential.4.bias f4 [256]
0	0xbdd81827	-0.10551482
1	0xbd1ea357	-0.03872999
2	0xbd8178ec	-0.06321892
3	0xbe383879	-0.17990293
4	0xbceadd59	-0.02867
5	0x3d725098	0.05915889
6	0xbe70ba86	-0.23508653
7	0xbec39046	-0.3819601
8	0xbda2993b	-0.07939383
9	0xbd812b0c	-0.06307039
10	0xbe2155e4	-0.15755421
11	0x3d382480	0.044956684
12	0xbd42341b	-0.047412973
13	0xbd287c6d	-0.041134287
14	0xbd850164	-0.06494406
15	0xbc94c0f1	-0.018158408
16	0xbd9cf186	-0.076632544
17	0xbce3fd7c	-0.027830832
18	0xbd25a7d7	-0.040443268
19	0xbdb054bc	-0.08609912
20	0xbbad7b4d	-0.0052942396
21	0xbdcad2f8	-0.0990352
22	0xbd2fa501	-0.04288197
23	0xbd2f56d1	-0.042807404
24	0xbce89ee3	-0.028396076
25	0xbddd69f8	-0.108112276
26	0xbdd670ec	-0.10470757
27	0xbe16724d	-0.1469204
28	0xbe38c97e	-0.18045613
29	0xbd66b0d6	-0.056320988
30	0xbbfb75fe	-0.007673978
31	0xbd387375	-0.045031983
32	0xbd9439fe	-0.07237624
33	0xbdc5e3f2	-0.09662618
34	0xbdb4d6c1	-0.088300236
35	0xbcb961d6	-0.02262966
36	0xbd42b0fb	-0.047532063
37	0xbd30a07a	-0.043121792
38	0xbcbd87fe	-0.023136135
39	0xbe0824c2	-0.13295272
40	0xbdca7477	-0.09885495
41	0xbd0cab5d	-0.034343112
42	0xbdbfbb62	-0.09361912
43	0xbd4f3d18	-0.050595373
44	0xbe1358c7	-0.14389335
45	0xbdaee1dd	-0.08539174
46	0xbe025b39	-0.12730111
47	0xbe075fb0	-0.13220096
48	0xbe2ae4da	-0.16688862
49	0xbd6d50ea	-0.057938494
50	0xbce18918	-0.027531192
51	0xbd8d9a13	-0.06914153
52	0xbdfb574f	-0.12272512
53	0x3dfb53d1	0.12271846
54	0xbc59aea3	-0.013286266
55	0xbd937632	-0.07200278
56	0xbdf9e32d	-0.122015335
57	0xbd04437b	-0.032290917
58	0x3cf75cdc	0.030195646
59	0x3c770477	0.015076748
60	0xbda27f88	-0.07934481
61	0xbcdd1604	-0.026988037
62	0xbd87fff2	-0.066406146
63	0xbe15a2b6	-0.1461285
64	0xbcfabbc1	-0.030607106
65	0xbd5f41c4	-0.05450608
66	0x3d4d95df	0.050191756
67	0xbd9d88f6	-0.07692139
68	0xbe4f7f03	-0.20263295
69	0xbd82a820	-0.063797235
70	0xbd6c2936	-0.05765649
71	0xbdf83fdd	-0.12121556
72	0xbe6b9c98	-0.23008955
73	0xbda93648	-0.082623065
74	0xbe203386	-0.15644655
75	0xbdbc5d7c	-0.09197518
76	0xbd671647	-0.05641773
77	0xbe452cac	-0.19255322
78	0xbdbb7dad	-0.0915483
79	0xbda857d7	-0.08219879
80	0xbdd28389	-0.102789946
81	0xbc7ffac1	-0.015623749
82	0xbdc4d6ea	-0.09611304
83	0xbd274db5	-0.04084559
84	0xbdb745af	-0.08948838
85	0x3c0be021	0.008537323
86	0xbd9c9f8d	-0.076476194
87	0xbd840d9b	-0.064479075
88	0xbe7305bb	-0.23732655
89	0xbd181ec5	-0.03713872
90	0xbeb845b2	-0.35990673
91	0xbde917f8	-0.11381525
92	0xbd9702b9	-0.07373566
93	0xbd509a6c	-0.05092852
94	0xbd493f3c	-0.04913257
95	0xbe7ce154	-0.24695331
96	0xbda71809	-0.08158881
97	0x3e3c818c	0.18408793
98	0xbe0847d4	-0.1330865
99	0xbd28dc34	-0.041225627
100	0x3dade2ff	0.08490562
101	0xbdcc1f28	-0.0996688
102	0xbd3497ac	-0.044089958
103	0xbd70946b	-0.058735292
104	0xbdf6a3a9	-0.120429344
105	0xbd0e4303	-0.034731876
106	0xbd855f8f	-0.06512367
107	0xbd8367ec	-0.06416306
108	0x38dcda2e	0.000105310566
109	0xbde0a4df	-0.10968947
110	0xbd09d151	-0.033646885
111	0xbc644493	-0.013932365
112	0xbe1428a2	-0.14468625
113	0xbe040cf4	-0.12895566
114	0xbd07e259	-0.033174846
115	0x3c89ce9f	0.016822157
116	0xbdb7c4cc	-0.08973083
117	0xbda0c4d2	-0.078500405
118	0xbd80f1e9	-0.06296141
119	0xbe1ff467	-0.15620576
120	0xbdb32dd7	-0.08748978
121	0xbc6d2699	-0.014474534
122	0xbd3aac19	-0.04557428
123	0xbdef6035	-0.11688272
124	0xbe58da40	-0.21177006
125	0xbde46ff0	-0.11154163
126	0xbc47a0b8	-0.012184314
127	0xbd1d2d9f	-0.038373586
128	0xbd2adda1	-0.041715268
129	0xbe6215af	-0.22078584
130	0xbdd9e93d	-0.1064019
131	0xbd2cd4ab	-0.042195003
132	0xbd0489ad	-0.03235786
133	0xbd82c25f	-0.063847296
134	0xbde66eb1	-0.112515815
135	0xbda1ab75	-0.07894031
136	0xbd888035	-0.066650786
137	0xbdeb760c	-0.11497125
138	0x3b8268e1	0.0039797877
139	0xbdccd679	-0.10001845
140	0x3e25a8c4	0.1617766
141	0xbd9959c7	-0.07487827
142	0xbd54a19e	-0.051911943
143	0xbe107188	-0.14105809
144	0xbd9fa9af	-0.077960365
145	0xbd0d16b4	-0.03444548
146	0xbda952c9	-0.08267743
147	0xbdccf584	-0.10007766
148	0xbcbc4f94	-0.022987165
149	0xbd10671c	-0.035254583
150	0xbe16159f	-0.14656685
151	0x3a53a7d1	0.0008074018
152	0xbd9a358b	-0.07529744
153	0xbd3cd22d	-0.046098877
154	0xbc8de88a	-0.017322797
155	0xbe040a74	-0.12894613
156	0xbd62b3f8	-0.055347413
157	0xbd385e54	-0.045011833
158	0xbcd297e4	-0.025707193
159	0xbddbf2cd	-0.1073967
160	0xbe27989b	-0.16366808
161	0xbe079fc2	-0.13244537
162	0xbd848057	-0.064697914
163	0xbccd850a	-0.025087852
164	0xbd3eec9d	-0.04661237
165	0xbcb85d2c	-0.022505365
166	0xbdee8c2a	-0.11647828
167	0xbd4e1009	-0.05030826
168	0xbcda885f	-0.026676355
169	0xbd911811	-0.070846684
170	0xbd6da94e	-0.05802279
171	0xbc8932e4	-0.0167479
172	0xbe14a341	-0.14515401
173	0xbcb667c3	-0.022266274
174	0xbd8b33ad	-0.06796966
175	0xbd07b091	-0.03312737
176	0xbd9602b0	-0.07324731
177	0x3d76b11f	0.06022751
178	0xbd85d10f	-0.065340154
179	0xbdfa0fa1	-0.12210012
180	0xbda5b65c	-0.08091423
181	0xbdfca275	-0.12335674
182	0xbd461d16	-0.048367582
183	0xbc640266	-0.013916587
184	0xbd8e9c2b	-0.069633804
185	0xbde1a203	-0.110172294
186	0xbd25fa6e	-0.04052203
187	0xbd444e0f	-0.047926005
188	0xbd830cc9	-0.06398923
189	0xbde70c42	-0.11281635
190	0xbddfb460	-0.10923076
191	0xbd8ef852	-0.06980957
192	0xbe1415fe	-0.14461514
193	0xbd55a741	-0.05216146
194	0xbdde8959	-0.10866041
195	0xbda00cab	-0.07814916
196	0xbd516fa5	-0.051131863
197	0xbda2053e	-0.07911156
198	0xbe0f44dc	-0.13991112
199	0xbdd6b4be	-0.104836926
200	0xbdcf78cd	-0.10130463
201	0xbd5f4fd9	-0.054519508
202	0xbd8c7b2e	-0.06859432
203	0x3cf4320a	0.029809017
204	0xbd7cc8e1	-0.06171501
205	0xbdbd22fc	-0.09235188
206	0xbd8d973f	-0.069136135
207	0xbd436007	-0.047699
208	0xbe0449ce	-0.12918779
209	0x3d334dae	0.043775253
210	0xbe1a8209	-0.15088667
211	0xbda065b8	-0.07831901
212	0xbd49473b	-0.049140196
213	0x3c603d1c	0.013686445
214	0xbd51690a	-0.051125564
215	0xbd18574c	-0.037192628
216	0xbd769ba9	-0.060207043
217	0xbde7fd20	-0.11327577
218	0xbd045a52	-0.0323127
219	0xbd88c60b	-0.06678399
220	0xbd9dbb8e	-0.07701789
221	0xbdb9f5e4	-0.09080103
222	0xbea28a2b	-0.3174604
223	0x3c432471	0.011910544
224	0xbe2c213e	-0.16809556
225	0xbdfffcd0	-0.12499392
226	0xbde15608	-0.11002737
227	0x3c0ba328	0.008522786
228	0xbe4543c8	-0.19264138
229	0xbd81752f	-0.06321179
230	0xbdafafc0	-0.085784435
231	0xbdab7ee3	-0.08373811
232	0xbc013373	-0.007885802
233	0xbda1c839	-0.078995176
234	0xbdeed5c7	-0.116618685
235	0xbdfd774e	-0.12376271
236	0xbdbb05e5	-0.09131984
237	0xbcc28260	-0.023743808
238	0xbdeafe2a	-0.11474259
239	0xbc458a0e	-0.012056841
240	0xbdd1c7df	-0.102432005
241	0xbd9d96ad	-0.07694755
242	0xbdca2d6e	-0.09871946
243	0xbe020a6d	-0.1269929
244	0xbde93740	-0.11387491
245	0xbe3b2e84	-0.18279463
246	0xbd90f78e	-0.07078467
247	0xbd0f579f	-0.03499567
248	0x3b9c388b	0.0047674826
249	0xbbe226fb	-0.0069016195
250	0xbcf1db90	-0.02952364
251	0xbd99b1e1	-0.07504631
252	0xbd877bc9	-0.06615407
253	0x3d11bda2	0.03558124
254	0xbdffb805	-0.12486271
255	0xbdccb392	-0.09995188

linearSequential.6.weight f4 [128, 256]
0	0xbd101249	-0.035173688
1	0xbd493f1f	-0.049132463
2	0xbd9552bb	-0.0729117
3	0x3e1e8210	0.15479302
4	0xbc6c285b	-0.014413918
5	0xbdb62169	-0.08893091
6	0x3c5e7e64	0.013579939
7	0x3d8f8202	0.07007219
8	0xbd4ea7de	-0.05045306
9	0xbd963e33	-0.07336082
10	0xbd9303ca	-0.07178457
11	0xbdb706fd	-0.0893688
12	0x3a7526e6	0.00093518046
13	0xbd370df9	-0.04469106
14	0x3cfabb46	0.030606877
15	0x3dfa0ced	0.12209497
16	0xbd97fcf9	-0.074212976
17	0xbd25e2b4	-0.040499404
18	0x3d19dff4	0.037567094
19	0x3cbe9730	0.023265451
20	0xbd8a2e51	-0.067471154
21	0xbcb28a89	-0.021794574
22	0xbd6aa66e	-0.057287626
23	0xbd861bb3	-0.06548252
24	0x3d0baad2	0.034098454
25	0xbd77c428	-0.060489804
26	0xbd4c29c5	-0.049844522
27	0xbe0516a2	-0.12996915
28	0x3e299e36	0.16564259
29	0xbc1f6fd5	-0.009731253
30	0xbd85da83	-0.065358184
31	0x3c699b1a	0.0142581705
32	0x3c56fae0	0.013121337
33	0xbbedf020	-0.007261291
34	0xbdcce6be	-0.10004948
35	0x3ce70b6d	0.02820369
36	0x3cf4a5d0	0.029864222
37	0xbc191c5c	-0.00934514
38	0xbc6c93ed	-0.014439565
39	0xba6386c7	-0.0008679446
40	0xbd873946	-0.06602721
41	0x3c8ebc12	0.017423663
42	0x3e6bdc83	0.23033337
43	0x3cd03bf3	0.025419211
44	0xbdd477fa	-0.10374446
45	0x3a599cf8	0.0008301283
46	0xbc173649	-0.009229251
47	0x3b93d446	0.004511389
48	0x3d1be84f	0.038063344
49	0xbd091d1c	-0.033475026
50	0x3cb3f149	0.02196564
51	0xbd3b4b47	-0.045726087
52	0xbb883a23	-0.004157321
53	0x3d904432	0.07044257
54	0xbd4c4ae0	-0.049876094
55	0x3b726dc9	0.0036991707
56	0xbbe00fb8	-0.0068378113
57	0xbd9e80c3	-0.07739403
58	0x3ce1ff8a	0.02758767
59	0xbda1e96e	-0.07905851
60	0x3d4b70d6	0.049668156
61	0x3d1d5f26	0.03842082
62	0x3d20ea7d	0.039286125
63	0x3cc7d1e5	0.024392078
64	0x3d335177	0.043778863
65	0xbd8b10fb	-0.06790348
66	0x3cbeadaf	0.023276178
67	0xbd739e26	-0.059476994
68	0x3e267315	0.16254838
69	0x3bc6a500	0.00606215
70	0xbdc33995	-0.09532467
71	0xbd3db4f1	-0.046315137
72	0x3d20ed70	0.039288938
73	0xbc06a9c1	-0.008219183
74	0xbd0068bb	-0.03134988
75	0xbde557f9	-0.1119842
76	0xbcfff223	-0.03124339
77	0xbdd0715f	-0.10177874
78	0xbc78cc22	-0.015185388
79	0xbe83a6f3	-0.2571331
80	0xbd73bb35	-0.059504706
81	0xbc8ab963	-0.016934102
82	0xbda85683	-0.08219626
83	0x3c89094e	0.01672807
84	0xbcaa44dd	-0.02078479
85	0xbe56eaa5	-0.20987947
86	0xbd83ffa8	-0.06445247
87	0xbdb26578	-0.0871076
88	0x3d9a6c16	0.07540147
89	0x3cb90371	0.022584649
90	0x3d0c9989	0.03432611
91	0x3d28be31	0.041197006
92	0xbcf89217	-0.030343099
93	0x3cbb623f	0.022873996
94	0xbbe36525	-0.0069395476
95	0xbe684af5	-0.22684844
96	0x3d134a06	0.035959266
97	0xbe50615a	-0.20349637
98	0xbe014287	-0.12623034
99	0x3d0490fc	0.03236483
100	0xbc13266f	-0.008981331
101	0x3c8d01d9	0.017212795
102	0x3dbb38e4	0.091417104
103	0xbca596e6	-0.020213556
104	0x3a418b71	0.0007383144
105	0xbdfd58d2	-0.12370457
106	0x3d9d1b01	0.07671166
107	0xbd5346ec	-0.05158131
108	0x3b800d75	0.003907854
109	0xbb3b720d	-0.0028601915
110	0xbe1aefff	-0.15130614
111	0xbd18b482	-0.03728152
112	0xbb60728f	-0.003424797
113	0xbd5b3f17	-0.053526964
114	0xbd33b24b	-0.043871205
115	0x3cf09760	0.029369056
116	0xbd292d12	-0.041302748
117	0xbcd91943	-0.026501304
118	0x3d63d335	0.055621345
119	0x3ca5fa26	0.020260882
120	0x3d9699a5	0.07353524
121	0xbdb150f5	-0.086580195
122	0x3d286413	0.041111063
123	0xbd426f4f	-0.047469433
124	0xbd839881	-0.06425572
125	0x3d9ca22e	0.07648121
126	0xbd09e855	-0.033668835
127	0xbd8439c9	-0.06456334
128	0xbb061176	-0.0020457185
129	0xbd23d173	-0.03999467
130	0xbb5c8cbd	-0.0033653222
131	0x3ccb7c50	0.02483955
132	0xbd5c9938	-0.05385706
133	0x3d410ee3	0.047133338
134	0x3e43827c	0.19092745
135	0x3dd4d409	0.10392005
136	0xbce7887a	-0.02826332
137	0x3d807823	0.06272914
138	0xbcba6c9f	-0.022756873
139	0xbde5d9f2	-0.112232104
140	0xbdac595a	-0.0841548
141	0xbd46db63	-0.048549067
142	0xbd8f9e42	-0.07012607
143	0xbcade36e	-0.021226611
144	0x3c748174	0.014923442
145	0x3cc4313e	0.023949262
146	0xbbc77b1a	-0.006087673
147	0x3bf28c61	0.0074019884
148	0xb9893200	-0.0002616793
149	0x3d847b0a	0.0646878
150	0xbd96d4f7	-0.073648386
151	0x3b94e73c	0.004544167
152	0x3b7f8b70	0.0038993023
153	0x3d12f231	0.035875503
154	0xbd7d06e9	-0.06177417
155	0x3d05660d	0.032568026
156	0xbcd0d72e	-0.02549323
157	0x3cd807f7	0.026370985
158	0xbdbef8e9	-0.093248196
159	0x3cf9be4f	0.030486254
160	0xbda7cae4	-0.08192995
161	0x3e51f2e1	0.20502807
162	0x3c7ed0e9	0.015552738
163	0xbde2291a	-0.11042996
164	0xbd354e40	-0.04426408
165	0x3d6a6ba8	0.057231575
166	0x3c313523	0.010815891
167	0xbdfb3fd2	-0.12268032
168	0x3d2ef424	0.0427133
169	0xbccae9fe	-0.02476978
170	0xbda23854	-0.079209
171	0xbd231cf2	-0.039822526
172	0x3e05b3d0	0.13056874
173	0x3e754df5	0.2395552
174	0xbd04f73e	-0.03246235
175	0x3c9a75f7	0.018855078
176	0x3ce91e1d	0.028456742
177	0x3d145906	0.036217712
178	0x3ddcb6e1	0.10777069
179	0x3d40a20c	0.04702954
180	0x3c869867	0.016430093
181	0xbd9a9a98	-0.07549018
182	0xbd5e525f	-0.054277774
183	0x3bdb3577	0.006689723
184	0x3cbc2222	0.022965495
185	0xbc0b9f83	-0.008521917
186	0xbd5865f4	-0.052831605
187	0x3ea4a926	0.321603
188	0xbcaca156	-0.021073025
189	0x3d7fd5e7	0.062459853
190	0xbcee6f30	-0.029105753
191	0xbd6dad3a	-0.05802653
192	0x3e3374c2	0.17525008
193	0x3d0d92b9	0.034563754
194	0xbd46cf63	-0.048537623
195	0x3c907d96	0.017638009
196	0x3d427a81	0.04748011
197	0x3cf6c114	0.030121364
198	0x3e1b38f9	0.15158452
199	0x3d72f4dc	0.059315547
200	0xbce1d6ef	-0.027568309
201	0x3c90244e	0.017595436
202	0x3c844566	0.016146373
203	0xbd419732	-0.04726333
204	0xbca1e6e6	-0.019763421
205	0xbc171af1	-0.009222732
206	0xbdfeb830	-0.12437475
207	0xbd221ffb	-0.03958128
208	0x3c0aeb9a	0.008479023
209	0x3d43bd28	0.047787815
210	0xbdb96dc1	-0.09054137
211	0x3d0da0fa	0.034577347
212	0x3d51a409	0.051181827
213	0x3d329ec3	0.04360844
214	0x3d1b339c	0.037891015
215	0x3da4db8d	0.080496885
216	0x3d00a952	0.031411476
217	0x3d0c93e9	0.034320746
218	0xbc4ca0ac	-0.012489479
219	0xbe8b6a4e	-0.27229542
220	0xbb825221	-0.0039770757
221	0x3c9d4c6d	0.019201482
222	0xbd1f525e	-0.03889691
223	0xbdc8d8f8	-0.098070085
224	0x3cb78fc7	0.022407426
225	0x3d09a911	0.0336085
226	0x3dac0d6f	0.08401
227	0xbdde2df0	-0.10848606
228	0x3defc2cc	0.117070764
229	0x3df55d53	0.11980691
230	0x3e886e36	0.26646584
231	0x3d0bd1ae	0.034135513
232	0x3b318847	0.0027089284
233	0x3ceb81b1	0.028748365
234	0x3d809b5a	0.06279631
235	0x3cf1b0fc	0.029503338
236	0xbb3b8f88	-0.0028619487
237	0x3d34549a	0.044025995
238	0xbe64ec8e	-0.22355863
239	0xbd4b0147	-0.049561765
240	0x3d8c2057	0.06842106
241	0x3d42a5c2	0.04752136
242	0x3d520a3e	0.0512793
243	0xbcd32c56	-0.025777977
244	0xbd6795a9	-0.05653921
245	0xbd9abf3b	-0.075560056
246	0x3d74a5f7	0.05972859
247	0xbd6bcceb	-0.057568472
248	0xbe66ffe6	-0.22558555
249	0xbe748fb2	-0.2388294
250	0x3d29840a	0.041385688
251	0xbd758899	-0.059944723
252	0x3ed0d43d	0.40786925
253	0xbdff9224	-0.12479046
254	0xbc75dfde	-0.015006987
255	0x3d8cf3d8	0.06882447

linearSequential.6.bias f4 [128]
0	0xbca1c177	-0.019745572
1	0xbda64bed	-0.081199504
2	0xbe18f26a	-0.14936224
3	0xbd53bed9	-0.05169568
4	0xbd9f96b8	-0.07792419
5	0xbd2a6693	-0.04160173
6	0xbe3e5257	-0.18586098
7	0xbde87a39	-0.11351437
8	0xbdabe3ad	-0.08393035
9	0xbdcf320d	-0.10116968
10	0x3d1d7da7	0.03844991
11	0xbe16a8f6	-0.14712891
12	0xbdb062be	-0.086125836
13	0xbdb0ed52	-0.08639015
14	0x3c07956d	0.008275372
15	0xbd44b9e4	-0.04802884
16	0xbd97ffed	-0.07421861
17	0xbe654b39	-0.22391976
18	0xbd8aecc1	-0.067834385
19	0xbe257e77	-0.16161524
20	0xbdea8b7c	-0.11452386
21	0xbe5ec359	-0.21754207
22	0xbe0fd475	-0.1404589
23	0xbd872601	-0.065990455
24	0xbda34257	-0.07971638
25	0xbd9f65b7	-0.077830724
26	0xbdf90b61	-0.121603735
27	0x3d5d1b8d	0.053981353
28	0xbd91abcd	-0.071128465
29	0xbd1c510b	-0.038163226
30	0xbda28b51	-0.07936729
31	0xbe08aa35	-0.13346179
32	0xbdfe224e	-0.12408887
33	0xbd8b504b	-0.06802424
34	0xbd4459d8	-0.047937244
35	0x3cc4b6b6	0.024012905
36	0xbd3d2d27	-0.04618564
37	0xbd91262a	-0.07087357
38	0xbce3ae26	-0.027793001
39	0xbd6eabed	-0.05826943
40	0xbde9049c	-0.11377832
41	0x3e1511c0	0.14557552
42	0xbdd0bfb1	-0.10192812
43	0xbdb83725	-0.08994893
44	0xbc51ef62	-0.012813421
45	0xbdc1fcf8	-0.09472078
46	0xbc501780	-0.012700915
47	0xbdcaa6f3	-0.09895124
48	0x3d44b8fc	0.048027977
49	0xbd3087bc	-0.043098196
50	0xbda9bc2b	-0.08287843
51	0xbe02e400	-0.12782288
52	0x3da33960	0.07969928
53	0xbda978af	-0.08274972
54	0x3e13fc7f	0.14451788
55	0xbd94afa9	-0.07260067
56	0xbd88ec49	-0.06685693
57	0xbdd8ab2c	-0.105795234
58	0xbdd1aa6b	-0.10237583
59	0xbdf623e0	-0.12018561
60	0xbddca874	-0.107743174
61	0xbd9a1915	-0.07524315
62	0xbcf26ac2	-0.029591922
63	0xbe37b1e7	-0.17938958
64	0xbd25e07a	-0.04049728
65	0xbda3704b	-0.079804026
66	0xbdb335ab	-0.08750471
67	0xbd404531	-0.046940986
68	0xbc8f6b13	-0.017507112
69	0x3d864363	0.06555822
70	0xbda704e5	-0.081552304
71	0xbd912663	-0.070874
72	0xbe09a8c7	-0.1344329
73	0x3d926b06	0.07149319
74	0xbd9e6b66	-0.077353284
75	0xbde155b5	-0.110026754
76	0xbdc0670b	-0.09394654
77	0xbdc14bc8	-0.09438282
78	0xbf23c0de	-0.63966167
79	0xbdd1826e	-0.102299556
80	0xbd21e108	-0.039521247
81	0xbe00b41e	-0.12568709
82	0xbd4d0cfa	-0.050061204
83	0xbdeea94e	-0.11653386
84	0xbdbfbe0f	-0.09362423
85	0xbd35f406	-0.044422172
86	0xbd5bc48b	-0.053654235
87	0x3df02ac0	0.11726904
88	0xbd90f4af	-0.0707792
89	0x3b9ca05c	0.0047798585
90	0xbdae1e3c	-0.085018605
91	0x3c82463c	0.015902631
92	0xbcbbb005	-0.022911081
93	0xbdcbb6e4	-0.09946993
94	0xbd75e41f	-0.060032006
95	0xbe017d5b	-0.12645476
96	0xbd427eb8	-0.04748413
97	0xbd73e008	-0.059539825
98	0xbe06f381	-0.13178827
99	0xbcdf7f30	-0.027282327
100	0xbdc836dc	-0.097760886
101	0xbd37b016	-0.044845663
102	0x3d5af102	0.0534525
103	0xbd91b3d8	-0.071143806
104	0xbdeff722	-0.11717059
105	0xbd57890c	-0.052620932
106	0xbdce3596	-0.100688145
107	0xbd9f99a7	-0.07792979
108	0xbe171823	-0.14755301
109	0xbd67fb6b	-0.056636255
110	0xbd54f369	-0.051989947
111	0xbdd1fd03	-0.10253336
112	0xbd867501	-0.065652855
113	0xbe004dd7	-0.12529694
114	0xbd9bf69c	-0.076153964
115	0xbbbfdb99	-0.0058550355
116	0xbd96cae6	-0.073629186
117	0xbe0bccd3	-0.13652353
118	0x3c74e9a7	0.014948285
119	0x3e0494f9	0.12947454
120	0xbbb0174c	-0.005373871
121	0xbd350251	-0.044191662
122	0xbe295406	-0.16535959
123	0xbd104e81	-0.035231117
124	0xbe2051ca	-0.156562
125	0xbd45b945	-0.04827239
126	0xbe323da2	-0.17406324
127	0x3d3fca20	0.04682362
