nnwf/nets/state_dicts/nnwf.pt (torch, 984399 bytes, 15 tensors)

linearSequential.0.weight f4 [128, 26]
00000000: 23a0 553f 82ad a6bf 8b7e 4aba 2d82 22be
00000010: 7c6b 893d d6be 033e 6966 4dbe 4166 61be
00000020: 729d dfbb eed8 5b3e 89a2 493e ef55 653f
00000030: 636e 02be e621 823f 4374 78bf 8ac7 e6bd
00000040: c4c7 903e 7186 e73d 044f 97bc db95 133e
00000050: b0ee bfbd f14a 0cbe 4822 69bd 77fc 4d3d
00000060: ec9c d13f 291d 613e 16b4 06bf 5716 473f
00000070: d3f1 7ebe e245 55bd b08d ed3d ca1b 18bd
00000080: a40e a6bd a053 26be 7b3f afbc ef35 37be
00000090: 6038 b8bd b9b6 c43f 4eac f2bd d1d2 1abf
000000a0: e8aa 043f ffa9 9fbe 794c c53c c893 1e3e
000000b0: e55d 9fbc 1430 d4bd 07c2 d3bd 6823 c339
000000c0: d7b8 e23b 824b 213d 7553 3740 c681 a83e
000000d0: 1ac5 a1be 98b3 543e e269 4b3d d381 80bd
000000e0: 059d a73d f07c 35be b83a 3abe 0d09 43bd
000000f0: 0582 4e3e 3ba4 9bbe bc4d 12be e21f b4be
00000100: 32fa 8b3b be3d 93be 467a a43d 01d8 e33e
00000110: cea3 8ebe df81 a9bd 2846 dc3d b4bf 103f
00000120: 3f4b 873d 9a61 e8bd eef8 d63a 3f2e 4d3d
00000130: c6e3 c93d 129d 1abe 99fa 63bb afe3 dcbd
00000140: a9e5 31be e7dc 193e 3ff0 75bd ac07 35be
00000150: 720c f2bd 5ffd 5b3e e928 4e3e 343f 013e
00000160: f803 61be 6490 0ebf b118 96bd 7b94 943d
00000170: 6722 3cbe 9b91 56be e302 0bbd 2efd a03d
00000180: 8c20 7b3d 8e14 ff3c c726 873e a557 2abe
00000190: 3f7b fe3d 6e0b 63be 380c c5bf 410d 04be
000001a0: 48ee c9be e915 b03e 43dd 0dbd aa6c d13d
000001b0: f04a 39bd 87c7 b13d eb26 843e 3a65 0ebe
000001c0: cdb5 97be de61 d33d 3472 b73d cfc6 8d3e
000001d0: c943 aebd 72e2 9fbe 42bc bd3e a44e 5abe
000001e0: 67e8 ab3e d277 283e ae5a bc3d 6028 3c3e
000001f0: f3dd 05be 43e1 0a3e d41a f43d 68ef 8f3c
00000200: 0076 9d3f fefa 6ebd f6fa 993f d9b8 b2bf
00000210: 6da1 1dbe 1c50 153e a5c8 25be d4b1 f8bd
00000220: 165e 7e3d 4863 ff3d f29a 9bbb e380 cf3c
00000230: f0e4 27be e6d8 5a3e fde8 ed3e 89b6 853f
00000240: 2b07 91bf 73e1 253e 2d75 bfbd ad31 fabd
00000250: f763 4a3d a549 cbbd 6a22 583e d2b0 96bd
00000260: 8936 aabd 199c 103e b8b7 293d 493b a83e
00000270: 0947 c73e 0506 89bd e5e5 333d 8d0c 24bd
00000280: c808 56be ed23 c53d 4134 a53d 0387 08be
00000290: 5d58 0e3e e6a4 fe3d c151 0b3e 18d2 0f3f
000002a0: fc42 af3d 1bd9 9d3e 6154 76bd aeea 02bd
000002b0: 32c2 793e 86c6 023e 69c6 cebd 7599 213e
000002c0: 66a9 ecbc 91f0 94bc 78de 14be c481 d3bd
000002d0: 019a fa3f f219 96be 9450 c23f 0ac1 eebf
000002e0: 86a1 a2bd dcfc 7cbe 9f81 d53c 2095 8abd
000002f0: 73f9 dbbd d2f2 09be d96b aabd 2bc4 1ebe
00000300: 88c0 3dbd f6d2 22bf 6eea 5d3e 8d96 ac3f
00000310: 491f e5bf 0f9b c53d cf4a a83c 8bf0 2ebe
00000320: d80f d3bd a3a4 d0bc 275d 2a3d 7a78 203e
00000330: 752b ddbd 37a9 123e d107 0fc0 d31d 2a3d
00000340: 0764 453e baf6 29bd 78b6 f83d f93f 0fbd
00000350: f8ff 17be 137a 93bd ca40 99be c2d7 c53d
00000360: 8819 513e f166 3e3e aa88 123e a1b2 24be
00000370: c1ac 9d3d 90a9 81bd 7e97 a93d b065 1d3e
00000380: 8f8e 1e3e ed8e 04be ee10 403e 5ce5 443e
00000390: c162 0cbe 7fdb ed3c ea51 203b 642a 113c
000003a0: c7fe 463f 30ea 1cbe 746f 03be a425 32bd
000003b0: adee ea3d 8885 4b3e 68dc 09be 4130 7e3e
000003c0: 3f36 0ebe 987f 22bd d600 67be 2bf9 e03d
000003d0: 6e28 13bd 6e77 86bd a22f 87be 2758 88bd
000003e0: 3fc7 72bd 1a20 25be ec00 a7be ec24 a33b
000003f0: 9fbf 893e b346 91bd d704 7c3d 8512 5c3e
0.83447474 -1.30217 -0.0007724545 -0.1586997 0.06709954 0.12865767 -0.20058598 -0.22011663
-0.006824189 0.21469471 0.19690908 0.8958425 -0.12737422 1.0166595 -0.970524 -0.11268528
0.2827741 0.113049395 -0.018470295 0.14412634 -0.09371698 -0.13700463 -0.05691746 0.050289597
1.6376014 0.2198378 -0.5261854 0.7776846 -0.24896936 -0.0520686 0.1159929 -0.037135877
-0.08108261 -0.16242838 -0.021392575 -0.17891668 -0.08995128 1.5368263 -0.11849271 -0.6047793
0.5182328 -0.31184384 0.024084317 0.15486062 -0.019453952 -0.10360733 -0.10339742 0.00037219678
0.0069190073 0.03937865 2.8644688 0.3291151 -0.3159569 0.20771635 0.049661525 -0.06274762
0.08184246 -0.17723441 -0.18186462 -0.047616053 0.20166786 -0.30398735 -0.14287466 -0.35180575
0.004271769 -0.28758043 0.08031134 0.44500735 -0.27859348 -0.08276724 0.10755569 0.56542516
0.06606149 -0.11346741 0.0016401091 0.05009293 0.098578975 -0.1509898 -0.003478682 -0.10785615
-0.17372765 0.15025674 -0.06004357 -0.17678708 -0.1181878 0.21483372 0.20132793 0.12621766
-0.2197417 -0.5568907 -0.07328928 0.07254883 -0.18372498 -0.20953982 -0.0339383 0.0786079
0.061310336 0.03113773 0.26396772 -0.16634996 0.12425851 -0.22172329 -1.5394354 -0.12895681
-0.39439607 0.34391716 -0.03463484 0.10225804 -0.04523748 0.08680635 0.25810942 -0.13905802
-0.2963089 0.10321401 0.089573294 0.2769074 -0.08509023 -0.31227452 0.37057692 -0.21319062
0.33575746 0.16451958 0.09196983 0.18374777 -0.13072948 0.13562493 0.119191796 0.017570212
1.2301636 -0.058344834 1.2029712 -1.3962661 -0.1539361 0.1458134 -0.16189821 -0.12143293
0.062101446 0.12470108 -0.0047486955 0.025330013 -0.16395926 0.21371803 0.46466818 1.044633
-1.1330312 0.16199283 -0.093485214 -0.12216506 0.04941174 -0.09926156 0.21106878 -0.073579445
-0.08311183 0.14122047 0.041434973 0.3285773 0.38921383 -0.06690601 0.043920416 -0.04005103
-0.20901787 0.09625993 0.08066607 -0.13332753 0.13900895 0.12433796 0.13605405 0.5617995
0.08557698 0.308297 -0.060139064 -0.03196209 0.24390486 0.12771043 -0.100964375 0.15781195
-0.02888937 -0.018181117 -0.1453799 -0.10327485 1.9578248 -0.2931667 1.518084 -1.8652661
-0.079409644 -0.24705833 0.026062785 -0.067667246 -0.10740938 -0.13471535 -0.083213516 -0.1550452
-0.04632619 -0.6360315 0.21671459 1.3483444 -1.7900172 0.09648716 0.020543484 -0.17083947
-0.10305756 -0.02546913 0.041592743 0.15670958 -0.107993044 0.14322363 -2.234852 0.04153235
0.19276439 -0.041495062 0.12144178 -0.03497312 -0.14843738 -0.07201018 -0.29932243 0.09660293
0.20419896 0.18593957 0.14309946 -0.16083767 0.07698966 -0.063311696 0.08280848 0.15370822
0.1548407 -0.12945147 0.18756458 0.19228119 -0.13709547 0.029035328 0.0024462887 0.008860204
0.7773251 -0.1532371 -0.12835485 -0.04349293 0.11471305 0.19875157 -0.13462985 0.24823095
-0.1388788 -0.039672464 -0.22558913 0.10985025 -0.03592723 -0.06565748 -0.26403528 -0.06657439
-0.059272047 -0.16125527 -0.3261789 0.0049787667 0.26904008 -0.07093563 0.061528053 0.2149144

linearSequential.0.bias f4 [128]
00000000: e87f 113a fde0 c1bb dbe7 07be f740 a73d
00000010: d0b4 92bd dcea edbd 5075 0dbd dace 16bd
00000020: ae67 51be e032 0bbe f9f0 43be 4aa3 97bd
00000030: 0235 22bd cd2a 54be 42a4 b6bd 3a4e 01be
00000040: 2514 193d 7313 ecbd c3be 1cbe bd65 83bd
00000050: 8bdc 1dbe 8c4b 71be 817c 22be 3629 323e
00000060: f087 d9bd d23b 9dbe 4d1e 7e3d 74ab 50be
00000070: e06d 95bd 19b8 b73d 0885 4bbe adef 6fbe
00000080: 514b 37be 36c2 27be ecb3 463d 2024 01bd
00000090: c420 89be 5edd fe3c 12bf 83be 3de4 e6bd
000000a0: f5a5 8bbe b59c 81be 9d80 ab3d 2340 77bd
000000b0: 459d 56be 4b54 f7bc e720 2dbe 81d9 8bbd
000000c0: e7ec eb3d aa51 41be c1d4 4bbd 9657 45be
000000d0: f947 723e 1c6a 87bd a2bb 54be 48da 4dbe
000000e0: ebbe cfbd 3a14 09be 9f54 44bd e007 2a3d
000000f0: 63df 93bd 0163 513e 5b4d 673d 22f6 22be
00000100: c78f 1dbe a4a2 72be 4967 61be 9d2b 1bbe
00000110: 9ac3 5ebe 2634 37be 1df0 20be e59d 13be
00000120: c9c7 90bc 82dc 1cbe 0c8b ea3d 038b 5ebe
00000130: 8322 d73d 0876 9abc 0cbc 8ebe d824 9c3d
00000140: 6101 8fbc 7ce4 12be 04e3 8a3e 3e06 b0bd
00000150: 34cb dcbd aad9 ffbd c8c3 85be be07 8abe
00000160: a4b8 c73d 0da4 d6bd a3ab acbc 9d6f fbbd
00000170: 5bc6 5cbe f64e a4bd 41b2 48bd 5d62 e7bd
00000180: ff1a a3bd 7f1a 06be 29c0 d9bd c369 b7bd
00000190: bef3 49be 5f9a eabb cf51 0cbd 7e27 51be
000001a0: 41a2 6abe 2599 2d3d 182d 51be ed83 c0bd
000001b0: 3924 2abe a939 38be fc2b 5cbd 5392 883e
000001c0: de05 17bc 1380 abbd 8cf4 08be 6c39 6dbe
000001d0: f529 d8bd da7e 33be bb4e 35be b663 0abe
000001e0: da09 7cbe 35ac 68be 7119 f9bd 2212 8dbe
000001f0: 7f9b 113e b9c8 f0bd 69f5 263e e4a8 74bc
0.00055503706 -0.0059167133 -0.1327204 0.08166688 -0.071633935 -0.116170615 -0.034535706 -0.036818363
-0.20449707 -0.13593626 -0.19134893 -0.07404192 -0.039601333 -0.20719452 -0.089180484 -0.12627497
0.037372727 -0.11527147 -0.15307145 -0.064158894 -0.15416162 -0.23563975 -0.15867807 0.17398533
-0.10621631 -0.30709702 0.062040616 -0.20377904 -0.072963476 0.08970661 -0.19874966 -0.23431273
-0.17899825 -0.1638268 0.04851143 -0.031528592 -0.2678281 0.031111415 -0.25731713 -0.11274002
-0.27275053 -0.2531487 0.083741404 -0.0603639 -0.20958431 -0.030191561 -0.16907082 -0.06828595
0.11519795 -0.18878809 -0.049763445 -0.19271693 0.23660268 -0.06612036 -0.20774701 -0.20102799
-0.101438366 -0.13386622 -0.047932263 0.041511416 -0.07220342 0.20447923 0.056470256 -0.15914205
-0.15386878 -0.23694855 -0.22012056 -0.15153356 -0.21754304 -0.17890987 -0.15716596 -0.144157
-0.01767339 -0.15318492 0.11452302 -0.21732716 0.105046295 -0.01885511 -0.27877843 0.07624215
-0.017456712 -0.14344972 0.27126324 -0.085949406 -0.107809454 -0.12492688 -0.26125932 -0.26959032
0.09752014 -0.10480509 -0.021077937 -0.12277148 -0.21560042 -0.08022873 -0.04899812 -0.11298058
-0.079641335 -0.13096045 -0.10632355 -0.08955719 -0.19721887 -0.0071595157 -0.034257706 -0.20425221
-0.22913457 0.042382378 -0.20427358 -0.09400163 -0.1661538 -0.17990746 -0.053752884 0.26674137
-0.009217707 -0.083740376 -0.13374537 -0.23166436 -0.10554878 -0.17528859 -0.17705815 -0.13514599
-0.24613133 -0.22721942 -0.12163056 -0.27552897 0.14219473 -0.11757035 0.16304554 -0.014932845

linearSequential.2.weight f4 [512, 128]
00000000: 28b2 4d3e 43c4 e4bc 4b12 113f 266e d33d
00000010: 8d63 c43d 7be2 cbbb c1bb b0bd ce55 f73c
00000020: b09c e0bd f774 c8bc ddea 16be 0279 6abd
00000030: 6d63 07be fb4c 053e b2db 263e 9585 8cba
00000040: 94f6 97be 8393 6ebd 9f97 02be 66fb 883d
00000050: 29bd 7e3d 8f3d bebd 0eb7 27be 635e 2d3d
00000060: b2a8 78be ddc0 cbbd b69e 9fbe 9b4b 323d
00000070: e0c6 b73d d53f 17be d7fe 9cbd 279a 463e
00000080: 899c 973e 9fd7 75be 30bf c9bd b757 87bc
00000090: 39ea 243d 2f6b 5d3d e488 4ebe 5e36 543e
000000a0: 2b8b 2d3e 3bdd 3e3d e27f 273d 93ba 0d3e
000000b0: ff07 36bd 4000 e03d ea2f 2cbd 7c66 0e3d
000000c0: 9edf cc3d 1d37 c73c b6f2 143d 1eb9 223e
000000d0: 90a8 8f3b 63eb 7bbd 90f4 8b3c c9c8 1dbe
000000e0: 2bc6 26be d10e f53c ca3c 4abd 379b 0cbc
000000f0: 8269 11be ac15 19bd 993d 81bc a2a0 943d
00000100: 2e51 bc3d b6ae 01be dc43 d2bd 81d6 df3c
00000110: 79ce 17bd 0617 22be e109 87be b141 1d3c
00000120: 52e3 ebbd e1ac 56be fc4a 1d3c 477d 383e
00000130: 7a0c 3d3e 2816 8d3e 5c4a f13d 415d a3be
00000140: 7b9b 30be 9e07 d23c 45a2 f4b9 566d a83d
00000150: 90bf e1bc 1151 1dbe 5b12 493c 8859 b8bc
00000160: 3ee3 fe3d 2a7d 0abe 590a b0be 07f7 61bd
00000170: 7a38 2bbe fc28 ddbd 97a4 8abd 5391 72be
00000180: 079b a6bd b4fa cd3c bf46 35be ed4b a8bc
00000190: c083 80bd f607 313e 952b 8d3d fe40 bfbd
000001a0: f663 a13e 3e35 4839 1b4e 7f3d 74f1 80bd
000001b0: b4a2 c03c 7728 e6bd c908 773d 6ca5 90be
000001c0: a257 8d3d 3b00 e7bd 3933 3fbd 6b29 29bd
000001d0: 3873 c53c 74e5 0c3d 7d2e e5bd a19e c6bc
000001e0: 70ef a93d 3c9e 863e b1b0 a6bd e236 e43d
000001f0: c028 e03c fa26 39bd aebc 11be a5bc 51be
00000200: e088 d93c e7cc 553d 9bb0 ba3d dcda fbba
00000210: 6a9a 913c a8a8 09bb 3132 9bbd a705 01bd
00000220: c77f c53c 703b b7bd b594 ea3d be9c 9e3d
00000230: f956 d1bc 87ff 473e bcce a13d 1e9f 2cbc
00000240: 007a e33c 0ae7 313e 9f37 0c3e e232 e53d
00000250: ed62 c8bd ebde 87bd 273e 7d3d 18e4 f3bd
00000260: 460d d93d ca3c 68bd c825 133e 1bd3 553d
00000270: 0d07 36be 3c38 0ebd 9eb3 b13d b21e 013e
00000280: 2f29 f73c 9d1e 05be c122 ecbc ce23 42be
00000290: b451 313e c7d3 603d 8651 cdbd ceb5 3e3e
000002a0: 8336 b8bd 39c6 13be d2b7 b83d f089 b7bc
000002b0: 9d30 5d3d ba4e e33d 7e05 1dbb 201a 283e
000002c0: 07b7 9bbc c4b9 863d 77e3 bbbd 44f3 b0bd
000002d0: fd8d 53be f901 4c3e 0d97 d8bc 0664 46bd
000002e0: 9fbf 2ebd 3fd5 a3bc f731 e6bd 95d0 f93c
000002f0: cecc eb3c f4ec d2be 22da ce3c 1bfb 523c
00000300: 87fa 0c3d eee9 8d3d d138 58bd da80 0cbd
00000310: 7203 d23d a725 893c c82c ef3d f80c 16be
00000320: 1edb f33d e4ca 24be 3077 83be 476f f5bd
00000330: 9f56 cf3d 06cf 1bbe f4f3 2a3e eef7 88bd
00000340: 17dc f83b 20f0 603d d1dc 3abe dd59 a3bd
00000350: eda7 e53d 3aa5 19be e449 d83d 05e7 0c3e
00000360: 3c96 5fbd 8c82 983d fa4d 633d 824b 16be
00000370: f37c c33d 8406 14be ad1d 29be 92de c2bd
00000380: 3827 8b3d c40e d8bd acbf afbc bbad 90bd
00000390: 5adc 69bb 0549 3c3d ed3f ecbd cfa8 b63c
000003a0: f57b 1e3e 363e 70be ca36 d03d b181 ab3e
000003b0: 3b29 0dbd 17c0 a6bd da5a babd 2f65 73be
000003c0: d652 1fbd 4f5c 04be 49ef e0bd 3fab c5bb
000003d0: 3e49 1b3e 8d40 ccbc e16c aa3d ff2e 383e
000003e0: 6cc2 a73d 9e46 fa3b e543 05be c36a 563d
000003f0: 4935 0abe a134 17bd 9a0b 2ebe abe5 aebc
0.20087492 -0.027925616 0.5666854 0.103237435 0.095893 -0.006222067 -0.08629561 0.030192282
-0.10967386 -0.024469836 -0.1473803 -0.05724431 -0.13221522 0.13017647 0.16294745 -0.0010720963
-0.29680312 -0.058246147 -0.12753151 0.066885754 0.062192116 -0.09289085 -0.16378424 0.042326342
-0.24283102 -0.09948895 -0.31175774 0.043529134 0.08973479 -0.14770444 -0.07665794 0.19394742
0.29611614 -0.24008034 -0.09850919 -0.016521318 0.040262435 0.054057296 -0.20169407 0.20723864
0.1694762 0.0465977 0.040893443 0.13840704 -0.04444122 0.10937548 -0.042037882 0.034765705
0.10003589 0.024318272 0.03636428 0.15890929 0.004384108 -0.06150378 0.01708439 -0.15408625
-0.16286533 0.029914292 -0.04937438 -0.008581928 -0.14200404 -0.037374184 -0.015776442 0.07257201
0.09195171 -0.12664303 -0.102668494 0.027323963 -0.037062142 -0.15829095 -0.26374725 0.009598182
-0.11517967 -0.20964386 0.009600397 0.1801654 0.1846179 0.27555966 0.11781761 -0.31907085
-0.17246811 0.025638398 -0.00046660207 0.08223979 -0.027557164 -0.15362956 0.012272443 -0.02250363
0.12445687 -0.13524309 -0.34382895 -0.055167224 -0.16720763 -0.10798833 -0.06769674 -0.2368825
-0.08135038 0.025143959 -0.17702769 -0.020544017 -0.06275129 0.17288193 0.06893078 -0.09338568
0.31521577 0.0001909332 0.062330347 -0.062960535 0.023515083 -0.11238187 0.060311113 -0.28251207
0.0690148 -0.11279341 -0.04667971 -0.041299265 0.024102792 0.03439851 -0.111905076 -0.024245562
0.08297622 0.26292598 -0.0813917 0.111432806 0.027363181 -0.045203187 -0.14232132 -0.20482118
0.026554525 0.052197363 0.09115716 -0.0019215005 0.017773826 -0.0021005068 -0.075779326 -0.03149953
0.02410878 -0.08946884 0.11454145 0.0774474 -0.025554167 0.1953107 0.079007596 -0.010535983
0.027768135 0.1737329 0.13693093 0.11191346 -0.097844936 -0.06634315 0.06182685 -0.1190874
0.10598235 -0.056698598 0.14369881 0.05220328 -0.17776127 -0.034721598 0.086768374 0.12609366
0.030171005 -0.1299996 -0.028825166 -0.18958971 0.17316324 0.054889467 -0.10025315 0.1862404
-0.08994772 -0.14431085 0.09019436 -0.02240464 0.05400144 0.11099 -0.0023959572 0.16416216
-0.019008173 0.06578401 -0.09174245 -0.08640149 -0.20659633 0.19922628 -0.026439214 -0.048435234
-0.042663213 -0.019999145 -0.11239999 0.030494967 0.028784182 -0.41196406 0.025250498 0.012877251
0.03441861 0.06929384 -0.05278856 -0.03430257 0.102545634 0.016741587 0.11678463 -0.14653385
0.11907028 -0.16093022 -0.2567687 -0.11984115 0.101239435 -0.15215692 0.16694623 -0.06687914
0.007594596 0.0549165 -0.18248297 -0.079761244 0.1121367 -0.15004435 0.105609685 0.13760002
-0.054586634 0.07446775 0.055494286 -0.14677241 0.095453165 -0.1445561 -0.16515227 -0.09515108
0.0679459 -0.10549691 -0.021453701 -0.070643865 -0.0035684318 0.045968074 -0.115356304 0.022297291
0.15476973 -0.23461232 0.101667 0.33497384 -0.03446315 -0.08142107 -0.0909936 -0.23769067
-0.038897358 -0.12925838 -0.1098314 -0.006032377 0.15164658 -0.024933124 0.08321548 0.17986678
0.0819138 0.0076378128 -0.13014181 0.05234791 -0.13496889 -0.036915425 -0.16996613 -0.021349749

linearSequential.2.bias f4 [512]
00000000: 7edb ac3a fded 65be 2b79 47be 482e 48be
00000010: c6fe e1bd cbe2 a13d 8584 9fbd df21 babb
00000020: f65d 65be 374f 24be 01a8 22be 7b6a c33a
00000030: 7342 5dbe e91c f8bd 1d86 acbd d433 c8bd
00000040: 037c 89bd cb9d 19be 3e32 35be 1998 a7bd
00000050: 636e fdbd 91d7 b3bd 0b5f ecbd b60b df3c
00000060: d715 d6bd 0a14 1ebe ef79 ba3c 8b17 e5bd
00000070: 5e5d d9bd 90b7 04be d397 34bd b53a a1ba
00000080: 5d3f a1bd bcbe 893c 2b20 dabc 2029 dabd
00000090: 7117 42bd d455 903c 26fd 18bb 502f 3dbd
000000a0: 6dba 86bd a4b2 93bd ff89 77bd 1eae ebbd
000000b0: 6149 f8bd 9991 c0bd 1e8c 7abd 2f9b cbbd
000000c0: 3655 bebd c3d3 16be 09f0 8dbd 9d4c bcbd
000000d0: 493f 3dbe 5d4b 16be aed9 17bd 3572 b0bd
000000e0: d130 c2bd e523 b7bd c4c8 21bd 4f41 32bc
000000f0: f899 1ebe 816e 7abd cbac e7bc c30f 82bd
00000100: 2c91 a9bd f999 1ebd fba3 d1bd 0b11 8bbd
00000110: a3d7 a6bd 1930 0fbe 15bc c1bd f1b2 92bd
00000120: 6590 b2bd b293 6dbd dc3d a7bc ceab b3bd
00000130: de42 43bd 2bc5 1ebe 678a 06bc 3f1c 07bd
00000140: 61ad 32be 647b 44bd 8c65 60bd 6c6c debd
00000150: 950d 0ebd dcbd ac3b c071 5bbd dcbe 68bd
00000160: 29d7 84bd fc56 d1bd db39 d9bc c0b2 58be
00000170: f6c2 e8bd 31f9 45bd deb6 e9bd 054d fbbc
00000180: fbe3 a8bd 3b61 1bbe 7ebd f0bc 57db c9bd
00000190: 132e 0bbe ed69 b3bd 6ca0 e1bd a674 b0bd
000001a0: 6754 f2bd afe1 7dbd bcea 2bbd c89c 51bd
000001b0: b432 84bd d7f7 84bd 07ee febd 1612 90bd
000001c0: 4d7a 01be c6be 83bd 9c82 49bd 534e f0bc
000001d0: a0ad c6bd f2ec 4fbd 584f 02be 4b61 15be
000001e0: 9cff 34bc 2937 89bc cea2 bbbd f49c 13bd
000001f0: 1f6c debc 9dbe 95bd 010c ad3d a30f 6ebd
00000200: 2f77 fdbd 7126 84bd c378 12be b740 afbd
00000210: 626d 04be 69ec d1bd 76df a3bd 6e31 c7bd
00000220: f1eb 02bd 0edf 7bbd 7668 dcbd 3863 883d
00000230: ece2 aabd 0911 e7bd 67fb b0bc f693 32bd
00000240: 8b02 cabd 4fca a03b b92d 9ebd 965c c9bc
00000250: 15ea e6bd 2bd2 e9bc acb0 eebd 4b26 40be
00000260: 44bf babd 2b7e adbd 30c9 bfbd 0cf5 b1bd
00000270: 4b13 fcbc 1585 d0bd 5d4a 44bd c21e 96bd
00000280: 34b8 a0bd 5def aabd 523d 4ebd 82f5 d6bd
00000290: 663e a5bd 1143 c8bd e005 75bd fb18 5cbc
000002a0: 0724 a3bd 0675 52bd 8256 65bd e167 eebc
000002b0: 4957 38bc cbc1 92bd 8bde 0ebe b2a9 9fbd
000002c0: 519e dcbd 251a 9ebd 4d09 b9bd 818b 4abd
000002d0: 854b e9bd c559 8bbd fb1e bebd d90d 20bd
000002e0: fc51 35be bf50 a8bd 6156 23be 3be1 27bd
000002f0: f9a8 fabd 451d 93bc 0428 0bbe e277 88bd
00000300: f36b bbbd 0465 11be d058 f9bd 2876 aabd
00000310: 4c89 88bd 597d 1dbd 72e5 8cbd 9ba3 d3bc
00000320: e922 15be 6513 cbbd fdce 43bd 1621 fdbc
00000330: a089 18be 6d6d 71bd 7bb1 13be d3ed adbc
00000340: f19f 2dbd 3d2f c7bd 5ed1 d8bd 4bd3 25bd
00000350: 9c67 f9bd e70c 49bb 4e2c a9bd 3f25 8cbd
00000360: c3db b2bc a8e9 a1bc dd71 a4bd b632 0ebe
00000370: 95ee 02be 67bb f5bd 43ec 93bd 3fb5 7bbd
00000380: e4b5 a1bd 451f 23bd e067 74bd bc1a acbd
00000390: cc18 c5bd 484c 6fbd dd3c adbd 0f85 d5bd
000003a0: edfc cabd 862a cdbd ed39 c9bd b79f 51bd
000003b0: 86ac e3bd 5463 cbbd 972b f9bc 32c7 44be
000003c0: e9e5 27bc 9a4d b9bd 36ab cebd 43e4 5a3c
000003d0: 69ce ea3d d368 473d 9cea dbb8 5beb 12be
000003e0: c1ea 79bd e913 dabd eedb 9bbc d87a 18be
000003f0: e4f8 5dbd 695f 84bd 9f51 e7bd bcc4 68bd
0.0013187972 -0.22454067 -0.19479816 -0.19548905 -0.11034922 0.079045855 -0.07788948 -0.0056803073
-0.22399125 -0.16045843 -0.15884401 0.0014909053 -0.2160738 -0.12114889 -0.084240176 -0.097755104
-0.067131065 -0.150016 -0.17694947 -0.08183307 -0.1237457 -0.087813504 -0.115415655 0.027227264
-0.10453384 -0.15437332 0.02276322 -0.11186131 -0.106135115 -0.12960649 -0.044090103 -0.0012300821
-0.07873414 0.016814582 -0.026626667 -0.10652375 -0.047385637 0.017619051 -0.0023344248 -0.0461877
-0.06578527 -0.07211807 -0.060434338 -0.115078196 -0.12123371 -0.094027705 -0.061168782 -0.09941708
-0.092935964 -0.14729218 -0.06930549 -0.091943 -0.18481173 -0.14677186 -0.03707283 -0.08615533
-0.09481967 -0.08942393 -0.039498106 -0.010879829 -0.15488422 -0.06114054 -0.028280636 -0.063506626
-0.082796425 -0.03872106 -0.10236355 -0.0679036 -0.08146598 -0.13983192 -0.09459702 -0.071630366
-0.08718947 -0.05800218 -0.020415239 -0.087730035 -0.04767119 -0.15504901 -0.008211709 -0.032985922
-0.17448951 -0.047969237 -0.054784343 -0.108605236 -0.03468092 0.0052716564 -0.053575277 -0.056822643
-0.06486351 -0.10221669 -0.026516845 -0.21161938 -0.11365311 -0.04833335 -0.11411832 -0.030676374
-0.08246609 -0.15173809 -0.029387232 -0.09856289 -0.13591795 -0.08760438 -0.11016926 -0.08615999
-0.11832505 -0.061982807 -0.041971907 -0.05117491 -0.06454983 -0.06492584 -0.12447744 -0.070346996
-0.1264431 -0.064328715 -0.049196824 -0.029334223 -0.09701085 -0.050763078 -0.1272558 -0.14587896
-0.01104727 -0.016749935 -0.09161912 -0.036038354 -0.027151166 -0.07311747 0.08449555 -0.05812038
-0.12376248 -0.064526446 -0.1430388 -0.08557265 -0.12932351 -0.1025017 -0.08001606 -0.09726225
-0.031963293 -0.06149202 -0.10762112 0.066595495 -0.08344063 -0.11282546 -0.021604253 -0.043598138
-0.09863766 0.0049069296 -0.07723565 -0.024580281 -0.11275116 -0.028542599 -0.11654791 -0.18764608
-0.09118512 -0.0847133 -0.09364545 -0.08689317 -0.030770918 -0.101816334 -0.04792248 -0.07330085
-0.07847634 -0.08346436 -0.05035145 -0.10496046 -0.08068542 -0.09778417 -0.059820056 -0.01343369
-0.07965856 -0.051381133 -0.055990703 -0.029102268 -0.011251279 -0.07165869 -0.13952081 -0.07796039
-0.10772384 -0.077198304 -0.09034977 -0.049449448 -0.11391357 -0.068042316 -0.09283253 -0.039075706
-0.17707056 -0.08218526 -0.1595092 -0.04098628 -0.1223926 -0.017958293 -0.13589483 -0.06663491
-0.09151449 -0.1419869 -0.12175143 -0.08323318 -0.06666812 -0.03844962 -0.06879701 -0.02583485
-0.14564098 -0.099158086 -0.04780482 -0.030899566 -0.1489625 -0.058942247 -0.14423172 -0.021231567
-0.04238886 -0.09725807 -0.105868086 -0.040484708 -0.12177965 -0.0030677856 -0.082604036 -0.06843042
-0.021833306 -0.019764736 -0.0802953 -0.13886532 -0.12786324 -0.11998635 -0.07222798 -0.061452147
-0.07896021 -0.039824743 -0.059669375 -0.08403537 -0.0962387 -0.058422357 -0.084588744 -0.104257695
-0.09911523 -0.10017876 -0.098255016 -0.051177707 -0.111168906 -0.09931055 -0.030416293 -0.19216612
-0.010247686 -0.090480044 -0.1009125 0.013360086 0.11465151 0.048683953 -0.00010486433 -0.14347593
-0.061014894 -0.10648329 -0.01902577 -0.14890611 -0.05419244 -0.064635105 -0.11294865 -0.056828246

linearSequential.4.weight f4 [256, 512]
00000000: 17d8 95bb f15e e9bc 0a42 8f3c ae2d e13c
00000010: 3825 04bd 04f1 45bd 04ab 743c e1a2 0e3d
00000020: 7829 8e3b fc33 18bc dec5 b93c 4fb7 4b3c
00000030: a091 3dbb 9b2e f5b9 ae11 553b 3411 143c
00000040: 6a31 ad3c f083 14bc 4e9f 1a3d 114b 013d
00000050: 2223 c33c d29c 3fbd 34b1 c03c f38a 4abd
00000060: 50e3 ec3c 6bb9 2abd 37e4 d43c 0107 33bd
00000070: 9b43 d2bc 59cd 323b 88cb aebb ccee 663b
00000080: d574 8dbc 47aa d73c 1658 093d 9edb e43c
00000090: a7b6 d2bb 0090 df3c 0f86 13bd 7166 d2bc
000000a0: aa6f cc3b 37d5 9cbc dbd9 22b9 854d bb3c
000000b0: 03ba 26bd a249 55bc 33d7 debc 4e4e 0bbd
000000c0: 59b6 91bc 20c1 2dbd cd56 183d eda6 8f3c
000000d0: c0e1 81bc c255 963b e3cb 013d 6c2d 093c
000000e0: 20a2 cbbb f70c 463b f3d2 23bd 56c9 b43a
000000f0: ac4a 023c 11d8 a4bc 9e68 b03c a267 32bd
00000100: 198b 2fbd e9d9 bdbb 0d1c dc3c 40e0 b8bc
00000110: e9ad 9b3c 66ac 12bd c4eb 4d3c 9b35 4d3c
00000120: a07b 54bb 416a 0bbb 8058 033b 6194 0d3d
00000130: ea21 ce3b 7952 163d 48df d13c af54 73bc
00000140: 8ec7 f9bc 9271 40bd c770 f0bb 2070 f3ba
00000150: 792a 1d3c 913e 2dbd a8a8 1ebb 94fc 29bd
00000160: 6be4 0cbd 00d5 db39 7680 f8bb 4bcf 043d
00000170: 8033 c3bb c6a5 37bd 9acc f53c 914d 38bc
00000180: 354d 03bd 4365 ff3c 208b d1ba c598 a8bc
00000190: d206 36bd 4dc6 6ebb 101f 6a3c 0a81 32bd
000001a0: bc09 0a3c b299 dbbc cf3d e33c 8083 e1bc
000001b0: 9e44 ce3c dd56 26bd 80b3 27bc 3a98 62bc
000001c0: 0ffd 263d 818e 44bd ac25 85bb 7d98 da3b
000001d0: 43b1 06bd 8f91 20bd 7ed8 29bd 389c 81bb
000001e0: 5041 02bd a720 8bbd 886f 4dbd 39fe 4cba
000001f0: 5b74 a2ba bae1 a73b 45ad ccbc 4719 113c
00000200: bfd4 263d 99d7 09bd 166b 7ebc 8055 4e3c
00000210: 0a64 42bd 1b35 a7bc 9454 0cbc 2881 743c
00000220: 3c19 853b 9161 193d 099f 31ba 3a17 c2bb
00000230: c073 b6ba 6457 06bd a58e f93c ccec 823c
00000240: c21a 67bc f6f7 41bd 4e69 02bc d796 133d
00000250: fa32 d43c 9f33 123d 1698 3e3b 3ed7 babc
00000260: 68da 6abc 2c84 833c 4511 8dbc 16f2 ebbc
00000270: 6217 d6bb e474 e4bc 099b cdba 8078 733c
00000280: 141e 083d 822a bebc 7e9b 2ebc c2e3 d83c
00000290: 5eb0 fcbb 40c7 bdbc e9d9 433c f6eb a83c
000002a0: 399e d7bc 5a01 43bc 7e53 f43c 8bc9 de3c
000002b0: 6e47 8ebb 62fd aa3b 8daf c13b a811 063d
000002c0: c8a0 98bb 4492 eeba d9da 0abd b2c3 943c
000002d0: 49d6 4a3b cc6a 46bc 8f42 a2bc e6e7 b3bc
000002e0: d6e9 8dbc 2cd3 653c ccb6 6d3c cd0f 313d
000002f0: 0c82 31bd 2649 8dbc f123 5b3c c8a9 133d
00000300: dc0d 33bc 5ea8 b43c 8a67 46bc a055 e3bb
00000310: 1466 24bd c7ea 85bc 7dfe 69bb 7ecf 40bc
00000320: cbb3 8bbc 290e 0e3d ad57 cfbc 91c7 53bc
00000330: 920d 083c 0745 c3ba 3208 f9bc 3cfe 8a3c
00000340: dddc 0cbd 7836 893b 4e3c bbbc 18aa 12bd
00000350: ee1b 1c3d 1b27 2d3d 36cf 853c 48d5 70bc
00000360: 78be 5dbc 8a66 853c eca0 9c3c 856b 623c
00000370: 80c8 693a 734e 06bd 712c 333c e53c 043d
00000380: 69dd 203d 683a a93c d582 263d f13d 1139
00000390: 8c04 7fbc f576 17bd d043 763c 4098 bbbc
000003a0: eb64 91bc a1db 24bd 930c 333d ffeb 21bd
000003b0: 29fb 1c3d 20d9 c2bc c0c6 1cba e732 103d
000003c0: a081 ae3a 0fad e4bc b795 1b3d 365d 8bbc
000003d0: 02bd b7bc bed9 2d3c ed97 eb3c 919e 4b3c
000003e0: b7bf 2bbd 70d2 0e3d f620 b2bc b1c7 253d
000003f0: ab1d a9bc f6f8 8f3c 4cdf 0dbd 3837 aa3c
-0.004572879 -0.028487654 0.017487545 0.027487602 -0.032262057 -0.048325554 0.014933351 0.034823302
0.0043384396 -0.009289738 0.022677358 0.012433841 -0.002892591 -0.00046764765 0.0032511759 0.009037305
0.021141727 -0.0090646595 0.03774958 0.03156573 0.023820464 -0.046780415 0.023521997 -0.04944892
0.028916985 -0.041680735 0.025987728 -0.04370785 -0.025667002 0.0027283041 -0.0053343214 0.003523755
-0.017267624 0.026326312 0.03353127 0.027936753 -0.0064304653 0.027290344 -0.03601652 -0.025683613
0.0062388973 -0.019144638 -0.00015530681 0.022864113 -0.04070474 -0.013018044 -0.027202224 -0.034010224
-0.017787145 -0.042420506 0.037192155 0.017535651 -0.015854716 0.00458786 0.031688582 0.008372646
-0.006214395 0.003022013 -0.0399961 0.0013792913 0.0079523735 -0.02012256 0.02153426 -0.043555863
-0.042857263 -0.005793799 0.026868844 -0.022567868 0.019003825 -0.035808943 0.012568418 0.012524988
-0.003242232 -0.002127305 0.0020041764 0.034565333 0.006290664 0.036699746 0.025619164 -0.014851733
-0.030490663 -0.04698331 -0.007337663 -0.0018572845 0.009592646 -0.042295996 -0.0024209414 -0.041500643
-0.034397524 0.00041929632 -0.007583673 0.032424252 -0.005957067 -0.04483583 0.030004788 -0.011248962
-0.032056052 0.031176215 -0.0015986897 -0.020580659 -0.044440098 -0.0036434114 0.014289632 -0.043580092
0.008425172 -0.026806686 0.027739434 -0.027528524 0.025179204 -0.040610183 -0.010235667 -0.013830239
0.04076868 -0.047987465 -0.0040633287 0.00667101 -0.032883894 -0.039201315 -0.04146623 -0.0039553903
-0.031800568 -0.06793337 -0.050155193 -0.00078198645 -0.0012394296 0.0051233443 -0.024984965 0.008856124
0.040730234 -0.033652876 -0.015528461 0.012593627 -0.047458686 -0.020411065 -0.008565087 0.014923371
0.004061846 0.037446562 -0.0006775712 -0.005923179 -0.0013919994 -0.032798186 0.030463526 0.015982054
-0.014105501 -0.047355615 -0.007959677 0.036032524 0.025903214 0.03569376 0.002908235 -0.022807714
-0.014334299 0.016054235 -0.017220149 -0.028801959 -0.006533549 -0.027887769 -0.0015686463 0.014860272
0.03323181 -0.023213629 -0.010657189 0.02647579 -0.0077114543 -0.023166299 0.011953809 0.020620327
-0.026320564 -0.011902178 0.029824968 0.027195713 -0.004342011 0.005218194 0.00591082 0.032731682
-0.0046578385 -0.001820155 -0.033900116 0.018159721 0.0030950478 -0.012110423 -0.019807128 -0.021961164
-0.017323416 0.014027398 0.014508914 0.04322796 -0.043336913 -0.017246794 0.013375268 0.036050588
-0.010928597 0.02205294 -0.012109647 -0.0069376975 -0.04013641 -0.016347302 -0.0035704665 -0.01176822
-0.017053505 0.034681473 -0.025310362 -0.012925998 0.008304017 -0.0014897891 -0.030399416 0.016966932
-0.03439032 0.0041874014 -0.022855904 -0.035806745 0.038112573 0.042273622 0.016334157 -0.014699288
-0.013534181 0.016284246 0.019119702 0.01381958 0.00089181215 -0.03278966 0.010935889 0.032284636
0.039273653 0.020657733 0.040652115 0.00013851353 -0.015565049 -0.03697868 0.015030816 -0.022899747
-0.017748317 -0.040248517 0.043713164 -0.039531704 0.038325462 -0.023785174 -0.0005980544 0.035204794
0.0013313778 -0.027914552 0.037984576 -0.01701222 -0.022428993 0.010610996 0.028758967 0.012427942
-0.04193088 0.034868658 -0.021744233 0.040473644 -0.02064403 0.017574769 -0.03463678 0.020778283

linearSequential.4.bias f4 [256]
00000000: cb91 cabc 93c1 dbbc b37f 2fbc a227 3fbd
00000010: 80a9 3fbd e842 72bd 51bc 40bd 5915 a7bd
00000020: d02d e2bd 1857 0dbd 0728 0bbd 08c2 57bd
00000030: 6470 39bc 35fb a5bd 3d44 813c b19c 41bd
00000040: 149f 8bbd 5b88 44bc 3ebc 43bc 545a 75bd
00000050: 8bb6 a1bd 2be2 8cbc 5e49 81bd ccea 97bd
00000060: c2eb 56bd f713 85bd caef 7c3d 4543 55bd
00000070: c97f 21bd 0ffa c9bc d94c 00bd 25d3 65bd
00000080: 5749 0ebc 62ba 4abd cc5e 11bc 9b2d 65bd
00000090: e7ec 2ebd 2f7d 81bd 1ba9 5cbd 0cae 16bd
000000a0: 37cb 59bc fa91 9ebd 8126 9ebd d71e 7dbd
000000b0: 3934 1cbd a83a 9e3a c67c 80bd 294b 17bd
000000c0: 6eff f5bc 314a 3abd 04f7 173e 85f3 75bd
000000d0: acb5 3dbd c97e cabd abda 46bd d236 bc3d
000000e0: 5762 c3bd fd20 46bc dedd 6ebd dc83 cbbc
000000f0: da09 66bd c269 10bd c4ae 51bd 52f8 c3bd
00000100: d469 8d3b f26b 91bd 9761 6ebc 66c5 a9bc
00000110: 756b 60bd 629f 91bd 49b9 da3b db94 21bd
00000120: 118d b3bd 3772 d93d cb13 7dbd 2c5d 3fbc
00000130: 744f 4cbd b6c9 45bd c8d3 abbd dab9 babc
00000140: 958b 14bd 1541 6bbd 8a57 bfbd 659e 92bd
00000150: 0fb5 28bd 8990 b3bc 247f bdbd f79c 76bd
00000160: b9e4 83bd 162d 02bd def1 52bb c64e 9bbc
00000170: 143e 28bd 8893 83bd 6346 babd b635 0ebd
00000180: 0dff 0b3d b1c7 b3bd 1728 82bd fc81 6dbd
00000190: 8891 57bc f8e7 b53d 7b72 4ebd 517b c83c
000001a0: fe4a 2bbd f3ab b4bd 3d61 0abd 3085 67bd
000001b0: e6ae 89bd b3da debd 9af5 7bbd 5d25 6cbd
000001c0: 03e2 64bd dfdb 97bc 0650 92bd 4dd7 41bd
000001d0: a02a bebc 0b9a 0dbd c90f 18bd 9049 9abc
000001e0: ebec c5bc ceca 0cbd 2df4 91bc 9f48 a1bd
000001f0: 1e80 bdbd b75b 98bd 9ebc 363c 5631 44bd
00000200: 2e7c bdbd 3e2d 01be 0d12 e6bb bfef 1fbd
00000210: 2476 70bd 54fc 09be b712 e1bc f370 81bd
00000220: c718 76bd 74f2 47bd 4ef4 abbb 2ae3 523d
00000230: a4e8 10bc 9a44 5fbd 944e 323d 04eb 98bb
00000240: d195 a5bd 6916 07bd 89c5 7f3c 1e94 0abd
00000250: 2288 88bd 4fc9 20bd 8769 8fbc 4117 64bd
00000260: 03a1 bbbd 0ef6 91bd f657 a7bd 657f 4ebd
00000270: 07dd fcbc 719a 44bd 342f 11bd a3f5 bebd
00000280: 4d3b 36bd a52c 10bd 0950 e9bd 24e0 2bbd
00000290: f1f1 4ebd 629a 63bd e0d3 9abd 9a37 64bd
000002a0: b3a2 60bd 378f 94bc 750b 8bbd d2cf ebbc
000002b0: 2905 d6bb 9cd7 07bd 762c 42bd d8d8 86bd
000002c0: 77c1 583d 6c7a 333d 2503 43bd 12ae 21bc
000002d0: 4b6c d6bc 4a1c 79bd 587e abbd e709 c0bc
000002e0: 66db 64bd d9c6 85bc 1725 8ebd 5c49 1abc
000002f0: bf5c c2bc abe2 3cbc 9769 aaba 7807 5ebd
00000300: 5915 2dbc 2e7c 59bd 5260 a3bd 1a46 5cbc
00000310: 26ed 5cbd 18bd b6bd 9730 aabd e003 b0bc
00000320: 9006 04bd 0271 fcbc 0120 03bd 0fa5 2fbd
00000330: 5775 1cbd b147 af3b d980 1b3c 9d2a 593d
00000340: bf65 83bd ee6e a7bc b7dd 68bd 017c dbbc
00000350: 5d32 62bd e05f 81bc e75a 84ba 5774 18bd
00000360: fb27 90bc a4a8 39bd 41b7 a1bc ae6d b03c
00000370: 55f2 1cbd dd6a 9dbc 030b a4bd 711e 97bd
00000380: 2751 54bd c698 bebc ad5c 95bc c04b 3ebd
00000390: 6d64 7bbd 3e5d 2fbd 38e7 7bbd 0ea1 cebc
000003a0: 2090 dcbd e336 14be 3feb 87ba ba1a 5abd
000003b0: ee54 14bd 5e21 7abd b9af 4bbd 0c21 4fbd
000003c0: 32af f7bb d02c c0bd eb27 6e3b 1553 8bbd
000003d0: 3387 58bd e807 a9bd 5ced acbc 6984 c83b
000003e0: 2436 59bc 1ae5 14bd ad62 6abd ca91 5ebd
000003f0: b166 e33b 80fe 92bd a2f8 79bd b657 8abc
-0.024727723 -0.026825702 -0.010711598 -0.046668656 -0.046792507 -0.059145838 -0.047054593 -0.081583686
-0.11043894 -0.034506887 -0.03397372 -0.052675277 -0.0113183 -0.081045546 0.015779609 -0.047268573
-0.06817451 -0.0119954 -0.011946736 -0.059900597 -0.078961454 -0.017197689 -0.06312822 -0.07417831
-0.05247093 -0.064979486 0.06175212 -0.052066106 -0.039428506 -0.02465537 -0.031323288 -0.056109566
-0.008684478 -0.049494155 -0.008872699 -0.055951696 -0.042706396 -0.06322705 -0.05387221 -0.036787078
-0.013293079 -0.077426866 -0.07722188 -0.06179699 -0.03813574 0.0012071924 -0.06273799 -0.036936913
-0.030029025 -0.04548091 0.14840323 -0.06004669 -0.046315834 -0.098874636 -0.04854838 0.09190144
-0.09540241 -0.012092826 -0.058317058 -0.024843149 -0.05616174 -0.03525711 -0.05119206 -0.09568848
0.004315594 -0.07100667 -0.014549634 -0.02072401 -0.05478998 -0.07110478 0.0066749197 -0.0394486
-0.08767141 0.10617488 -0.061786454 -0.011679929 -0.04988046 -0.04828807 -0.083900034 -0.022793699
-0.03626593 -0.057435114 -0.093428686 -0.071591176 -0.041188296 -0.021919506 -0.09252766 -0.060208287
-0.0644011 -0.03178128 -0.003218762 -0.01895846 -0.041074827 -0.06424624 -0.090954565 -0.03471919
0.034178782 -0.087783225 -0.06355303 -0.05798529 -0.013157256 0.08882135 -0.050402146 0.024472864
-0.041819565 -0.08821859 -0.03378414 -0.056523502 -0.06722812 -0.10881557 -0.06151352 -0.05765282
-0.055879604 -0.01853746 -0.071441695 -0.047324467 -0.023213685 -0.034570735 -0.03712443 -0.018833905
-0.024160823 -0.034373097 -0.017816627 -0.078751795 -0.09252952 -0.07439368 0.011153368 -0.047898613
-0.09252201 -0.12614915 -0.007021195 -0.039047 -0.058706418 -0.13475162 -0.027474744 -0.063203715
-0.060082223 -0.048815206 -0.0052476292 0.05148617 -0.008844528 -0.054508783 0.04353197 -0.004666688
-0.08085216 -0.032980356 0.015611061 -0.03383266 -0.0666659 -0.039254483 -0.017506374 -0.05568624
-0.0916157 -0.07127009 -0.08171074 -0.05041446 -0.030867113 -0.04799885 -0.035445407 -0.09324195
-0.044490147 -0.035198826 -0.113922186 -0.041961804 -0.050523702 -0.055567153 -0.07559943 -0.05571709
-0.054842662 -0.018134696 -0.06789295 -0.02878562 -0.006531377 -0.033164605 -0.047405683 -0.065843284
0.052918877 0.043817922 -0.04761042 -0.009868162 -0.026174685 -0.060817994 -0.083737075 -0.023442222
-0.055873297 -0.01633017 -0.06940668 -0.009416904 -0.023725865 -0.011528651 -0.0013001439 -0.05420634
-0.010564172 -0.053096943 -0.07977356 -0.013444448 -0.0539371 -0.089227855 -0.08310049 -0.021486223
-0.03223282 -0.030815605 -0.032012943 -0.04288202 -0.03819784 0.0053491225 0.009491169 0.053019155
-0.06415891 -0.020438638 -0.05685207 -0.026792528 -0.05522381 -0.015792787 -0.0010097892 -0.037220325
-0.01759719 -0.045326844 -0.019740703 0.021536674 -0.038317043 -0.019215995 -0.08009913 -0.07378853
-0.051835205 -0.023266207 -0.018232668 -0.04645896 -0.06137507 -0.042813532 -0.061499804 -0.025223281
-0.10769677 -0.14474063 -0.0010369791 -0.053248145 -0.036213808 -0.061066978 -0.04972813 -0.050568625
-0.0075587267 -0.09383547 0.003633971 -0.06802956 -0.05286331 -0.08253461 -0.021109276 0.0061193
-0.013257537 -0.0363513 -0.05722301 -0.054338254 0.006939732 -0.07177448 -0.06102813 -0.016887527

linearSequential.6.weight f4 [128, 256]
00000000: b1e3 e73c c89d 63be 5557 2b3c 5496 41bc
00000010: 39c0 17be c28c a83d 8684 12bd 228a 98bd
00000020: 576c 4a3d 3b37 77bd 7693 61bb 1c5b 733c
00000030: 666b 8b3d 166f 0f3d 8731 2cbe 635c a5bc
00000040: ab33 4e3d b551 f1bc c0fc 86bc 6716 883c
00000050: b983 94bb d50a 73bc 98c1 eebd 502b 8abd
00000060: 0a71 3c3d 23be 8c3c d3cc 5abe 1f99 27bb
00000070: bb0b 333c ab99 46bd 6865 38bd 60fb 83bc
00000080: 7240 9dbd 919e 41bc dbe4 85bc 2ab6 30bd
00000090: 9961 6b3d 3006 113c 6943 76bd d1f1 06be
000000a0: b509 613d 542e c0bd 8358 603d 166a 42bd
000000b0: 6934 d73c 7ce5 4fbb 0595 193e fa4f 3f3d
000000c0: 0cc3 a03c e476 98bb b6f1 d7bd 90c0 91bb
000000d0: f845 73bd bdbf 03bd 0c92 52bc fe72 15be
000000e0: 2c8b 15be a148 383c ab8c 76bd 3973 98bd
000000f0: 63f5 963c 013a 6bbd ac17 6bbd 4529 6dbc
00000100: aed6 103c ec9c 1dbe 1fdb 2abd 5899 2dbd
00000110: e578 bebd 34ce 603d e519 b0bd 3053 743d
00000120: 0a76 54bd 4b12 9f3c 3ea2 9e3c 0652 17bb
00000130: fe77 12bd 43fa a03c b2d4 b5bd 6e40 a8bd
00000140: 465a 443d 8432 283b d6f0 63bd ff43 1f3d
00000150: 9427 693d 0fa2 9c3c 9ad6 5f3b c463 d03c
00000160: 8c54 663c ba9a 523c e669 a4bd 99d7 b7bc
00000170: 92ff a43c 8471 703d e262 99bd 7135 83bd
00000180: 2774 19be 8e7b 323a b1ba 713c aeb7 483d
00000190: 733c c7bc 5354 443c a4e8 4a3d 07d8 aabd
000001a0: 5ba1 4d3d 06d0 97bc 088e 0cbc 88a7 74bd
000001b0: 0703 dabd 5a6a ba3c 5fd0 18bd 4e80 353d
000001c0: 3b65 1bbd e8fc 5dbe f021 6b3d ef49 1d3d
000001d0: 299d 8cbc 72c3 0cbd 5369 2fbd 7c18 2c3d
000001e0: 11ab 72bd 9bdb 4f3d 18d5 afbd 73dc 06be
000001f0: 9fc9 803c 6e22 923d 18ce 50bc b62c 47bd
00000200: 1c53 4bbb 2ec8 cdbd 1699 99bd 2cb8 3f3d
00000210: 669a c13b 6eb8 3ebc 8947 ffbc cb42 ecbb
00000220: 24f3 fdbc 02c1 983d adf2 fabd bc7d 1bbd
00000230: 2c9d 2e3c a7ed a2bd 4ac9 4bbe 4c60 1bbe
00000240: 2fa9 943a 8458 54bd 7feb b8bd 3a47 643d
00000250: ec08 1dbd de0f 19bd ca24 61bd 1207 6cbc
00000260: 97a8 8fbd b028 e63c f204 04bd 5804 803d
00000270: bad0 05bd b8d3 60bc 7811 94bd c268 27be
00000280: 51da 63bb 70fa b9bc e3cb 18bd 82d8 11bc
00000290: 1556 04be 580d 0b3d ce38 a7bd 9e76 18ba
000002a0: 3907 c73b 240c 9abc c916 0ebe dc7b 6f3d
000002b0: 8e38 003d 4b0b cbbc 90cd ffbd a7dd ff3c
000002c0: 293f c3bd 4468 a9bd 378b dfbc 8ad5 06bd
000002d0: cf82 5cbd e482 1f3d 9ac9 dabd b344 1e3b
000002e0: 36cb 1b3d 7784 42bd a899 d5bd 03bc fd3c
000002f0: 6e68 00bd 7203 1ebd 2a83 51bd ad43 85bc
00000300: 2319 473d c4f5 143d f26b 0fbd 4880 4abc
00000310: b0c9 63bd 86f9 68bd 4cd5 aabd fc4b f43c
00000320: 9158 353d 6403 a0bc f6ab c23d a847 1abd
00000330: de63 2dbd 2534 0b3d dfa8 0dbd be0a 49bd
00000340: 8b37 93bd 7559 e9bc 1b28 7cbd 50bb 333c
00000350: 21cc ec3c 41a8 42bd 3deb 86bd cf18 56bd
00000360: 84ca e6bb dadc 913c 36f7 093d 8c94 1cbe
00000370: b5ec 5dbc 4dbb 65bb 78aa 04bd 802d e1bd
00000380: b8ac 97bd 807f 663a fbd7 c8bc 5116 943c
00000390: acf4 f3bc da4c 01bd f8ae 073d a018 6b3c
000003a0: 83d4 9cbd dae6 243d 38fd bebd 2119 cc3c
000003b0: 1dee e33a 6b2c 323c a426 64bd a6ac 5bbd
000003c0: c73e 513c c251 e33b 9e02 1dbd c6fb 90bd
000003d0: a7a8 12bd 37ef 00be 336e 6b3b 65d1 d93c
000003e0: 6e15 033c 59c2 95bd a6a9 5ebd 5814 583c
000003f0: 7d57 2abe 8024 cfbd 6a2e 653b 8d5b 42bc
0.028306814 -0.22228158 0.010457833 -0.011815626 -0.14819421 0.082299724 -0.035770915 -0.07448222
0.049419727 -0.060355406 -0.003442017 0.014853265 0.06807594 0.03501805 -0.16815768 -0.020185655
0.050342243 -0.029457906 -0.016477942 0.016612245 -0.004532304 -0.0148341255 -0.11658019 -0.067465425
0.04600624 0.017180508 -0.21367197 -0.0025573445 0.01092809 -0.048486393 -0.045018584 -0.016111076
-0.076783076 -0.01181759 -0.016344478 -0.043142475 0.057466123 0.008851573 -0.06012288 -0.13178183
0.054940898 -0.093838364 0.05477191 -0.047464453 0.026270108 -0.0031722477 0.14998253 0.04670713
0.019624256 -0.0046528447 -0.105441496 -0.004448004 -0.0593929 -0.032165278 -0.012852203 -0.14594647
-0.14603871 0.011247785 -0.060192745 -0.07443852 0.018427556 -0.057428364 -0.057395622 -0.014475171
0.008840246 -0.15391892 -0.041712876 -0.042382568 -0.093004026 0.05488415 -0.08598689 0.059649646
-0.051870383 0.019417902 0.019364472 -0.0023089661 -0.035758965 0.019650584 -0.08878459 -0.08215414
0.047937654 0.0025664875 -0.0556496 0.038883206 0.05692251 0.019120244 0.0034155012 0.025438197
0.0140582435 0.0128542725 -0.08028011 -0.022441672 0.020141397 0.058702007 -0.074895635 -0.064066775
-0.14985715 0.0006808572 0.014753983 0.049003296 -0.024320817 0.011982995 0.04953827 -0.08341985
0.05020271 -0.01853181 -0.008578785 -0.059730083 -0.10645109 0.02275579 -0.037308093 0.044311814
-0.037938338 -0.21678507 0.057405412 0.038400587 -0.017164784 -0.03436608 -0.042825054 0.042015538
-0.059245173 0.05074654 -0.08585566 -0.13170032 0.01572114 0.07135473 -0.012744449 -0.048626624
-0.003102488 -0.10047947 -0.07499902 0.0468065 0.0059082983 -0.011640651 -0.03116204 -0.007210111
-0.030999728 0.07458688 -0.12253318 -0.037961707 0.01065759 -0.07955485 -0.19901004 -0.15173453
0.0011341925 -0.051842228 -0.09029292 0.05573199 -0.038338587 -0.037368648 -0.054966725 -0.014405983
-0.07014578 0.028095573 -0.03223128 0.062508285 -0.03266976 -0.013722353 -0.072298944 -0.16348556
-0.0034767578 -0.022702426 -0.037303817 -0.008901717 -0.12923463 0.033948272 -0.081651315 -0.0005816015
0.006073859 -0.018804617 -0.1387588 0.05846773 0.031303935 -0.024785658 -0.1249038 0.031233622
-0.09533531 -0.0827184 -0.027288062 -0.03291849 -0.053835686 0.038943186 -0.10682984 0.0024149835
0.038035594 -0.04748961 -0.10429698 0.03097344 -0.031349592 -0.038577504 -0.05115048 -0.016267622
0.048607957 0.036367193 -0.035015054 -0.012359686 -0.055612266 -0.05687859 -0.083414644 0.029821388
0.044273917 -0.019532867 0.09505455 -0.037665993 -0.04233157 0.033985276 -0.034584876 -0.04908251
-0.07188328 -0.02848504 -0.061561685 0.010969952 0.02890593 -0.04752374 -0.06587837 -0.052269753
-0.0070431847 0.017805506 0.033683024 -0.15291041 -0.013545205 -0.0035054267 -0.032389134 -0.109950066
-0.0740599 0.00087928027 -0.02451705 0.018077048 -0.029779755 -0.031567432 0.033125848 0.014349133
-0.07657721 0.04025922 -0.093256414 0.024914326 0.0017389689 0.010874848 -0.055700913 -0.053631447
0.012771315 0.0069372365 -0.038332574 -0.07079272 -0.03580537 -0.12591253 0.0035923838 0.026589105
0.008000715 -0.073124595 -0.054361008 0.013188444 -0.16634937 -0.10114384 0.0034970292 -0.011862648

linearSequential.6.bias f4 [128]
00000000: 8bfd 32bd c18d 7ebd ca18 8bbd 7715 cfbd
00000010: 7204 4ebd a2ed 5cbd abde eabb 8e76 67bc
00000020: adbd 4dbd 177a 96bd cef6 42bb 0267 8b3c
00000030: 362d dbbd 3bc8 183e d5f9 f3bc a1a1 c6bd
00000040: 5283 923c 53fe b1bc 9249 cfbc 027b aabd
00000050: 77e0 d6bd e024 94bd 3300 06bd d8c1 aabd
00000060: 1f1a 82bd ed85 083d 454f 3fbd 904e 7fbd
00000070: d727 e0bb 1bea 18bd b85e a1bd 4421 8bbd
00000080: b59a b0bc c81f c73c 659e 88bd 1aaf 813d
00000090: 2263 51bd 2d11 8abc 9762 debc 426b 5d3d
000000a0: 1753 b63b d0b4 80bc 8ef3 aabd 1625 09bd
000000b0: 4b73 65bd d0f3 48bd 2605 15bd 9752 7bbd
000000c0: 9aa7 9e3d cb4c 93bd fd8c 69bd e752 14bd
000000d0: 7abd 5ebd a7a5 073e bb71 bd3d c48f a5bd
000000e0: 7fd4 053e d8d2 a0bd b35b 0ebd 27e9 5abd
000000f0: 4840 2b3d 51fe d83d 9829 1ebe 6790 2fbd
00000100: 3fda a8bc f534 24bd 43a6 ddbc ecb7 a6bc
00000110: 9745 a8bd 595f 79bd 31a5 bcbd c664 37bd
00000120: c9b9 8cbc 5cc4 c3bd 5bcc 01bd 5e8b 963c
00000130: b224 03bd 854f c9bc 1033 07bd 5803 27be
00000140: cf80 8ebc bc5f 5cbe 496f 06bc dd5f 8bbd
00000150: d12f 15bd 08c9 9bbd c62e abbd ff66 5abd
00000160: b349 febc 99cb 87bd e993 263c d5cf 88bd
00000170: f10b b0bd 67fb 0bbc ff23 90bd ddc1 9d3b
00000180: 68c7 c2bc fe90 0fbd 1e40 efba 411f 00bd
00000190: 5672 0abd 8884 1ebd e414 71bc b6b4 96bd
000001a0: 62bf 36bd 1da8 b6bd 74d4 d4bd 9793 8bbd
000001b0: 499e c93d 9ee9 95bd ee80 cfbb 3a41 8ebc
000001c0: 0f87 20bd 0863 c0bc 481a c2bd ab91 aebc
000001d0: a212 4dbe fe8c a0bd 3448 1cbd c6f5 59bd
000001e0: 7c35 903d 4f75 c7bd 7a85 36bd e689 80bd
000001f0: f060 8f3d 937d 45bc 480f a6bd 7602 febb
-0.04369883 -0.062146906 -0.067918375 -0.10111516 -0.050297208 -0.05393756 -0.0071676574 -0.014127387
-0.050229717 -0.073475055 -0.0029749158 0.017016891 -0.10701983 0.14920132 -0.029782215 -0.09698797
0.017884884 -0.021727717 -0.025303636 -0.08324243 -0.10492032 -0.07233596 -0.032715034 -0.08337754
-0.063526385 0.033330847 -0.046706457 -0.062330782 -0.006840687 -0.037332635 -0.07879394 -0.06793454
-0.021558145 0.024307147 -0.06670836 0.06332226 -0.05111993 -0.016853893 -0.02714662 0.054057367
0.0055641043 -0.015711218 -0.083472356 -0.033482634 -0.056018155 -0.049060643 -0.036381863 -0.06135806
0.07746811 -0.071923815 -0.057019223 -0.036211874 -0.054379918 0.13246785 0.09250208 -0.08084062
0.13069342 -0.07852715 -0.03475542 -0.053445008 0.04180935 0.10595382 -0.15445554 -0.042862322
-0.02061188 -0.040089566 -0.027056819 -0.020351373 -0.08216398 -0.060881946 -0.09211195 -0.04477384
-0.017178433 -0.09558937 -0.03168903 0.018377002 -0.032017417 -0.02457405 -0.03300768 -0.1630987
-0.017395405 -0.21520895 -0.008205243 -0.06805394 -0.036422554 -0.07606703 -0.08358531 -0.05332088
-0.031041002 -0.0663063 0.0101671005 -0.06680266 -0.08596028 -0.008543826 -0.07038116 0.00481437
-0.023776725 -0.035050385 -0.0018253361 -0.031279806 -0.033800445 -0.03870061 -0.014714453 -0.073586866
-0.04461611 -0.08918784 -0.10392085 -0.0681526 0.098446436 -0.073199496 -0.0063325083 -0.017365087
-0.039191302 -0.023484722 -0.09477669 -0.021309694 -0.20026639 -0.07839392 -0.038154796 -0.053212903
0.07041451 -0.09739172 -0.044560887 -0.06276302 0.07000911 -0.012053865 -0.081083834 -0.007751758
