nnwf/nets/state_dicts/nnwf01.pt (torch, 53651 bytes, 10 tensors)

linearSequential.0.weight f4 [128, 11]
00000000: 1eb5 583e f710 11bd 9b61 a6bd fa61 dbbe
00000010: 02b4 c6be 93e6 cf3d bda7 efbd bf05 02bf
00000020: 61b4 e13d e53a 7cbf 4083 aabe 41f1 a53d
00000030: e172 b63e 4f94 0ebe 8efa 89be d8e8 433e
00000040: 8911 4abc 29b8 4d3e 0144 e8be 15f2 123e
00000050: b376 b6be f93c 883c 7c33 05bf 0168 643e
00000060: 3adf debd 9837 c9be 01fc 39be c62d aa3e
00000070: 7b8c 16bf 466a a8be bd47 0dbc 9c4e 01bf
00000080: 5c86 bfbe f7d2 33bf acfc 923e dccd 3c3e
00000090: 43ed ae3e 53fe aebe d86b 80be 662d fb3c
000000a0: 6e0b 833e 91ce c3be 8cd6 d5bd 6ec0 3ebf
000000b0: dd35 51be 0f3e df3d dc81 a13e 342b 17bf
000000c0: d4dd a4be d70b 713e d94b fdbe 3fa3 12bd
000000d0: 8e70 5d3e 5c29 9d3e 5994 003e 586c 8f3d
000000e0: 71c0 8bbd 48bd 553d 0a78 4bbe 8df2 ba3e
000000f0: a4e6 60be 7a14 0b3e 1633 87bb 4371 da3b
00000100: 474c fdbe 0f4f 1ebe c901 843d 25de 24be
00000110: 3ff0 98be a9e0 98be 721c 7f3e 7adc 8d3e
00000120: 4749 0b3d b654 fc3d 3369 803e ec2f 5fbd
00000130: 6319 6bbc 04bb 353d 060e fabd 1e3c b1bc
00000140: a535 e4be 8887 c23e 1460 5b3e ded8 a03e
00000150: 7a1e 21be 437b b5be bc6a 3cbe 0a7a d73e
00000160: 7b35 3bbe a019 343e 27e6 67be 4df5 cebe
00000170: c455 81be 3915 233d e612 073e 5eba 58bd
00000180: 4d47 9bbc b172 15bf 2c02 fc3d 36e4 52be
00000190: 47f0 ad3d 46db 8a3d 2f8e 02bd 0e07 d1bc
000001a0: a139 a1bc 7a9a 273e ec55 c93d 2ae1 86bb
000001b0: 0565 7bbd 8acb 03be ef50 52be 5f4d 25be
000001c0: 71d2 d53d d31a 0ebe a916 21bd 039d d1bd
000001d0: 7919 343f 9258 3fbe 3b69 d1be 2f32 a13d
000001e0: 6504 2cbe 9ceb babe 0fb5 133e 0be6 e63d
000001f0: c53d 38bc 5dd3 e4bd 5b89 ef3d c5b3 163d
00000200: 7fff 703d 9a26 8ebe 6ae8 0b3e bdea ac3c
00000210: 21cf c13e ad38 d63d bd8b ecbd 51cb 99be
00000220: f6e5 ebbd a24b 2c3d 4958 47bf aa33 26bf
00000230: ee78 bdbe c9e2 f03e 6633 633e 5d59 e43e
00000240: a4ac 90bd bdbd 013e 02d3 403e 8496 5fbe
00000250: a855 52be a547 f6bd b571 3cbd 9739 c03d
00000260: 724c 4b3d c95e a7be f0f8 73be 9e8f ad3e
00000270: 7e02 d1bd 0436 883c dfc5 07bf cdce ce3e
00000280: 10a1 1abd 4491 e2bd c9cc b33e e9b3 84bf
00000290: 1e2c e73d bfa5 7b3e ef39 d8be 2b1c eebd
000002a0: 498f d53d 4b7c a83c ab1d 0ebf 4091 b63e
000002b0: 4434 133e 7594 01be a743 193e 5574 633e
000002c0: 5755 97be 00b8 b93e 6119 523d d5d7 c7bf
000002d0: 8b5e 29bf db4a 88be d9da a53e 8f41 fe3e
000002e0: 8a8f 0ebd ba62 2fbf 20a6 003f 7e3a 933e
000002f0: 30aa 003f eddd 943e 45b3 25bf d949 963e
00000300: b7c0 ba3d 6ef9 563e 8226 12bf ca4a 84be
00000310: b9d4 73bf b65c 393f 1599 0abf 2d83 09be
00000320: f2f6 0a3e 487e 8bbe a98f 673f e5cb 153f
00000330: f827 8b3d d209 01bf 7c57 c93e 6449 98be
00000340: 8c3e 96bf d172 c6be 96fc 0d3e 0294 8bbe
00000350: 1ce0 56be bcfb cfbe 981b 583e 7e75 5a3e
00000360: e06c 49bf 6853 6c3c 782f f3be 60de 103e
00000370: dd03 153e 8c12 fe3b 41d7 8b3e aed5 8b3e
00000380: 0844 6a3f c566 77be 8185 9bbe af35 9fbe
00000390: b029 1ebe fe68 8bbf 3c26 1cbe 80fa 6f3f
000003a0: 5da6 3fbe a1de bebe 7199 5bbd 0dea 0abf
000003b0: 843d b7be 523c 093d 1064 fb3e 3c8b 263e
000003c0: b405 f93c aaa4 85be 625c 45bf d8cd febe
000003d0: fb1c 0bbe 58cf 3d3e c0f6 8d3f 6796 acbe
000003e0: 0886 d13e f88d 8dbc 2c53 a43d bf61 803d
000003f0: be21 9dbe 0146 8abf b903 303f ff66 e93e
0.2116284 -0.03541657 -0.081240855 -0.42848188 -0.3880921 0.101514004 -0.117019154 -0.5079002
0.11020733 -0.98527366 -0.3330326 0.08102656 0.3563452 -0.13923763 -0.2694897 0.19131792
-0.012333282 0.20089783 -0.45364383 0.1435016 -0.35637435 0.016630637 -0.52031684 0.223053
-0.10882421 -0.39300227 -0.18162538 0.33238047 -0.58808106 -0.3289358 -0.008623061 -0.50510573
-0.37407196 -0.7024378 0.28708398 0.18437904 0.3416539 -0.3417841 -0.25082278 0.030661296
0.25594658 -0.38243535 -0.10441312 -0.74512374 -0.20430703 0.109005086 0.31544387 -0.590503
-0.3220049 0.23539673 -0.4947193 -0.035800215 0.21624967 0.30695617 0.1255659 0.07003087
-0.06823815 0.052182466 -0.1987001 0.36513177 -0.21962982 0.1358203 -0.004125963 0.006666334
-0.49472257 -0.15459846 0.06445653 -0.16100366 -0.29870793 -0.29858902 0.24913195 0.27707273
0.03400543 0.12320845 0.2508026 -0.05448906 -0.014349314 0.044367805 -0.12209706 -0.021635111
-0.44572178 0.37994027 0.2142337 0.31415457 -0.15734282 -0.35445604 -0.18400091 0.42085296
-0.1828212 0.175879 -0.2264639 -0.40421525 -0.25260746 0.03981516 0.13190803 -0.05291211
-0.018954897 -0.5837813 0.12305102 -0.20594868 0.08493095 0.06780104 -0.031873878 -0.02551606
-0.0196808 0.16367522 0.098308414 -0.004116197 -0.061375637 -0.12870613 -0.20538686 -0.16142796
0.10440529 -0.1387742 -0.03932825 -0.10235026 0.7035137 -0.1868613 -0.40900597 0.078709
-0.16798551 -0.3650788 0.14424537 0.11274346 -0.011245196 -0.11173127 0.1169612 0.036792535
0.05883741 -0.27763826 0.13662878 0.021108026 0.3785334 0.10460029 -0.115500905 -0.3003793
-0.11518471 0.042064317 -0.7786909 -0.64922583 -0.37006325 0.47048023 0.22187576 0.4459943
-0.070641786 0.12670036 0.18830493 -0.21834761 -0.20540488 -0.12025384 -0.046006877 0.093859844
0.04963345 -0.32689503 -0.23825431 0.33898634 -0.102055535 0.01662732 -0.530363 0.4039215
-0.037751257 -0.110628635 0.35117176 -1.0367404 0.112877116 0.24574946 -0.422317 -0.11626466
0.1042772 0.02056708 -0.5551402 0.35657692 0.14375407 -0.12654288 0.14967214 0.22212346
-0.29557297 0.36273193 0.051293734 -1.5612742 -0.66159886 -0.2661961 0.3239353 0.49659392
-0.03480486 -0.6851002 0.50253487 0.28755563 0.50259686 0.29075566 -0.6472667 0.29353216
0.09118789 0.20993587 -0.5709001 -0.2583831 -0.95246464 0.7240709 -0.54139835 -0.13428946
0.13570765 -0.27244782 0.90453583 0.58514243 0.06794733 -0.5040561 0.39324558 -0.29743493
-1.1737838 -0.38759473 0.13865885 -0.27261358 -0.20983928 -0.40621746 0.21104276 0.21333882
-0.78681755 0.0144241825 -0.47497153 0.1414733 0.14552255 0.007753676 0.27312663 0.27311462
0.9151006 -0.24160297 -0.30375293 -0.31095645 -0.1544559 -1.0891416 -0.1524896 0.9374161
-0.18715806 -0.37279227 -0.05361313 -0.54263383 -0.3578912 0.03350479 0.4909978 0.16264051
0.030398227 -0.2610219 -0.7709409 -0.4976642 -0.13585274 0.18536127 1.1090927 -0.33708498
0.4092257 -0.01727961 0.08023676 0.062686436 -0.30689806 -1.0802613 0.6875568 0.45586392

linearSequential.0.bias f4 [128]
00000000: 9a12 44bf 0dab c4be 52b4 bdbe 41bd 353e
00000010: 8944 8dbf df30 773c 9a98 2cbf b12e 41be
00000020: e6b3 62bf 96c1 f9bd eb2e 41bf 96f0 45be
00000030: 387c 16bf ac7c b9bc cdf4 aabc 2f58 abbc
00000040: 521f 5cbf db7b 08bf 2ca4 13bf 9573 24bf
00000050: 66e3 f4bd c18e 203e b75c c0be c2ef 0ebf
00000060: 061d e0be b7a9 0bbf eda7 fabe 7229 aebe
00000070: 0ca2 3abf 277f dd3c 6f5f 50be 2d45 89bf
00000080: e8ec 96bd b605 07bf 043f d7be 2a3f 24bf
00000090: df1d 7fbe ba69 59be 496a 40bf 1c48 20bf
000000a0: 4322 0ebf 61b6 97bc 5535 77bf 7c77 0c3d
000000b0: 9ca2 87bf 6f86 2fbf fe9b f9bb e420 c1be
000000c0: 59a4 45bf af78 c4be 06d3 d2be 041b b5be
000000d0: bfed f9be 72d2 d0be b846 78be d11c 3fbf
000000e0: 8f21 4cbf c8f7 47bf 40d2 19bf 1105 bdbe
000000f0: f636 a3bc 7585 bbbd fb53 1fbb edbb c03e
00000100: 4214 c8be 3422 0ebf 16d8 41bf 307c 77bd
00000110: 0055 e5bd 778f 9bbe 8ecf 67bf 6275 9fbd
00000120: 3e17 3abf f692 07bf f62e 3fbf a8e3 a63b
00000130: e45d cebe d8fb 4bbe 2b68 19bf 6bba 51bf
00000140: e877 03bd d2af 12bf c632 bfbe bf16 a4bd
00000150: 7e87 0fbf de64 3cbe 137a bfbe a442 133e
00000160: 2eed 05bf 27f2 5abf 06bf febc 02b5 c4be
00000170: d751 35bf 592f 4fbf dc0b 41bf 6327 4ebf
00000180: 9993 86bf 6fbf bfbe 7794 8cbd 9c63 b03c
00000190: 67fe 8fbe 9c4d 6f3d ea84 75be 4332 9fbe
000001a0: ea50 ccbe 2b8c 18bf ef8c 9ebe dbd0 89bf
000001b0: b71d 07bf 1cb6 dfbe 5b54 83be 12fd 573e
000001c0: 8620 c0be 1e8a d83e f6dc fabe dc74 cebe
000001d0: 1def 94bf 682a 8bbf 42de b6be 7113 74bf
000001e0: 4aa8 813e adaa f8bd 7707 cebe d883 56be
000001f0: 605e b3be 9a6c 80bd 617b e2be e472 e3bd
-0.76590884 -0.3841175 -0.37051636 0.17747976 -1.103654 0.015087335 -0.6742035 -0.18865468
-0.88555753 -0.12195127 -0.75462216 -0.19330058 -0.5878329 -0.022642456 -0.020868683 -0.020916073
-0.8598529 -0.5331399 -0.5767238 -0.64238864 -0.11957435 0.15679456 -0.37570736 -0.5583459
-0.43772143 -0.5455584 -0.48956242 -0.34015995 -0.72903514 0.02703817 -0.20348905 -1.0724236
-0.07369405 -0.5274309 -0.42040265 -0.6415888 -0.24913739 -0.21231738 -0.7516218 -0.6261003
-0.5552103 -0.018519582 -0.96565753 0.034293637 -1.05965 -0.68564504 -0.0076174727 -0.37720406
-0.772039 -0.38373324 -0.41176623 -0.35372174 -0.48814198 -0.40785557 -0.24245727 -0.74653345
-0.79738706 -0.7811246 -0.6008644 -0.36917928 -0.019923668 -0.09156314 -0.002431153 0.37643376
-0.39077955 -0.5552094 -0.75720346 -0.06042117 -0.11197853 -0.30382892 -0.9055108 -0.07786061
-0.72691715 -0.5295862 -0.7468103 0.0050930567 -0.40306008 -0.1992029 -0.5992457 -0.81925076
-0.032096773 -0.5729953 -0.37343425 -0.08012151 -0.5606612 -0.18397853 -0.37397823 0.1438089
-0.5231503 -0.85525745 -0.031096946 -0.38419348 -0.70828 -0.8093162 -0.7540872 -0.8052885
-1.0513793 -0.3745074 -0.06864255 0.021531872 -0.2812378 0.058423623 -0.23976484 -0.31093034
-0.39905483 -0.5958888 -0.309669 -1.0766863 -0.52779716 -0.43693626 -0.25650296 0.21092632
-0.37524813 0.42292875 -0.48996705 -0.40323532 -1.1635472 -1.0872316 -0.35716444 -0.95342165
0.25323707 -0.12141929 -0.4024007 -0.20948732 -0.3503294 -0.06270714 -0.44234756 -0.11105898

linearSequential.2.weight f4 [64, 128]
00000000: 0220 2f3d 2f52 2cbf 3e7f d2be 3aa5 4abe
00000010: 710c d73e c963 8bbe 016e af3c d86d 71be
00000020: 8d23 50bf 72d0 87bd df91 3cbf 106c a3bc
00000030: 0634 9bbd 4434 213e c690 febf 982e 393d
00000040: ba45 ac3f 4677 69bf 8ed6 f7bf 75b7 f0be
00000050: 6201 47bf b336 253f b00e 843f a23c 77bf
00000060: e28e 4d3f d128 dbbe 2696 fdbd f1e7 8fbf
00000070: 4493 84bf ba91 e23e 08c3 893d d1df 1dbf
00000080: fa61 0dbd 8f83 a2be 8e12 7f3e dba5 813d
00000090: 62c7 093f f388 aa3d b060 b1bf 9cad 86bf
000000a0: 7d67 0d3e f87f 32bd ed16 803d 2d98 ffbe
000000b0: c94b 9b3f 3a2f bf3d 4dfb a8be 6887 d03d
000000c0: 2c03 4abf 8628 5f3e e364 7cbf 8386 393e
000000d0: e37d 0cbf 8556 d1bc 7bf5 66bf e402 26bf
000000e0: 89ef 02bf 3620 3e3e dc35 613e 31d3 133e
000000f0: bba6 2e3e 327b 6bbf 3cc7 eebd c071 45bf
00000100: 916f ca3d e316 a63e 0d7d 233e 1665 ddbe
00000110: 8f7f a8be daa6 bfbd e741 e03d b520 b83d
00000120: 1657 8f3e a212 c2bf 0621 363f 4d8c 9ebf
00000130: c6a5 3fbf e4ba 49bf 7292 fbbe 3be9 e63d
00000140: 3696 acbd a9f6 e8be c2d2 edbc cfe3 05bf
00000150: 0cc1 bebe 12e1 25bf d77b 53bc 2c43 973d
00000160: cad5 e13d a53a 19c0 c278 b0be 67ff 19be
00000170: 7524 103d d6a6 4e3e d518 58bf 425b 0ebd
00000180: addd b53f 6917 c8be 6279 093d 8226 0fbe
00000190: e577 3d3c a893 debe 1550 e6be 34b9 a63c
000001a0: 9e37 42bd 086a dc3e ca95 fabe da22 bdbf
000001b0: 385e e6be ba86 5fbe fb6a 2cbf 38cb a7bf
000001c0: 7103 25be e8b9 3ebf 68e5 0a3e 919d c13e
000001d0: eb6d 02bf e0c9 533f c923 1c3e 8970 fabe
000001e0: f8c2 30bc d9fd 08bf 438b c0bd 5fd7 733e
000001f0: baaa 51be 767f 37be c769 84bf a241 03be
00000200: 91b9 32be 0928 933e 5280 abbe 13a9 02bf
00000210: ea0c 80be 39c7 c2be 52fa f33c 8bc0 d23e
00000220: b89e 0e3d fc9e 20be 7e2b 3e3f 3e0c 54bd
00000230: ecd6 8fbd e411 77bd 3b16 6b3d 72cb e23c
00000240: b297 14be 546a 893e 7840 55be 260f f33d
00000250: 280c a8be e4d6 8ebe a915 2abe e292 66be
00000260: 1ab2 9c3c 41e1 0cbc 8bec b0be b6ba e8be
00000270: be9e c7bd 27c1 0dbf c5fb 94be d364 84be
00000280: b68f cfbe cd24 073e fbd1 01bf 3c03 abbd
00000290: 6cd5 a4be 0759 5bbe 22df 88be f890 2bbe
000002a0: 039e 183d a8a4 113d ad9e 0d3c 1390 9cbe
000002b0: fdab 24bf 26bc e5be 5154 1e3d 2ed5 4fbe
000002c0: 783b ebbe e949 f3be bbbb 8abe a2e9 7abe
000002d0: 3151 713d c5f9 b5be fd90 33be 64c5 b139
000002e0: f145 b7be 0dee 9cbe 0f84 733e 8cf5 d2be
000002f0: 2434 cd3d 8a54 75bd c408 e3be dff2 a6bd
00000300: a7af f9bd 861e d0be 1a6e 6fbe 9734 b8bd
00000310: 51e4 afbd 9fc0 febe 7c04 11be 5b5b 22be
00000320: 4792 dbbe 245a 05bf 6329 4a3e eb07 f7bd
00000330: 2106 9cbe b96b 54be 089f 3dbe ec2f abbe
00000340: 1a94 6bbe d17e 9d3e adf9 88be 1f86 a1be
00000350: 4ec9 b53d 942d 35be 1f81 97be a40b 81be
00000360: 8432 4abe a512 903e 7cb9 96bd 4577 23be
00000370: fbe5 393e 48c5 0abf b8a7 503c 7109 90be
00000380: e1af f83c 1f5d 723d 8642 98bc aafd 92be
00000390: 30b7 4abe da83 cdbe e6d9 b2be 1aa5 95be
000003a0: e9f8 d8be c9e0 19be 8b0f e9be fea1 a3be
000003b0: 0dc0 d53b ffd4 81be 15f6 99bd 65e8 cdbc
000003c0: aa4b 223e b48a 04bf 1a27 9fbe 91b4 90be
000003d0: 1309 f53d 6980 f2bd 8b56 c03d ac9e a83d
000003e0: 946c 44be 0954 adbe 6f6b 123e 9164 48be
000003f0: 76b5 8ebe 4d80 f5bc 3587 1cbf 5288 a2bd
0.042755134 -0.673129 -0.41112703 -0.19789591 0.4200168 -0.27224568 0.021414759 -0.23577058
-0.81304246 -0.06631555 -0.7366008 -0.01994899 -0.07578282 0.15742594 -1.9887931 0.04521045
1.3458779 -0.9119762 -1.9362352 -0.47014967 -0.77736485 0.6453659 1.0316982 -0.96576893
0.80296147 -0.42804578 -0.12382154 -1.1242658 -1.0357442 0.44251806 0.067266524 -0.6166964
-0.034517266 -0.31740996 0.24909422 0.063304625 0.5381986 0.08326902 -1.3857632 -1.0521731
0.13809009 -0.04357907 0.06254373 -0.49920788 1.2132503 0.093351796 -0.33004227 0.10182077
-0.7891109 0.21792802 -0.9859144 0.18117718 -0.5487959 -0.025553951 -0.90218323 -0.6484816
-0.5114675 0.18566975 0.21993202 0.14436032 0.1705579 -0.91984856 -0.11659095 -0.77126694
0.09884561 0.32439336 0.15965672 -0.43241185 -0.3290982 -0.09357996 0.1095007 0.08990613
0.2799613 -1.5161936 0.7114414 -1.2386566 -0.74862325 -0.788008 -0.49135166 0.11274954
-0.08427088 -0.45500687 -0.029031161 -0.52300733 -0.37256658 -0.64796555 -0.012907944 0.07385859
0.11027105 -2.3942044 -0.3446713 -0.15038835 0.035191018 0.2018083 -0.8441289 -0.034755
1.4208275 -0.3908036 0.033563025 -0.13979533 0.01156423 -0.43472028 -0.44982973 0.020351984
-0.047416322 0.43049645 -0.48942405 -1.4776261 -0.44993758 -0.21828738 -0.6735074 -1.3108892
-0.16114594 -0.7450242 0.13564074 0.37815526 -0.5094897 0.8272991 0.15248026 -0.48913983
-0.010788672 -0.5351234 -0.09401562 0.23812626 -0.20475283 -0.17919716 -1.0344781 -0.12818006
-0.174536 0.28741482 -0.33496338 -0.51039237 -0.25009853 -0.3804262 0.029782448 0.41162524
0.034819335 -0.15685648 0.74285114 -0.051769488 -0.07023415 -0.060319796 0.057394248 0.0276849
-0.14510992 0.26838934 -0.20825374 0.11868124 -0.32821774 -0.27898324 -0.16609825 -0.22516969
0.019127894 -0.008598627 -0.34555468 -0.4545495 -0.097470745 -0.5537285 -0.29098335 -0.25858173
-0.4053933 0.13197632 -0.5071103 -0.08350226 -0.32194078 -0.2142068 -0.26732737 -0.1675452
0.037260067 0.03555742 0.008643788 -0.3057867 -0.64324933 -0.44870108 0.03865463 -0.20296165
-0.4594381 -0.47517326 -0.27096352 -0.24503186 0.05891532 -0.35542122 -0.17535777 0.00033907138
-0.3579555 -0.30650368 0.23780845 -0.41202962 0.10019711 -0.059895076 -0.44342625 -0.08151793
-0.12191706 -0.40648288 -0.23381844 -0.08994406 -0.0858847 -0.49756333 -0.14161867 -0.15855162
-0.42885038 -0.5209067 0.1974235 -0.12062057 -0.30473426 -0.20744218 -0.18517697 -0.33435
-0.23005715 0.30760816 -0.26752988 -0.3154764 0.088762864 -0.17693168 -0.295907 -0.25204194
-0.19745833 0.28139225 -0.07359597 -0.15963466 0.18154137 -0.5420728 0.0127353 -0.28132203
0.030357303 0.05917084 -0.018586408 -0.28709155 -0.19796443 -0.40139657 -0.34931868 -0.29227525
-0.42377403 -0.15027155 -0.4551967 -0.31959528 0.0065231384 -0.25357816 -0.075176395 -0.025135228
0.15849176 -0.51774144 -0.3108452 -0.2826276 0.119646214 -0.118408985 0.09391507 0.08233389
-0.19182044 -0.33853176 0.14298795 -0.19569613 -0.2787282 -0.029968405 -0.6114381 -0.07936157

linearSequential.2.bias f4 [64]
00000000: 3172 e7be 8894 f4be b87c aa3e d93a 2d3e
00000010: 4bde 58be 116e 7ebd a849 2bbe dfd4 9bbe
00000020: 6404 203e 1d25 8c3d 5efa 91bd f1db 95be
00000030: 2b3b 2f3f a75f f43e 7349 0abe dd33 f6bd
00000040: 2690 b3bd 2213 d43e 3288 773e 86ea d9bd
00000050: 2d3e 6ebe 204b 673e 926c cfbc 5b39 5ebe
00000060: 0191 a2be 443c 233e 39f6 413f 02b7 c2bd
00000070: 5c43 71be 1c76 343e d11f fd3c 14c2 16be
00000080: 5610 1d3c cad1 a0be 0f64 923e 34f1 b9bd
00000090: 0f27 f13e e546 9ebe 19d5 863e 071d b2be
000000a0: 40ad 08bc 974c 423e d696 293e 6718 edbd
000000b0: d4f2 d13e 66df ad3c be55 19be 13e2 833c
000000c0: 49c4 13be 817b 54be 48f9 8b3e 9dc5 3ebe
000000d0: 1978 21bd 8940 1fbe fbaf 45bc c027 f33d
000000e0: 4048 493f a75f 983d 3912 8fbe 1c3e f8bc
000000f0: bc12 5bbc 8423 163f b788 e93e a0f7 7e3e
-0.4520431 -0.4776957 0.33298278 0.1691698 -0.21178548 -0.062116686 -0.16727316 -0.30435845
0.15626675 0.06843016 -0.07127832 -0.29269364 0.6844966 0.47729227 -0.13504581 -0.12021611
-0.087677285 0.41420847 0.24173048 -0.10640435 -0.23265906 0.22587252 -0.025320325 -0.21701567
-0.31751254 0.15940958 0.7576633 -0.09507562 -0.23560852 0.1762318 0.03089896 -0.14722472
0.009586414 -0.31410056 0.28591964 -0.09079209 0.47100112 -0.30913463 0.26334456 -0.3478777
-0.008342087 0.18974529 0.16561446 -0.1157692 0.41005576 0.021224689 -0.14974114 0.016099012
-0.14430346 -0.20750238 0.27338624 -0.18630071 -0.039421175 -0.15551962 -0.012065883 0.11872816
0.7862587 0.07440119 -0.2794359 -0.030303054 -0.013371166 0.5864794 0.45612118 0.24899149

linearSequential.4.weight f4 [32, 64]
00000000: 081f 98bd c0b5 ccbc 806b a33d 5411 2abe
00000010: 7855 ce3c 2012 e03d baa0 843d b6a0 bbbd
00000020: 1020 0b3d 62bd cebd d000 8b3d 6097 28bc
00000030: c002 6fbc 60ff edbc e0de 4a3d 309f 773c
00000040: bad0 eb3d bebe 05be 1ef8 b5bd 4810 e9bd
00000050: bcec 853d eef0 86bd 7044 493c 20a7 5ebc
00000060: c8de 2e3d 443e 4bbd 16cc e83d d697 b93d
00000070: 60cb 923c ccaf d8bd 80e6 6e3c 80c3 40bc
00000080: 8899 19bd 00ee e8bd fc97 57be 846d 943d
00000090: 4e7c 12be 5893 393d 9e14 37be 86bc af3d
000000a0: a0cb 273d b8ef 473d b024 dbbc 7096 05bc
000000b0: f879 cbbd 3e2f b2bd 7ea0 f43d 1b39 e5bd
000000c0: 78a4 f43c d80f b6bd 7f78 e9bd 985b f8bc
000000d0: 7493 8fbd e8ed 91bc 0012 f83c f414 86bd
000000e0: 7d38 2bbe 965e a2bd 88e9 febc d016 2a3c
000000f0: a4fe 24bd d1de 24bd 9dd9 06be ee6f bc3d
00000100: 1329 e53c dee4 e9bd 724c 08bd f512 aebc
00000110: 8676 253d 4b33 37bd c214 0dbd 40e5 853e
00000120: a9c6 8a3d 3bf2 e7bd f7eb 3e3e 78d5 51be
00000130: f6e5 9f3d 1b53 583c 8e07 dcbd 0ee0 363e
00000140: 8ac0 be3d 32d7 acbd 785c eb3c f6df 58bd
00000150: d4da 3bbe 0e73 4bbd 6abc b73e e3da 08bd
00000160: 2bce 6dbe 8511 fe3b b032 2d3d 0fd4 3ebd
00000170: bd94 25bc da15 9d3d 2494 3f3d 13cd 9ebd
00000180: ec4c cdbc 3247 7fbe 68ef 05be 08f8 153e
00000190: 3a58 09be 14ad 38be 9d59 00be 9615 22be
000001a0: 7f1f 343d 8b3f d43d 43b4 a23d a6e2 ad3d
000001b0: 8bf2 33bd 688b 2abd e161 4dbd 6e64 5abe
000001c0: 2781 a8bb d98d 3bbe db62 b53c f1c6 a83d
000001d0: 4d85 183e c8bb 3c3e 7c4a b13e 50c1 32be
000001e0: 5c91 3d3c 54c1 123d ee03 07be bf00 9b3c
000001f0: 3833 de3d e575 44be 99e4 38be fd16 f8bc
00000200: 3084 38bd f07a e5bd 8ddd 92bd 6018 38bc
00000210: 9f8a 1fbd 0cb9 96bb 7cfa 8d3d 548e c5bd
00000220: 8d1d a5bc 941e b5be 4558 803d 70ac 87bd
00000230: 59b5 08bd a801 fcbd fbd4 adbd bcc4 ebbd
00000240: 08cd 2ebd 5b38 443c 1eac 90bc 80a8 8f3d
00000250: e0cb c43b 9cad 013c a1ca 993d df13 c03c
00000260: 69f4 153c 5949 1cbe 0e50 7cbd d33f d7bd
00000270: d26e b2bd b33f 1fbd f240 87bd c2df 9e3d
00000280: 52b8 3d3d 0d62 263d 0628 3abc 6f6d aebd
00000290: 0820 57bd 20e1 e9bd 1866 cabd ac2f 5b3d
000002a0: 56fd cbbd 5d99 75bd 1087 74bd 7406 8d3d
000002b0: 4062 1cbe 4305 23be 1b9b 15be 9a2c 43bc
000002c0: 7bcd 23be d65b 113d 32d0 95be 4860 99bc
000002d0: 5b11 80bd 7c0a 7c3d aa7e 03bd 3b5c 6fbc
000002e0: cde3 e6bd d9a6 f1bd 0c52 fcbd 53f1 23bd
000002f0: 3a8f fdbc 7fcd f4bc 75ad d3bc c16e b53c
00000300: b9f9 a13b 506f 7fbd 8f1e c8bd 9460 7fbe
00000310: ba30 8abd a4ad 26bd 7ef8 e63d a019 9ebc
00000320: b8a9 443d 6ed4 72be 2846 babd 40fd f2bc
00000330: 2632 10be 2636 453d 70c9 9bbc a084 623c
00000340: 7c6f 0ebd b03b 24be 5499 1fbd 28b2 533d
00000350: 803d ccbc 6ee7 5abe 6282 c6bd f4d4 773d
00000360: 4e6d 5d3e 43bd 7e3c 4f08 dbbc c8a8 d2bd
00000370: d2b0 86bd c0aa 423d 6a75 c9bd a07a ca3c
00000380: 1378 1dbe 00f6 f7ba 11d2 32be c064 a03b
00000390: 43f6 dabe 94f9 723d 6617 afbc 666e a23d
000003a0: 007f 4d3c 1890 3cbe 785d 38be 00be ed3d
000003b0: faea efbd e68b c03d 5895 13bd 81d3 90be
000003c0: 44c6 e93d 404b f03b fec9 13be 1e5e ddbd
000003d0: 0cf3 6cbe 30c9 9dbc 087a bdbc 5fdd 62be
000003e0: 70ad a0be c2a5 7dbe c088 113c 3e91 b6bd
000003f0: de9d 22be 1dca 96be f9b7 9dbe 5865 5ebe
-0.07427794 -0.024989009 0.079794884 -0.16608173 0.025187239 0.10940957 0.06475969 -0.091615126
0.033966124 -0.10094716 0.06787264 -0.010289997 -0.014588058 -0.029052436 0.049528956 0.015113637
0.11514421 -0.13061044 -0.08885215 -0.113800585 0.06539294 -0.065889224 0.012284383 -0.01358965
0.04269293 -0.049619928 0.11367051 0.090621635 0.017919242 -0.105804056 0.014581323 -0.011765361
-0.037499934 -0.1137352 -0.21054071 0.07247451 -0.14305231 0.045306534 -0.17878959 0.0858088
0.040965676 0.048812598 -0.026750892 -0.008153543 -0.09935373 -0.08700417 0.11944674 -0.11192533
0.029863581 -0.08889741 -0.11399936 -0.030317113 -0.07010546 -0.017813638 0.03028202 -0.06546965
-0.16720767 -0.07928197 -0.031117216 0.0103814155 -0.040281907 -0.040251557 -0.1316895 0.092010364
0.027973687 -0.11420606 -0.03327603 -0.021249274 0.040396236 -0.04472665 -0.034443624 0.26151466
0.06776173 -0.11325499 0.18644701 -0.20491588 0.078075334 0.013203408 -0.107436284 0.17858908
0.09314068 -0.08439483 0.028730616 -0.05294796 -0.18345195 -0.04967027 0.35885936 -0.03341187
-0.23223178 0.0077535533 0.042284667 -0.046588954 -0.010106263 0.076701835 0.046772137 -0.077539586
-0.025061093 -0.24929503 -0.13079607 0.14645398 -0.13412562 -0.18034774 -0.12534185 -0.15828547
0.04397535 0.10363682 0.079445384 0.084904954 -0.04393248 -0.041636854 -0.050142173 -0.21327373
-0.0051423493 -0.1831583 0.022141865 0.0824107 0.148946 0.18431008 0.3462714 -0.17456555
0.011570301 0.035828903 -0.13185093 0.018921254 0.10849613 -0.19185598 -0.18055953 -0.0302844
-0.04504794 -0.11205089 -0.07171164 -0.01123628 -0.03895056 -0.004599696 0.06932542 -0.096462876
-0.020155692 -0.35374892 0.06266836 -0.06624687 -0.03337607 -0.123050034 -0.084878884 -0.115121335
-0.042676 0.011976327 -0.017660197 0.07014561 0.006005749 0.007914927 0.075093515 0.023446975
0.00915251 -0.15262355 -0.061599784 -0.105102204 -0.087125435 -0.038879108 -0.06604184 0.07757522
0.04631836 0.040620852 -0.011362081 -0.085169666 -0.05252078 -0.11419892 -0.09882754 0.05351226
-0.09960429 -0.05996071 -0.05969912 0.068859965 -0.15271854 -0.15919976 -0.1460995 -0.011912489
-0.15996353 0.035487972 -0.29260403 -0.018722668 -0.0625331 0.061533436 -0.03210322 -0.014609392
-0.11273918 -0.11799402 -0.12320337 -0.040025067 -0.030952085 -0.029883144 -0.025839547 0.022147538
0.0049430993 -0.062362015 -0.097714536 -0.24939185 -0.06747575 -0.04069294 0.11277865 -0.019299328
0.04801342 -0.23713848 -0.090954125 -0.029661775 -0.1408163 0.048147343 -0.019016951 0.013825566
-0.03477429 -0.16038394 -0.038964584 0.051683575 -0.02493167 -0.21377346 -0.09692837 0.060505822
0.21623728 0.015548053 -0.02673736 -0.10286099 -0.065766945 0.04752612 -0.09836848 0.024716675
-0.15377836 -0.0018917918 -0.17462946 0.004894823 -0.42766008 0.059320047 -0.021373462 0.07931213
0.012542486 -0.18414342 -0.18004405 0.11608505 -0.1171474 0.094016835 -0.036031097 -0.28286365
0.11414769 0.0073331892 -0.14432523 -0.10808967 -0.2313959 -0.019260973 -0.023129478 -0.22154759
-0.31382322 -0.24770263 0.008882701 -0.089144215 -0.15880534 -0.29451075 -0.30804422 -0.21718347

linearSequential.4.bias f4 [32]
00000000: 166b cfbe c0fd 96bd 938b 22be 2e08 96be
00000010: 555d 9ebe 803e 75be 1223 113f 2916 8c3d
00000020: b3ad 48be 6b66 2cbe a7e1 aabe 62b0 e43d
00000030: a717 da3e 3cc1 bc3d f5a6 47be 2c17 68be
00000040: 1bdc 9abe b4b1 463e 601f a1be e94c 023f
00000050: 94ba b4be 160d a9bc af6d b83e 71eb 86bd
00000060: cc7a c53b fb21 cdbe def3 5d3f 77c3 37be
00000070: 20d7 40be 6de7 8bbd 620b 00bf f428 25be
-0.40511388 -0.07372618 -0.15873556 -0.29303116 -0.30930582 -0.23949623 0.5669414 0.06840164
-0.19597511 -0.16835944 -0.33375284 0.11166455 0.4259617 0.09216544 -0.19497283 -0.2266509
-0.30246052 0.19403726 -0.3146925 0.50898606 -0.35298598 -0.020636123 0.36021182 -0.06587876
0.0060266014 -0.40064988 0.86700237 -0.17945658 -0.18832064 -0.0683125 -0.5001737 -0.16128904

linearSequential.6.weight f4 [16, 32]
00000000: b021 b63c 3d2c 00bd be5f a03b 4380 dbbd
00000010: 0ef3 113e 423b b23d 4b2f d93c 2e0c 7dbd
00000020: c0b2 ca3c 9b42 81bc 815b d6bc 1fb5 76be
00000030: 8314 14be 96d2 d4be c596 15be 1908 63be
00000040: 20c4 0cbe 87aa 32bf 03bd d53c ce3f 073d
00000050: b5cc 753d 5965 42be 14d3 3dbe b07e 08be
00000060: bdc4 25be 60a9 143e 605f 123e 573a 293d
00000070: 1b58 923e 876c 983d 1ad9 a93d 55f1 8bbe
00000080: cff1 81be 0d2f 35bc 5936 0a3d 95fe f9bd
00000090: ce13 103d 8532 0a3e 5675 bf3d 3b4d 7dbf
000000a0: 67f3 59be 3ac3 ce3d f980 dcbe 6957 18bf
000000b0: 1a4d a1bf 2b53 7fbf 90b3 a63e 9fcc 15bf
000000c0: 98e0 d3bc 38a0 d33d 6eb3 863b 90ed 8cbf
000000d0: c6fc 9dbd e29e 993d dd3f ea3d 9b1b 3d3d
000000e0: f313 8ebe 9993 913d 3ca7 d73e 2d15 ddbd
000000f0: 9f3d 8e3c cce4 f7bd c029 3fbd 426a b53c
00000100: 77e4 08be 3df6 b5be 5385 a5bd 5e8a ac3d
00000110: f150 d13d 6e1b ae3d 5ebe 853d 68fe b7bd
00000120: 02a8 603d 11d7 0a3e 83e7 de3b 6246 823c
00000130: 9ba0 3fbe 6c7a 03be 932c fabc c82c 9abd
00000140: 72e7 7dbd 2252 95be 071c a13d 8717 143e
00000150: cd5e c5bd da77 56be 36e7 2fbe 2d33 7fbd
00000160: 23fc 5bbe cd85 023d 05ad cc3c 9499 ecbd
00000170: 6fb5 16bd 843c 813d e3d8 04be f870 32be
00000180: bab6 34be ae65 bcbd 2090 1dbe 1863 b33c
00000190: 9ac8 503e 66db ee3d 30e4 0b3f 341f c6be
000001a0: f54a 0ebe d1e2 59be 3e21 fbbd 8ceb 17be
000001b0: 0b6b 0e3e 36bb bcbd 0452 d6be 8e67 a6be
000001c0: 0167 2b3c ea49 42bd 3564 543e 0181 443f
000001d0: 6eac c73e 525e cebe f8a2 e6bd 89cc 45be
000001e0: 4b93 403e 0cea 0bbd 654a a03e 54c9 813c
000001f0: 120b a6be 4795 0f3e 3dcd 35be 8d1c 30be
00000200: e4d9 f2bd 975e 89be 7ef4 22be 33b3 313e
00000210: 9a12 04be f381 013e add6 dfbc de70 70be
00000220: 8f34 20be 8499 5e3d 0867 103f 4915 70be
00000230: fe8c aebe bfc7 cb3d 1fac 23be 1582 edbd
00000240: 2a12 2b3d 94af a63c e6c7 48be efcc 9c3e
00000250: e87c 11be 4185 25be 7e9a 7f3c 6e8f debd
00000260: 4c8f ddbb 9999 06be d958 46be 4b35 08bd
00000270: 39a2 babd 7d69 2cbe 8c03 12be 3e27 44bd
00000280: 5bfd 16be 1e79 e2bc e280 8c3d 7fa9 043e
00000290: 5299 d9be 7519 083e 2814 87be 7811 603c
000002a0: 9a22 d43d a937 273e c0ad e43b e2a4 b1bd
000002b0: 214e dfbe b0a4 d7be b442 babe 1007 f0be
000002c0: 00e0 b6ba dc4d 93be ccfc 7f3d 83af 1cbf
000002d0: e0ae 103c e6e1 ddbc cde1 9b3c bf07 46be
000002e0: 9c0a 363c 21fb 453f 47dc ddbc 0eea e03d
000002f0: 4c27 6abe b0e8 963c cd78 163e b56b b9bd
00000300: f20a b83d 0a8b 91be 009e bb3a 7e83 c63d
00000310: 403b bebd c0fa cb3b e722 143e c0de f4bd
00000320: dee9 d53d 46fb ed3d fcf2 00be 2624 50bd
00000330: f81b 43bd 69f1 56be f962 8abe 20cf 5dbc
00000340: 2534 333e 3845 6cbe 4ce5 bcbd 142f eebd
00000350: d0d2 15bc b77f 2cbe e0ce 9a3c 72b6 d0bc
00000360: 4050 12be 998b 233e 2867 4abd e7f8 f8bd
00000370: 0669 5bbd e46c 4bbd 8893 883d 4c94 13bd
00000380: a0f4 b53c d1b3 b3bd e856 24be 8496 12be
00000390: 4690 1cbe e03c 02be 12ed d33d 4c54 3fbd
000003a0: c8f3 173d 101a 33bc 3cf9 0dbe 68a6 fbbd
000003b0: 58b3 30be 11d0 5b3d 03b4 65bd 1c9b ccbd
000003c0: 4099 553c c052 4bbe eac1 e1bd 92c7 d43d
000003d0: 664b efbd 5244 94bd b798 0ebe 920d 3c3d
000003e0: 899e 08be 90af 4a3c 06a7 2dbe 929a a13d
000003f0: db08 443d 44b5 d0bd 5af6 fd3d b185 23bd
0.02223286 -0.03129219 0.004894226 -0.10717823 0.14252874 0.08702709 0.026511809 -0.061779194
0.024743438 -0.01577883 -0.02616668 -0.2409253 -0.1446095 -0.41566914 -0.14608295 -0.22171058
-0.13746691 -0.69791454 0.026091104 0.033019833 0.060009677 -0.18983974 -0.18537551 -0.13329577
-0.16188331 0.14517736 0.14294195 0.041315403 0.28582844 0.07442575 0.08293362 -0.2733256
-0.25379798 -0.011058581 0.033743236 -0.12206761 0.035175137 0.13495834 0.09348552 -0.9894597
-0.21284257 0.1009583 -0.43067148 -0.5950838 -1.2601655 -0.9973628 0.3255887 -0.5851535
-0.02586393 0.10333294 0.004110745 -1.1009998 -0.07714228 0.075010076 0.11437962 0.046168905
-0.27749595 0.0710823 0.42119777 -0.107950546 0.017363368 -0.121041864 -0.046670675 0.022145394
-0.13368402 -0.35539427 -0.0808207 0.08424829 0.102205165 0.085013255 0.0653045 -0.08984071
0.054847725 0.13558604 0.0068025007 0.015902702 -0.1871361 -0.12839669 -0.030538833 -0.075280726
-0.0619883 -0.29164225 0.07866674 0.144621 -0.096372224 -0.20944157 -0.17178044 -0.062304664
-0.21482901 0.031865884 0.024984846 -0.1155273 -0.036794122 0.063103706 -0.1297336 -0.17425907
-0.1764783 -0.09199081 -0.1538701 0.021897838 0.20389023 0.11662941 0.5464506 -0.3869568
-0.13895781 -0.2127793 -0.122622 -0.14835948 0.13908021 -0.09215395 -0.41859448 -0.3250088
0.01046157 -0.04743377 0.20741351 0.76759344 0.3899874 -0.40306336 -0.112615526 -0.19316305
0.18806188 -0.03415875 0.3130676 0.015843071 -0.3243032 0.14021789 -0.17754073 -0.17198391
-0.118579656 -0.2682998 -0.15913579 0.17353515 -0.12897721 0.12647228 -0.027324045 -0.23480555
-0.1564505 0.054345623 0.56407213 -0.2344562 -0.34091944 0.09950208 -0.15983628 -0.11597077
0.04176537 0.020347394 -0.19607505 0.30625102 -0.14207804 -0.16164114 0.015600799 -0.10867201
-0.006761467 -0.1314453 -0.1936983 -0.03325395 -0.09112973 -0.16837116 -0.14259166 -0.047888987
-0.14745085 -0.027645644 0.0686052 0.12955283 -0.42499787 0.13290961 -0.26382565 0.01367604
0.10358162 0.16329826 0.0069787204 -0.08674027 -0.43614295 -0.42117834 -0.36379015 -0.46880388
-0.0013952255 -0.2877034 0.062496945 -0.6120531 0.008830756 -0.027085256 0.019028569 -0.19338892
0.011110928 0.7733632 -0.027082575 0.109821424 -0.22866553 0.0184215 0.1469452 -0.090537466
0.08986463 -0.2842639 0.0014314055 0.09693049 -0.09288645 0.00622496 0.14466439 -0.11956549
0.10444997 0.11620192 -0.12592691 -0.050815724 -0.047634095 -0.20990528 -0.27028635 -0.013538152
0.1750036 -0.2307328 -0.092234224 -0.11630073 -0.0091445 -0.16845594 0.018897474 -0.025477622
-0.14288425 0.15971221 -0.049414784 -0.12156849 -0.053566955 -0.049664393 0.06668764 -0.0360301
0.022211373 -0.08774532 -0.16048777 -0.1431523 -0.15289411 -0.12718534 0.10347952 -0.04671125
0.037097722 -0.010931507 -0.13864607 -0.12287599 -0.17255914 0.053665224 -0.056079876 -0.09990522
0.013037026 -0.19855785 -0.11023314 0.103896275 -0.11684303 -0.072395936 -0.13925444 0.04591138
-0.13341726 0.012370959 -0.16958246 0.0789081 0.047860008 -0.10190824 0.124005035 -0.03992242

linearSequential.6.bias f4 [16]
00000000: b91d 7cbe ad29 4e3d 389e acbd 83f6 0dbe
00000010: 0159 babd a8fa 05be 60f0 89be 37b3 64be
00000020: e65a 823e 091f 9a3e 2e63 d4be f870 6d3e
00000030: bf1b 723e e3bd 623e 8832 773e 8c63 5f3e
-0.24620713 0.050332714 -0.08428615 -0.13863568 -0.090990074 -0.13083899 -0.26941204 -0.2233399
0.25459975 0.30101803 -0.41481918 0.23187625 0.23643397 0.22142749 0.2414037 0.21815318

linearSequential.9.weight f4 [2, 16]
00000000: 6d94 9dbd fe43 3b3e daec dbbe 3a41 cd3b
00000010: a215 753e fe95 8abc 4112 fbbc 9c05 273c
00000020: 654e 103d b590 54bd 3e1d 1c3e 0765 a9bc
00000030: 9463 0bbd 2c59 a83d dd8a 18bd 41da ac3d
00000040: 2536 bf3a 00c8 a03d e250 0bbe 073c 7fbe
00000050: 45cd 9bbc 9561 e03d c4ef 043e 8e9c ebbc
00000060: 0259 253e 88df 353e 50c0 433e 7d44 5b3e
00000070: 4095 513e 036f 2e3e e347 4a3e e43f 223e
-0.076943256 0.18287656 -0.4295414 0.006263879 0.23934034 -0.016917225 -0.030648353 0.0101942085
0.035231013 -0.051895816 0.1524553 -0.020678056 -0.034030512 0.08220133 -0.037241805 0.08440066
0.001458828 0.07850647 -0.13605073 -0.24925242 -0.019018779 0.10956112 0.12982088 -0.028761175
0.16147235 0.17761052 0.1911633 0.21412845 0.2046709 0.17034535 0.19753985 0.15844685

linearSequential.9.bias f4 [2]
00000000: 338f 873e 0170 4e40
0.2647644 3.2255862
