nnwf/nets/state_dicts/nnwf01.pt (torch, 49555 bytes, 10 tensors)

linearSequential.0.weight f4 [128, 3]
-0.4885407 1.2650224 0.60382503 0.047835432 0.054631952 -0.0259851 0.087707035 -0.1227674
-0.20135868 -0.9293913 -0.046208553 0.30746022 -0.058286246 -0.050118834 -0.110173166 -0.7155124
0.5062374 -0.053205125 -0.37406057 0.424641 -0.33295202 -0.21076716 0.13780406 0.73822635
0.31491998 -0.4736043 -0.39180034 -0.03590033 -0.1079852 -0.17577627 0.24446727 0.21307527
-0.3013021 0.13078272 -0.072291575 -0.24184087 0.25047532 0.014590141 -0.07010317 0.22849749
-0.16153574 -0.3166022 -0.29479718 0.17048196 0.015599309 -0.043283552 0.1982405 0.0329176
-0.3504086 0.30967718 0.17640975 -0.6869019 -0.017937293 0.18034248 -0.896804 -0.2725014
-0.15971918 0.09060319 -0.77546304 -0.53744876 0.050138906 -0.11264798 -0.10202989 0.43692517
-0.656675 -0.5101527 -0.0737356 0.116476215 -0.0061013103 -0.10272251 0.105783194 0.027988415
0.13418289 0.33481792 -0.0056387396 -0.78816354 -0.35414147 -0.3782341 -0.70628893 -0.25484687
-0.3072286 -0.0491387 0.25104454 -0.36481494 -0.2462068 0.3390361 -0.074089624 -0.14073479
-0.021095376 -0.07705756 -0.0018944817 0.0023363042 -0.005117045 0.41447166 -0.32455912 -0.6109689
0.35974726 0.026783701 -0.56908 -0.14183967 0.054823637 -0.012975089 -0.22109404 0.6768195
0.28479412 -0.79105294 0.14390168 0.31727704 -0.042284764 -0.064293556 -0.16916369 -0.93355215
0.15891355 0.12484599 0.0062672715 0.017180352 -0.10828574 0.21845588 -0.42112947 0.7531414
0.007105003 -0.060411926 -0.013184365 -0.21669766 0.47520432 0.13232714 -0.66704595 0.56263566
-0.018720994 0.100703694 0.05984574 0.25613257 -0.713577 -0.3245203 -0.35240993 0.6605047
0.3797821 0.0987564 0.31511068 0.34106672 -0.036382932 -0.10408158 0.25127658 -0.34394684
0.068676814 -0.5955466 -0.40670073 -0.6342299 -0.17057262 0.34857905 0.32001454 -0.069083884
0.078176126 0.69854087 -0.57351243 0.122771464 0.24531616 -0.14652064 0.058414277 -0.8043398
0.6275196 -0.014884613 0.16566552 0.40674034 -0.6115514 0.45516697 0.30264133 -0.5110159
0.21412288 0.6245009 0.22004993 0.591292 -0.10016929 -0.8709803 0.71253055 -0.5628451
0.06533498 0.13127184 -0.20568614 -0.2599685 0.14712684 0.026222045 0.4216482 -0.20015986
0.11408071 0.120951675 -0.0081802225 0.013292713 -0.03154098 -0.13080898 0.10320716 -0.20748386
-0.15602927 0.61261976 -0.49573657 0.5535514 -0.62071556 -0.6187367 0.3736073 -0.027679311
0.29320607 -0.046113145 0.15855423 0.34115446 -0.26855007 0.6454662 -0.7684897 -0.2779047
-0.38219735 -0.33222467 -0.4654112 -0.13746919 0.27299398 0.46143746 -0.49715695 0.17276137
-0.7888802 -0.11019298 0.16381912 0.34790713 -0.017890997 -0.53469557 0.025741668 -0.18654123
0.3113878 -0.35244775 0.30394205 0.024298448 0.047368277 -0.113824785 -0.1574748 -0.894608
-0.058122855 0.22424896 0.2575076 0.60705054 0.24690089 0.9889036 -0.147128 0.110766046
-0.04463148 -0.08460284 -0.09644305 0.31413147 -0.14091301 0.20698185 -0.26277545 0.20687345
-0.34660015 -0.9627733 0.965221 0.139742 -0.5907641 0.022154823 0.15100329 -0.1429022
00000000: 0222 fabe 41ec a13f 4794 1a3f 16ef 433d
00000010: c1c5 5f3d b4de d4bc bf9f b33d 7a6d fbbd
00000020: f830 4ebe 97ec 6dbf 2e45 3dbd 6d6b 9d3e
00000030: 8fbd 6ebd 6849 4dbd 78a2 e1bd d22b 37bf
00000040: c698 013f 9eed 59bd de84 bfbe 8c6a d93e
00000050: b078 aabe 59d3 57be 821c 0d3e 67fc 3c3f
00000060: 313d a13e 437c f2be 0e9a c8be 390c 13bd
00000070: 5827 ddbd b2fe 33be a155 7a3e 6730 5a3e
00000080: 4544 9abe e8eb 053e 9b0d 94bd 22a5 77be
00000090: 4d3e 803e 7d0b 6f3c 4092 8fbd 3ffb 693e
000000a0: a069 25be af19 a2be a8ef 96be d392 2e3e
000000b0: 3e94 7f3c 184a 31bd 8fff 4a3e 9bd4 063d
000000c0: c268 b3be 028e 9e3e c2a4 343e ced8 2fbf
000000d0: 3bf1 92bc b3ab 383e f294 65bf 4e85 8bbe
000000e0: 6d8d 23be 2a8e b93d bf84 46bf 3e96 09bf
000000f0: 745e 4d3d fcb3 e6bd 0cf5 d0bd a8b4 df3e
00000100: da1b 28bf 5e99 02bf b102 97bd 158b ee3d
00000110: 80ed c7bb 2e60 d2bd dca4 d83d f647 e53c
00000120: 3d67 093e 416d ab3e 2dc5 b8bb 16c5 49bf
00000130: 0852 b5be e6a7 c1be 5acf 34bf 4a7b 82be
00000140: 114d 9dbe a945 49bd e988 803e 06c9 babe
00000150: a31d 7cbe 2496 ad3e 4dbc 97bd c81c 10be
00000160: 36d0 acbc 5bd0 9dbd 4250 f8ba ae1c 193b
00000170: e2ac a7bb a135 d43e 9d2c a6be 7568 1cbf
00000180: cb30 b83e 7e69 db3c 3aaf 11bf 6b3e 11be
00000190: c08e 603d 7895 54bc 7a66 62be 0b44 2d3f
000001a0: 89d0 913e 7282 4abf f65a 133e 2372 a23e
000001b0: ca32 2dbd 57ac 83bd 3f39 2dbe 46fd 6ebf
000001c0: 3cba 223e 41af ff3d af5d cd3b cfbd 8c3c
000001d0: eac4 ddbd e6b2 5f3e 489e d7be e0cd 403f
000001e0: 16d1 e83b 7f72 77bd 3c03 58bc fee5 5dbe
000001f0: fb4d f33e c480 073e 86c3 2abf e408 103f
00000200: c55c 99bc bd3d ce3d cf20 753d cf23 833e
00000210: fbac 36bf 8627 a6be 136f b4be d616 293f
00000220: cd72 c23e cc40 ca3d 3056 a13e 4ca0 ae3e
00000230: 4506 15bd b928 d5bd 53a7 803e cd19 b0be
00000240: 6ea6 8c3d be75 18bf 143b d0be e45c 22bf
00000250: 97aa 2ebe f478 b23e f2d8 a33e da7b 8dbd
00000260: ce1a a03d 93d3 323f b6d1 12bf 9b6f fb3d
00000270: 2934 7b3e 8209 16be cf43 6f3d 37e9 4dbf
00000280: 20a5 203f 98de 73bc 39a4 293e 4540 d03e
00000290: a28e 1cbf a50b e93e cef3 9a3e f0d1 02bf
000002a0: 0743 5b3e 4adf 1f3f c554 613e ea5e 173f
000002b0: 8f25 cdbd 91f8 5ebf 6768 363f 9e16 10bf
000002c0: 59ce 853d 206c 063e 639f 52be 971a 85be
000002d0: 6ba8 163e 9dcf d63c 46e2 d73e b5f6 4cbe
000002e0: 26a3 e93d 83b5 f73d 5706 06bc aec9 593c
000002f0: 1d31 01bd caf2 05be 475e d33d a676 54be
00000300: 23c6 1fbe a6d4 1c3f 2fd1 fdbe 8bb5 0d3f
00000310: 37e7 1ebf 8765 1ebf 7549 bf3e b9bf e2bc
00000320: 1b1f 963e 23e1 3cbd 0a5c 223e ccab ae3e
00000330: 657f 89be 463d 253f bebb 44bf 8649 8ebe
00000340: 5faf c3be 5a19 aabe 604a eebe b9c4 0cbe
00000350: dec5 8b3e 8841 ec3e 5b8b febe 5be8 303e
00000360: 0ef4 49bf dbac e1bd 33c0 273e e220 b23e
00000370: 2490 92bc cfe1 08bf 31e0 d23c aa04 3fbe
00000380: 396e 9f3e 0874 b4be 4b9e 9b3e 8a0d c73c
00000390: 3d05 423d f81c e9bd 1341 21be 0805 65bf
000003a0: 3b12 6ebd 85a1 653e 09d8 833e aa67 1b3f
000003b0: 96d3 7c3e c928 7d3f b9a8 16be 4fd9 e23d
000003c0: 80cf 36bd 4144 adbd ef83 c5bd d7d5 a03e
000003d0: 804b 10be 0df3 533e 818a 86be a2d6 533e
000003e0: 9375 b1be 5078 76bf b918 773f 8718 0f3e
000003f0: 513c 17bf 087e b53c 9ba0 1a3e f454 12be

linearSequential.0.bias f4 [128]
-0.42781538 0.12489093 -0.2780844 -0.8006103 0.049589735 -0.0073176245 -0.7883404 -0.5047281
-0.13296846 -0.028888004 -0.23146337 -0.34619117 -0.97500724 -0.18466198 -0.10097397 -0.017778775
-0.15611981 -0.6277143 -0.6902227 -0.8875828 -0.09391594 -0.2871933 0.024472669 -0.045606483
-0.44691154 -0.8706775 -0.7375427 -0.59370464 0.23743951 0.15268219 -0.0096962815 -0.34172767
-0.56359684 0.15991755 -0.3495018 -0.5493585 -0.02567119 -0.49216685 0.15723987 -0.50883335
-0.19366388 0.04552543 -0.03213286 0.119161636 -0.792121 -0.717116 -0.61670834 -0.5113078
-0.6640598 -0.7660112 0.02949096 -1.0879545 0.08425132 -0.028338755 -0.79781115 -0.28728336
-0.5930681 -0.81229395 -1.1062346 0.11226252 0.27558532 -0.2563297 -0.009738387 -0.111967064
-0.94132906 -0.40823424 -0.7278543 0.2689412 -0.8828825 -0.5830285 -0.6075933 -0.7007469
-0.60820365 -0.50018543 -0.25497466 0.38295013 0.069908306 -0.78155607 -0.62987953 -1.5750383
0.038734924 0.18264766 -0.070435405 -0.04675387 -0.5630431 -0.06525952 -0.27444813 0.10996649
-0.2478325 -0.5384495 0.2968087 -0.51732355 0.36762032 0.13994089 -0.542827 -0.35992786
0.054755043 -0.8222018 0.2641201 -0.5018084 -0.060876872 -0.52892214 -0.82323366 -0.009632256
-0.8957428 -0.62553585 -0.308143 -0.25340506 0.0066034785 -0.3287178 -0.29875192 -1.1532617
-0.5255336 -0.7213401 -0.3916035 -0.40228096 -0.6026128 -0.72849655 0.04051239 0.06979875
-0.12886234 -0.79467285 -0.96723723 -0.24334449 0.31257388 -0.3398794 -0.35620153 -0.7858152
00000000: 9e0a dbbe d1c6 ff3d 1461 8ebe ccf4 4cbf
00000010: 9b1e 4b3d afc8 efbb add0 49bf dc35 01bf
00000020: e228 08be 89a6 ecbc bc04 6dbe f83f b1be
00000030: 139a 79bf 0818 3dbe 71cb cebd cba4 91bc
00000040: dfdd 1fbe e2b1 20bf 6fb2 30bf a038 63bf
00000050: 0057 c0bd 000b 93be e87a c83c ddcd 3abd
00000060: 97d1 e4be b8e4 5ebf 99cf 3cbf 07fd 17bf
00000070: 5823 733e b858 1c3e 27dd 1ebc eef6 aebe
00000080: e247 10bf 6dc1 233e e6f1 b2be c2a2 0cbf
00000090: 634c d2bc 4bfd fbbe 7d03 213e e742 02bf
000000a0: d34f 46be e078 3a3d bf9d 03bd 040b f43d
000000b0: 71c8 4abf ea94 37bf 99e0 1dbf 11e5 02bf
000000c0: d3ff 29bf 4f19 44bf 0797 f13c 1842 8bbf
000000d0: f58b ac3d ad26 e8bc 5a3d 4cbf ce16 93be
000000e0: 50d3 17bf 7ff2 4fbf 1899 8dbf e4e9 e53d
000000f0: 8519 8d3e a53d 83be c18d 1fbc fd4e e5bd
00000100: f1fa 70bf 1404 d1be a954 3abf a9b2 893e
00000110: 9604 62bf 5b41 15bf 3c8b 1bbf 2664 33bf
00000120: 3cb3 1bbf 270c 00bf 0a8c 82be 0a12 c43e
00000130: 162c 8f3d 0f14 48bf c93f 21bf db9a c9bf
00000140: 83a8 1e3d fd07 3b3e 7040 90bd fc80 3fbd
00000150: 9823 10bf c9a6 85bd 7784 8cbe 1c36 e13d
00000160: cec7 7dbe d4d7 09bf 4ff7 973e 516f 04bf
00000170: bb38 bc3e aa4c 0f3e b6f6 0abf 7748 b8be
00000180: d346 603d d17b 52bf c03a 873e 8476 00bf
00000190: 075a 79bd 7167 07bf 71bf 52bf 9cd0 1dbc
000001a0: 664f 65bf 1e23 20bf ebc4 9dbe 4fbe 81be
000001b0: fe61 d83b b34d a8be 03f6 98be 149e 93bf
000001c0: 5f89 06bf bfa9 38bf 4180 c8be c5f7 cdbe
000001d0: d544 1abf c07e 3abf 52f0 253d a6f2 8e3d
000001e0: 7df4 03be ae6f 4bbf dc9c 77bf 4c2f 79be
000001f0: af09 a03e ac04 aebe 0c60 b6be 2f2b 49bf

linearSequential.2.weight f4 [64, 128]
-0.36914942 0.02496926 -0.10411453 -0.37756887 -0.0008793627 -0.19643787 -0.11274228 0.062454894
-0.2463193 -0.037646353 0.15337491 -0.13774288 0.64626354 -0.046755746 -0.1255061 -0.06217682
0.0022505303 -0.21262024 -0.39885813 0.25881553 -0.0504182 -0.2513012 -0.097528726 -0.10570382
-0.11987836 -0.3221357 -0.32865545 0.018474936 -0.032231417 -0.10409761 -0.053287376 -0.31311604
-0.11018597 0.018616108 -0.18183993 -0.1117893 -0.118100375 -0.30546397 -0.15194204 0.27709252
-0.00088410696 -0.016631216 -0.14421965 0.07402096 -0.17755903 -0.25152454 -0.13612199 -0.07146653
0.050680414 -0.25350973 0.005225898 0.50777453 0.0035943647 -0.20022222 -0.47136247 0.11946778
-0.24675396 -1.4700933 0.4111231 -0.14704622 0.078525424 -0.048087664 -0.054000266 0.009862024
-0.29837948 -0.11382965 0.22054717 0.016522046 -0.2847954 -0.07346684 -0.3470291 0.25733018
-0.1864024 -0.2079077 -0.017475381 -0.0047604106 -0.13270542 -0.48973107 -0.14988276 2.554532
-0.07274044 0.057933487 0.056962878 -0.2632846 -0.11679986 0.013959496 0.05022273 -0.01183362
-0.045824267 -0.20542032 -0.09943282 -0.09570404 -0.009985168 -0.04596527 -0.10883219 -0.032868113
-0.09176757 -0.23879789 0.039273392 -0.44559222 0.07423063 0.22484526 -0.37677792 0.004705896
-0.5228086 0.093827784 -0.19658877 -0.13848609 0.029954731 -0.16770434 -0.06832131 0.6295093
0.24164812 -0.49999213 -0.37773654 -0.17533253 -0.0034894384 -0.115218475 -0.012486506 -0.18178028
-0.011893671 -0.021596761 0.5516757 -0.04300425 0.03299438 -0.08744316 -0.08589968 0.2964138
-0.18599413 0.022783618 -0.04265884 -0.10735326 0.010579197 -0.014544144 -0.11738074 -0.07034914
-0.055165958 -0.009368156 -0.009988934 -0.1551995 -0.19774531 -0.02141078 0.019966232 -0.078633875
-0.12522173 0.112121746 -0.1400191 -0.11091149 -0.084317654 -0.24219467 0.018542215 -0.018248394
-0.029856646 -0.08457919 -0.16369362 -0.08940792 -0.0531989 0.09255051 -0.033078782 -0.07997217
-0.12602815 -0.018970363 0.066606395 -0.027983548 -0.06876055 -0.13239563 0.047898017 -0.11877233
-0.1324109 0.025096772 -0.06690263 -0.10677091 -0.26027682 -0.1382179 -0.07365049 -0.10602053
-0.21985748 -0.10462125 -0.10591633 -0.1443037 -0.0031252045 0.008348732 -0.14452796 -0.047564887
-0.15404652 -0.09778341 -0.013585366 0.009565115 0.0465424 0.014311539 -0.0425127 0.043951645
-0.08581344 -0.08294311 -0.14220059 -0.07083201 -0.15989427 -0.11517101 -0.18597877 -0.28652367
-0.052004557 -0.047424547 0.017411008 -0.03152154 -0.095283195 -0.11414684 -0.061968137 0.008380369
0.08567389 -0.027697125 -0.018098941 -0.13921306 -0.027340455 -0.05713775 -0.12714918 0.006429547
-0.021205211 -0.055635255 -0.09350972 -0.12916967 -0.054339606 0.046444967 -0.059883162 -0.17997478
-0.08114884 -0.13459136 -0.026887553 -0.15216349 0.045266345 0.01036611 -0.25184047 -0.055810593
-0.13899289 -0.14127557 -0.12525427 -0.014190814 -0.025939997 -0.1746127 -0.037290018 -0.18103538
0.08997256 -0.17492233 -0.07388321 -0.12973848 -0.05194095 -0.12535217 -0.025538955 -0.032827817
0.007790467 -0.29411837 -0.13500455 -0.0030206977 0.060066298 -0.06575797 -0.09170509 -0.12461021
00000000: 2701 bdbe 558c cc3c 003a d5bd b550 c1be
00000010: 0885 66ba 0227 49be 6de5 e6bd b4d0 7f3d
00000020: 203b 7cbe 1033 1abd 500e 1d3e 780c 0dbe
00000030: 8771 253f f482 3fbd ac84 00be 1fad 7ebd
00000040: a27d 133b 1fb9 59be 2237 ccbe 7883 843e
00000050: 5183 4ebd 8daa 80be 24bd c7bd 3f7b d8bd
00000060: c982 f5bd f8ee a4be 8745 a8be c058 973c
00000070: 1705 04bd 2131 d5bd dd43 5abd bf50 a0be
00000080: 2fa9 e1bd cf80 983c 3f34 3abe caf1 e4bd
00000090: 9cde f1bd c665 9cbe b296 1bbe 12df 8d3e
000000a0: 6ac3 67ba 303e 88bc 51ae 13be 4d98 973d
000000b0: 09d2 35be d3c7 80be 9063 0bbe 0b5d 92bd
000000c0: 4496 4f3d 07cc 81be 033e ab3b 83fd 013f
000000d0: 6f8f 6b3b 0e07 4dbe 6c56 f1be 86ab f43d
000000e0: 12ad 7cbe 042c bcbf ba7e d23e 4993 16be
000000f0: f0d1 a03d 92f7 44bd 622f 5dbd 5494 213c
00000100: 32c5 98be 851f e9bd 1ed7 613e 3e59 873c
00000110: b4d0 91be c875 96bd ccad b1be c8c0 833e
00000120: 45e0 3ebe c2e5 54be 8828 8fbc 38fd 9bbb
00000130: eee3 07be 08be fabe de7a 19be 747d 2340
00000140: f1f8 94bd aa4b 6d3d e851 693d 3dcd 86be
00000150: c434 efbd 5fb6 643c 59b6 4d3d cde1 41bc
00000160: 3ab2 3bbd b459 52be 6fa3 cbbd 7b00 c4bd
00000170: d598 23bc 1446 3cbd 69e3 debd b7a0 06bd
00000180: a3f0 bbbd 6f87 74be 23dd 203d aa24 e4be
00000190: 3b06 983d d63d 663e 09e9 c0be eb33 9a3b
000001a0: c9d6 05bf c828 c03d 914e 49be 4ccf 0dbe
000001b0: a063 f53c b0ba 2bbe 0bec 8bbd 8627 213f
000001c0: 9b72 773e f8fe ffbe af66 c1be 5f8a 33be
000001d0: 10af 64bb aaf7 ebbd 3494 4cbc 9c24 3abe
000001e0: acdd 42bc b1eb b0bc 9e3a 0d3f 3925 30bd
000001f0: 1d25 073d 6615 b3bd 2cec afbd 8dc3 973e
00000200: 3f75 3ebe b6a4 ba3c 09bb 2ebd 07dc dbbd
00000210: 5e54 2d3c 904a 6ebc 5065 f0bd 3613 90bd
00000220: b3f5 61bd e57c 19bc a0a8 23bc 9eec 1ebe
00000230: bf7d 4abe a965 afbc 3990 a33c cc0a a1bd
00000240: 203a 00be 16a0 e53d 2b61 0fbe 9025 e3bd
00000250: bcae acbd e101 78be d8e5 973c a87d 95bc
00000260: ed95 f4bc db37 adbd 4d9f 27be 801b b7bd
00000270: 17e7 59bd 1f8b bd3d 9e7d 07bd 73c8 a3bd
00000280: 860d 01be bc67 9bbc ef68 883d c13d e5bc
00000290: 55d2 8cbd b892 07be b630 443d e83e f3bd
000002a0: b996 07be bf97 cd3c 3f04 89bd b5aa dabd
000002b0: 0143 85be fe88 0dbe 11d6 96bd 4b21 d9bd
000002c0: 5222 61be aa43 d6bd a9ea d8bd 59c4 13be
000002d0: 3bd0 4cbb 1fc9 083c 23ff 13be 66d3 42bd
000002e0: 5fbe 1dbe ab42 c8bd 2895 5ebc 00b7 1c3c
000002f0: 3ea3 3e3d f27a 6a3c cc21 2ebd a406 343d
00000300: f5be afbd 14de a9bd 089d 11be 5f10 91bd
00000310: 53bb 23be c7de ebbd 3871 3ebe 3bb3 92be
00000320: bb02 55bd 3e40 42bd 88a1 8e3c bb1c 01bd
00000330: d623 c3bd d2c5 e9bd 4dd2 7dbd d14d 093c
00000340: cb75 af3d 15e5 e2bc 3b44 94bc de8d 0ebe
00000350: 17f9 dfbc 4609 6abd 6533 02be f3ae d23b
00000360: 8db6 adbc cbe1 63bd 0682 bfbd 0e45 04be
00000370: 3593 5ebd 143d 3e3d 0c48 75bd 4f4b 38be
00000380: 5d31 a6bd 51d2 09be 4943 dcbc bfd0 1bbe
00000390: 3469 393d 9ed6 293c 3cf1 80be a699 64bd
000003a0: 2754 0ebe 8baa 10be a842 00be 9780 68bc
000003b0: 1e80 d4bc accd 32be 6bbd 18bd 5761 39be
000003c0: 8943 b83d d71e 33be 1550 97bd 2ada 04be
000003d0: 09c0 54bd 525c 00be 1237 d1bc 7676 06bd
000003e0: 2c47 ff3b af96 96be a23e 0abe e6f6 45bb
000003f0: 1408 763d 1dac 86bd e1cf bbbd a333 ffbd

linearSequential.2.bias f4 [64]
0.0100301495 0.060342308 -0.036188565 0.016358985 0.22200501 -0.19302921 0.036804777 -0.051564198
-0.18541281 0.22096056 -0.021219809 -0.08343484 -0.1184815 0.044732578 -0.092805445 -0.06890001
-0.020372096 -0.00080457993 -0.21668819 0.032096647 -0.3495908 0.0953983 0.074100025 0.14649203
-0.027781872 0.15927503 -0.05194475 0.007908162 -0.079482034 -0.052899867 -0.0974191 0.0022441992
-0.14413573 0.51529145 -0.0008793608 -0.11187 -0.01085764 0.2461892 -0.251288 -0.081178576
0.0035071315 0.19743873 -0.100122325 0.054844417 -0.04658349 0.20264208 -0.1871073 0.017585695
-0.12337288 0.01831152 -0.08172345 -0.010457695 -0.04245765 0.028209418 0.009480643 -0.099680446
-0.09343354 -0.213104 -0.118662655 -0.11205454 -0.09519818 -0.20768912 -0.07469977 -0.068189286
00000000: 7f55 243c 7f29 773d 763a 14bd 4703 863c
00000010: 4855 633e 73a9 45be 9bc0 163d fb34 53bd
00000020: dbdc 3dbe 7c43 623e 2ad5 adbc e3df aabd
00000030: 6ea6 f2bd 8239 373d c810 bebd 731b 8dbd
00000040: 62e3 a6bc 72ea 52ba 82e3 5dbe c677 033d
00000050: 91fd b2be 2f60 c33d c1c1 973d 0202 163e
00000060: cf96 e3bc fe18 233e 05c4 54bd 3c91 013c
00000070: 7ac7 a2bd 88ad 58bd aa83 c7bd 6a13 133b
00000080: 5198 13be 24ea 033f e884 66ba 191c e5bd
00000090: 3ee4 31bc 0619 7c3e d2a8 80be f440 a6bd
000000a0: e7d7 653b 612d 4a3e ef0c cdbd 8aa4 603d
000000b0: 54ce 3ebd 6881 4f3e 0e99 3fbe e00f 903c
000000c0: ecaa fcbd 0a02 963c a05e a7bd c156 2bbc
000000d0: 13e8 2dbd 7017 e73c b354 1b3c 4325 ccbd
000000e0: 155a bfbd ef37 5abe 6805 f3bd da7c e5bd
000000f0: 43f7 c2bd 75ac 54be 31fc 98bd d3a6 8bbd

linearSequential.4.weight f4 [32, 64]
-0.04697241 -0.034016185 0.06770505 0.009045349 0.051019922 -0.14060313 -0.07003109 0.027505126
-0.043117672 -0.12751469 0.050388467 -0.15069653 -0.07696651 -0.091270864 0.010643348 -0.03410224
-0.055230666 -0.14966549 0.041771755 -0.07308228 -0.13786732 -0.0046430347 0.042239457 -0.06311893
-0.09680325 -0.061477374 -0.1280304 -0.14994022 0.027982518 0.06689522 0.0716482 -0.05315587
-0.042377997 -0.02222134 0.005919448 -0.07778862 0.045924783 -0.028376102 -0.060647223 -0.08935925
-0.14233977 -0.14020492 -0.053918924 -0.14091623 -0.103754684 0.04605978 -0.04924155 -0.06875683
0.028453682 -0.029280037 -0.0613317 0.065194026 0.059791535 0.07649701 0.09390616 0.038766008
-0.026850594 -0.05474302 0.0030957852 0.06297778 -0.1625952 0.06064016 0.050170537 -0.0033970624
-0.10368989 0.046190847 0.14222614 0.11432221 -0.28968892 0.079085685 -0.027913587 -0.082361154
0.22107704 -0.12488193 0.088206224 -0.052714486 0.11638489 0.13098553 -0.10854394 -0.038237642
0.11862031 -0.06273043 0.23715156 0.025636723 0.6672835 -0.42145535 -0.028603138 -0.24679592
0.15222205 -0.49163353 -0.122231424 0.047091354 -0.03425865 0.26807356 -0.18519807 -0.032548938
-0.13279964 -0.9574218 0.06093213 0.08500252 0.058590617 -0.3086372 0.19142583 -0.22993368
0.104230046 -0.5413754 0.007243813 -0.014392263 0.053717207 -0.0914453 0.16305007 0.0074116546
0.03916892 -0.031563587 0.048992176 -0.044297215 -0.12875038 -0.056506354 -0.09877852 -0.034040507
-0.21198219 0.0068278173 -0.052136615 0.07052252 0.070505634 -0.040754296 -0.15352033 -0.039661583
-0.08547452 0.050931517 -0.0569351 0.09170891 -0.06959753 0.10461813 -0.052536026 0.042851463
0.106699586 -0.11212146 -0.11157699 0.08159043 0.046246067 0.12193076 -0.11491421 -0.13059531
0.011368662 -0.11992863 0.037296683 -0.10070565 -0.0343723 -0.083640724 -0.1171143 0.057391368
-0.01772511 -0.08339712 -0.03410495 -0.066054106 0.059640616 0.04276522 -0.16154274 0.04227996
-0.06789266 -0.042970408 -0.11381015 0.05008182 0.015202135 -0.011649004 -0.10951256 -0.024444895
-0.029342292 -0.041765384 -0.09789752 0.010453352 -0.08319434 -0.10771417 0.01199899 0.022272713
-0.10496426 -0.038885802 -0.03738299 0.12136851 0.060742468 -0.15040904 -0.0048870593 0.06892433
-0.11953481 0.09560071 -0.042381734 0.08290318 -0.13601013 -0.029992165 0.047093622 -0.05266505
-0.031710956 -0.035402756 0.04134007 -0.13978091 -0.29480982 0.07115505 0.089258164 -0.06281829
-0.013316229 -0.030725764 -0.099929556 0.0539353 0.012898983 -0.010720447 -0.073822215 0.012726488
-0.08159298 0.0075643207 0.044973984 -0.08366771 0.33740002 -0.29688585 -0.009056479 -0.09241806
-0.031025214 -0.17028119 0.36320016 0.08819041 0.09231424 -0.018819988 0.39902923 0.01289922
0.09339872 0.09514351 -0.04932472 -0.12140851 -0.051194757 -0.06665261 -0.14961907 -0.18799582
-0.15328227 -0.120483436 -0.09571153 -0.10037214 -0.07799006 -0.15274815 -0.12892316 -0.039734136
-0.14115267 -0.0013442284 0.07900867 -0.13397416 0.30897602 -0.0030118206 0.025423998 -0.21709852
-0.0822408 -0.03607096 0.06168597 -0.11402342 -0.066606395 0.36948124 -0.045292202 -0.13487789
00000000: 2466 40bd 8e54 0bbd f2a8 8a3d f232 143c
00000010: 44fa 503d 44fa 0fbe 766c 8fbd 6e52 e13c
00000020: 289c 30bd 3693 02be 2364 4e3d 3150 1abe
00000030: 9ea0 9dbd 38ec babd 7061 2e3c caae 0bbd
00000040: 8d39 62bd e941 19be dc18 2b3d 2aac 95bd
00000050: 172d 0dbe 9924 98bb 4803 2d3d 7f44 81bd
00000060: c840 c6bd b3cf 7bbd 671a 03be ee89 19be
00000070: 983b e53c 5c00 893d 4bbc 923d f8b9 59bd
00000080: 8d94 2dbd 8709 b6bc eef7 c13b a44f 9fbd
00000090: a01b 3c3d 0075 e8bc 3969 78bd fc01 b7bd
000000a0: 84c1 11be e191 0fbe 17da 5cbd 584c 10be
000000b0: 567d d4bd 2ea9 3c3d 82b1 49bd 62d0 8cbd
000000c0: b217 e93c b0dc efbc f336 7bbd 7284 853d
000000d0: f8e7 743d 77aa 9c3d df51 c03d 1bc9 1e3d
000000e0: c7f5 dbbc 383a 60bd a8e2 4a3b 7ffa 803d
000000f0: 5b7f 26be d161 783d 9f7f 4d3d 40a1 5ebb
00000100: 5d5b d4bd 9d32 3d3d bba3 113e c321 ea3d
00000110: 1b52 94be adf7 a13d 09ab e4bc f7ac a8bd
00000120: 0562 623e 19c2 ffbd 77a5 b43d 25eb 57bd
00000130: 345b ee3d 1221 063e 494c debd 139f 1cbd
00000140: 35ef f23d d078 80bd dcd7 723e 1b04 d23c
00000150: 17d3 2a3f ffc8 d7be 2151 eabc 12b8 7cbe
00000160: 19e0 1b3e 64b7 fbbe 7854 fabd dde2 403d
00000170: cc52 0cbd f040 893e 90a4 3dbe 0952 05bd
00000180: a1fc 07be 9819 75bf f893 793d cd15 ae3d
00000190: b7fc 6f3d b205 9ebe 2205 443e bc73 6bbe
000001a0: 9076 d53d 9497 0abf 825d ed3b 87cd 6bbc
000001b0: 9306 5c3d ac47 bbbd 99f6 263e 77dd f23b
000001c0: 976f 203d d248 01bd 05ac 483d ff70 35bd
000001d0: 24d7 03be 3573 67bd 654c cabd 0f6e 0bbd
000001e0: dc11 59be e2bb df3b 348d 55bd 1c6e 903d
000001f0: 4265 903d faed 26bd 6f34 1dbe 2f74 22bd
00000200: 440d afbd 919d 503d c834 69bd e2d1 bb3d
00000210: 2689 8ebd 0842 d63d 0430 57bd 0485 2f3d
00000220: 5085 da3d f09f e5bd 7a82 e4bd e218 a73d
00000230: 846c 3d3d d6b6 f93d 2458 ebbd c7ba 05be
00000240: a043 3a3c 249d f5bd 68c4 183d c43e cebd
00000250: f8c9 0cbd d44b abbd 9fd9 efbd 3613 6b3d
00000260: 4034 91bc 1ccc aabd a2b1 0bbd 6047 87bd
00000270: b849 743d 952a 2f3d 766b 25be c02d 2d3d
00000280: 4f0b 8bbd bd01 30bd 4c15 e9bd 9822 4d3d
00000290: 6012 793c 77db 3ebc 1f48 e0bd a940 c8bc
000002a0: 3f5f f0bc 2e12 2bbd 7f7e c8bd 8944 2b3c
000002b0: cb61 aabd 3f99 dcbd 6997 443c 4475 b63c
000002c0: 80f7 d6bd b846 1fbd e81e 19bd 0e90 f83d
000002d0: 18cd 783d d404 1abe a023 a0bb 3328 8d3d
000002e0: abce f4bd 4eca c33d 7898 2dbd 24c9 a93d
000002f0: 3d46 0bbe 21b2 f5bc 3ee5 403d 4fb7 57bd
00000300: 59e3 01bd 7b02 11bd 3554 293d ba22 0fbe
00000310: 50f1 96be bdb9 913d fccc b63d e0a6 80bd
00000320: 502c 5abc 99b4 fbbc dea7 ccbd 43eb 5c3d
00000330: 4256 533c d0a4 2fbc 1a30 97bd c282 503c
00000340: 381a a7bd 1fde f73b a436 383d fa59 abbd
00000350: b2bf ac3e 6c01 98be a061 14bc ae45 bdbd
00000360: 9728 febc 315e 2ebe 5ff5 b93e 2c9d b43d
00000370: 400f bd3d 602c 9abc 8f4d cc3e 4057 533c
00000380: d447 bf3d 9ada c23d b808 4abd 06a5 f8bd
00000390: 98b1 51bd 2a81 88bd be35 19be fa81 40be
000003a0: 07f6 1cbe 05c0 f6bd 6804 c4bd e98f cdbd
000003b0: 41b9 9fbd 036a 1cbe 6f04 04be 43c0 22bd
000003c0: 538a 10be d230 b0ba 4ccf a13d 8630 09be
000003d0: 1b32 9e3e f761 45bb fd45 d03c 134f 5ebe
000003e0: dd6d a8bd 25bf 13bd 6daa 7c3d 1c85 e9bd
000003f0: ef68 88bd a52c bd3e 5184 39bd 6e1d 0abe

linearSequential.4.bias f4 [32]
-0.1612109 0.52294874 -0.16017026 -0.06769376 0.3195024 0.032868158 0.062362235 -0.12735862
-0.18114695 0.11340693 0.07139534 0.072231136 -0.06595636 -0.22015093 -0.16503163 -0.2898062
-0.2118458 0.12180097 -0.11943681 -0.16510387 -0.14285232 -0.284083 -0.15342136 -0.16792673
-0.05048087 0.09727233 -0.21308978 -0.059621256 -0.26533476 -0.0860262 -0.107964344 0.18172276
00000000: 7814 25be f8df 053f ac03 24be 07a3 8abd
00000010: d295 a33e c3a0 063d 8b6f 7f3d 4c6a 02be
00000020: 967e 39be e441 e83d b837 923d ebed 933d
00000030: 2114 87bd 3f6f 61be 0dfe 28be 7a61 94be
00000040: 1bee 58be c972 f93d 499b f4bd fd10 29be
00000050: e147 12be 5473 91be 7d1a 1dbe fcf4 2bbe
00000060: 07c5 4ebd b736 c73d 3534 5abe 6b35 74bd
00000070: f5d9 87be 812e b0bd 691c ddbd 8815 3a3e

linearSequential.6.weight f4 [16, 32]
0.045612328 -0.33247438 -0.103241816 0.012517725 0.123498484 0.020333497 0.046798896 -0.07256739
-0.71736294 0.186708 0.069011845 -0.084199525 0.01492604 0.12818737 -0.07949997 -0.51379514
0.08859627 -0.039719865 -0.03440232 0.19570935 -0.027443329 0.22603492 0.052515756 -0.07652399
-0.034406498 -0.05484077 -0.19343325 0.12122512 0.19273515 -0.14559673 -0.030167354 -0.16664134
0.11613046 -0.16291283 0.05872786 -0.06868598 -0.3529723 -0.23161852 -0.08092624 0.111565754
-0.06352108 -0.013536023 -0.3015967 -0.15194486 -0.15080494 -0.08486999 -0.14489941 0.06468153
-0.13316809 -0.32894105 -0.047721058 -0.1194936 0.039762914 0.10163574 -0.2532769 0.09482072
-0.09357734 -0.1169012 0.018462494 -0.088365465 -0.057301946 0.16499557 -0.019742727 -0.1442264
0.041277885 -0.030204311 -0.05170974 -0.134316 -0.04515915 -0.08071359 -0.06660961 -0.09578223
0.04089433 -0.105157055 -0.10652761 -0.007527128 -0.16580963 -0.16311814 -0.021342725 -0.11361542
0.026771113 -0.028446153 -0.16460204 -0.033517644 0.085741356 -0.14837809 -0.12641697 0.0010733401
0.012514606 -0.09447426 0.00787659 -0.061089873 -0.07944858 -0.12679535 -0.022259101 -0.10014041
0.055918396 0.08164661 -0.011747509 -0.036437083 -0.2585046 -0.37354812 0.080175586 0.02508895
-0.120173156 -0.27751443 -0.2945193 -0.33522773 0.10118729 -0.1724055 -0.08965182 -0.05593216
-0.15889074 -0.46257272 -0.1826259 0.10229345 0.07829426 -0.10541573 -0.25672176 0.106418625
0.10424876 -0.14403608 -0.15465128 -0.22784625 -0.14602888 0.13729677 -0.36985657 -0.067082256
0.16776858 -0.24366163 -0.10241968 -0.36945972 -0.2811298 -0.033283725 -0.016457668 0.044473786
-0.49635196 -0.06255037 0.084395945 0.02767973 0.034446858 -0.28602225 0.030787628 -0.15461229
-0.20194136 0.046672717 -0.07786321 0.2269756 -0.04141216 0.051199824 0.057324618 -0.2327663
0.1246192 0.28708372 -0.07051664 0.059906434 -0.17253806 -0.14276257 0.07265769 0.1649344
0.27905422 -0.71759105 0.062834725 -0.14284593 -0.015942115 -0.17519265 -0.043561056 -0.11069487
0.094582714 -0.025472349 0.09467594 0.10669111 0.27706543 -0.25365704 0.031659227 -0.074531205
0.009692758 -0.14229375 -0.14470498 0.25372887 0.044235077 0.29724786 0.15967678 -0.0654485
-0.14357041 0.05585692 -0.003111867 0.13904038 0.005368054 -0.016572073 0.18633114 -0.2993056
-0.10562511 -0.7373553 0.0854469 0.28537875 -0.537592 0.045352165 -0.17416406 0.24190497
0.1561811 -0.7446822 0.059039205 -0.019280028 -0.19076438 0.20012909 0.04758205 -0.42351642
0.10078556 -0.2711183 -0.07130599 0.0066399146 -0.020477694 -0.045289516 -0.09807888 -0.051924374
-0.011328822 -0.20955712 -0.12102167 0.09938423 0.051271413 0.12989359 -0.1273145 -0.21390237
-0.11330446 -0.58108467 -0.07408692 0.13077837 -0.13170537 -0.15536238 -0.06443451 -0.018160947
0.09677159 -0.18864106 0.087135084 0.01625241 -0.038787927 0.45655897 0.09800215 0.031479396
0.152673 -0.27355504 -0.11037662 -0.2547914 0.042945087 0.16669843 -0.10109538 0.053428
0.046393782 -0.22514965 -0.08828232 -0.15751527 -0.08260912 -0.0314342 -0.068317555 -0.18607892
00000000: fed3 3a3d 153a aabe 7270 d3bd 2517 4d3c
00000010: c6ec fc3d 6f92 a63c 33b0 3f3d 369e 94bd
00000020: 19a5 37bf 6230 3f3e 1556 8d3d cd70 acbd
00000030: 598c 743c 8d43 033e e1d0 a2bd 1488 03bf
00000040: f671 b53d 4cb1 22bd 72e9 0cbd 0868 483e
00000050: d5d0 e0bc b375 673e c31a 573d 9cb8 9cbd
00000060: d4ed 0cbd b7a0 60bd 5e13 46be e044 f83d
00000070: 5d5c 453e 4f17 15be 8721 f7bc 07a4 2abe
00000080: ced5 ed3d 9fd2 26be a08c 703d 3cab 8cbd
00000090: c9b8 b4be 682d 6dbe a8bc a5bd 967c e43d
000000a0: 5717 82bd 32c6 5dbc e26a 9abe 6f97 1bbe
000000b0: 9c6c 1abe 51d0 adbd 8360 14be c077 843d
000000c0: 375d 08be f66a a8be 2877 43bd 10b9 f4bd
000000d0: 70de 223d 6626 d03d 83ad 81be 5e31 c23d
000000e0: 7aa5 bfbd e569 efbd a83e 973c f4f8 b4bd
000000f0: 72b5 6abd 99f4 283e 80bb a1bc 16b0 13be
00000100: 0013 293d 086f f7bc 98cd 53bd 228a 09be
00000110: cdf8 38bd 2b4d a5bd 9f6a 88bd 7929 c4bd
00000120: d080 273d 955c d7bd 262b dabd 20a6 f6bb
00000130: 00ca 29be 7108 27be f0d6 aebc 34af e8bd
00000140: 184f db3c e807 e9bc 708d 28be cc49 09bd
00000150: 2a99 af3d 6df0 17be 7373 01be 51af 8c3a
00000160: 100a 4d3c b97b c1bd d00c 013c 6039 7abd
00000170: f0b5 a2bd a4d6 01be b858 b6bc 6a16 cdbd
00000180: b00a 653d 5636 a73d a078 40bc 0d3f 15bd
00000190: b75a 84be b341 bfbe 1933 a43d 5787 cd3c
000001a0: 581d f6bd 5f16 8ebe 3ccb 96be f8a2 abbe
000001b0: 483b cf3d 118b 30be 609b b7bd 1f19 65bd
000001c0: 41b4 22be 55d6 ecbe 4902 3bbe 3a7f d13d
000001d0: be58 a03d 34e4 d7bd 0971 83be 02f2 d93d
000001e0: 6080 d53d 327e 13be e85c 1ebe 8750 69be
000001f0: 9888 15be 8697 0c3e d75d bdbe 6c62 89bd
00000200: 87cb 2b3e 6f82 79be 69c1 d1bd d329 bdbe
00000210: 3ff0 8fbe 8454 08bd 3bd2 86bc 252a 363d
00000220: d821 febe 691a 80bd c8d7 ac3d 9ac0 e23c
00000230: 2618 0d3d 8271 92be 5636 fc3c af52 1ebe
00000240: b7c9 4ebe e42b 3f3d bf76 9fbd 4b6c 683e
00000250: cc9f 29bd e8b6 513d 38cd 6a3d 4a5a 6ebe
00000260: 5a38 ff3d a3fc 923e 076b 90bd 7360 753d
00000270: d1ad 30be 5a30 12be 8ecd 943d 90e4 283e
00000280: 32e0 8e3e 0cb4 37bf 7eaf 803d 3446 12be
00000290: 0a99 82bc b465 33be 146d 32bd feb3 e2bd
000002a0: 95b4 c13d 63ab d0bc 76e5 c13d de80 da3d
000002b0: 85db 8d3e 56df 81be 1bad 013d d1a3 98bd
000002c0: 60ce 1e3c 74b5 11be 8b2d 14be c0e8 813e
000002d0: d72f 353d df30 983e 4f82 233e dd09 86bd
000002e0: 1f04 13be 3aca 643d 77f0 4bbb 9a60 0e3e
000002f0: 80e6 af3b 28c2 87bc 97cd 3e3e 953e 99be
00000300: fa51 d8bd 51c3 3cbf c9fe ae3d 2a1d 923e
00000310: a19f 09bf 31c3 393d 1058 32be f0b5 773e
00000320: f0ed 1f3e 7ea3 3ebf 18d3 713d 26f1 9dbc
00000330: bd57 43be a4ee 4c3e 65e5 423d 25d7 d8be
00000340: a968 ce3d 05d0 8abe e008 92bd a493 d93b
00000350: d6c0 a7bc 8081 39bd 94dd c8bd a7ae 54bd
00000360: 869c 39bc 2496 56be 36da f7bd f689 cb3d
00000370: f901 523d d302 053e bb5e 02be 3909 5bbe
00000380: 2b0c e8bd f7c1 14bf e2ba 97bd c4ea 053e
00000390: c6dd 06be 5117 1fbe 3ef6 83bd 44c6 94bc
000003a0: 2f30 c63d 1f2b 41be e173 b23d c623 853c
000003b0: 17e0 1ebd 19c2 e93e 5ab5 c83d 8af0 003d
000003c0: 5056 1c3e 680f 8cbe 230d e2bd 0574 82be
000003d0: 30e7 2f3d feb2 2a3e 180b cfbd 52d7 5a3d
000003e0: 6807 3e3d a18d 66be 5ccd b4bd af4b 21be
000003f0: f82e a9bd 26c1 00bd 13ea 8bbd 798b 3ebe

linearSequential.6.bias f4 [16]
0.0599 -0.15716529 -0.27881345 -0.10075114 0.2348725 0.28270343 0.44126806 0.4362629
0.18116193 0.2415078 -0.16997388 -0.036456462 0.086472735 -0.21262492 -0.21394862 -0.26471397
00000000: b459 753d f0ef 20be a3c0 8ebe 9d56 cebd
00000010: 6b82 703e 81be 903e e3ed e13e da5d df3e
00000020: 8382 393e d24d 773e a20d 2ebe 5f53 15bd
00000030: 9e18 b13d 59ba 59be 5915 5bbe 9788 87be

linearSequential.9.weight f4 [2, 16]
0.03425158 -0.22972636 0.22420603 -0.15316984 -0.09490338 0.024544163 -0.043046076 -0.024829028
0.06755966 0.07011369 0.08029866 0.15876256 0.06428389 -0.06593488 -0.07353067 -0.23229049
0.055347957 0.053826973 0.09163498 0.06438764 0.119477846 0.12421909 0.20194596 0.14832234
0.12769727 0.14823471 0.026318118 -0.0029740331 0.054404125 -0.051918373 -0.10812111 -0.01131974
00000000: 624b 0c3d 633d 6bbe 4496 653e 8ed8 1cbe
00000010: b45c c2bd d710 c93c 1551 30bd 3f66 cbbc
00000020: b85c 8a3d c497 8f3d a073 a43d a792 223e
00000030: 46a7 833d de08 87bd 3f97 96bd 8fdd 6dbe
00000040: 8ab4 623d ac79 5c3d 1fab bb3d abdd 833d
00000050: cdb0 f43d 9466 fe3d ecca 4e3e d0e1 173e
00000060: 13c3 023e d7ca 173e 1899 d73c ffe7 42bb
00000070: dcd6 5e3d 5ca8 54bd 9a6e ddbd 6e76 39bc

linearSequential.9.bias f4 [2]
0.27336922 3.293795
00000000: 0df7 8b3e 8acd 5240
