nets/state_dicts/nnwf01.pt (torch, 982351 bytes, 15 tensors)

linearSequential.0.weight f4 [128, 22]
00000000: 52d2 5ebe 6638 983d ec41 4fbe 41de e13d
00000010: bc70 2c3d deb4 8bbe e00f f0bb 5e7b 3dbd
00000020: 39b6 103e 2d5e bcbc f13d efbc 437a 32be
00000030: a49c 28bc 5b7c 13be 0967 813e 34f0 763e
00000040: b4c5 773d a4ee 8a3e 0392 89bd b4a4 59be
00000050: ee9c 343e fb79 3d3c 9361 dfbd 47aa c5bd
00000060: b267 b83c 54ea c1bd b7e2 a33d 8131 613d
00000070: 0531 fb3c 5c93 963c 465f 4abe bdba 243e
00000080: be20 533e cfd9 833e bbf6 65be 963b 8b3e
00000090: c1b5 9fbd b3b3 41be 84a1 6f3d 379a 77be
000000a0: 6a81 2abe 015c bd3d 6dba 52bd e97b 98bd
000000b0: 10bf cebd 0993 213d c711 4c3e e9a5 98be
000000c0: cb90 07bb 1728 d3bc 65a9 6f3e 40e1 9fbd
000000d0: 8bdf 343d bc3d 2b3e 0eb9 6fbc 8b48 1abe
000000e0: 0e4f e03c 878a 143d b811 97be fc2a 4cbe
000000f0: a880 5c3d 77a7 80bc 9089 933d 3c93 81be
00000100: 0594 1c3e ad1c aa3c 392d 763e 36a0 43be
00000110: c745 94be 601f 20be a93e 27be 7279 9abd
00000120: 8267 0d3e c697 2bbd c3c5 45be ac42 4cbe
00000130: 0b0b 54be 1e49 3e3e 334c c2bd 78b6 403d
00000140: 6414 813e fede 943e b724 a2bd 4efc 1f3e
00000150: 33cb 233e 218e df3d 5937 7d3d eef9 3a3e
00000160: 0098 823e 482d 96be 7161 893d 3451 603e
00000170: a283 94be 70bf 013e c2ca 3fbe f965 e8bc
00000180: 4325 ad3c 9337 a8bd e796 05bf 4321 8cbd
00000190: bbf9 0fbd 19e1 873e e8a7 043e 66eb 5b3e
000001a0: b66c 083e e3f9 08be 867a c83d fd3d a5bd
000001b0: 5071 1fbe 8016 233e 4fec 3fbd a310 a13d
000001c0: 9431 97be 63b6 f03d fed2 853e 3a5c 353e
000001d0: 35ae 453e 3f08 55bd 7b74 b53d 4f45 7fbe
000001e0: e5da a4bd 4764 133e d420 9dbe 159e b0bd
000001f0: 3be4 8f3d b871 843e c776 b93d b482 453d
00000200: 9ef3 513c b37d 2cbe 985f 3dbe 506a c0be
00000210: 145c 413d 7873 8e3e 4b10 b4bd 3729 183c
00000220: 022b 27bc cd54 67bd b7b1 86bd 5997 2c3e
00000230: 2701 4dbe b867 87bd ba63 6dbe aefd 29bd
00000240: ebb0 953d e2b8 f4bd 717d c93d e3df babd
00000250: a14c 473e a309 88bc fb32 92be edec 08be
00000260: 0d5e aabe 5e6a 223e 056d 093e aa4e 0a3d
00000270: 229f 02be 1959 473e 6a2c 3abe 98d2 c4bd
00000280: 536f 353d c184 debc 6c6b 20be c584 edbd
00000290: 2ac8 b0bd d969 133c 1904 eb3d 436d a63d
000002a0: 019e 773c 64c8 a3bd d674 26be e223 333e
000002b0: 95cf d63d 0965 e13a 7800 8f3e 0a91 f2bc
000002c0: f335 f9bd 0ce6 433d 6eab 3ebe b748 813d
000002d0: 9dcb b5bd 3ea4 053e 4af9 c5bd e09b efbb
000002e0: 6642 57bd d9e0 84bd 1caa 8c3d e5cf 50bd
000002f0: 9350 0b3e f043 573d 05f9 e13d ecf9 543c
00000300: 4bf5 50bd 4d13 de3d f286 023e e0d0 33be
00000310: 777a 5ebd b3f6 ec3d 8984 42be c3a1 b6be
00000320: 8607 d33d e69f 673e 3b1a 293c ae4e 0a3d
00000330: cf53 753e 1268 523c d5d3 c7bd 3827 17be
00000340: ac9a 36bc 891b 88be 5571 803e 7c30 ad3c
00000350: e52f 84be 089a 0cbe 902f b33d 571a 1d3e
00000360: d204 b53e 807c cfbc 55bc 233c 5b04 f03d
00000370: d393 87be ac74 63be 2b17 c53d 40d6 1e3e
00000380: 2c74 91bd 22f1 6dbc 627b 00be 3b6d 623e
00000390: 1734 89bd 336a 3fbe 342e 093e 3a2a 06bd
000003a0: b038 b23e 6ff4 6c3e 4b44 193e fad2 2cbd
000003b0: 1bae 36be c943 063d a837 16bd 7f23 8f3d
000003c0: 8c73 14bf d5ef 023e f0b8 95bd 4aa3 3a3e
000003d0: 0f1e 7b3e e655 063e aec0 45be 4fd5 aabd
000003e0: 8497 08be 4dac c93d cf7c ebbd b4a4 2ebe
000003f0: 4cf1 473e 4f2e 683d 8717 343d 1119 cab9
-0.21759918 0.07432632 -0.20239991 0.1102872 0.0420997 -0.27286428 -0.007326111 -0.04626023
0.14132012 -0.022994125 -0.02920434 -0.17429452 -0.010291252 -0.14402907 0.25273922 0.24115068
0.06049128 0.27135193 -0.06717303 -0.21254236 0.17637989 0.011564727 -0.10907283 -0.096516185
0.022510383 -0.09468523 0.08002227 0.05497885 0.030663023 0.018380813 -0.19762906 0.1608686
0.20617959 0.25752112 -0.22457401 0.27193898 -0.07798339 -0.18916206 0.058503643 -0.24179922
-0.1665093 0.09246064 -0.05144732 -0.07445509 -0.10095036 0.039446864 0.19928657 -0.2981408
-0.0020685669 -0.025775952 0.23404463 -0.07806635 0.0441585 0.16722769 -0.014631523 -0.15066735
0.027381446 0.036264922 -0.29505706 -0.19938272 0.053833634 -0.015704853 0.07203972 -0.25307643
0.1529084 0.020765627 0.24040689 -0.19104084 -0.28959486 -0.15636969 -0.16332497 -0.07542695
0.13809016 -0.04189279 -0.19313721 -0.19947308 -0.20707338 0.1858258 -0.0948719 0.047049016
0.2521087 0.2907638 -0.07917159 0.1562359 0.15995483 0.10915781 0.06182036 0.18259403
0.25506592 -0.29331422 0.067080386 0.21905977 -0.29006678 0.12670684 -0.1872969 -0.028368937
0.021135932 -0.08213725 -0.52183384 -0.06842282 -0.03515027 0.26538923 0.12954676 0.21476516
0.1332272 -0.13376574 0.097889945 -0.08068464 -0.15570569 0.15926552 -0.04685622 0.07864501
-0.29530013 0.117535375 0.26137537 0.17710963 0.19304736 -0.052009817 0.088601075 -0.24928783
-0.08049563 0.14393722 -0.30689108 -0.08623902 0.070259534 0.2586801 0.09055858 0.04822035
0.0128144305 -0.16844825 -0.18493497 -0.3758111 0.047206953 0.2782247 -0.0879217 0.00928717
-0.010203125 -0.056477357 -0.06576865 0.1685461 -0.20019971 -0.0661158 -0.23182574 -0.041501693
0.07309135 -0.11949326 0.09838379 -0.09124734 0.19462825 -0.016606158 -0.2855452 -0.1337163
-0.3327488 0.15860888 0.13420494 0.033766426 -0.12756017 0.19467582 -0.18181005 -0.0961048
0.04429562 -0.027162911 -0.15665978 -0.115975894 -0.08631928 0.008997404 0.11475391 0.08126309
0.015113355 -0.07997206 -0.16255507 0.17494157 0.10488812 0.0017196249 0.27930045 -0.029610176
-0.12168493 0.04782681 -0.18620083 0.063126974 -0.08876727 0.13050935 -0.09666689 -0.007312283
-0.052553557 -0.06488199 0.06868383 -0.050979514 0.13604955 0.052555025 0.11033825 0.012999039
-0.05101518 0.10843525 0.1274679 -0.17560148 -0.05431601 0.11570492 -0.1899587 -0.3567029
0.10304169 0.2261959 0.010321195 0.03376644 0.23957752 0.012842195 -0.09757201 -0.14761055
-0.011145275 -0.26583508 0.25086465 0.021141283 -0.2581779 -0.13730633 0.08749306 0.15342079
0.3535524 -0.02532792 0.009993632 0.11719581 -0.26479968 -0.22212476 0.096235596 0.15511417
-0.07102236 -0.014522823 -0.12547067 0.2211198 -0.066993885 -0.18692856 0.13396531 -0.032755114
0.34808874 0.23140119 0.14967458 -0.04219339 -0.17839853 0.03277949 -0.03667417 0.06989192
-0.5798881 0.12786801 -0.07310665 0.18226352 0.24523185 0.13118705 -0.19311783 -0.08341467
-0.13339049 0.09847317 -0.11498415 -0.17055017 0.19525641 0.05668479 0.04396775 -0.00038547118

linearSequential.0.bias f4 [128]
00000000: 9891 e6be bf62 393e 4829 f6be 9a57 dcbe
00000010: f7d5 98bc ef2e 05bf ad3d 153f 5e6c 73be
00000020: 2057 04bf ee70 2f3e 4dd5 92be 4f6f a5be
00000030: 53cb 9bbe 72fd 55bd 35ee fa3e abac cc3c
00000040: 45f5 353d 1005 45be 98df b5be 0156 8dbe
00000050: a5db 65be c2aa 09be 23d6 f8be 552c cb3e
00000060: 08b0 1dbe ee22 183e b12b 9c3e 2e27 c7be
00000070: 63cb c03d 593e d7be 6fe4 acbe d725 4bbe
00000080: 95aa aabe a740 373f 42bd 07bf 9368 f53b
00000090: 4651 78bd 10a3 6ebe a8e3 89bd ed84 e13c
000000a0: cd47 c6be a284 fabe 65f0 78be aa5c a5bc
000000b0: 1260 18bd 58b7 813c 165b 13bf 4992 233f
000000c0: 1c81 aabe ccec d3bd 415f c2be 419a ec3e
000000d0: 6595 f8be fbe0 d9be 06be 03bf 4855 bdbe
000000e0: db7e d9be 31a0 82be 67ef 043f c616 36be
000000f0: 0c04 86be 83f1 c7bc 7dac 46be 0600 3bbe
00000100: ee6d 30be e7c7 debd 188e 5e3d 4c09 06bf
00000110: 5847 91be 6079 a8be d61e a3be 87c7 9c3d
00000120: 0ca9 8f3b b229 cfbe 715c 3ebe 04c5 bbbe
00000130: 494d 823e 50e0 503e 54fd c2bd 5282 aabd
00000140: 0717 89be 44f4 96bc c4c7 26be b708 b43d
00000150: 2f10 d8bc f9d9 54be 875b 00bd 33d3 843e
00000160: 4aee a5be e21e eabd 3157 dabe 323d e4be
00000170: b211 7b3e 3e3d 9abe b360 ecbe d98d a2be
00000180: 99cc ab3c 1dd4 a7be 9e8d 8bbe 3743 48be
00000190: 41f4 593e f445 9ebe a8e2 debe 12c8 8bbe
000001a0: 0997 1e3e 837e 8f3e 494f 08bf 8c71 1b3f
000001b0: 1a76 abbe 27d8 24be e737 b2be 98b1 dbbd
000001c0: 8167 e3be 4228 e9bc 0ee0 823d ab18 a4be
000001d0: 9af4 f1bd 9ef7 75bd b3ce a3be f015 3ebe
000001e0: b41d 28be d2b3 c0be 5f55 5dbe 86c2 edbe
000001f0: d564 413c c79e a2be 400b fdbe 5389 aebe
-0.45032954 0.18104075 -0.4807837 -0.43035585 -0.018656714 -0.5202474 0.58297235 -0.23771808
-0.5169544 0.17132923 -0.2867836 -0.32311484 -0.30428562 -0.052243657 0.49009863 0.024984678
0.04442336 -0.19240212 -0.3552215 -0.27604678 -0.22447069 -0.13444045 -0.48600873 0.3968226
-0.15399182 0.14857075 0.30502084 -0.3889708 0.09413793 -0.42039755 -0.3376803 -0.19838654
-0.3333327 0.71583027 -0.5302316 0.007489273 -0.060624383 -0.23304391 -0.06732875 0.027529204
-0.38726655 -0.48929316 -0.24310453 -0.020185787 -0.037200995 0.015834495 -0.5756086 0.6389509
-0.33301628 -0.103479 -0.37963298 0.46211436 -0.4855148 -0.4255446 -0.5146183 -0.36979127
-0.42479596 -0.2551284 0.519278 -0.17782125 -0.26174963 -0.024407154 -0.19401737 -0.18261728
-0.17229435 -0.10877972 0.05433473 -0.52357936 -0.28374743 -0.32905102 -0.31859463 0.07655244
0.0043841656 -0.40461498 -0.18589951 -0.36673748 0.2544959 0.20398068 -0.09520975 -0.08325638
-0.2677538 -0.018427022 -0.16287142 0.08790725 -0.026374904 -0.20786275 -0.031337287 0.25942382
-0.32408363 -0.11431672 -0.42644647 -0.44577938 0.24518469 -0.3012485 -0.46167526 -0.31748846
0.020971583 -0.32779017 -0.27256483 -0.1955689 0.21284582 -0.30912745 -0.435323 -0.2730108
0.15487303 0.28026208 -0.5324598 0.60720134 -0.33488542 -0.1609808 -0.34808275 -0.10727233
-0.44414905 -0.02846158 0.06390391 -0.3205007 -0.11814232 -0.0600506 -0.31993636 -0.18563056
-0.16417581 -0.37637192 -0.21614598 -0.46437472 0.011803825 -0.31761762 -0.49422646 -0.34089145

linearSequential.2.weight f4 [512, 128]
00000000: 1de0 ebbd 3501 98be 9e3e aabe 8daa bebd
00000010: 74e5 0bbc f93d 3fbd af69 593d 9153 e93c
00000020: 5d0c 9e3d 5641 44bd 452c f83d 3d56 18bd
00000030: b9ea 283e fea0 bebd ba73 20be e324 aa3c
00000040: 5dda 66bd 617c 92be 3b44 2dbd a06b 183d
00000050: 2b8f bebd 018f 3dbb 52d4 f0bd 714c d1bd
00000060: 0297 98bd a87c 5a3e b121 37bd 3339 093e
00000070: 8d78 eebd 3631 723e 6bc1 1cbe d7d8 7bbd
00000080: 43f9 27bb 6136 05be cd9f 84bd 9950 673e
00000090: 4b5a 01bc e9e4 0bbd 395d 8cbe c372 a5bc
000000a0: 4e9d debd 5d9a 73bd aa28 a2bd d6ac fa3d
000000b0: 7206 b0bd 3c2a ab3d 5a5c 37be a66b 12bd
000000c0: a269 d1ba 2319 983d 1b38 c1bd 43ea dfbd
000000d0: 15bb 073d 97f4 773e 064c 0cbd eb2e 973d
000000e0: 949b 8dbe 417a b3bd 684b 10be 8881 2a3e
000000f0: b4f8 173e e0e6 e4bd 4047 c3be 1203 92bd
00000100: f4f8 3dbe 1ba1 88be 51d6 5dbe cc59 ca3a
00000110: 20fc f7ba a4b5 943d 183b 8cbe 2a7f 4dbe
00000120: 5dc0 a2bd b8f7 55bd dac3 94bd ea64 fbbd
00000130: 897c 01bd fbe4 57bd f77d 2fbe 5238 043d
00000140: 7913 d23c af27 d53d c872 91be 7906 51bd
00000150: ffd2 59bd 42ac 743c 9f36 a83e 9f6b 93be
00000160: 9253 5cbe 4b19 543d 5ce5 51be 3e20 8ebd
00000170: 56a3 803e f551 eebb a088 b2bd c017 9ebe
00000180: c4fe 06bd 2553 2cbe c529 133e 9497 bc3c
00000190: 87f5 f8bd 79dd 61be 993c ac3d fd83 163c
000001a0: 6cf3 20bd 87ee 8abd ff4e 98bd e36c 37be
000001b0: 34e0 fdbd c1e8 36be ef7b 2c3c 8f6d 49bd
000001c0: 1aab 063e 5994 c1bd 2c92 c1bd 6a54 b8bd
000001d0: 206c 16be 7bd1 833b ae49 643d da9e 303e
000001e0: ce2a 353d 48c2 febd 9648 97bd 1c1a 41be
000001f0: cbca c63b e716 a73d d8f5 2bbe 5cea f53d
00000200: ef97 eebd 7a55 253e d8fe 7abe 2432 d73d
00000210: 53c1 ccba 653d c1be 0c14 aabe 6f9c 6abd
00000220: ef5a acbd 8a7a 57be 1032 33be 438f 573d
00000230: ff76 e6bd 63be 94be ce70 7bbe fa3d 74be
00000240: fbe5 fbbd 46c5 d43d 56ab febd 4837 a83d
00000250: e461 98be 336f 87bb da77 8abe c176 193e
00000260: 1ab9 ebbb a0e3 dfbe 608c 493e 0f04 d2bd
00000270: 92c6 bcbe 8883 8bbd 0083 aabd 25bb 0cbe
00000280: 007b 5fbd b511 6d3d 2eff 6cbc db6d 8fbd
00000290: 7c9d 80bd 4928 a2bd 8d07 f33d 1438 92bd
000002a0: db74 12be f690 29be 7445 603e 9c00 543e
000002b0: e7ca 0f3e 3aa6 5abe 0487 f6bc 61fb 123d
000002c0: 1262 f5bd 54fe 80be 541d 87be b263 2bbe
000002d0: 723b d2bd 1b91 19be af71 59be cc19 db3d
000002e0: 6977 453b f2ce 033e 017c a83e 7864 8bbe
000002f0: 62aa 78be f89d 8abe bd4e a3be 423f 69be
00000300: c244 05bf cd30 f6bc 224e 893c 83ad 5cbe
00000310: f1be c1bc bb97 a4be 4a91 073b db03 f83d
00000320: 7b3a 683d b766 90bd aa52 d4bd 5374 263d
00000330: 1f79 dd3d 75cd 9e3d 4ad4 8ebe 8699 d7bd
00000340: f9c4 aabd be34 68bd 908d 3c3e aa84 163e
00000350: b0ca 48bd 9bb4 9b3c bb13 8fbd d076 c9bd
00000360: 5737 06bd c91e 3fbe b5e3 64be 4129 ddbd
00000370: aeef a0be 253e 68be 6d46 21bd 4035 57be
00000380: 1a4d 7ebe 200b cc3d 8527 edbe b0f8 4fbe
00000390: 2adb 463e 9a62 73bd cc38 afbd abea c7bd
000003a0: 81b1 93bd cd3a c6be b580 f4be 1eb3 823d
000003b0: 806a ae3d 0dad 2ebd 0404 c0be d762 46bc
000003c0: ff0d aabc 3405 14be 6cc5 aabe 9054 8abd
000003d0: ba98 b3bd ee39 be3c a402 73bd 6ac9 1ebe
000003e0: 7933 db3b bc00 9dbc 6f7b a93d 2dab 0d3e
000003f0: 8763 ee3d 03d0 49be dcd2 b4bd 51ee b0be
-0.115173556 -0.2968842 -0.33250898 -0.09309874 -0.008538593 -0.04668996 0.053079303 0.02848223
0.07717202 -0.04791387 0.12117819 -0.03719162 0.1649579 -0.093080506 -0.15669146 0.020769542
-0.05636059 -0.2861052 -0.042301398 0.037212014 -0.09304651 -0.0028924348 -0.11759247 -0.10219658
-0.074506775 0.21336615 -0.044709865 0.13400726 -0.11644087 0.23651585 -0.15308158 -0.06148609
-0.002563075 -0.13009025 -0.06475792 0.2258934 -0.007895063 -0.034153853 -0.27414873 -0.020196324
-0.10869847 -0.059473384 -0.07917912 0.12239997 -0.08594979 0.08357665 -0.17906323 -0.035747193
-0.0015976916 0.074266694 -0.094345294 -0.10933354 0.0331374 0.24214397 -0.03425219 0.07381996
-0.2765776 -0.087635525 -0.14091265 0.16650975 0.14840966 -0.111768484 -0.38140297 -0.07129492
-0.18552 -0.26685414 -0.21663786 0.0015438139 -0.0018919744 0.07261208 -0.27388835 -0.2006804
-0.07946847 -0.052238196 -0.07263918 -0.12275107 -0.031612907 -0.052708607 -0.17137896 0.032280274
0.02564405 0.1040796 -0.28407884 -0.051031563 -0.053179737 0.014933648 0.32854173 -0.28793046
-0.21516255 0.051781934 -0.2049765 -0.069397435 0.25124615 -0.0072729536 -0.087174654 -0.30877495
-0.032957807 -0.16828592 0.14371403 0.023021497 -0.121562056 -0.22057141 0.084099956 0.009186742
-0.039294645 -0.06783777 -0.07436942 -0.1791263 -0.12396279 -0.17862226 0.010527595 -0.04917675
0.13151208 -0.09452123 -0.09451708 -0.09000476 -0.14689684 0.0040227748 0.05573433 0.17248097
0.044230275 -0.124394 -0.073868915 -0.18857616 0.0060666553 0.08158665 -0.16793 0.12007591
-0.11650073 0.16145888 -0.24511278 0.105076104 -0.001562158 -0.37742153 -0.3321842 -0.057278093
-0.08415782 -0.21042839 -0.17499566 0.05262686 -0.112531655 -0.29051504 -0.2455475 -0.23851767
-0.12299725 0.103891894 -0.124350235 0.08213669 -0.29762185 -0.004133129 -0.27044564 0.14986707
-0.0071936967 -0.43728352 0.19682455 -0.1025468 -0.36870247 -0.06812197 -0.083257675 -0.13743265
-0.05456066 0.057878215 -0.014465136 -0.07003375 -0.06280038 -0.0791784 0.118666746 -0.07139602
-0.1430239 -0.16559204 0.21901494 0.20703357 0.14042245 -0.21352473 -0.030093677 0.035884265
-0.11981596 -0.25194037 -0.26389563 -0.1673725 -0.102652445 -0.1499676 -0.21234773 0.1069828
0.0030130988 0.12871912 0.32907107 -0.2722509 -0.24283746 -0.27073646 -0.3189601 -0.22778037
-0.5205804 -0.030052567 0.01676089 -0.21550564 -0.023650618 -0.3214701 0.0020685964 0.1211011
0.056696396 -0.07050841 -0.103673294 0.04063828 0.10814118 0.077540316 -0.2789634 -0.10527329
-0.08338351 -0.056690924 0.18413377 0.14699045 -0.049021423 0.019007018 -0.06986185 -0.09837115
-0.03276762 -0.18664087 -0.22352488 -0.10798884 -0.3143286 -0.22679956 -0.039373804 -0.21016407
-0.248341 0.099630594 -0.46319214 -0.2030971 0.19419542 -0.059420206 -0.08555755 -0.09761556
-0.072115906 -0.38716736 -0.47754446 0.0638182 0.08516407 -0.042645503 -0.37503064 -0.012108526
-0.020758627 -0.1445511 -0.33353746 -0.0675441 -0.08769365 0.023220982 -0.05932869 -0.15506521
0.0066894856 -0.01916539 0.08275496 0.1383483 0.11640077 -0.19708256 -0.08829281 -0.3455682

linearSequential.2.bias f4 [512]
00000000: 24e5 5dbc d8d3 e33c 048a 63bd 0ec7 8dbd
00000010: 59e9 a53d da50 84bd 3e27 83be 06b3 cfbd
00000020: 48c6 44be 9ff0 53bd 40af 8c3c 4e83 b6bd
00000030: a6fb 863d a469 5dbd f255 97bd 0d58 3e3c
00000040: 1f24 1cbe c66c d1bd e7f7 afbd ca43 5bbe
00000050: 8c9a d3bd 0b68 abbd 298c 51bd d306 30be
00000060: f042 eebd 6473 25be 8264 21be d3e5 eb3d
00000070: a22d cabd cac5 1bbd d39a 7dbe 703a 64be
00000080: 4e9c 9fbd a37e 20be b1b5 ce3c b948 e5bd
00000090: 63ae 09bd e9ab b33d 3181 cebd 592a 60be
000000a0: d8ab 1ebe 9c65 25be f149 20be 4925 8d3d
000000b0: 8c08 48be c4e5 133d 211f cdbd f362 52be
000000c0: 362c d3bd 9548 61be a3ad f2bd abde e53d
000000d0: 583a f2bd d938 68be 066f 173b c8c4 6ebe
000000e0: 4d24 47be 624b 5fbd 64fa 48bd 4346 f73c
000000f0: 84d0 9cbd 1e23 b33e 7a13 f0bd c3eb 13bc
00000100: 8645 66bd 8c9e e5bd 6b06 8ebe 53ee e3bd
00000110: 113b 35be 564c 23bd 3268 9dbd 2619 ddbd
00000120: 8735 cabd 5828 27bd b1bf c7bd 2656 b0be
00000130: ae6d 77bc c43f 49be a295 62be f6a4 8fbd
00000140: 5ab5 3dbd 388a 48be a12e a23c dc3c 513e
00000150: 6163 bd3e 694b 32be 48e0 583c 1730 41be
00000160: 2eb8 9abd 80c4 d23e 044a 3ebe 8e8e cdbd
00000170: afa8 b1bd 6479 0cbe 0f5c 60be e697 a7bc
00000180: 4059 9dbd 237a 7ebe b748 83bd ac23 f3bd
00000190: 0de2 d8bd 0bd8 a4bc 78d0 753d a0a3 7fbe
000001a0: 9c99 7bbd 708b 02be d620 77bd 81fc e7bd
000001b0: f805 043e 8998 febc 9288 e7bd 4ebc 89be
000001c0: 785f 04be eeb5 43bb 15a8 1abe f5f9 c33c
000001d0: 71cb 6bbe 86fd 0abe 4348 63be 2b6e 67be
000001e0: 3870 2fbe 9275 03be c640 1cbe 235d 55be
000001f0: e1a1 e8bd 4641 053e 3a21 37be 0ecd 833d
00000200: 75a0 5fbe 8576 c9bd 3254 c4bd 257d 85bd
00000210: 6c68 d2bd 8c92 96bd 76bb 153e f4b6 40be
00000220: 8136 4abd dfb9 5ebe cbe1 e73d f56d a63d
00000230: 2210 e0bd 7ded dcbb 17f1 40bc 4ba2 c3bd
00000240: bad2 4b3d 04d0 18be 4cdc 41bc 9f60 8a3d
00000250: fdd6 babc 439d 683c 743c 62be 35dc adbd
00000260: 3b81 20bd 9097 843d d2f8 0bbe 3ff4 13be
00000270: 78fc babd 943e d2bd ee6e 68bc 2bd2 a8bd
00000280: 8282 80be be6e f9bd 0f9e e3bd 5f6a c6be
00000290: a5e3 7dbe b4db adbd 2149 33be 5c25 27be
000002a0: fe14 76bc 2f1a 32be 908a 143c 15bf bfbc
000002b0: 2331 44bd 0e01 04be cc51 c2bd 0232 19bd
000002c0: 3821 b8bc 1b1d 85bd c5a7 bfbe cc88 223d
000002d0: d59c e5bd 8492 0ebe 2653 b7bd fd71 f3bc
000002e0: 5627 16bd c176 f1bd b991 9c3c d21a 72be
000002f0: 31f2 433e c74e d7bc f406 cdbd e5a3 b1bd
00000300: 0beb bdbd a736 42bd 389d 1bbe 39b4 ac3d
00000310: f9a7 8ebb 0885 30bd 5856 17be 2e73 a3be
00000320: c0a6 d03b f01e 76bd ffd1 8a3e c767 07be
00000330: 1f9c 4fbe 773b 8ebc 7109 3d3a 2046 4a3d
00000340: 02f6 4d3b ea27 68bd 65ef f0bd 83ed 80bd
00000350: 857b 51be 3e49 36be 70b7 40be 75be 063d
00000360: 7af9 efbd 10b5 c63b 2e19 6cbe 3f94 b1bd
00000370: 9c8c a3be d39e 3abc dfaa 0abd 426e 9bbd
00000380: ca51 d9bd 0224 66be 2dc4 7bbd 7de6 a6bd
00000390: 4fb2 fabd 3132 4fbe 0d68 38bc 1f18 babd
000003a0: e048 11bd 3d74 2ebe b98e f8bb 1d61 bebd
000003b0: 82af 533c 23e3 e8bd 78d0 20be d3f8 26be
000003c0: 35c3 ccbd 76eb 7abc 258a 04be 682c e8bd
000003d0: 10b9 983e 778b d8bc 225f 00be aa79 bbbd
000003e0: 4abf c3bd 8aa6 56bc 4628 cabb 6d87 ccbd
000003f0: 79ba 273d 75d2 573c 966d 90bd a37b efbd
-0.013543401 0.027810976 -0.055551544 -0.06922732 0.08101148 -0.06460734 -0.25615877 -0.10141568
-0.19216263 -0.051743146 0.01717341 -0.08911763 0.06590967 -0.054055825 -0.0738944 0.011617673
-0.15248154 -0.10225825 -0.085922055 -0.21412578 -0.10332212 -0.08369454 -0.051159058 -0.17190103
-0.11633861 -0.161573 -0.15760997 0.11518445 -0.09871985 -0.038030423 -0.24766092 -0.22287917
-0.07793485 -0.15673308 0.025233122 -0.11195511 -0.033613574 0.08773024 -0.10083235 -0.21891154
-0.1549524 -0.16152042 -0.15653206 0.06891877 -0.1953451 0.036107793 -0.10015703 -0.20545559
-0.10311167 -0.22000344 -0.11849525 0.11224111 -0.118275344 -0.22677936 0.0023106947 -0.23317254
-0.19447441 -0.05451525 -0.049066916 0.03018487 -0.07656959 0.3498773 -0.11722465 -0.009028378
-0.056218646 -0.11211881 -0.27739272 -0.11129441 -0.17698313 -0.03986772 -0.07685889 -0.10795812
-0.09873491 -0.04080996 -0.09753359 -0.34440726 -0.015101833 -0.19653231 -0.22127393 -0.07013886
-0.04631553 -0.19583976 0.019797625 0.20433372 0.36989883 -0.17411579 0.013237067 -0.18866001
-0.07554661 0.41165543 -0.18582922 -0.10036956 -0.08674752 -0.13718182 -0.21910118 -0.020458173
-0.07683039 -0.24851279 -0.06410354 -0.11872038 -0.10589991 -0.020122549 0.060013264 -0.24964762
-0.06142579 -0.12748504 -0.06033405 -0.11327458 0.12892902 -0.031078594 -0.113053456 -0.26901478
-0.12927043 -0.0029863077 -0.1510318 0.0239229 -0.23026825 -0.13573274 -0.22195534 -0.2260062
-0.17132652 -0.12837818 -0.15259084 -0.2083631 -0.11359001 0.13013181 -0.17883769 0.064355955
-0.21838553 -0.09837059 -0.095863715 -0.0651801 -0.10273823 -0.0735217 0.14622292 -0.18819791
-0.049368385 -0.21750592 0.113223635 0.081264414 -0.10940577 -0.006742178 -0.01177623 -0.09552439
0.04976151 -0.14923102 -0.011832308 0.0675671 -0.022807593 0.01419765 -0.22093374 -0.08489267
-0.039185744 0.06474221 -0.13669136 -0.14448641 -0.09130186 -0.10265842 -0.014186604 -0.08243211
-0.2509957 -0.121793255 -0.11114132 -0.3875303 -0.24793871 -0.08489171 -0.17508365 -0.16322845
-0.015019653 -0.17392801 0.009066239 -0.023406545 -0.047898423 -0.12891027 -0.09488258 -0.037401207
-0.022476777 -0.06499692 -0.37432685 0.03968124 -0.11211554 -0.13923079 -0.08951406 -0.02971744
-0.036658607 -0.11790229 0.019112455 -0.23643044 0.19135357 -0.026282681 -0.10011092 -0.086738385
-0.092733465 -0.0474154 -0.15196693 0.08432812 -0.00435352 -0.04309562 -0.14779031 -0.31923813
0.0063675344 -0.060088098 0.2711334 -0.13223182 -0.20274399 -0.01736234 0.0007211185 0.049383283
0.003142715 -0.05667869 -0.11764411 -0.06295302 -0.20457275 -0.17801377 -0.18819976 0.032896478
-0.11717506 0.006064065 -0.2305648 -0.08670854 -0.31943214 -0.011390406 -0.03385436 -0.075893894
-0.10611303 -0.22474673 -0.061466385 -0.08149431 -0.12241041 -0.2023399 -0.011255276 -0.09086632
-0.03546989 -0.17036529 -0.0075853732 -0.09295867 0.012920262 -0.11371448 -0.15704525 -0.16305856
-0.0999817 -0.015314927 -0.12943323 -0.11336595 0.2982869 -0.02643369 -0.1253629 -0.09154065
-0.0955797 -0.013101229 -0.0061693517 -0.09986768 0.04094932 0.013172735 -0.07052152 -0.11693504

linearSequential.4.weight f4 [256, 512]
00000000: df87 fdbd 3015 e5be 4797 8ebd 7832 553d
00000010: 16e9 253e e691 89bc 9d13 04bf 366b b8bc
00000020: cfe9 efbb de96 f8bc 607b d1be f035 40bd
00000030: 990d 54bf 1d21 13bf d403 353c 8773 2dbd
00000040: 6f2f bcbd 1d4f 383d 6756 efbc a138 51bd
00000050: 805c 44bd b4dd 253b b57d 3a3d 837f 5bbb
00000060: 2099 f9bc b9f3 0abc 0440 a0bd 9cf9 35bd
00000070: 3b7a cc3c 64b3 8c3b 383f ccbd a0c6 df3d
00000080: 17c1 b33c e7dd 483e c33e 6abe 0481 7dba
00000090: 6041 0dbf 4cf5 6ebe f500 bb3c 473c f83c
000000a0: e704 d1bd 3e9e c6be 27c6 4bbe 433f f7be
000000b0: 9313 b33c 3dcd cdbd 1dad 0fbe 1ace b8be
000000c0: 2b76 033c 0f09 b7be 4f86 97bc a1a1 25be
000000d0: dd2b 07bd 8518 ebbe a853 dbbe d869 cdbd
000000e0: 5324 50bd 94da 2d3d 8d54 a23c f2bd 96be
000000f0: 30ed 62bd a846 bcbe 9c45 3b3b 28eb 71bd
00000100: 000d 19bd 9f65 84bc 886c d7bd db54 28bd
00000110: e618 7dba 788b bf3c e6f4 a3b9 9cd4 823c
00000120: d5f7 a8be bee6 2e3d 091e cb3e 462c ebbd
00000130: 4c3b 89bb 4d5b b03d d969 44bd edb5 87bd
00000140: 8b9f 86bf 68cb 05bf 06d7 b9be 7393 9a3d
00000150: 1109 d8bd d041 d6bd ba2e d2bc 3d25 53bd
00000160: 0235 14bd 2072 86bd 8fb1 7bbe bc0c e1bd
00000170: 6ab6 c9bd ab6b 02bd f988 7ebd 34b4 91be
00000180: 7e41 d23e 6363 49be 6521 d5bb 72c2 c2bc
00000190: 36f9 23bd 930f 6ebc f8d4 363e 007b e5bd
000001a0: dd6c 203d c682 36bd 9c44 1abd c441 e2bb
000001b0: b14c 9ebe d705 1abe a472 27bc e767 06bf
000001c0: 6439 27bc 9814 81bd 5905 6e3c 518e 9cbe
000001d0: 243b 02bf 47c2 9bbd 9cc7 90be a457 263b
000001e0: f495 4bbd 1d33 663d 1a58 a4be 7368 60bd
000001f0: ef6a 9a3c a187 55be 177a 37bc 3723 09bc
00000200: 78b1 adbd 0f0a c2bd ce4d 13bd 5cf7 333d
00000210: 378e 57bd d92d eabc ca9d 34be ff33 4bbe
00000220: d358 c0bc 80db 13bd a344 9a3c 6e64 8dbe
00000230: da21 fa3b 8253 783d 9b64 90bd 97e2 0cbe
00000240: 6089 023c 9720 d83e 4fd7 6b3b fe35 67be
00000250: 6251 c2bd f9fc e13e 521c cd3d 7937 3cba
00000260: 6ded 91bc 881a 3a3e 7605 7fbd 7308 25bd
00000270: 9d90 86bc 6b23 6ebd 5a52 ab3e 0cd3 9c3c
00000280: 7f98 2d3e b81e 00bd be1b 52bd a1b5 2abe
00000290: 4767 5b3e 6a56 1ebe a529 e83d c402 96bd
000002a0: 88a1 b23b 3e6a 6bbd 9747 46bd d289 833d
000002b0: bf0e 70be 8b0c f9be f6ec 00bd 8b80 9c3c
000002c0: 7416 5bbd cf4a 993d 6108 aebd 9d64 efbe
000002d0: 12ca 57ba d29d 573b 9175 9a3a 003d 00bd
000002e0: b3cf 193e 7536 56bd 42d1 34bd 432d a9bc
000002f0: 69ac 483e 074b 45be 0898 99bc ca7d 43bd
00000300: 0a9f 1bbd 42cd 27bd bca6 95bb a831 953e
00000310: eadd f9bb 863e 923c e159 f73d c053 acbe
00000320: 9c26 65bc ed8c 8cbd 3e2e 943d 48ed 80bd
00000330: 86ed 24bd efe7 4f3d 48ae dfbd 9fcd bebe
00000340: 233a dfbc 4b17 073d b728 f7bc 2ef5 09be
00000350: 78b8 9ebe 637b a3be 77d8 78bf cb2e 7ebc
00000360: 693a 743d 682f 39bd 2c97 5e3a a599 8dbe
00000370: bf3f d63e 102e 1fbd 82b0 c0bd eab3 ea3d
00000380: 3d53 abbc 5de6 53bd fe87 24bd 1b39 a6bd
00000390: dfa0 b4bd 1546 92be e8c5 46bd b8c8 9fbd
000003a0: 1eed 95bd 11b3 af3b 9cdc c8be f4bf d2bc
000003b0: 6023 99bb 52b3 fbbd ab46 963c c2b7 9abe
000003c0: d1a6 78bd e564 953c 1854 cfbe cc7d b8be
000003d0: bd84 6e3d 4fa9 473c 613a 5d3d 6442 3dbf
000003e0: 06e8 41bd 4ee6 94bd d1da 3fbc 0d4e 46bd
000003f0: fc34 2abc 4696 683d 863e 573d 8574 d0be
-0.12379431 -0.44742727 -0.069624476 0.052050084 0.16202196 -0.016793203 -0.5159243 -0.02251206
-0.0073215733 -0.030345377 -0.4091444 -0.04692644 -0.8283325 -0.574724 0.011048276 -0.042346504
-0.09188735 0.044997323 -0.029216005 -0.051079396 -0.047939777 0.0025309147 0.04553004 -0.003349275
-0.030468524 -0.00848096 -0.0782471 -0.0444275 0.024960628 0.004293846 -0.099729955 0.109265566
0.021942658 0.19615899 -0.22875504 -0.0009670409 -0.5517788 -0.23335761 0.022827605 0.03030218
-0.10206013 -0.38792604 -0.19899808 -0.48290452 0.02185992 -0.10048912 -0.14030881 -0.36094743
0.008023779 -0.357491 -0.01849666 -0.16174938 -0.033000816 -0.45917144 -0.42837262 -0.10029954
-0.05081589 0.04244478 0.019815708 -0.29441792 -0.05540198 -0.36772656 0.0028575426 -0.059062153
-0.037365913 -0.016161738 -0.105187476 -0.04109655 -0.0009654894 0.023381934 -0.00031272246 0.01597052
-0.3300158 0.04270052 0.39671353 -0.11483054 -0.004187977 0.08611164 -0.047952507 -0.066264965
-1.0517439 -0.522635 -0.36296862 0.07547655 -0.10548604 -0.104617715 -0.025657047 -0.051549185
-0.036183365 -0.06564736 -0.24579452 -0.10988757 -0.09849246 -0.03184096 -0.062142346 -0.28457797
0.41065592 -0.1966682 -0.006504225 -0.02377436 -0.040032588 -0.01453008 0.17854679 -0.11205101
0.03916632 -0.04455831 -0.037663087 -0.0069048125 -0.30917886 -0.1504129 -0.010220204 -0.5250229
-0.010206554 -0.06302756 0.014527642 -0.3057733 -0.5087149 -0.07605415 -0.2827729 0.0025381828
-0.049703553 0.05620109 -0.32098466 -0.05478711 0.018849818 -0.2085252 -0.011198542 -0.008370212
-0.08481115 -0.09474575 -0.035962872 0.043937072 -0.05262586 -0.028586315 -0.17638317 -0.19844054
-0.023479855 -0.036098003 0.018831557 -0.27615684 0.00763343 0.060626514 -0.07050439 -0.13758312
0.007967323 0.42212364 0.0035986488 -0.2257919 -0.09488179 0.44138315 0.10015167 -0.0007179897
-0.017813409 0.18174183 -0.062261067 -0.04029126 -0.016426379 -0.058139246 0.33461267 0.019143604
0.16952704 -0.031279296 -0.05129599 -0.16670848 0.21426116 -0.15462652 0.11336068 -0.07324746
0.005451385 -0.057474367 -0.048408117 0.064227715 -0.23443125 -0.48642382 -0.031475984 0.019104263
-0.05348821 0.07484972 -0.08497692 -0.4675645 -0.000823171 0.0032900465 0.0011784305 -0.031308174
0.15020637 -0.052298028 -0.044144876 -0.020651465 0.1959702 -0.19266902 -0.018749252 -0.047727384
-0.03799347 -0.040967233 -0.0045669954 0.29139447 -0.007625331 0.01785208 0.1207769 -0.33657646
-0.013986256 -0.06862817 0.072353825 -0.06295258 -0.040265583 0.0507583 -0.109219134 -0.3726625
-0.027249401 0.0329812 -0.030170782 -0.13472435 -0.31000113 -0.31930074 -0.972053 -0.015514086
0.059626017 -0.045211226 0.00084911543 -0.27656284 0.4184551 -0.038862288 -0.09408666 0.11460097
-0.020913715 -0.051733363 -0.040168755 -0.08116361 -0.08819746 -0.28569093 -0.04852858 -0.07801956
-0.07320617 0.0053619226 -0.39230812 -0.025726296 -0.0046734065 -0.12290062 0.018344244 -0.3021832
-0.060705964 0.018236587 -0.40493846 -0.36033475 0.058232058 0.012186362 0.054010753 -0.7392943
-0.047340415 -0.0727049 -0.011709885 -0.04841428 -0.010388609 0.056783937 0.05254986 -0.40713897

linearSequential.4.bias f4 [256]
00000000: 84b4 4bbe 7c1e 02bc 3a6f 87bd 410c 9ebd
00000010: b770 dfbc fa03 153d f3f0 59bd 85ca b5bd
00000020: e4cc eb3c e430 85bc fc4c 25be 05cb 46bd
00000030: 8b84 fabc 49fb c4bd 8a2d 13be 740c 48bc
00000040: fa26 afbc 92d3 fbbb a49e b0bd 13e0 55bd
00000050: 4287 383d d7d9 0cbe 9ecc 1abe 74df fbbd
00000060: 0bc8 d5bd 3f5a 99bd a145 9bbd 2a55 94bd
00000070: 92ba 34bd 0e27 b7bd d30a 73bd 6057 1abd
00000080: 9f24 03be 9ac9 0ebe cf64 85bd b4d4 e0bc
00000090: ec9e 12bd 3522 64be 3192 ffbc 17f0 abbb
000000a0: c280 35bd cc53 3fbe d951 15be 8cb7 f4bd
000000b0: ebdf 1abe 1a76 ffbc f3de ccbd a8ec a2bd
000000c0: 6555 9fbc 417a f8bd 50b9 a63d 85f7 6f3b
000000d0: 36b6 6fbd 25a9 ffbd 4720 73bd bac9 adbd
000000e0: 82a2 babd e8d8 a9bd c5d7 36bd dfac abbc
000000f0: ada4 b1bd 8253 43be aa81 32be e88a 1abd
00000100: 2448 11be 800e efbd d817 7bbd ce0c 8dbd
00000110: 8885 07be ce0a 48bd b665 e1bd 1164 44bd
00000120: dac6 0fbe 9658 00be cd02 9dbd 3a6a 15be
00000130: b0fb 1a3c a5df ed3d 7290 96bd 784d ebbc
00000140: 0fd5 bfbd 2c60 acbd 54dc 8dbd e782 6abd
00000150: 536a 92bd 5b13 ea3c 86e1 26be 6d98 85bd
00000160: cda2 80bd 387f e03d 2cf5 a5bc 6c94 96bc
00000170: d5f1 d53d d7d0 b1bd e436 cfbd dc5e 04be
00000180: e900 9cbd 5eae ccbb 0237 6bbd 0526 64bd
00000190: a90a 32bd 6af2 6fbe d9ea 593c be11 dcbc
000001a0: 0f3d b6bd 535c 26be 39dd 41bd 8144 c6bd
000001b0: 9301 1abe ef9b f4ba 5caf 1cbe b2f3 2abe
000001c0: fdda e4bd 2b69 e6bd e280 9fbd 9a9e 8cbd
000001d0: 6656 4dbe 4760 18be 6516 ddbd efe0 acbd
000001e0: 820a 98bd a5c3 1ebe e07b 33be 7196 b1bd
000001f0: b020 e3bc fbdd 99bc cf11 85bd 322f f4bc
00000200: 5251 6ebe 81fb ddbd 66a5 903b 4b72 a3bd
00000210: 60a7 03be 5fc7 dabc 8da6 45be 8b2d 83bd
00000220: 6e5e 98bd 28f9 acbd 27fc 56be 1ffd adbd
00000230: 2fa0 0ebd 3cc7 bfbd 948b 0bbe 03bb 95bd
00000240: b4ad b3bd 8697 ecbc 50e4 8fbd 4edf bbbd
00000250: 6a2c b5bd 9a42 42bd 1fed e6bd 3054 47be
00000260: 287d b9bd 862a 34bd bfc8 05bd ae5b dcbd
00000270: b52c 32bd 5426 f4bd 5fee c4bd 7af7 1cbd
00000280: ac44 63be c74f 63bd 5e7a 18be e7b4 17be
00000290: d4ce 1f3c 414a 1dbe 16a0 52bd b011 3cbe
000002a0: 610b 78bc 3440 0abe 9f42 1abe 1b61 aabd
000002b0: 7fc7 32bd 68df 26be 8a8d 0f3e 494e 1bbe
000002c0: 4b1c 0abe 87d2 99bd 99e8 20bd e29a 3ebe
000002d0: bc6a 1bbe ae97 bebd 3a0d b3bd 2eee 0abd
000002e0: acdc 9fbd aa90 0dbd 1ad0 56be 75cc 39be
000002f0: 98fb 38bd e212 09be af0f f2bc 703e 9fbd
00000300: 40c6 b7bd 408e b9bc 2c4e 1ebe 0656 c8bd
00000310: 06e1 84bd 5c2d 1bbe fadb 9dbd d2df 42bd
00000320: 6716 b4bd 1ee0 afbd 5be7 51bd 6b16 0dbe
00000330: 4f7c ea3c 572f 8dbd 633e b8bd 8fcb 7ebd
00000340: 31b2 35bd d1f9 3cbd 6ef2 10be ce1c 1c3c
00000350: ba06 5bbe d454 8ebd 7ad0 29bc 7799 87be
00000360: 5225 cdbd 6962 8cbd 94a5 17bd 6f98 26be
00000370: 0eff 1fbe 1d26 57be 8523 33be 32ec 62be
00000380: 6057 88bd 6fcb acbd 5b32 b7bd 26a8 bebd
00000390: 51a8 05be feea d0bd a4c2 bf3c 40af 0abd
000003a0: 7af4 66be a9a6 fcbd 525c 9d3d 3ef8 ae3c
000003b0: cd48 8fbd 7a9e 02be 05fd d6bd e1d1 30be
000003c0: 8a2e c9bd 2d84 babc 8bc0 3fbd 4299 be3d
000003d0: 7875 26be 76dc 42bd 891b afbc d5a3 0fbe
000003e0: 6bb0 19bd c6d0 19bd 6aa9 3bbe 03b7 ecbc
000003f0: 16f6 9cbd dcb0 ddbd 7da0 10be fcc4 29be
-0.1989308 -0.007941838 -0.06613012 -0.07717181 -0.027275426 0.036380745 -0.053208303 -0.08876518
0.028784223 -0.016258664 -0.16142648 -0.04853346 -0.03058078 -0.09618241 -0.1437284 -0.01221
-0.02138089 -0.0076851333 -0.08624008 -0.052215647 0.045050867 -0.13754974 -0.15117118 -0.1229848
-0.10438546 -0.07487916 -0.0758164 -0.07242806 -0.04412324 -0.08942996 -0.059336495 -0.037680984
-0.12806939 -0.13944092 -0.06513368 -0.027445175 -0.03579609 -0.22278674 -0.03119764 -0.005247127
-0.044312246 -0.1868431 -0.14582004 -0.11949071 -0.1512448 -0.031184245 -0.10003462 -0.07955295
-0.019449899 -0.12132693 0.08140814 0.003661604 -0.05852338 -0.12483434 -0.059356954 -0.08485742
-0.09113027 -0.08293325 -0.044639368 -0.020956455 -0.086739875 -0.19074824 -0.17432275 -0.037730128
-0.14187676 -0.116726875 -0.061302036 -0.06887208 -0.13234532 -0.04883843 -0.11005728 -0.047946993
-0.140407 -0.12533793 -0.0766655 -0.14591303 0.009459421 0.116149224 -0.073517695 -0.028723463
-0.093668096 -0.08416781 -0.0692679 -0.057253744 -0.07149186 0.028573683 -0.16296968 -0.065232135
-0.06281052 0.10961765 -0.020258509 -0.01838132 0.104465164 -0.08682411 -0.101178914 -0.12926811
-0.07617361 -0.006246372 -0.057425506 -0.05570032 -0.043467198 -0.23432317 0.013300621 -0.026863929
-0.08898365 -0.16246156 -0.047330115 -0.09681035 -0.15039663 -0.0018662194 -0.1530127 -0.16694525
-0.11174581 -0.11250528 -0.07788254 -0.06866188 -0.2005249 -0.14880477 -0.10795287 -0.0844134
-0.07423879 -0.1550432 -0.17527723 -0.086712725 -0.027725548 -0.018782606 -0.06497537 -0.02980766
-0.23273209 -0.10838986 0.0044142483 -0.07980784 -0.12856817 -0.026706396 -0.19301815 -0.06405171
-0.07439886 -0.0844596 -0.20994626 -0.08495545 -0.03482073 -0.09364173 -0.13627464 -0.0731106
-0.087733656 -0.028880846 -0.07025969 -0.09173451 -0.08846362 -0.047426797 -0.11275696 -0.19465709
-0.09057075 -0.043985866 -0.03266215 -0.10759674 -0.043499667 -0.11921373 -0.09615778 -0.03832195
-0.22194165 -0.055496003 -0.1489043 -0.14815103 0.0097539015 -0.15360357 -0.0514222 -0.18366122
-0.015139432 -0.13501054 -0.15064476 -0.08319303 -0.043647286 -0.1629616 0.14018837 -0.15166582
-0.13487355 -0.07510858 -0.039284322 -0.1861377 -0.15177435 -0.09306274 -0.08742757 -0.033918552
-0.07805762 -0.03456179 -0.20977822 -0.181444 -0.045161813 -0.1338611 -0.029548494 -0.07775581
-0.0897336 -0.022650838 -0.15459508 -0.09782033 -0.06488232 -0.15154022 -0.07707973 -0.047576733
-0.087933354 -0.08587669 -0.05124603 -0.13778083 0.028623728 -0.06893795 -0.08996274 -0.062205847
-0.04435939 -0.04613668 -0.1415498 0.009528352 -0.21389285 -0.069497734 -0.010364646 -0.26484272
-0.10016884 -0.06854708 -0.037023142 -0.16269086 -0.1562464 -0.21010633 -0.17494018 -0.22160414
-0.066572905 -0.084372394 -0.089451514 -0.093094155 -0.13052489 -0.10201071 0.023408242 -0.033858538
-0.22554198 -0.123364754 0.07683624 0.021358605 -0.069963075 -0.12755767 -0.104974784 -0.17267562
-0.0982333 -0.022768104 -0.046814483 0.09306575 -0.16255748 -0.04757353 -0.021375434 -0.1402734
-0.03752176 -0.037552617 -0.18326345 -0.02889586 -0.07664125 -0.10824749 -0.14123721 -0.1657905

linearSequential.6.weight f4 [128, 256]
00000000: 892a 433a e0b6 74bb f474 2f3d c54f 1e3d
00000010: 4691 bdbc 4f44 73ba 8cb4 84bc b302 093d
00000020: 7031 85bd d605 5d3d db9c 3dbd 1558 533d
00000030: d037 ec3b 5406 7bbc 39b4 d93a 7f85 583d
00000040: 65b6 ec3c ca41 44bd f09e c2bd a01a 73bd
00000050: dff2 8cbd bbae 753d 2ae1 20bc adfd cd39
00000060: 73f9 a43c 95e7 b43c 513e 9dbb e4bd 18bd
00000070: 4aca 0fbd 2b99 063d a4c2 4ebd e5ac 383d
00000080: 9150 86bd c979 a0bc 40a7 8abb 5d4a 5ebb
00000090: a38f 12bd 74ce 46bd 2523 94bd ddec edbc
000000a0: 576e 8bbd 56a6 44bd 4088 b2bd b8cd 833c
000000b0: 2efd 363d f8c5 873c 1bf5 09bd 1de3 61bd
000000c0: c934 d8bc e861 57ba 0f4c 32be 5529 f7bc
000000d0: 1693 4abd 3950 44bd 6aaf 443d 9742 5bbd
000000e0: f4b1 be3b 48d6 5ebd 5e80 2bbc 3a3c e0b8
000000f0: 7ee2 203d f2ad f53c 6bba 18bd 4116 843d
00000100: 395b 26bd d829 b7bd 4ec7 cebd aa29 de3c
00000110: 4fb5 f43c c85c c33c 9453 97bd d88a 84ba
00000120: 790e 8abd c246 c0bd b6fb 18bc 2b8d 0e3d
00000130: 2dec 0a3d d1ab 24be bb0e 86bd 5608 98bc
00000140: b2cb 3f3d c304 1cbd 7acc 8bbd 5d18 11bd
00000150: 9e69 653d 82ce 883c 15ca 68bd b6b6 1a3d
00000160: 101c 43bd f7c1 05bd ba8d e2bd ebc8 2abc
00000170: 043a 91bd fdf1 563d 2019 95bc 2a3e 523c
00000180: 6dc0 38bd c988 f83c 95a2 ec3c a036 edbc
00000190: 7cdb 0abc 0f60 3dbd 51ca bfbd 9cfc 2dbd
000001a0: 2c8e 463d 7c79 ac3c 465d edbc 3364 ecbc
000001b0: 1e5b edbd 8453 9d3c 7ee9 323d 1a31 b2bd
000001c0: 278a 53bd 4103 393c 42ce c43b 20a9 66bd
000001d0: 2ea6 c4bb 67f5 14bd eee6 c2bd a295 023d
000001e0: 4277 5ebd b664 22bc b354 95bd 5427 a23c
000001f0: 22ef 9cbc 1761 36bd 6ff6 7f3c 3e2e a3bc
00000200: f88d 69bd 550a cc3c 9dfa 6cbd e4cb 80bd
00000210: 58bb 5e3d 3363 ddbd ed53 3ebd 1a13 123d
00000220: 534a 4c3d c459 07bc 42eb 76bd 3480 863c
00000230: 8d2d 95bc a740 0039 ce05 07bd e217 32bd
00000240: bf91 9fbc 86f5 913c eb66 92bd 5b19 823c
00000250: 2f31 8ebd 728d a1bc 9267 fb3c bc46 7abb
00000260: bb8e 12bd 0256 66bd f567 2d3d c5d5 a13c
00000270: 28f0 1fbd 76f4 92bc 4246 6cbd c01d e33c
00000280: a236 82bd 277c 3bbd a801 0fbd dce6 353c
00000290: 021b 883d 1847 abbd 60e9 c4bc b4db f5bd
000002a0: 0bfa 943a 6843 81bc 2e98 113c 0308 0cbd
000002b0: 21e4 90bd cde6 87bd 3a4c 75bc bd68 10bd
000002c0: 54b9 d1bb 94e8 a7bb bc42 0bbd e9f1 91bd
000002d0: 8119 4a3c 2080 883c e359 4ebd 2d45 5abc
000002e0: 0069 2bbd 152a 9c3c 6491 d03c deaa 17bd
000002f0: 09c3 0d3d 22f3 b73c 0dbc 35bd 141f c33c
00000300: 89fb 5abc e589 38bd 6cc2 e4ba ead3 2b3d
00000310: 0821 72bd dbbf 453d 218f 403b 1da0 883b
00000320: 5c62 06bd 1510 c3bd 9201 48bd f0b6 39bd
00000330: 7174 0738 45ec b9bc 5ab4 0d3d 8430 22bc
00000340: 1548 fabc ea11 9ebc 5c43 4c3d c936 af3c
00000350: 6cfa 78bd b285 9a3d d450 9cbc bad9 cf3a
00000360: 7145 90bd af0f 9cbc 603b ecbb 5f20 6b3d
00000370: 4188 92bd 263a 61bd e456 84bd bb9d 0ebd
00000380: e458 b0bc a3de 61bc 6179 60bb 9fe0 503c
00000390: 4dae aebd e694 04bd 5dc1 d73d 04c4 8abd
000003a0: 5bfb 86bd 3414 11bd 2ced ccbd 15f7 853c
000003b0: 3649 87bc cfba 20bc 7fe1 5fbc eb8c a43b
000003c0: 0685 ad3c dfa9 23bc 4556 46ba 83f8 c2bc
000003d0: 19c7 e43c ed19 b5bc 2cbd 91bd f05a 60bd
000003e0: 76d7 a5bc 4ca6 ceba 4c92 c6bc ea7f a0bd
000003f0: 22f3 86bd b782 8ebd 64f7 c0bc 23d9 193d
0.0007444998 -0.0037340447 0.042836145 0.038650293 -0.02314056 -0.0009279893 -0.016199373 0.03344984
-0.0650357 0.053960644 -0.046292167 0.051597673 0.007208802 -0.015321333 0.0016609497 0.052861687
0.028895566 -0.047914304 -0.09502971 -0.059351563 -0.068822615 0.05998109 -0.009819308 0.0003928965
0.020138478 0.022083083 -0.0047986885 -0.03729047 -0.035105027 0.032860916 -0.050478593 0.04508676
-0.065583356 -0.019589322 -0.0042313635 -0.0033918836 -0.035781514 -0.048536733 -0.07233266 -0.02904361
-0.06808155 -0.048010193 -0.08717394 0.016089305 0.044675045 0.016573891 -0.033681016 -0.055148233
-0.026392357 -0.0008216188 -0.17411827 -0.030171076 -0.04945668 -0.04792807 0.04801885 -0.053530302
0.0058195535 -0.054403573 -0.010467617 -0.000106923704 0.0392785 0.02999017 -0.037287157 0.06449557
-0.04061434 -0.08943528 -0.10096608 0.027119476 0.02987161 0.023847952 -0.07388988 -0.001011218
-0.06741042 -0.09388496 -0.009337356 0.034802597 0.03391664 -0.16081168 -0.06545778 -0.018558662
0.04682512 -0.03809048 -0.0682611 -0.035423625 0.056008928 0.016700033 -0.056833345 0.037771903
-0.047634184 -0.032655682 -0.110621884 -0.010423879 -0.07091144 0.05247687 -0.018200457 0.012832204
-0.045105387 0.030338662 0.028886119 -0.028956711 -0.008475181 -0.046234187 -0.09364761 -0.042477235
0.04847543 0.021054022 -0.02897514 -0.028856372 -0.11589645 0.019204862 0.043679707 -0.08700772
-0.051645424 0.01129228 0.006006033 -0.056313634 -0.0060012555 -0.036366846 -0.095167026 0.031880982
-0.054312952 -0.009911707 -0.07291546 0.019794144 -0.019156996 -0.044526186 0.015622719 -0.01991951
-0.057020158 0.02490727 -0.05785619 -0.06288889 0.054377884 -0.108099364 -0.046466757 0.035662748
0.04987557 -0.008261148 -0.060282953 0.016418554 -0.018210197 0.00012231116 -0.03296452 -0.043479808
-0.019478677 0.01781727 -0.07148536 0.015881231 -0.06942975 -0.019720767 0.030689035 -0.0038189134
-0.03578065 -0.056234367 0.04233547 0.019755254 -0.03904739 -0.017938834 -0.05768419 0.027724147
-0.06358077 -0.045772698 -0.03491369 0.011102404 0.06645776 -0.083631694 -0.024037063 -0.12004796
0.0011366023 -0.015779212 0.00888638 -0.034187328 -0.07074762 -0.06635819 -0.014971787 -0.035256136
-0.0064002667 -0.005124161 -0.03399919 -0.07126219 0.012335182 0.016662657 -0.05037869 -0.013322157
-0.041848183 0.019063035 0.025459953 -0.037028186 0.03460983 0.022454802 -0.044368792 0.02381853
-0.013365635 -0.04505338 -0.0017452962 0.041950144 -0.059113532 0.04827867 0.0029382186 0.0041694776
-0.032808647 -0.09524552 -0.048829623 -0.04534048 3.2294953e-05 -0.02269567 0.034595825 -0.009899262
-0.03055195 -0.019295651 0.049868926 0.021388428 -0.060785696 0.075450316 -0.01908151 0.0015857734
-0.07044495 -0.019050447 -0.0072092265 0.05740392 -0.071548946 -0.054987095 -0.064618856 -0.034818392
-0.021526761 -0.013785991 -0.0034252035 0.012748866 -0.08529339 -0.032368563 0.10534928 -0.06775668
-0.06590911 -0.035419658 -0.100061744 0.01635317 -0.016514402 -0.009810164 -0.013664602 0.0050216815
0.021181595 -0.009989231 -0.0007565956 -0.02380014 0.027926968 -0.022107089 -0.0711616 -0.054774225
-0.020244341 -0.0015766113 -0.024239682 -0.07836898 -0.06589343 -0.06958526 -0.023555465 0.037560593

linearSequential.6.bias f4 [128]
00000000: f38c 16bd e160 93bc b471 a5bd 538c c8bd
00000010: c99b cebd 1d05 98bd 7a02 e1bd b295 11be
00000020: 9e16 0ebd ba2a f2bc b89e bebd d5e2 42be
00000030: e3e3 96bd 39f5 14be 3225 e4bc 2d63 63bd
00000040: bf85 b6bd 0548 c0bd 446b 373d ade3 88bd
00000050: 28e1 30bd 24c1 20bd 6dab 99bd 78cf ccbd
00000060: 6cae b8bd ae8e e7bd ab33 08be 65a5 46bd
00000070: 9a61 d7bd 0e81 f6bd e6e4 0fbd 92bd 123d
00000080: f086 0cbe a4c8 d5bd b28b 2dbd 0ff9 43bd
00000090: 4755 d1bd a151 d13d b28b d0bd 9259 b7bd
000000a0: 77bf 1dbc bc16 c7bd d436 d1bd 275b 81bd
000000b0: 036d 6abd a13b 5bbd 985a ccbd 86da 8bbd
000000c0: d231 eebd 50a4 143e 2a17 94bd d1ad dcbd
000000d0: 64fe 63bd 4b48 9cbd 2d0a 42be 4982 29be
000000e0: fc4e 1dbe 6c53 70bd 7f2a f0bd c0ea 5f3d
000000f0: 9e01 84bd e395 2ebe 2902 493c 93b9 6cbd
00000100: d734 3abe e1e7 2ebd b3cf 8bbd aacc d0bd
00000110: 26c1 8d3d 782f 9dbd 11dd 15be 04d3 fa3c
00000120: 57dd efbd d473 a3bd 6941 75bd 4753 45bd
00000130: 4841 62be 43fe 88bc 9b20 ddbd 81c4 75bd
00000140: 83a3 de3c d601 f43d 66b5 c7bd db25 afbd
00000150: 5bd5 8abd 8022 54be f1cb 083e 7b5c c4bd
00000160: fffa 66bd 8477 ddbd 283a ddbd 70c3 7cbe
00000170: 11f6 733d d048 36be 67bc a2bd 4395 71be
00000180: 3884 65bd 0589 26be 286f e8bd 24fd 69bd
00000190: dd4a b3bd 4edb aabd 4974 babd 1435 05be
000001a0: 09f7 8cbc f2ee 033d 5c88 04be 8d0f 37bd
000001b0: d1b0 15be c976 66bd 49e7 babd bfff 1e3d
000001c0: 64a6 b23d c481 edbd 1da1 953d 722a 21bd
000001d0: 1449 82bd 1334 f2bd 07d8 b1bd 3b98 ffbc
000001e0: 2df3 0abd 2201 a3bd a8ed 3fbd 0d98 b9bd
000001f0: 9d83 c9bd 9a12 babd 2340 00be 03b3 fa3d
-0.036755513 -0.017990531 -0.08078328 -0.0979239 -0.100883074 -0.0742285 -0.109868005 -0.1421726
-0.03468954 -0.02956139 -0.09307617 -0.19031842 -0.07367685 -0.1454667 -0.027849767 -0.055514503
-0.08912229 -0.09388737 0.04478003 -0.06684051 -0.043183476 -0.039246693 -0.075034 -0.10000509
-0.09017643 -0.11306511 -0.1330096 -0.048497576 -0.10516663 -0.12036334 -0.035130404 0.03582532
-0.1372335 -0.1043866 -0.042369552 -0.047844943 -0.102213435 0.102206476 -0.10182895 -0.08952631
-0.009628168 -0.09721133 -0.10215536 -0.06316214 -0.057232868 -0.053523663 -0.09978217 -0.068287894
-0.11630596 0.14515805 -0.07230981 -0.1077534 -0.055662528 -0.07630976 -0.18949194 -0.16553606
-0.15362161 -0.058673307 -0.117268555 0.054667234 -0.06445621 -0.17049365 0.012268581 -0.057794165
-0.1818422 -0.042701606 -0.06826725 -0.101952866 0.06921606 -0.076750696 -0.14635111 0.030618198
-0.11712139 -0.07981077 -0.059876833 -0.048175123 -0.22095215 -0.016722804 -0.107972346 -0.060001854
0.027177578 0.11914413 -0.09751396 -0.08552142 -0.067789756 -0.20716286 0.13359047 -0.09587952
-0.056391712 -0.108138114 -0.10802108 -0.24683928 0.05956084 -0.17801213 -0.07946091 -0.23592095
-0.056034297 -0.16263206 -0.11349326 -0.05712618 -0.087545134 -0.0834261 -0.09104211 -0.13008529
-0.01720764 0.032210298 -0.12942642 -0.044692565 -0.14618231 -0.056265626 -0.091261454 0.038818117
0.08723143 -0.115970165 0.073061205 -0.03934712 -0.06361595 -0.118263386 -0.08683782 -0.031200519
-0.033923317 -0.079592004 -0.046857506 -0.090622045 -0.09839556 -0.09085579 -0.12524466 0.12241175
