nets/state_dicts/nnwf01.pt (torch, 59283 bytes, 10 tensors)

linearSequential.0.weight f4 [128, 22]
00000000: 239b f13e 3f47 813e 23a7 533d dec7 e13d
00000010: 302d 0f3e c31e d5bd 3e5e f23d 6c8e 603d
00000020: b4e9 9fbe 0a2b 7abe ec26 49bf b56d dabe
00000030: 2c21 26bf 9e02 10be c040 e83e 898e 80be
00000040: 2c6f 29bd 1e85 b1be e5ab c1be e6b9 32bf
00000050: 239e 6f3e fedb 4bbe 26e4 d53e cb58 a53d
00000060: 63a3 b33d 06c7 fc3c 0757 e6bd f729 c4bc
00000070: 926f e0be c391 cebd 72b7 c73c 9ba3 16be
00000080: 2857 eabe 9104 613d 8c9b 41be 1632 a13d
00000090: be9f 3c3e f23f fa3d f8dd 57bd 5325 41be
000000a0: 016e f3be e62d ebbd f176 5f3e 2177 75bd
000000b0: 1570 073f 56e7 b6bd 05da d23e 7cbf bdbd
000000c0: 5bc7 0f3f 271a 063f 6c5d 063e 1464 41bd
000000d0: 137e 4bbe 6e8c e7be 85ae eabd 4584 143e
000000e0: c049 e9be 8239 38ba 8710 1a3f 912c 543f
000000f0: 4136 173d d91a e03d e00e 74be c4f2 08be
00000100: 68c1 723e d413 a7be eb0d 6bbe 01fb 08bf
00000110: f933 253d ce6a 19bf d408 7cba d043 0bbf
00000120: ccd5 8fbe 1401 6d3f 2de6 883e 1b03 0dbd
00000130: bd27 e6be 2ced c13e a98c 09bf bcbd 4a3d
00000140: 3e13 803f bcca 673f 934e 90be a9a3 d43e
00000150: 9fd2 01bf ee15 44be 0837 f83d 0d9c 0d3a
00000160: c234 5ebf 98c7 a13e 8c19 84be 0ef2 ab3e
00000170: 31c2 08c0 5431 e6be 1c6b 143e b1d1 cabe
00000180: 0c10 4bbe b477 b33e 46cf 1d3e 55d8 7f3e
00000190: 89e3 76bd 707c bb3d 51b2 99be 26e8 933f
000001a0: ecc3 133e 2125 b63e 5cef 243e fb8f a7bd
000001b0: dd97 ea3e daa2 12bf e0f2 923f 0e55 27be
000001c0: 4539 823e ad2b 323f 0d04 8ebe db88 31be
000001d0: 22dd 18bf 736a 293f 028a b93e d45a 073e
000001e0: f405 01bf 9085 7abe 4b21 99be 1790 9ebe
000001f0: 1307 113d cdad 923e f2d8 09bf ea2a 203f
00000200: 6715 5cbe ac30 9dbe ac68 25bf 1904 073f
00000210: 16b2 3d3f e122 07be 2d33 7abf 3289 01be
00000220: daa0 39bf d4fe 09bf 2a3c 18bf 410c ba3e
00000230: 8e65 1e3e c708 633e 0d9c 163e a68a dbbe
00000240: 21bb 823f 1174 c43d f779 e4be 173d 3abe
00000250: a9b7 903d 8324 4dbe 266a 90be aa79 373f
00000260: ecca 823c 170f 27bf b092 913e ea2f 603d
00000270: 49ac 723e a671 343f aba4 a93e ed45 75bd
00000280: e567 56bf b663 fb3e 6150 bf3e f2f4 a0be
00000290: 12cb aebf 4db3 69bf 2cae 1dbf e33e a7bc
000002a0: f23f 07be 1b78 33be 54bf 91be 41b7 eb3e
000002b0: 8134 7f3e 5431 8b3d 3d67 47be 271e 333e
000002c0: 0d0e 923f 3b24 a63f deef 433e a005 00bf
000002d0: beef 42bf 2f61 86bd d317 5e3f 8534 c43e
000002e0: 1cf8 f13e bd72 5cbf d324 ccbe a27f 743c
000002f0: f2f7 1ebf 32f7 a63c dd33 07be 5822 33bf
00000300: b0eb a0be 05a6 1e3f ccd1 1f3f 9815 d4bb
00000310: 36a2 82bf e581 073f e196 0e3f e73c b43e
00000320: 843a cebd 801d d03e 2d77 84be b2eb 903d
00000330: ef29 c43e e75f 1fbc 2084 43b8 c866 18bf
00000340: 7bf2 e3be 5dd5 4bbd abfe 16bf 4f4e 433d
00000350: 21bd c3bc ccac 25bf 6d72 e93c de5a 8bbd
00000360: cd15 5b3f beca 3abe 0b89 06bf 19f1 123e
00000370: afc5 5bbf 82c3 3dbf f80b 323d 70e1 823e
00000380: fad0 8d3f 8433 1e3d 2abf 863f ab5a 883e
00000390: 7211 193e 7f40 95bf 0225 d1bd b21c 083f
000003a0: 0c42 0f3e 6dbf 93be 97bb 02be 3749 183f
000003b0: d9b9 59bc 20ea fbbd baac 82be 7c05 903e
000003c0: a133 89be f995 97bf dc87 9bbe dcd1 a8be
000003d0: 03cf ecbd 0afc 943c f1ef f73d b9e9 c53e
000003e0: 4bbe 943e ed86 113f 91b1 043f 1bfb ec3e
000003f0: 4a64 7ebf 6f1b 20bf 2381 2c3d e406 b6be
0.47188672 0.2524967 0.051673066 0.1102445 0.13982081 -0.10406258 0.118343815 0.054823324
-0.3123299 -0.2443048 -0.78575015 -0.42661825 -0.64894366 -0.14063498 0.453619 -0.25108746
-0.041365787 -0.34671873 -0.37826458 -0.6981491 0.23400168 -0.19908139 0.41775626 0.080735765
0.08771398 0.03085662 -0.11247068 -0.023945792 -0.4383512 -0.100863956 0.024379466 -0.14710848
-0.4576962 0.054935995 -0.18906993 0.07870881 0.18420312 0.12219228 -0.05270192 -0.18861894
-0.47544864 -0.11483364 0.21822716 -0.059928063 0.529054 -0.089308426 0.4118196 -0.09265038
0.5616357 0.52383655 0.13121575 -0.047214583 -0.19872312 -0.45224327 -0.11459068 0.14503582
-0.4556408 -0.00070276123 0.6018147 0.828805 0.036916975 0.10942621 -0.238338 -0.13373858
0.23706591 -0.32632315 -0.22954528 -0.53508 0.040332768 -0.59928596 -0.00096143526 -0.5440035
-0.28092802 0.9257977 0.2673811 -0.03442679 -0.44952193 0.3787626 -0.53730255 0.04949735
1.0005872 0.90543723 -0.28184947 0.41531113 -0.5071201 -0.1914899 0.121198714 0.00054019765
-0.8679925 0.3159759 -0.2580074 0.3358311 -2.1368525 -0.4495951 0.14493984 -0.39613107
-0.1983034 0.35052264 0.154111 0.24984868 -0.06027559 0.09154594 -0.30018857 1.1555221
0.14430207 0.35575202 0.16106933 -0.08181759 0.45818987 -0.5727974 1.148037 -0.1634104
0.25434318 0.69597894 -0.27737466 -0.17337362 -0.5971242 0.66178054 0.36238104 0.13218242
-0.5039971 -0.24465013 -0.29908213 -0.30969307 0.035407137 0.28648224 -0.5384666 0.6256548
-0.2149254 -0.30701196 -0.6461284 0.5274063 0.7409986 -0.13196899 -0.9773434 -0.12649992
-0.72511065 -0.5390446 -0.59466803 0.36337474 0.15468428 0.22171317 0.14707966 -0.42879218
1.0213357 0.095924504 -0.44624302 -0.18187366 0.070662804 -0.2003346 -0.28205985 0.7167002
0.015965901 -0.652574 0.28432226 0.054733194 0.23698534 0.70485914 0.33133444 -0.05988114
-0.8375228 0.4909951 0.37366012 -0.31436878 -1.3655722 -0.91289216 -0.6159389 -0.020415729
-0.13207987 -0.17526285 -0.28466284 0.4603825 0.24922372 0.06796518 -0.19472976 0.17491971
1.1410538 1.2979807 0.19134471 -0.50008583 -0.7614707 -0.06561505 0.867551 0.3832132
0.47259605 -0.86112577 -0.39871845 0.014923008 -0.62097085 0.020381544 -0.13203378 -0.6997428
-0.31429815 0.61972076 0.624295 -0.0064723007 -1.0205753 0.5293258 0.5569897 0.35202715
-0.10069755 0.40647507 -0.25872174 0.07076205 0.38313243 -0.009727455 -4.6614674e-05 -0.5953183
-0.44520935 -0.049764026 -0.5898234 0.047682103 -0.023893895 -0.6471679 0.028496945 -0.06804441
0.8558014 -0.18241403 -0.5255286 0.14349784 -0.85848516 -0.74126446 0.043468446 0.2556262
1.10794 0.038623348 1.0527089 0.26631674 0.14948061 -1.1660308 -0.10212137 0.53168786
0.13990039 -0.28856984 -0.12766872 0.59486717 -0.013288938 -0.12300515 -0.25522405 0.28129184
-0.26797202 -1.1842643 -0.3037709 -0.3297261 -0.11562922 0.018186588 0.12106312 0.3865488
0.29051432 0.56846505 0.51833445 0.46285328 -0.9937178 -0.6254186 0.042115342 -0.35552132

linearSequential.0.bias f4 [128]
00000000: ed36 fcbf 9cd4 d0bf 2960 d9bf 811d d7bf
00000010: 15ec ddbf 5a6e 10bf 26b0 24bf 4554 96bf
00000020: 6940 98bf 3c4c abbf 0b16 01c0 2e70 a2bf
00000030: 6d1c e5bf 519a 9ebf 3c25 b8bf 55dc d0bf
00000040: ee86 9fbf eb3e 04c0 1a88 fcbf cc24 76bf
00000050: 698d 00bf 6a87 62bf 9b75 d1bf 6cbd 8dbe
00000060: 27ab 6dbf 2cf4 cabd 804b abbf b2e9 11bf
00000070: 8967 1b3f 2552 3bbf 8ee5 43bf 4ae1 a0be
00000080: 1f42 38bf a86b a1bf 1c98 62bf 3ebe e2bf
00000090: dda4 0ec0 46ff b3bf a4b3 0abf f5fb aebf
000000a0: cac8 4c3f 7e38 ef3e f5ff 09c0 c262 20bf
000000b0: 2ba3 a6bf bbe6 023f f501 883e c935 f1bf
000000c0: 72ce 07be 327a c8bf b82f 49bf 4b40 c0bf
000000d0: c57d d6bf 0646 00c0 bf4c 7fbf 2d85 90bf
000000e0: fbdf 5fbf e1ed 20c0 50c5 9fbf 2196 04c0
000000f0: 87bd d9bf 3da7 f3bc 30c4 41bf d593 f0bf
00000100: dbd7 82bf 7c3f 8bbf 57ba 8ebf b4d3 d9bf
00000110: 55b1 713f fb3e 04c0 87ac fabf 79d8 dcbf
00000120: 6c9f e0bf 5ca7 abbf 461e ddbf fad9 38bf
00000130: 7e15 a8bf 902a bebf 2565 e5bf b089 81bf
00000140: 761d 653f faca 943e 1ba1 6fbf 20f2 14c0
00000150: e756 92be d84a 96bf 74b2 eabf db9d 88bf
00000160: 497e 3ebf e0d1 1cbf 4998 b9bf 4d09 3bbf
00000170: bbf0 8fbf 0204 8dbf 63ca c5bf a37b efbf
00000180: 375b 05c0 42c1 9bbf 2ee8 b7bf 78a7 b9bf
00000190: e70e cebf d15b d5bf 2b53 ecbf e577 8ebf
000001a0: ec08 04c0 6465 65bf c7ae 2dbf 53e7 d7be
000001b0: 7687 83bf f518 7bbf 1196 4fbe 6986 2cbf
000001c0: 2422 abbf 7b2f 65bf 24e4 9abf 0fdd efbf
000001d0: 07de 99bf d389 c6bf 47ae 8ebf 8ebf d4bf
000001e0: 8524 753e 0a39 92bf 34eb 08c0 0d15 ecbe
000001f0: 5576 98be ef3d afbe 6b92 b8bf 6c11 6cbf
-1.9704262 -1.6314883 -1.6982471 -1.6805879 -1.7337672 -0.56418383 -0.6433128 -1.1744467
-1.1894656 -1.338264 -2.0169704 -1.2690485 -1.78993 -1.2390844 -1.4386363 -1.631724
-1.2463052 -2.0663402 -1.9729035 -0.961499 -0.50215775 -0.88487875 -1.6364015 -0.2768358
-0.9283928 -0.09909853 -1.3382416 -0.56997216 0.6070486 -0.7317222 -0.7652215 -0.31421882
-0.7197589 -1.2610979 -0.8851335 -1.7714307 -2.2288125 -1.4062278 -0.5418036 -1.3670641
0.7999388 0.46722788 -2.1562474 -0.6265069 -1.3018545 0.51133317 0.26563993 -1.8844539
-0.13262346 -1.5662291 -0.7858844 -1.5019621 -1.6757132 -2.004274 -0.9972648 -1.1290642
-0.8745114 -2.514519 -1.248209 -2.0716631 -1.7010964 -0.029742831 -0.75689983 -1.8795115
-1.0222124 -1.0878749 -1.1150616 -1.7017732 0.9441121 -2.066344 -1.9583901 -1.7253562
-1.7548652 -1.3410449 -1.7274864 -0.72207606 -1.3131559 -1.4856739 -1.7921492 -1.0120144
0.8949808 0.2906111 -0.936052 -2.3272781 -0.28581926 -1.174159 -1.833571 -1.0673174
-0.74411446 -0.61257744 -1.4499599 -0.73061067 -1.124534 -1.1016848 -1.5452389 -1.8709606
-2.0836923 -1.2168353 -1.4367731 -1.4504232 -1.6098298 -1.6668645 -1.8462881 -1.1130339
-2.0630445 -0.89607835 -0.67844814 -0.42168674 -1.0275714 -0.98084956 -0.2027209 -0.67392594
-1.3369794 -0.89525574 -1.2100873 -1.8739337 -1.2020882 -1.5510811 -1.1146935 -1.6620958
0.23939712 -1.1423657 -2.1393557 -0.4610981 -0.2977778 -0.3422694 -1.4419683 -0.92214084

linearSequential.2.weight f4 [64, 128]
00000000: c661 41bf 3922 553e d952 a93e 0aca 1bbe
00000010: 1772 d93e 2350 ce3e be80 343f 4fef 2dbf
00000020: cd7a b2be b9d4 d6be caf1 d33e 9768 9fbe
00000030: e87d a8bf f385 8dbf ec0e d53d 9a53 663f
00000040: c9d5 1b3f 9779 3b3e 79cc c4bd 3f2a 553f
00000050: 389d 613f 2193 8cbd c31b 2dbd 5ad8 9bbf
00000060: a2b9 0e3f ddb5 623e bb66 11bf 5403 ccbe
00000070: ca36 d8be 8c54 a7bf 82e2 073f d034 51be
00000080: db4c a7be b6ed a13e 19b1 753e 8088 24bf
00000090: abec 64bf 7617 15be 0295 76be b8f5 bdbf
000000a0: a7d8 7abe ef3f 063e e0c1 9dbd f055 04be
000000b0: ee12 9bbe e2ad 5a3d aa39 0f3e d647 44be
000000c0: 6d10 0a3f b58b 61be 4b4c cf3e 4b50 0d3d
000000d0: 2f28 3cbe 1d9b debe 35ff 5dbd 63cc d7bf
000000e0: 5fb3 3c3e f4d7 9b3f 6b6c 91be d229 7ebb
000000f0: 726f fd3e fd99 2fbf 405b adbe e90c 41bd
00000100: 7665 8ebf 7259 3dbf 0904 1b3f 5886 8cbf
00000110: ef07 cf3d f406 20bf c3ba 14be 362f 5cbf
00000120: 26ff 533f b270 1ebf c573 20bc b03c 64be
00000130: 995a 9cbe f71a edbd 7e39 203e 617c f6be
00000140: d6cb f23d 3da2 24bc 20e4 a1be bdb4 623f
00000150: 80b4 09bf 4386 a4be c364 14c0 9083 dabe
00000160: 4d56 2dbf 2f4a 523d 7ce7 96be 78e7 cabe
00000170: 7356 143f 1eed 8cbf d7fb 23be be80 cdbd
00000180: 9f2d 2bbf 3ef7 693f e1bb ebbe 0722 d7be
00000190: 904c dbbf 0f76 29bd 9dc4 2dbf 9d67 76be
000001a0: fef7 013d 63e3 c4bf 8dfd 003f 6fa5 d0be
000001b0: 56fe 0fbf 61c6 583e cefe 083f 8c2f 00bd
000001c0: c500 27bf 6ddf 74be fd2d f9bd 88a3 9e3e
000001d0: aafe a2be 715d acbf fee0 2dbf 64dc aebe
000001e0: 864f d53e 7085 c7be 1919 6bbf 27fb e8ba
000001f0: fc34 d1bd ce1b 033f 4839 583f 2820 75bf
00000200: 3698 f13e c128 0bbe d9bd cb3d 0a6e a7bb
00000210: 753f 7bbf a68e b0be daa5 01bf 4a35 5d3f
00000220: 5c8b f23e 8e87 933e 1571 943f 8729 263f
00000230: 9924 083f 6024 993f b957 083e 3d7c e13e
00000240: 7646 013e cbdc 033e 8a29 b73e 3275 1ebe
00000250: 497c e1be a093 2dbf 04fe 3bbc aca4 09bf
00000260: 37de 01be ee9f db3b e8b4 c5be 4f0a 513e
00000270: da35 013e 76ce 68bd 010f 5b3d 5dee 3ac0
00000280: e7a1 663e c078 3c3e d9c7 323e faf0 13be
00000290: 73d7 033e e875 0b3e 80fe 16bd cc0a ee3e
000002a0: 6a3d 2a3e 217f a5bd 56df 1cbd 7d45 c93e
000002b0: 4536 873d 155d 323d b160 c7bb cccb d7bc
000002c0: f65e 3abe 5e8b 0c3e 7f03 12c0 fad8 5a3f
000002d0: ef00 9dbe 9f49 a03e 2a97 4b3e 359d f6bf
000002e0: 2531 ce3e 6711 663f 3c2b f9bd c022 cb3d
000002f0: 9d07 c13f 7aaa 9fbf 2d45 8f3d 22c0 763f
00000300: dc42 efbe a1bc d7ba ef3c 9d3d 222a 093f
00000310: 3f9c b2ba d892 013f 58d9 143e 40d4 21be
00000320: 2bb6 483f 5fa3 11bf 5383 a53e fa6e 163d
00000330: 1bdc 81bf edca 943e d79a 8c3e a7a6 be3b
00000340: 5200 58bf 3761 453d f82b 9abe 7ef1 cebf
00000350: 7453 0b3e 78ce 153c 7584 4b3f d597 c2bd
00000360: df60 8cbd c86f a13e e0c5 abbe 0b24 c73d
00000370: 1dd6 2cc0 dd10 843d baef 26bf 3c2b 8cbe
00000380: ea1e 0bbd cd46 283e c9e0 b4bc ae51 ca3e
00000390: 9526 8f3f 6fc6 8b3e cf64 5dbf 4a98 fdbe
000003a0: 5732 15bf 7088 8abf 046c 663e 97de f93d
000003b0: b14e e7bf 7af5 23bf 5fd4 fabf a311 b4bc
000003c0: adb6 6dbe aff6 063f c091 08be ee2a 8ebf
000003d0: d515 293c bd23 29bf 56d8 1c3f 522c f4be
000003e0: 5fbd 92be e4fc 3ebe de81 5dbf d0fb 3ebf
000003f0: b0f3 f0bd 93ca c8bf c535 913e f8e8 303d
-0.75539815 0.20813836 0.3307102 -0.1521379 0.42469856 0.40295514 0.70508945 -0.6794328
-0.34859315 -0.4195917 0.41395408 -0.31134483 -1.3163424 -1.1056503 0.10403237 0.89971316
0.60873085 0.18308102 -0.096093126 0.8326759 0.8813052 -0.06864 -0.042262804 -1.21754
0.55752003 0.22139688 -0.5679738 -0.3984629 -0.422293 -1.3072677 0.5308 -0.20430303
-0.32675824 0.31626672 0.23993339 -0.6427078 -0.89423627 -0.14559731 -0.2408028 -1.4840612
-0.24496709 0.13110326 -0.07702994 -0.12923408 -0.3028788 0.053388484 0.13986841 -0.19168028
0.53931314 -0.2202595 0.40487894 0.0345004 -0.18374704 -0.43477717 -0.054198463 -1.6859249
0.184278 1.2175279 -0.2840303 -0.003878225 0.4949909 -0.6859434 -0.3385868 -0.047131453
-1.1124713 -0.7396461 0.6055303 -1.0978498 0.10108935 -0.6251061 -0.14524369 -0.8600954
0.828112 -0.6189071 -0.009793227 -0.22288775 -0.3053787 -0.11577409 0.15646932 -0.4814177
0.11855285 -0.010048446 -0.31619358 0.88557035 -0.53791046 -0.32133684 -2.31865 -0.426785
-0.6770981 0.05134028 -0.29473484 -0.39629722 0.5794441 -1.1009862 -0.16014038 -0.10034321
-0.6686649 0.91392887 -0.46041778 -0.42018148 -1.713274 -0.041372355 -0.67878133 -0.24062963
0.031730644 -1.5381893 0.5038689 -0.40751216 -0.5624746 0.21169426 0.535138 -0.031295344
-0.6523555 -0.23913355 -0.12166975 0.3098414 -0.31834918 -1.3466016 -0.67921436 -0.3415252
0.41662234 -0.38968992 -0.9183517 -0.0017775045 -0.10215184 0.512143 0.84462404 -0.9575219
0.4718644 -0.13589765 0.0994832 -0.005109553 -0.981437 -0.34483832 -0.50643694 0.8640944
0.47371948 0.28814358 1.159701 0.64907116 0.53180844 1.1964226 0.13314714 0.440401
0.12624535 0.12877195 0.3577388 -0.15474394 -0.44040135 -0.6780338 -0.011474136 -0.53766894
-0.12682424 0.0067024147 -0.38614583 0.20414089 0.12618199 -0.05683752 0.053481106 -2.9207985
0.22522698 0.18405437 0.17459048 -0.14447394 0.12875156 0.13619196 -0.036863804 0.46492612
0.1662499 -0.080808885 -0.038298927 0.39310828 0.06602148 0.0435458 -0.0060845246 -0.026342295
-0.18200287 0.1372504 -2.2814634 0.8548733 -0.30664775 0.31306168 0.19881883 -1.9266726
0.4027187 0.89870304 -0.121664494 0.099187374 1.5080448 -1.24739 0.06995616 0.9638692
-0.46730697 -0.0016459414 0.07677638 0.53579915 -0.0013626887 0.5061469 0.14536035 -0.15803623
0.78402966 -0.5688991 0.32326755 0.03672693 -1.0145296 0.2906107 0.27461883 0.0058182064
-0.8437549 0.048188414 -0.3011167 -1.6167448 0.13606054 0.009143464 0.7949899 -0.09501616
-0.06854414 0.31530595 -0.33549404 0.097236715 -2.7005684 0.06448529 -0.65209544 -0.27376735
-0.03396503 0.16433258 -0.022079842 0.39515442 1.1183649 0.2729983 -0.86481947 -0.4953025
-0.5827994 -1.0822887 0.22502142 0.12200659 -1.807089 -0.6404644 -1.959606 -0.021981066
-0.23214217 0.5272016 -0.13336849 -1.1106851 0.010320147 -0.6607016 0.612676 -0.47690064
-0.28660104 -0.18651158 -0.86526287 -0.74602985 -0.1176523 -1.5686821 0.28361335 0.043190926

linearSequential.2.bias f4 [64]
00000000: 2cc5 8c3f 57e1 933e 9c01 3b3e 6843 8cbe
00000010: ddd3 da3e f7a3 c33e 9d75 8ebd 473e f2bd
00000020: 3668 5d3e 2c8d 09be db41 063d 1ae2 b3be
00000030: 17e1 2e3f b8e9 8fbe e713 0fbd 0284 2d3e
00000040: e00a 1fbd 6655 5d3e 963d 3e3f 46c3 71bc
00000050: c2b2 80be cbd1 b63b a0c0 d93e 33f6 743f
00000060: 8bfa 223e 5508 ebbd e7a0 e23c 0bfd 09be
00000070: 6062 6eb8 ad8a 8e3f 62e3 f3bd 0b95 503d
00000080: 5b08 6d3e 63c2 c73f 64b0 c2be 8baa 7dbe
00000090: e591 633f 6018 10be 8769 53be 961e 3340
000000a0: e1b5 99be c5b0 5abd 25c6 6abe c6e5 e03e
000000b0: 84d9 c4bc de1a 3dbf 35a4 7cbd 6377 0fbd
000000c0: 2462 c2bd c6ef 673d 7d33 9b3e 18c2 71bd
000000d0: 47bc 553d 6e95 82bd 2f84 1a3e 74a7 d8bd
000000e0: 9ee9 ba3e a645 fbbc e560 f93c cd52 b93c
000000f0: a8b6 573f 3155 4d3e 594c edbd 36a6 8c3c
1.0997672 0.28882858 0.18262333 -0.27395177 0.42739764 0.38211033 -0.06956027 -0.11828285
0.21621785 -0.13432759 0.03277765 -0.3513344 0.6831221 -0.28108 -0.03493109 0.16944888
-0.03882873 0.21614608 0.7431272 -0.0147560295 -0.2513638 0.0055792085 0.42529774 0.9568817
0.15915887 -0.114761986 0.027664615 -0.13475434 -5.683524e-05 1.113607 -0.11908604 0.05092339
0.23147719 1.5606197 -0.380252 -0.24772088 0.8889449 -0.14071798 -0.20645724 2.7987418
-0.30021575 -0.053391237 -0.22927149 0.43925303 -0.0240295 -0.7386912 -0.061680038 -0.035025965
-0.09491375 0.05662515 0.3031272 -0.059022993 0.05218151 -0.06376158 0.15089487 -0.10578814
0.3650636 -0.03067286 0.03044171 0.02262249 0.84263086 0.20052029 -0.11586828 0.0171691

linearSequential.4.weight f4 [32, 64]
00000000: f4e7 b0bd 8afe efbd 4026 5e3d fca0 3fbd
00000010: 6085 eabc 1d9c a2be 40b6 2c3d a000 b93d
00000020: fcae 9bbe 2696 bcbd fefd 9bbd d8be a0bc
00000030: cb1f 0c3e ec54 9e3d c9a5 11be 200c 1f3e
00000040: d4b3 a53d b02a 2bbc b0aa bdbe 20fa f63b
00000050: 6099 89bb bc82 4ebd 7b44 c9bb 681d f13c
00000060: a463 a9bd 7078 94bc 44f1 c23d 6cf1 ae3d
00000070: 6cae 393d 0b98 17bf 186b 6ebd c8ce 0fbd
00000080: 192c 83be 8351 5ebe 325b f8bd da6d 073d
00000090: ccb5 64bd 38b3 de3d a0e6 c13d f04e 37bf
000000a0: 8214 16bf 5022 d53c 2a36 aabd 725c 2fbd
000000b0: e866 d2bc 18f3 8d3d 7bc3 0cbe 2896 02bd
000000c0: 1a8e 8bbd 7883 e0bd 082a 203e 68a2 b23c
000000d0: 204b 92bc 10df 4b3d 18cb de3c 9444 62bd
000000e0: 0e3b 053e 08f2 1cbd f8cb 873c e023 f8bd
000000f0: 1614 e2bd 7850 093d 1c16 963d 88c0 bcbd
00000100: 58ff 04be ab5b dc3c 53c6 24be 9027 e6be
00000110: d670 81bf 5fa6 d1be 39d1 5f3d 24f8 c53b
00000120: f571 26bf 817a 993d 0392 683d b0ff b33c
00000130: 32f5 b2be a5ae 333e 1390 3cbc f4b4 0ebe
00000140: f40f f73d 21c1 febc 1332 09bf f7fb d3bc
00000150: 4618 803d 8d1b 903c af3c 693f ecc5 d8be
00000160: 3584 a13b 74b3 c03c d66b 8dbe c59d 4e3d
00000170: 6207 f33d e0de a4bf 7520 f6bd 6219 2ebd
00000180: 3e48 13c0 0767 163e b4e0 dd3d 6c4c 873e
00000190: b493 60be d538 023e 4373 bc3c 4c9b 64be
000001a0: c238 d43d 59c4 c23d d502 023d 13e6 393d
000001b0: 805c 903d 7087 26bf 6f46 5abe 488f 00be
000001c0: 3b80 5f3d 0629 f33e 7710 93be ddc8 b03c
000001d0: d370 5dbf a4b1 16bd a34f dbbc 0845 383d
000001e0: 1c0e 20be 956f 843d 6ca2 dfbe f93a c2bd
000001f0: 9e6e 21bf 2ee9 343c 00d7 0bbe fad0 4d3d
00000200: 243d 04be 3faa bebd 0b6b 08bd dbe0 3c3b
00000210: 94f6 623e 3c01 15be 1463 d23d 8310 513d
00000220: 1c6f 7fbc 1457 2fbd 5a37 94bd 5fa0 a7bd
00000230: 13c7 3f3d 5397 233d 110a f1bd 6b74 73be
00000240: 7817 f9bc 3336 d8bc a1f4 84bd 8215 a5bd
00000250: 3691 cc3d 3f1d bf3d 08f6 a1bd 607c e5bd
00000260: bf38 2bbd a7e9 843c c0c2 943d e14c b93c
00000270: a9dc c9be 7e0f f0bd 997e 40bd 54af 323d
00000280: 5f56 debe ae8e 97bd 5524 47bd 5aa7 773a
00000290: 00f7 303d 1342 2d3d 093d 933d 6e3a 9ebe
000002a0: fbfc 39be 176e 293d edc7 843d eff3 c4bd
000002b0: 9bae 77be db22 9ebe 8092 4d3b 9388 26bd
000002c0: 38cc bf3d 773c 573d 96a8 4fbe abff 423c
000002d0: dada 5b3b 5fe7 10bd 0376 863d d444 3fbd
000002e0: 9f7d bdbd fd5e 58bd e615 043c b2d2 41bd
000002f0: 28f4 333c 3440 ebbd 828e 0d3e 7c83 99bd
00000300: bf3d a7be ba28 42be 6cdb 15be a970 1f3e
00000310: b6be abbe dde7 b7bd 4e4e 0dbe d885 2e3d
00000320: 0a17 eebd de0b e8bd 4de0 01bd 4497 b93d
00000330: 7474 4dbe 6858 88bd fb36 a13c 5e2a 3c3d
00000340: 1458 5fbd 58d4 02be 3ab0 08be 47ba 343d
00000350: e8bf 703d a6a6 98bc ee03 c9bd f16b 5bbe
00000360: f198 32be ecdb b5bd 4e07 c63d 321c 853d
00000370: e023 fd3b 4466 a43c 88bf 123d ec2a 90be
00000380: d659 81be a8e4 b1bd a425 11bd fa8a 62be
00000390: a638 1dbf e0d3 2dbc ea81 ecbd cd99 60be
000003a0: c46e 21be 1baf 06be 43e2 d33d 2d2d 91be
000003b0: ca44 d1bd 48b1 1cbf 15dc 4ebe 463c 773d
000003c0: 4872 853d 338a 2a3c de7e b2be 5384 2e3d
000003d0: 35fe 8ebe d528 adbd dbd0 56bd 9e34 12be
000003e0: 3fc1 bbbc a752 19be 142a 7fbe 5ca3 8e3d
000003f0: a469 ffbd b99a 4abe 0eea d4bd 5c1f 00be
-0.086379915 -0.11718471 0.054235697 -0.046784386 -0.028628051 -0.3175973 0.042165995 0.09033322
-0.3040694 -0.09208326 -0.076168045 -0.019622251 0.13684003 0.07731041 -0.14223398 0.15531969
0.0809094 -0.010447189 -0.37044287 0.0075371414 -0.004199192 -0.050417647 -0.0061421967 0.029432967
-0.08270958 -0.018123835 0.09518674 0.08542141 0.045332357 -0.59216374 -0.0582076 -0.03510931
-0.2561958 -0.21710782 -0.12126769 0.033063747 -0.055837438 0.10874027 0.09467816 -0.71604824
-0.5862504 0.026017338 -0.08311112 -0.042812772 -0.025683835 0.06931132 -0.13746445 -0.03188148
-0.06814213 -0.10962576 0.15641034 0.021805957 -0.017858088 0.049773276 0.027196452 -0.055241182
0.13010809 -0.038316756 0.016576752 -0.121162176 -0.11038987 0.033524007 0.07328436 -0.0921641
-0.12988031 0.02689918 -0.1609128 -0.4495206 -1.011256 -0.40947244 0.05464289 0.0060415436
-0.65017635 0.07494069 0.056779873 0.021972507 -0.34952694 0.1754709 -0.011508959 -0.13936216
0.1206359 -0.03109795 -0.5359203 -0.025876982 0.0625463 0.017591262 0.9110822 -0.42338502
0.0049290904 0.02352307 -0.27621335 0.05044343 0.118666425 -1.2880516 -0.120179094 -0.042504676
-2.3012843 0.1468774 0.10833874 0.26425493 -0.21931344 0.12716992 0.02300418 -0.22324866
0.10362388 0.095101066 0.031740982 0.04538543 0.07048893 -0.6505041 -0.21315931 -0.12554657
0.05456565 0.47492236 -0.287235 0.021580154 -0.8650028 -0.036790505 -0.026771372 0.04498771
-0.15630382 0.06466595 -0.43678606 -0.094839044 -0.63059413 0.0110419225 -0.13656235 0.050248124
-0.12913948 -0.093098156 -0.03330521 0.0028820548 0.22164375 -0.14551252 0.10272804 0.051041137
-0.015590455 -0.042807654 -0.0723712 -0.08184885 0.04682071 0.039939236 -0.11769498 -0.23774879
-0.030406699 -0.026393032 -0.06491972 -0.08060743 0.09988634 0.0933175 -0.07908255 -0.11205363
-0.041802164 0.016224695 0.07263708 0.022619667 -0.39426163 -0.11721705 -0.046995733 0.043624237
-0.4342527 -0.07400261 -0.048618633 0.00094472396 0.043204308 0.04229934 0.07189376 -0.30903953
-0.1816291 0.041364755 0.06483445 -0.09616839 -0.241877 -0.30885968 0.0031367838 -0.04065759
0.093651235 0.0525479 -0.20279154 0.011901776 0.0033547194 -0.035376903 0.06565478 -0.0466965
-0.09252476 -0.052824963 0.008061862 -0.047320075 0.010983504 -0.11486855 0.13823894 -0.07495782
-0.32664296 -0.18960848 -0.14634484 0.1557032 -0.33543938 -0.08979771 -0.13799402 0.042608112
-0.11625488 -0.113303885 -0.03170805 0.09062055 -0.20063955 -0.06657487 0.019679537 0.045938842
-0.054527357 -0.12776315 -0.13348475 0.04412296 0.058776766 -0.018634152 -0.09815203 -0.21427895
-0.17441155 -0.088798374 0.09669362 0.064995185 0.007725224 0.020068295 0.03582719 -0.28157747
-0.25263852 -0.08686191 -0.035436288 -0.22123328 -0.61414564 -0.010609597 -0.11548217 -0.2193367
-0.1576491 -0.13152735 0.103458904 -0.2835478 -0.102181986 -0.6120801 -0.20201142 0.060360216
0.06515938 0.010408926 -0.34862417 0.042606663 -0.2792832 -0.08455054 -0.052445274 -0.14277884
-0.022919295 -0.14972936 -0.24918395 0.06964752 -0.12471321 -0.19785585 -0.10396205 -0.12511963

linearSequential.4.bias f4 [32]
00000000: bc08 09bf c9a1 be3e c0d5 f6be 29ae 95be
00000010: 0c54 83bf edfc 0fbe 877f f6be d4d0 1ebe
00000020: 19af a8be 0fcf 353d 4edb 21be f815 8dbe
00000030: d5e8 efbe 6e26 1abf dfa5 80be c061 e33e
00000040: e4c2 a43f 9c3a 16bf bf23 9abe be91 33bf
00000050: 6016 8b3e d095 fabe af4f c0be ea36 7cbf
00000060: 2671 98be ba30 17bf 7c19 913f 0bc4 a1be
00000070: 41df d0be 6757 bdbe 13a8 86be f97e 02bf
-0.5352895 0.37232807 -0.48209953 -0.29234436 -1.0260024 -0.14061327 -0.4814417 -0.15509349
-0.3294609 0.04438692 -0.15806314 -0.27555823 -0.46857324 -0.6021489 -0.2512655 0.44410515
1.2871976 -0.5868318 -0.30105397 -0.7014426 0.27165508 -0.48942423 -0.37560794 -0.9852129
-0.29773825 -0.59058726 1.1335902 -0.3159488 -0.4079533 -0.36980745 -0.26300105 -0.50974995

linearSequential.6.weight f4 [16, 32]
00000000: 3b74 27be 3489 44be 94a4 32be ebf5 a6bd
00000010: 3231 ba3b 0414 bebd 6e91 e53a f154 563d
00000020: 00b8 d8b9 4b3c 80bd 061c e1bd 939b 18be
00000030: 25c6 a63d 2df1 2abc 245d bdba bfa0 c2be
00000040: 37e9 bf3d 945e 48be 0bff adbd a0d7 40be
00000050: 3b45 a6bd f52f c93c 77c9 05be 00f1 a9be
00000060: 5c15 25be b102 62be 3c1c 95bd d5e5 b43d
00000070: b2af cabd 66f1 83be 047f b6bd 609b b43b
00000080: de61 c2be 18ba e2bd 3db9 30bd c381 6dbc
00000090: 7fa0 fb3d 03fd 363d 59c0 7a3c 3b29 483d
000000a0: 8028 a23e 0173 85bb f9f0 9cbd 0654 bebd
000000b0: d510 fbbd ba67 a3bf 2282 f03c a0b9 c6bd
000000c0: a35f 35bf f3d5 093f 5047 2e3d fc1e 63bd
000000d0: 8d50 7cbf c3ea 313e f1ce 123d a38e 7d3e
000000e0: c2d6 60b8 2042 123d 1e6d bbbe 18ad 6fbb
000000f0: ed31 ef3d 7ebb 503e 9558 4b3d 74e8 5bbe
00000100: 4432 963e 8b07 59bf 5e81 53bd ce36 f23d
00000110: 3b0c 9abd 3481 173c 882e cdbe e489 b73c
00000120: 4399 e03d 0694 c93e e4b2 9fbd 4d7d 423d
00000130: 3b53 aebd 0795 31bf 45cc d53d 157d 123e
00000140: 4474 a93b 32f5 b03d 0670 623e 63bd 98bc
00000150: f648 0e3e 9097 183d 1f75 21be d082 bfbd
00000160: 9238 01be c413 cbbd 9815 863c ea34 e3bd
00000170: 1f62 8d3d fca6 33bb 254e 1dbe 9519 b43e
00000180: 171f 32be 45c4 37be 5a41 09be 6b79 323e
00000190: 74d0 dcbb 969d 983d d8f7 bb3d 659b debd
000001a0: b231 3cbe 6a87 b1bc b950 4a3d 924e 913d
000001b0: c85c 68bd 4c75 c7bd 95a7 02bc 3355 f33d
000001c0: ee71 a0bb 73e8 f5bd b554 00be 620e 713e
000001d0: 3f6a 92be 4137 1d3e 8446 053d cc73 20be
000001e0: aba1 6f3e 2c26 ea3d c78a 3bbe 40e1 11bc
000001f0: 0609 013e 81d7 0abe f99f 0dbe ce62 973d
00000200: 98ca e6bd e7f6 6cbd d9b1 d0bd c448 0f3d
00000210: 1033 b4bc 8012 ceba 7980 a5be 502b 59bc
00000220: cc9f a8bd c0bc 13bc 5d12 9fbe 64c2 2bbd
00000230: 5b87 263e 579b 17be 6041 97bc caf9 9bbe
00000240: 8875 a9bd 3286 f4bd 17a4 043e 0dd8 cfbd
00000250: d875 e1bd 8831 9a3c 32ad 15be 9844 8c3c
00000260: e0a0 7bbc c658 7fbe a12e 81be ada0 1dbe
00000270: 6c2a 54be a274 a6be 97a7 323e 1650 ff3d
00000280: 2529 a3be cf70 34bf 95ad d93c 2573 06bd
00000290: 98d0 b5bc cc1c 94bc 4264 4dbd 965d 4e3d
000002a0: 19da 663e 5e5c 4dbd 3ea4 cd3d a244 943d
000002b0: 9221 a23e 56fe 1ebd 55ca a2be 076b 8bbe
000002c0: 9147 1cbf 24ca 1bbd 1e75 303d e245 c6bd
000002d0: 96fb a6bf 38a4 db3d 8790 abbc e7e2 8a3e
000002e0: 9e59 043d 50d9 43be 7534 a7bf d458 4cbe
000002f0: 3115 fd3d 3c1c 5c3e dd68 54be 19e6 0d3e
00000300: 5276 023d 0066 b63c 1c37 08be 7f7a 60be
00000310: 1443 c03c ade0 ef3d b213 13be 76ee f5be
00000320: 89ab 0fbe 942a fcbc d6c4 ddbd c80b cfbc
00000330: f5f4 163c d5d8 3fbe e448 45bc 80a4 803e
00000340: a6a9 e13e 8e8b 7a3e 0dfb 0d3e 5af8 d3bd
00000350: 2c01 0a3f 98ed d2bc f840 09bd e851 7cbe
00000360: bd0c 013e f9e7 74be 54cd 473e c4b6 8a3d
00000370: d7a2 26be 343c dcbe 7c94 6b3d eb98 9cbb
00000380: f7ac 24bf ef4c 1abf 78b1 02be 115b 4d3d
00000390: 3dc1 b73d 1a5f 2c3e 8149 67bc 16a8 98be
000003a0: cc31 9abe e220 903d a166 ddbd 446d c73b
000003b0: a1d4 363c 408d 14bf 9456 8ebe 7e50 1cbe
000003c0: 8b61 00bf 37f4 09be 509a 8c3e 9009 b0bd
000003d0: f29a 24bf 9109 d5bc 0d1d 613d 87e5 c33d
000003e0: ce44 1dbe 3324 03be c381 acbe 2ce1 46bd
000003f0: 4728 893d e7e0 373e 975c 14be 7cfa 3fbd
-0.16352932 -0.19192964 -0.17445594 -0.08152374 0.005682134 -0.092811614 0.0017514655 0.0523271
-0.0004133582 -0.062615 -0.10991673 -0.14903097 0.08143262 -0.010433477 -0.0014447314 -0.38013265
0.09370654 -0.19567329 -0.08495911 -0.18832254 -0.081186734 0.024559 -0.13065134 -0.3319168
-0.16121429 -0.22071339 -0.07280776 0.088328995 -0.098967925 -0.2577011 -0.08910945 0.005511686
-0.37965292 -0.11070651 -0.043145407 -0.01449627 0.122864716 0.044674885 0.015304648 0.048867445
0.31671524 -0.0040725474 -0.076631494 -0.0929337 -0.1225907 -1.276603 0.029358927 -0.09703374
-0.70849055 0.53842086 0.042548478 -0.05544947 -0.9856041 0.1737471 0.035841886 0.24761443
-5.360577e-05 0.035707593 -0.36606687 -0.0036571678 0.116794445 0.20384023 0.049645025 -0.21475393
0.29335225 -0.84777135 -0.051637046 0.118268594 -0.07521864 0.009247113 -0.40074563 0.022404619
0.10966732 0.39370745 -0.077977926 0.047482777 -0.08511969 -0.6936802 0.10439352 0.14305528
0.0051713306 0.08640517 0.22113046 -0.018644994 0.1389502 0.037253916 -0.15767334 -0.093511224
-0.12619236 -0.09915879 0.016367719 -0.11094077 0.06903481 -0.0027412763 -0.15361841 0.35175768
-0.17394672 -0.17945965 -0.13403836 0.1742913 -0.0067387167 0.07451932 0.09178132 -0.10869483
-0.18378332 -0.021671016 0.04939339 0.07095064 -0.056729108 -0.097391695 -0.007974525 0.11881485
-0.004896394 -0.12007227 -0.12532313 0.23540643 -0.28596684 0.15353109 0.032537952 -0.15669173
0.23401515 0.11433062 -0.18314658 -0.008903801 0.12601098 -0.1355877 -0.13830556 0.073918924
-0.112691104 -0.057852652 -0.10190172 0.034981504 -0.021997005 -0.0015722066 -0.3232458 -0.013254955
-0.08233604 -0.0090171695 -0.31068698 -0.041933432 0.16262572 -0.14805351 -0.01846379 -0.3046401
-0.082743704 -0.11939658 0.1295322 -0.1014863 -0.11008805 0.018822446 -0.1461685 0.017122552
-0.01535818 -0.24936208 -0.25230888 -0.15393324 -0.20719308 -0.3251086 0.17446743 0.12466447
-0.31867328 -0.7048463 0.026572028 -0.032824654 -0.022194192 -0.018080138 -0.05014444 0.05038222
0.22544135 -0.050136916 0.10041092 0.07239653 0.31666237 -0.038816772 -0.31794992 -0.27230093
-0.610467 -0.038034573 0.04308044 -0.09681298 -1.3045528 0.107246816 -0.02094294 0.27126238
0.032312028 -0.19125867 -1.3062884 -0.1995576 0.123575576 0.21495146 -0.20743127 0.13857307
0.03185112 0.022265434 -0.13302273 -0.21921729 0.023469485 0.117127754 -0.14362982 -0.48033494
-0.14030279 -0.030782022 -0.10828559 -0.025274172 0.009213676 -0.18735059 -0.012041304 0.25125504
0.44074744 0.24467298 0.138653 -0.10350104 0.5390804 -0.02574806 -0.033509225 -0.2464062
0.12602516 -0.23916616 0.1951192 0.06773141 -0.16273056 -0.4301468 0.057514653 -0.0047789714
-0.64326423 -0.6027364 -0.12763011 0.050135676 0.08972404 0.16833153 -0.014116646 -0.2981574
-0.30116117 0.07037522 -0.108105905 0.0060860235 0.011159093 -0.5802803 -0.2780043 -0.1526508
-0.5014884 -0.13472067 0.2746148 -0.08595574 -0.6429893 -0.026005538 0.054959346 0.09565263
-0.15358278 -0.12806778 -0.3369275 -0.048554584 0.066971354 0.17956887 -0.14488445 -0.04686974

linearSequential.6.bias f4 [16]
00000000: e5ab febd 98b4 253d a27a 1cbb 6c0b 77be
00000010: 5068 d5be 85c0 973d 0672 fe3d bdb5 b8bc
00000020: 17e8 693e 6b9e 9fbe 34d2 163d 757c c7be
00000030: 4da1 77be 324b e43d e89d acbe 9761 90be
-0.1243513 0.04045543 -0.0023876806 -0.24125451 -0.41681147 0.07409767 0.12424092 -0.022547597
0.22842441 -0.3117555 0.03682156 -0.3896214 -0.24182625 0.11147155 -0.33714223 -0.28199455

linearSequential.9.weight f4 [2, 16]
00000000: 96d7 e4be fd69 3dbc 7110 8a3e 3681 9b3d
00000010: 36d6 553e 4e48 96bc eb0a 0ebc 7d13 563b
00000020: d89d 2cbb 9c74 87bc 0e28 f5bb 1aa1 acbd
00000030: f1fa 4bbc 42c1 12bd 820a 343e 67ed 40be
00000040: 67db 3f3e 8850 493e 061e 7a3d f711 f73d
00000050: c7bf c83d 3841 3f3e a8a4 67be 393c 363e
00000060: 0af6 77be 455a 403e e4c6 2e3e fb01 333e
00000070: cf49 f2bc 6650 433e 600f 2cbd 6378 8c3d
-0.4469573 -0.011560914 0.2696567 0.075930044 0.20882496 -0.018345024 -0.008669595 0.0032665425
-0.00263392 -0.016535096 -0.0074815815 -0.08429165 -0.012449966 -0.035828836 0.17582133 -0.18840562
0.18736039 0.19659626 0.06106379 0.120639734 0.098022036 0.18677223 -0.22621405 0.1779641
-0.2421495 0.18784435 0.17068058 0.17481224 -0.02957621 0.19073638 -0.04200685 0.068588994

linearSequential.9.bias f4 [2]
00000000: 7bc2 7b3e 30d4 5840
0.24585907 3.387951
