src/nets/state_dicts/nnwf01.pt (torch, 59283 bytes, 10 tensors)

linearSequential.0.weight f4 [128, 22]
0	0xbeb3a2ae	-0.35085052
1	0x3ebfc1d7	0.37452576
2	0x3f202093	0.62549704
3	0x3db22051	0.0869757
4	0x3d051d19	0.032498453
5	0x3f2c0366	0.67192686
6	0x3dc69164	0.096957
7	0xbd5a64ab	-0.05331866
8	0x3f4a281a	0.7896744
9	0xbf8d6e95	-1.1049372
10	0xbe886920	-0.26642704
11	0xbbdac6de	-0.006676539
12	0xbcd94593	-0.026522433
13	0xbf2d6910	-0.6773844
14	0x3ef426f7	0.47685978
15	0xbf51489a	-0.81751406
16	0xbd1b9b0e	-0.03798967
17	0x3f2c3b5a	0.67278063
18	0xbcc67dfc	-0.024229996
19	0xbed1428a	-0.40871078
20	0xc001335b	-2.0187595
21	0xbfe5e7f5	-1.7961413
22	0xbdf5e7a8	-0.120070755
23	0xbfc1bc7e	-1.5135648
24	0x3d581c4c	0.05276136
25	0x3fc0e516	1.5069911
26	0xbcc502b8	-0.024049148
27	0xbcdc31ba	-0.02687918
28	0xbef47d0b	-0.4775165
29	0x3d5f87d9	0.054572914
30	0x3cab1877	0.02088569
31	0x3e9d1733	0.30681762
32	0xbe7bb742	-0.24581626
33	0x3f5983c5	0.8496669
34	0x3f2a18b1	0.66443926
35	0xbebca905	-0.36847702
36	0xbe06efe3	-0.13177447
37	0x3d2750bf	0.04084849
38	0xbe96d1fa	-0.29457074
39	0xbf4ef4c9	-0.8084226
40	0x3ecfb9e9	0.40571526
41	0xbdf629c2	-0.120196834
42	0xbf0d8eb9	-0.552959
43	0x3eadb308	0.33925653
44	0xbf2f343a	-0.68439066
45	0x3ed1c8c1	0.40973476
46	0xbd92616e	-0.071474895
47	0xbe300bc9	-0.17191996
48	0x3f7866c2	0.97031796
49	0x3c5aa355	0.013344605
50	0x3e99bd1e	0.30027097
51	0xbf504483	-0.8135454
52	0xbdb77ca5	-0.08959321
53	0xbf75c8a5	-0.96009284
54	0xbdc66871	-0.09687889
55	0x3e73c26d	0.23804636
56	0x3e0c8111	0.1372111
57	0xbe1897dd	-0.14901681
58	0x3e4d9eed	0.20080157
59	0xbdefeb38	-0.11714786
60	0xbe92bf17	-0.28661415
61	0xbebec08a	-0.3725627
62	0x3ef19227	0.47181818
63	0xbe33b5f6	-0.17549881
64	0x3e896de0	0.2684164
65	0x3e526661	0.20546867
66	0xbeeded83	-0.4647027
67	0x3e46456e	0.19362423
68	0x3e5a61ae	0.21326324
69	0x3d3c6474	0.045994237
70	0xbdde8a4e	-0.10866223
71	0xbe108ef7	-0.14117037
72	0x3e91817e	0.28419107
73	0x3e749acb	0.23887174
74	0x3ea31a0c	0.3185581
75	0xbf266b0c	-0.6500709
76	0xbf6e4f9d	-0.9309023
77	0x3dd89a48	0.10576302
78	0x3d8fa9fe	0.07014845
79	0xbc99fe06	-0.018797886
80	0x3e069000	0.13140869
81	0x3d8a97ca	0.06767233
82	0xbe900d8f	-0.28135344
83	0xbe4587ed	-0.19290133
84	0x3ca9eb9f	0.020742236
85	0xbe8720a7	-0.263921
86	0xbe88bc26	-0.26706046
87	0x3e873a30	0.2641158
88	0xbf3515ef	-0.70736593
89	0xbf166a4c	-0.58755946
90	0xbea22ae8	-0.3167336
91	0xbe8f55bb	-0.27995095
92	0x3d746fa8	0.059676796
93	0x3d8c48e7	0.068498425
94	0x3f1c0804	0.6094973
95	0xbd8c6bb7	-0.068564825
96	0x3ce8e468	0.028429225
97	0x3e72693f	0.2367296
98	0xbd857845	-0.0651708
99	0x3d5dc037	0.05413839
100	0x3e46e20a	0.19422165
101	0xbf47a3aa	-0.77984107
102	0xbdb8145a	-0.08988257
103	0xbd63e7c5	-0.055640955
104	0xbe8a944d	-0.2706627
105	0x3f0ce3aa	0.5503489
106	0xbf1ffc33	-0.624942
107	0x3c23dc84	0.0100013055
108	0x3f4a42db	0.79008263
109	0x3f0370d0	0.51344013
110	0x3dfebe91	0.124386914
111	0x3f740773	0.95323867
112	0x3ec891f7	0.39173862
113	0xbf97e304	-1.1866155
114	0x3e2eeb96	0.17082056
115	0x3e15899e	0.14603278
116	0x3f5276d4	0.8221257
117	0x3df14a73	0.11781778
118	0x3f089f08	0.5336766
119	0x3e464a44	0.19364268
120	0xbea329e2	-0.31867892
121	0x3ef72bb7	0.4827554
122	0xbe3af4ec	-0.18257493
123	0xbec3492e	-0.3814177
124	0xbe8bb919	-0.27289656
125	0xbd845b8f	-0.06462776
126	0xbe3bef5e	-0.1835303
127	0xbc21045b	-0.009827699
128	0xbe683042	-0.22674659
129	0xbcc237af	-0.023708193
130	0xbf217d2a	-0.6308161
131	0x3f2af307	0.6677708
132	0x3f035f7c	0.5131757
133	0xbf42d92e	-0.7611264
134	0x3ed9f090	0.42566347
135	0xbed64854	-0.41852057
136	0xbe2f32af	-0.17109178
137	0x3c637327	0.013882435
138	0xbcbaf1f1	-0.022820445
139	0x3f1c3c62	0.61029637
140	0x3e1291df	0.14313458
141	0x3cd69ea8	0.0261987
142	0xbf4d9661	-0.80307585
143	0x3de88d37	0.113550596
144	0xbec0b8bf	-0.3764095
145	0x3d47fece	0.048826985
146	0xbeaa1631	-0.33220056
147	0x3e039d1f	0.12852906
148	0x3dbe652a	0.09296639
149	0xbf54714f	-0.82985395
150	0x3f1463f8	0.5796504
151	0x3d96d6b6	0.073651716
152	0xb97d1c90	-0.000241386
153	0xbcd9a570	-0.026568145
154	0x3f32122e	0.6955899
155	0xbe921bd2	-0.2853685
156	0x3e1438f0	0.14474845
157	0x3e3b678b	0.18301217
158	0xbe64f252	-0.22358063
159	0xbe3653c5	-0.17805393
160	0xbed749f1	-0.420486
161	0xbf3511fc	-0.70730567
162	0xbe50bf42	-0.20385459
163	0x3e02d71b	0.12777369
164	0xbec50a43	-0.38484392
165	0x3e9aade9	0.30210808
166	0x3e2355d3	0.15950708
167	0x3e219424	0.15779167
168	0x3e8f34eb	0.2797006
169	0xbedd58a2	-0.43231684
170	0x3d33ce75	0.043898065
171	0xbe32d3ef	-0.17463659
172	0x3f17b7b6	0.59264696
173	0x3dded59e	0.10880588
174	0xbf12c41b	-0.57330483
175	0xbe1b16ba	-0.15145388
176	0xbeb75c7d	-0.3581275
177	0xbe99ad96	-0.30015248
178	0x3dc993bc	0.09842631
179	0x3e504c36	0.20341572
180	0xbebe1f43	-0.37133226
181	0xbe0ea2c4	-0.13929278
182	0x3e9c55e9	0.30534294
183	0xbd79eb9d	-0.061015714
184	0xbbb317fe	-0.0054655066
185	0xbcd186f7	-0.025577052
186	0xbec01b50	-0.37520838
187	0xbd03a79b	-0.032142263
188	0x3e917543	0.28409776
189	0x3e1829a0	0.14859629
190	0x3e7cffba	0.24706927
191	0x3ed2e833	0.4119278
192	0xbea38ba4	-0.31942475
193	0xbe5e8c10	-0.21733117
194	0x3e22c53c	0.15895551
195	0xbd8d81bf	-0.06909513
196	0xbec78f34	-0.38976443
197	0x3e8f1275	0.2794377
198	0xbde613a5	-0.11234216
199	0xbe88f27e	-0.26747507
200	0xbef838e5	-0.48480907
201	0x3d253f42	0.04034353
202	0xbddfe0cc	-0.109315485
203	0xbca05824	-0.019573279
204	0x3c2d0360	0.010559887
205	0xbe858583	-0.26078424
206	0xbe011653	-0.12606172
207	0x3e9211a7	0.28529093
208	0xbe70a702	-0.23501208
209	0x3df87b4e	0.121328935
210	0xbe2146cc	-0.15749663
211	0xbef0e547	-0.47049925
212	0x3d439580	0.047749996
213	0xbf01da78	-0.5072398
214	0x3cdb261b	0.026751569
215	0x3e8cdf98	0.27514338
216	0x3e43443c	0.19068998
217	0xbe54ef10	-0.2079432
218	0x3f0f5006	0.5598148
219	0x3f2a7a45	0.6659282
220	0x3f5291de	0.82253826
221	0x3fa3b212	1.2788718
222	0x3e547f2a	0.20751634
223	0x3f6785f4	0.9043877
224	0xbd203cfd	-0.039120663
225	0x3d9058f7	0.07048219
226	0xbe8bc1db	-0.27296337
227	0x3e68a4ca	0.22719112
228	0x3f1a19c0	0.6019554
229	0xbe0f40dc	-0.13989586
230	0xbf4a4b13	-0.79020804
231	0x3f2e73c9	0.68145424
232	0xbf0c57af	-0.54821295
233	0xbe5fd2b9	-0.21857728
234	0xbd5d6fc5	-0.05406167
235	0xbee17bf6	-0.44039887
236	0xbf17ce8e	-0.5929955
237	0x3f35461b	0.708101
238	0x3e2b9ebb	0.1675977
239	0xbec79a5a	-0.38984948
240	0xbf43634d	-0.76323396
241	0x3f3c6042	0.7358438
242	0xbecb18dd	-0.39667407
243	0xbe08c888	-0.13357747
244	0x3d1ec398	0.03876075
245	0xbe47d015	-0.19512971
246	0xbc5e2ffb	-0.013561244
247	0xbd959378	-0.07303518
248	0x3edb0753	0.42779025
249	0x3ebc1e20	0.36741734
250	0x3d72b258	0.059252113
251	0xbf0c1471	-0.5471869
252	0xbe3679bc	-0.17819875
253	0x3f128c0d	0.5724495
254	0x3eb19a18	0.34687877
255	0x3d4395aa	0.047750153

linearSequential.0.bias f4 [128]
0	0xbfc83676	-1.564162
1	0xbf810c2b	-1.0081838
2	0xbfec7deb	-1.8475927
3	0xbf86aea0	-1.0522041
4	0xbfaa6409	-1.3311778
5	0xbf7f55c5	-0.9974025
6	0xbfe3d4d9	-1.7799331
7	0xbfdc0a5a	-1.7190659
8	0xbf442ea0	-0.76633644
9	0xc0037eb6	-2.0546088
10	0xbf884f1e	-1.0649145
11	0xc0014fc0	-2.0204926
12	0xbfa5d8f2	-1.2956831
13	0x3cb3253e	0.021868344
14	0xbf876f62	-1.0580866
15	0xbfc21d7c	-1.5165248
16	0xbf8c2e4c	-1.0951629
17	0xbffc0236	-1.9688175
18	0xbffb2dc5	-1.9623343
19	0xbfacf8ee	-1.3513467
20	0xbf95eb06	-1.1712348
21	0xbf3b0697	-0.7305693
22	0xbf6aa098	-0.91651297
23	0x3f962536	1.1730106
24	0xbfd56816	-1.667239
25	0xc00a7491	-2.1633646
26	0x3db56d48	0.08858734
27	0xbf94d276	-1.1626728
28	0xbfaa3a3d	-1.3299023
29	0xbfd53aa4	-1.6658521
30	0x3ebf823c	0.37404048
31	0xbf9be4f5	-1.2179247
32	0xbf84351d	-1.0328709
33	0xbfbec8f8	-1.4905081
34	0xbf4a57e8	-0.79040384
35	0xbfe4b2bd	-1.7867047
36	0xbfbeac91	-1.4896413
37	0xbfc1be62	-1.5136225
38	0xbef9d3bb	-0.4879435
39	0xbfe2cfc8	-1.771966
40	0xbf870d4c	-1.0550933
41	0x3f288e69	0.658423
42	0xc011b116	-2.2764335
43	0xc0002f95	-2.0029042
44	0xbf91e22c	-1.1397147
45	0xbec88fe4	-0.3917228
46	0xbf66a41b	-0.90094155
47	0xbfbec930	-1.4905148
48	0xbf9b18b1	-1.211691
49	0xbfeffd43	-1.8749164
50	0xc01af548	-2.4212208
51	0xbfc072bb	-1.5035013
52	0xc0295f64	-2.6464472
53	0xbff3b075	-1.9038225
54	0xbf0af2f4	-0.5427697
55	0x3dce5137	0.10074084
56	0xbf2c3059	-0.6726127
57	0xbfe5f442	-1.7965167
58	0xbf2af262	-0.66776097
59	0xbdbec814	-0.093155056
60	0xbe93d972	-0.28876835
61	0xbfd076d8	-1.6286268
62	0xc00aeb65	-2.1706173
63	0xbfe45f93	-1.7841667
64	0xbf868b58	-1.0511274
65	0xc00397fc	-2.0561514
66	0xbd3b4708	-0.045722038
67	0xbfcd6a82	-1.6048129
68	0xbf01e626	-0.50741804
69	0xbfb143d0	-1.384882
70	0xc00632f4	-2.09686
71	0xbf92ac53	-1.1458839
72	0xbfb3318c	-1.3999496
73	0xbff4e0e8	-1.9131136
74	0xbf34d01a	-0.7063004
75	0xc0148d5c	-2.321128
76	0xbfd30789	-1.6486675
77	0xbfd65ebd	-1.6747662
78	0xbfe2724b	-1.769113
79	0xbf9aab9d	-1.2083622
80	0x3c3bac86	0.011454707
81	0xbfb6113e	-1.4224012
82	0xbfa1934a	-1.2623074
83	0xbfb8aa19	-1.442691
84	0xbfa9f3fa	-1.3277581
85	0xc0116a05	-2.272096
86	0xbfde13a6	-1.7349746
87	0xbf81422d	-1.009832
88	0xbfcc0411	-1.5938741
89	0xbf9b0041	-1.2109452
90	0xc0087165	-2.131921
91	0xbd66a5eb	-0.056310575
92	0xbff30e75	-1.8988787
93	0xbfd5c3d9	-1.6700393
94	0xbfe3bb39	-1.7791511
95	0xc00b110a	-2.172915
96	0xbfe12158	-1.7588301
97	0xbf6342a3	-0.88773555
98	0xbf8bef98	-1.0932493
99	0x3f6324bc	0.8872793
100	0xbf9c6229	-1.2217456
101	0xbf09b524	-0.53792024
102	0xbf99223b	-1.1963571
103	0xbfa0ab25	-1.2552229
104	0xbfec2e3d	-1.8451611
105	0xbfa7f9a8	-1.3123064
106	0xbfbf3c8a	-1.494035
107	0xbeba3090	-0.36365175
108	0xc0095726	-2.145944
109	0xbfad6abc	-1.3548198
110	0xbf981371	-1.1880933
111	0x3f98fb97	1.1951779
112	0xc00a39b3	-2.1597717
113	0x3f2a2400	0.6646118
114	0xc00dffe9	-2.2187445
115	0xbf937e1a	-1.1522858
116	0xbfcb8cf8	-1.5902395
117	0xbf661c6c	-0.8988712
118	0xbfe29f11	-1.7704793
119	0xbf33900a	-0.7014166
120	0xbe4359f8	-0.19077289
121	0xbe650074	-0.22363454
122	0xbfc72dec	-1.5560889
123	0xbf8c38d4	-1.0954843
124	0xbf542967	-0.82875675
125	0xc00fa694	-2.2445421
126	0xbff3a3a4	-1.9034314
127	0x3c84e101	0.016220571

linearSequential.2.weight f4 [64, 128]
0	0xbe003779	-0.12521161
1	0x3d572510	0.05252558
2	0xbdb1243b	-0.086494885
3	0xbe160581	-0.14650537
4	0xbdafbb98	-0.085807025
5	0xbe40a601	-0.18813325
6	0x3d03bccd	0.032162476
7	0xbe5ce47c	-0.21571535
8	0xbe0d75fd	-0.1381454
9	0x3baf20c1	0.0053444807
10	0x3cbfe71b	0.02342563
11	0xbdf3ab2b	-0.11897882
12	0xbe18b4bf	-0.14912699
13	0xbdcd878c	-0.10035619
14	0xbcc9fc54	-0.024656452
15	0xbdcd5ac7	-0.1002708
16	0xbd55e4f1	-0.05222029
17	0x3d597bbd	0.05309652
18	0x3c72c971	0.014818535
19	0x3d88d3f1	0.066810496
20	0xbdf39900	-0.11894417
21	0xbd73a96b	-0.05948774
22	0xbe1512c3	-0.14557938
23	0xbe0f4071	-0.13989426
24	0x3b4cc67c	0.0031246236
25	0xbd3f40bc	-0.046692595
26	0xbdb991ed	-0.09061036
27	0xbd42edbf	-0.047590014
28	0xbd698edb	-0.057021003
29	0xbd6b1ccf	-0.05740052
30	0xbe646e17	-0.22307621
31	0xbe0ef4ab	-0.13960521
32	0x3cb21f22	0.02174336
33	0xbdfe76a8	-0.12424976
34	0x3d9fd363	0.07803991
35	0x3d8c6951	0.06856025
36	0xbe431f79	-0.19054975
37	0x3c4c8be8	0.012484528
38	0x3c97c1c2	0.018525008
39	0xbdeee718	-0.116651714
40	0xbd9a2b7c	-0.07527825
41	0xbe3958e8	-0.18100321
42	0xbe021317	-0.12702595
43	0x3d91ed0f	0.071252935
44	0xbd6a751b	-0.057240587
45	0xbe0b2409	-0.13587965
46	0xbe3f3ee6	-0.18676338
47	0xbe2c4903	-0.16824727
48	0xbdd65f37	-0.104673795
49	0xbd8fbd46	-0.07018523
50	0xbc695b5d	-0.014242974
51	0xbdc55ead	-0.096371986
52	0xbd6e8f61	-0.058242206
53	0xbdb377c9	-0.087630816
54	0x3caa7038	0.020805463
55	0xbb86db10	-0.0041154698
56	0xbdacabb2	-0.08431186
57	0xbd34513c	-0.044022784
58	0xbd8e24b2	-0.06940593
59	0xbeaffbf4	-0.34371912
60	0xbda899da	-0.0823247
61	0x3cb63b25	0.022245
62	0x3d0e90f7	0.034806218
63	0xbc672f5a	-0.014110411
64	0xbcaa7fec	-0.020812951
65	0xbe3a7e57	-0.18212257
66	0xbdb1835f	-0.08667635
67	0xbdf7da27	-0.12102156
68	0xbd6ed4fa	-0.05830858
69	0xbd51d3e8	-0.05122748
70	0xba6f464e	-0.00091276027
71	0xbdd91034	-0.105987936
72	0x3bfcd24e	0.0077155
73	0xbd8edc38	-0.06975597
74	0xbe8e4752	-0.27788788
75	0xbdd5357a	-0.104105905
76	0x3d0b3941	0.03399015
77	0x3c915169	0.017739015
78	0xbde9810f	-0.11401569
79	0xbdd6cf2b	-0.10488733
80	0xbea47c13	-0.3212591
81	0x3d45499a	0.048165895
82	0xbe2ee77d	-0.17080493
83	0xbccf7630	-0.02532491
84	0xbe2d145c	-0.16902298
85	0xbd3c973a	-0.04604266
86	0xbd8604e0	-0.065438986
87	0xbdeb2386	-0.11481385
88	0x3d324f8e	0.0435329
89	0xbd5ca8d2	-0.053871937
90	0xbe3eab34	-0.18619996
91	0xbe065940	-0.13119984
92	0xbd596ac1	-0.053080324
93	0xbe1b3f8f	-0.15160964
94	0xbe14bc81	-0.14525034
95	0xbdc26d28	-0.09493476
96	0xbbf0b1d3	-0.007345417
97	0x3ca9402b	0.02066048
98	0xbe14027d	-0.14454074
99	0xbe84f8d3	-0.25971088
100	0xbd44905b	-0.04798923
101	0xbe100450	-0.14064145
102	0xbe19049c	-0.14943165
103	0xbc1b4122	-0.009475978
104	0xbdbaf44f	-0.091286294
105	0xbe0054b2	-0.12532309
106	0xbdc7c1c2	-0.09753753
107	0xbea0f593	-0.31437358
108	0xbd3a8127	-0.045533326
109	0x3d91e774	0.07124224
110	0xbdb5f6f5	-0.08884994
111	0xbe5f5235	-0.21808703
112	0xbe6930b0	-0.22772479
113	0xbe2e6336	-0.17030033
114	0xbd9da440	-0.07697344
115	0x3de8e9c9	0.11372716
116	0xbda66263	-0.081242345
117	0x3c96fb59	0.018430399
118	0xbd7519c1	-0.059839014
119	0xbe07d221	-0.13263752
120	0xbde3d77f	-0.11125087
121	0xbdf521f9	-0.119693704
122	0xbba3ea04	-0.005002262
123	0xbe157d3e	-0.14598557
124	0xbda39659	-0.07987661
125	0xbe05a431	-0.13050915
126	0xbdf55607	-0.11979299
127	0xbe94dae5	-0.29073253
128	0x3c795080	0.015216947
129	0xbc939205	-0.018013963
130	0xbcdb2eb3	-0.026755666
131	0xbd74727a	-0.059679486
132	0xbb897640	-0.0041950047
133	0x3d066dd3	0.03281958
134	0xbd69b9b8	-0.05706188
135	0x3cf3d51f	0.02976471
136	0xbde92fcd	-0.113860704
137	0xbbca9909	-0.006182794
138	0xbdadda9d	-0.08488963
139	0x3d168358	0.036746353
140	0xbd7f20dc	-0.062287197
141	0xbdd1d661	-0.10245968
142	0xbdf06b22	-0.11739184
143	0xbcf088d7	-0.029362125
144	0xbcd9ca77	-0.0265858
145	0x3cc49ec4	0.024001487
146	0x3d0004d2	0.031254597
147	0xbdf94d9d	-0.12173007
148	0xbdd4bc54	-0.10387483
149	0xbdcd830d	-0.100347616
150	0xbdc93570	-0.098246455
151	0x3d376c47	0.044780996
152	0xbdcfdd0e	-0.10149585
153	0xbdadc2e7	-0.0848444
154	0xbd8dd32a	-0.06925042
155	0xbd8d629f	-0.06903576
156	0xbdfa44b1	-0.12220133
157	0x3a60c9a9	0.00085749716
158	0x3cab7d2f	0.020933716
159	0x3cf898bd	0.030346269
160	0xbda120cf	-0.07867586
161	0xbce411f2	-0.027840588
162	0xbd735b52	-0.05941326
163	0xbda9627f	-0.0827074
164	0xbba61ca7	-0.0050693336
165	0xbd2c9413	-0.042133402
166	0xbd069336	-0.032855235
167	0x3c849116	0.016182464
168	0xbca91196	-0.020638268
169	0xbdb07d7f	-0.086176865
170	0xbd6e09e0	-0.058114886
171	0x3cc13d53	0.023588812
172	0xbbc71b36	-0.006076242
173	0xbcd78b62	-0.02631158
174	0xbdc63bdc	-0.09679386
175	0x3d18b10a	0.037278213
176	0xbd6e3c7a	-0.058163144
177	0x3cf4a976	0.029865962
178	0x3d03bff9	0.0321655
179	0xbdb73073	-0.08944788
180	0xbddd7d74	-0.10814944
181	0x3d0d1a8c	0.034449145
182	0x3c2c72ed	0.010525447
183	0xbc97aafa	-0.018514145
184	0xbdeb1249	-0.11478097
185	0xbdafdea1	-0.08587385
186	0x3d266200	0.040620804
187	0xbcc6e160	-0.024277389
188	0xbd84023c	-0.06445739
189	0xbe049220	-0.12946367
190	0xbd1d6235	-0.038423736
191	0xbd2488a0	-0.04016936
192	0x3c8a2149	0.016861575
193	0xbde7d828	-0.113205254
194	0x3cbc37d5	0.022975842
195	0xbcc0b3fb	-0.023523321
196	0x3d05ee8b	0.032698195
197	0xbd107226	-0.03526511
198	0xbd9ac4aa	-0.07557042
199	0xbd6413f4	-0.05568309
200	0x3ba75532	0.0051065916
201	0xbc030466	-0.007996654
202	0xbddddbda	-0.10832949
203	0x3d189a10	0.0372563
204	0xbd8cef97	-0.06881636
205	0x3c362208	0.011116512
206	0x3b46d672	0.0030340222
207	0xbcbf8cef	-0.023382632
208	0xbd231614	-0.039815977
209	0xbda0161a	-0.078167155
210	0xbd4da4b5	-0.050205905
211	0xbd7f9ddd	-0.06240641
212	0xbdf8d46c	-0.12149891
213	0x3d8a4dad	0.06753097
214	0x3d2be52d	0.041966606
215	0xbd29722f	-0.04136866
216	0xbdd35cea	-0.10320456
217	0xbdce8111	-0.10083211
218	0xbafcdc40	-0.0019291714
219	0xbde2c1e8	-0.11072141
220	0xbdf4dcd7	-0.11956184
221	0xbdd9228f	-0.10602295
222	0xbdf074b0	-0.117410064
223	0xbd9c6164	-0.07635763
224	0xbdf184df	-0.11792921
225	0x3bff1fa5	0.0077857547
226	0xbd0316fa	-0.032004334
227	0xbdb0acda	-0.08626719
228	0x3d265891	0.040611807
229	0xba1bb906	-0.00059403514
230	0xbdf0c812	-0.117569104
231	0xbcab13df	-0.020883499
232	0xbd155d1d	-0.036465753
233	0x3d42135f	0.047381755
234	0x3c98215a	0.01857059
235	0xbd873fd1	-0.06603969
236	0xbde32cb0	-0.11092508
237	0x3baa9f0c	0.005206948
238	0xbde6c426	-0.11267881
239	0xbdbc5b7f	-0.09197139
240	0x3c9a991b	0.018871835
241	0xbdaacfe7	-0.083404355
242	0xbd03eca0	-0.032208085
243	0x3c86dfd9	0.01646416
244	0xbe05ee3b	-0.13079159
245	0xbd244d94	-0.040113047
246	0x3af686ea	0.0018808518
247	0xbd89d5be	-0.06730221
248	0xbdaf061c	-0.08546087
249	0x3c008689	0.007844576
250	0xbd4834cd	-0.04887848
251	0xbd8b8090	-0.06811631
252	0xbd85ef41	-0.06539775
253	0x3b84243b	0.0040326393
254	0xbcd64780	-0.02615714
255	0x3d3a6787	0.045508888

linearSequential.2.bias f4 [64]
0	0xbe4ab5b5	-0.19795878
1	0xbd6c0099	-0.057617757
2	0x3f4891c0	0.78347397
3	0xbdad997c	-0.084765404
4	0x3df883cf	0.121345155
5	0x3d87e921	0.06636263
6	0x3d6b868f	0.057501372
7	0xbdcc63e5	-0.09979991
8	0xbf656102	-0.8960115
9	0xbdc94c7e	-0.09829043
10	0x3e612871	0.21988083
11	0x3e030de6	0.1279827
12	0x3f383649	0.7195783
13	0x3ef0f5c5	0.47062507
14	0xbc8f3854	-0.017482914
15	0xbe0b1cbe	-0.13585183
16	0x3ddf28ab	0.10896429
17	0x3f421e04	0.7582705
18	0x3d7497b8	0.059715003
19	0x3feda358	1.8565474
20	0xbd0defe0	-0.03465259
21	0xbeb4e76a	-0.35332805
22	0x3f3f02d2	0.7461368
23	0x3e12860a	0.14308944
24	0xbe5c2bff	-0.21501158
25	0x3d9bbf1f	0.07604813
26	0xbefa03f6	-0.48831147
27	0xbd95880d	-0.0730134
28	0x3ede3fb2	0.4340797
29	0xbe608d0f	-0.2192881
30	0xbe4b749d	-0.19868703
31	0xbc321278	-0.010868661
32	0xbbed52c1	-0.007242531
33	0xbe263f5f	-0.16235112
34	0x3cc6674c	0.024219178
35	0xbe8ed628	-0.27897763
36	0x3d328797	0.04358634
37	0xbd80ec79	-0.062951036
38	0x3f58087a	0.84387934
39	0x3ded0667	0.11573487
40	0xbea974cb	-0.33096918
41	0x3f44ebec	0.7692249
42	0x3af1c956	0.0018446844
43	0xbe007e75	-0.1254824
44	0xbdb50f69	-0.0884083
45	0xbddfbd59	-0.10924787
46	0xbc94b72a	-0.018153746
47	0xbd40e18b	-0.047090095
48	0x3dc39f82	0.09551908
49	0x3e18873b	0.14895336
50	0xbf27fb9b	-0.65618294
51	0xbd9ff264	-0.07809904
52	0x3c81e8f6	0.015858155
53	0x3d227590	0.039662898
54	0xbd9d27dc	-0.07673618
55	0xbe67a878	-0.2262286
56	0xbc929acf	-0.017896084
57	0x3f49bac9	0.78800637
58	0xbe012494	-0.1261161
59	0xbe8adec4	-0.27123082
60	0x3d05eba5	0.03269543
61	0xbdf760ea	-0.12079032
62	0xbd3d13c6	-0.046161436
63	0xbe17b328	-0.14814436

linearSequential.4.weight f4 [32, 64]
0	0x3cddf769	0.027095513
1	0x3d5d8c28	0.05408874
2	0xbd685867	-0.056724932
3	0xbdb6b129	-0.08920509
4	0xbe0440ef	-0.12915395
5	0xbc6eea70	-0.014582261
6	0xbd21c4d7	-0.03949436
7	0xbd98892e	-0.0744804
8	0xbdccc9e7	-0.09999447
9	0x3ca6a9f8	0.02034472
10	0x3dc3d536	0.09562151
11	0xbda1b9fe	-0.07896803
12	0xbebf92d3	-0.37416705
13	0xbe5e2124	-0.2169233
14	0x3c825958	0.015911743
15	0xbec02942	-0.37531477
16	0xbc123f80	-0.008926272
17	0xbec4f0d7	-0.38464996
18	0xbdb78875	-0.08961574
19	0xbed2714b	-0.4110206
20	0xbe449811	-0.19198634
21	0x3d6b1ad8	0.057398647
22	0xbe2a8bc4	-0.16654879
23	0xbd023974	-0.031793073
24	0xbdf333a4	-0.11875084
25	0xbd9d74a2	-0.076882616
26	0x3c3e17e8	0.011602379
27	0xbd5c240f	-0.053745326
28	0xbe30f236	-0.17279896
29	0xbd8f3838	-0.06993145
30	0x3d3477ea	0.04405967
31	0x3d8bbd8b	0.06823262
32	0xbe0d8b63	-0.13822703
33	0xbcd05f00	-0.025435925
34	0xbbd9895d	-0.0066386894
35	0xbd29f420	-0.04149258
36	0xbc4805f0	-0.012208447
37	0xbc8b17e9	-0.016979175
38	0xbe9ebb7d	-0.31002417
39	0x3cee8b18	0.02911906
40	0xbe17a1ec	-0.14807862
41	0xbea00f08	-0.31261468
42	0xbca92164	-0.020645805
43	0x3d4bb160	0.049729705
44	0x3bd3d800	0.006464958
45	0x3cae7c62	0.021299545
46	0xbcc9c457	-0.024629755
47	0x3d6271e4	0.055284396
48	0x3b689089	0.003548654
49	0x3d074e87	0.033033874
50	0x3d75245f	0.05984914
51	0xbdb68f32	-0.08914031
52	0x3d1bc280	0.038027287
53	0xbefa367b	-0.4886969
54	0x3de48ac2	0.111592785
55	0x3df8a76a	0.12141307
56	0xbeb8a9f1	-0.36067155
57	0x3e0342a1	0.12818386
58	0xbd94d0e8	-0.07266408
59	0xbdfead46	-0.12435393
60	0xbd8cf8e9	-0.06883413
61	0xbda33cde	-0.07970594
62	0xbc2317b0	-0.009954378
63	0x3cc2caf1	0.02377841
64	0x3d85dce7	0.065362744
65	0x3dd2e804	0.1029816
66	0xbdc5bee3	-0.096555494
67	0x3ce06998	0.027394101
68	0x3cfec4b5	0.031099657
69	0xbd3a5306	-0.045489334
70	0xbdfc240d	-0.12311564
71	0x3d7b1fc7	0.061309602
72	0xbd4b0652	-0.049566574
73	0x3d996f18	0.074918926
74	0xbb150dd8	-0.0022743847
75	0xbde3ce20	-0.111232996
76	0xbdc315a6	-0.095256135
77	0xbe535a42	-0.206399
78	0x3d8c751f	0.068582766
79	0xbdd01038	-0.101593435
80	0x3dd106e8	0.102063954
81	0xbe06c771	-0.13162018
82	0xbe315f8e	-0.17321607
83	0xbbed5dda	-0.007243854
84	0x3ccbc8e3	0.024876064
85	0xbca147d9	-0.01968758
86	0xbe6a03c0	-0.22852993
87	0xbda9cd30	-0.082910895
88	0xbd26f9b0	-0.040765464
89	0xbdbdbc79	-0.09264464
90	0xbdb0604e	-0.08612119
91	0xbdd081f6	-0.10181038
92	0xbe7e2223	-0.2481771
93	0xbd11edf0	-0.035627306
94	0x3b859541	0.0040766303
95	0x3b8cb8ec	0.0042945053
96	0xbe2560fa	-0.16150275
97	0xbd4d57ef	-0.050132688
98	0xbe08a629	-0.13344635
99	0xbd4e2900	-0.05033207
100	0xbcbfd349	-0.023416178
101	0xbe19d340	-0.15021992
102	0xbe52c7fa	-0.20584098
103	0xbd9135f8	-0.07090372
104	0x3de7b5b0	0.11313951
105	0xbdba2db3	-0.09090748
106	0xbdad7268	-0.08469087
107	0xbd09de80	-0.03365946
108	0x3d35b932	0.04436607
109	0xbb7ff8fc	-0.0039058318
110	0x3b396635	0.002828968
111	0x3da86411	0.08222211
112	0x3dc2d532	0.0951332
113	0xbd31b2b7	-0.043383326
114	0xbc8be524	-0.017077036
115	0xbc7895e0	-0.015172452
116	0xbde3a847	-0.11116081
117	0xbdec0e99	-0.11526222
118	0x3da26c6e	0.079308376
119	0x3da2e06b	0.079529606
120	0xbe197783	-0.14986996
121	0xbe063eb7	-0.13109861
122	0xbdef054c	-0.11670932
123	0x3d68cff3	0.05683894
124	0xbd9e18a5	-0.07719544
125	0xbd9692e0	-0.07352233
126	0x3d14944a	0.036274232
127	0x3d16f89f	0.036858197
128	0xbd4d1920	-0.05007279
129	0xbd45a9b0	-0.04825753
130	0xbe3e6b85	-0.18595703
131	0xbd535319	-0.05159292
132	0x3d275b93	0.040858816
133	0xbd421ce4	-0.047390833
134	0xbde8efd1	-0.11373866
135	0xbd663248	-0.056200296
136	0xbe3640c2	-0.1779814
137	0x3dc1ffcc	0.094726175
138	0xbd974f30	-0.07388151
139	0x3d5075b4	0.0508935
140	0xbe99d0b3	-0.30042037
141	0x3dc7d1e2	0.09756829
142	0x3d536044	0.051605478
143	0xbc908c80	-0.01764512
144	0x3d2c1c7f	0.042019363
145	0x3c31c11b	0.010849263
146	0xbd9d2a4a	-0.076740816
147	0xbec26ea6	-0.37975043
148	0x3dcc0216	0.09961335
149	0xbdf11217	-0.117710285
150	0xbd7c091a	-0.061532117
151	0xbdfe6657	-0.124218635
152	0x3d88d31a	0.066808894
153	0x3d96a351	0.07355369
154	0x3e0476d4	0.12935954
155	0x3e0c6fdb	0.13714544
156	0xbe936683	-0.28789148
157	0x3a99c600	0.0011731982
158	0xbe1d4c0a	-0.15361038
159	0xbda5bb7e	-0.08092402
160	0x3d8c67ce	0.06855737
161	0x3d10ac6a	0.035320677
162	0x3cd3f5bd	0.025874013
163	0xbd1039f5	-0.035211522
164	0xbdf2ebf0	-0.11861408
165	0x3dce975e	0.10087465
166	0xbd4fc8b8	-0.05072853
167	0xbc801956	-0.015637081
168	0xbbe53876	-0.006995256
169	0xbcf36def	-0.029715506
170	0xbdc89494	-0.09793964
171	0x3d8b4729	0.06800682
172	0x3d3ed54b	0.04659013
173	0xbd99a0fa	-0.07501407
174	0xba0c1463	-0.0005343614
175	0xbd4f0ba3	-0.050548207
176	0x3dad3dfd	0.08459089
177	0xbdd965c2	-0.10615112
178	0xbda7598b	-0.08171376
179	0xbd591eaf	-0.053007778
180	0xbd401d1b	-0.046902757
181	0xbde645c8	-0.112437785
182	0x3d581fa3	0.052764546
183	0x3cf82ddc	0.030295305
184	0xbe50bf40	-0.20385456
185	0xbe369d89	-0.17833532
186	0xbd84d496	-0.0648586
187	0xbdcb1638	-0.09916347
188	0x3caf2e27	0.021384312
189	0x3d4aa5c8	0.049474508
190	0x3c310e30	0.010806605
191	0xbdd16e6e	-0.10226141
192	0xbd5d8a6a	-0.05408708
193	0x3dc773cc	0.097388834
194	0xbde17e16	-0.11010377
195	0x3de9e728	0.11421043
196	0xbdc4a4a2	-0.09601714
197	0xbe354bbb	-0.1770467
198	0xbdb0014a	-0.08593996
199	0xbccee4f1	-0.025255652
200	0xbd761aa4	-0.060084
201	0xbdea65a6	-0.11445169
202	0xbdebeb8b	-0.11519536
203	0xbcb6296f	-0.022236554
204	0x3b1e76fe	0.0024179812
205	0xbe74ad7d	-0.23894306
206	0xbde1a8d7	-0.11018532
207	0x3bf967df	0.0076112594
208	0xbd4b36cd	-0.04961281
209	0xbe534640	-0.20632267
210	0xbecc962f	-0.3995833
211	0xbc8bbf27	-0.017058922
212	0xbc74e1d6	-0.014946422
213	0x3e6a320a	0.22870651
214	0xbfce55cd	-1.6119934
215	0xbdb80dc1	-0.08986998
216	0x3dfed86a	0.124436215
217	0xbed3fd32	-0.4140411
218	0x3c3ccd33	0.011523533
219	0x3c90bc39	0.017667877
220	0xbf053a3d	-0.5204199
221	0x3d067216	0.032823645
222	0xbfa37662	-1.2770503
223	0xbe0465db	-0.1292948
224	0xbedaef38	-0.42760634
225	0x3dbc1a7a	0.091847375
226	0x3df563fe	0.119819626
227	0x3da68de9	0.08132536
228	0xbc8f37eb	-0.017482718
229	0xbdb005db	-0.08594867
230	0x3f1047e4	0.56359696
231	0xbd0dbb74	-0.034602597
232	0x3e3dc47d	0.18531986
233	0xbfc03546	-1.5016258
234	0x3c13d54a	0.00902302
235	0x3e218276	0.15772423
236	0x3e01e850	0.12686276
237	0xbdc3e519	-0.09565181
238	0x3a2ef978	0.0006674747
239	0xbe112fcb	-0.14178388
240	0x3da04521	0.07825685
241	0xbd1483a9	-0.036258373
242	0xbf67dcd6	-0.90571344
243	0xbde2e43a	-0.11078687
244	0x3d014411	0.031559054
245	0xbf200160	-0.625021
246	0x3e69e9c9	0.22843088
247	0xbdedd9a8	-0.1161378
248	0xbf55a276	-0.8345102
249	0xbf8b1995	-1.0867182
250	0xbe1366ed	-0.14394732
251	0xbea2d19b	-0.3180054
252	0xba5fe440	-0.0008540787
253	0x3e111d55	0.14171346
254	0xbdb5d704	-0.088789016
255	0x3dae4399	0.08508987

linearSequential.4.bias f4 [32]
0	0xbf2fc939	-0.68666416
1	0xbeb257f5	-0.3483273
2	0xbeb687c4	-0.35650456
3	0xbd1cf29d	-0.03831731
4	0x3daa57d7	0.08317535
5	0xbdc9f391	-0.0986091
6	0xbf468f11	-0.7756205
7	0x3f102b70	0.5631628
8	0xbea97fb7	-0.3310525
9	0xbe15916c	-0.14606255
10	0xbd0816eb	-0.03322498
11	0xbed83a3b	-0.42231926
12	0xbf0ed87a	-0.5579907
13	0xbe7841f7	-0.24243914
14	0xbe8fefa0	-0.28112507
15	0xbe9b9b14	-0.30391753
16	0xbeca6ae5	-0.3953468
17	0xbefe589b	-0.49676976
18	0xbeaf1a0a	-0.34199554
19	0xbf1a7e5e	-0.6034907
20	0x3ded2c3c	0.11580703
21	0xbe6eaf26	-0.23309001
22	0xbe6a477c	-0.22878832
23	0xbe76447d	-0.24049564
24	0xbeed9662	-0.46403795
25	0xbedf277f	-0.4358482
26	0xbeecedb2	-0.46275097
27	0xbd8f357d	-0.06992624
28	0xbea9713c	-0.33094203
29	0xbe6b3160	-0.22968054
30	0xbed44105	-0.41455856
31	0xbe8db094	-0.2767378

linearSequential.6.weight f4 [16, 32]
0	0x3bd2b4d2	0.006430247
1	0x3caf5014	0.021400489
2	0xbdba9a20	-0.09111428
3	0xbe96d064	-0.29455864
4	0xbe27c30a	-0.16382995
5	0x3c4f35f5	0.012647142
6	0x3e82cece	0.25548404
7	0xbf4645cc	-0.7745025
8	0x3e761074	0.24029714
9	0x3cc25b71	0.023725243
10	0xbe1b28c5	-0.15152271
11	0x3c85011c	0.01623588
12	0x3d774272	0.0603661
13	0x3d967788	0.073470175
14	0x3e1ab63a	0.15108576
15	0xbb63e2e9	-0.00347727
16	0xbde30482	-0.11084844
17	0x3d41f00f	0.04734808
18	0xbc7d917a	-0.015476579
19	0xbd4bc752	-0.049750634
20	0xbf01f602	-0.50766003
21	0xbd9e146f	-0.07718741
22	0x3df38740	0.11891031
23	0xbe946724	-0.2898494
24	0x3d4e7cdd	0.050412048
25	0x3cc0fbcd	0.023557568
26	0x3dc6104d	0.09671078
27	0xbf95210b	-1.1650709
28	0x3c870127	0.016480042
29	0xbcb46ef5	-0.022025565
30	0x3be475b9	0.0069720414
31	0xbd3ad03d	-0.045608748
32	0x3b9c17f4	0.0047635976
33	0x3dc80f1f	0.09768509
34	0x3df84e5b	0.1212432
35	0xbfc43f88	-1.5331888
36	0xbdb11545	-0.08646635
37	0xbd8a00c9	-0.06738431
38	0x3e81f3e6	0.25381392
39	0xbe74ca0b	-0.23905198
40	0x3e5df4e8	0.21675456
41	0x3e1053eb	0.14094512
42	0x3d0a7f27	0.03381267
43	0x3ead4ebd	0.33849135
44	0xbe06599a	-0.13120118
45	0x3dd65139	0.10464711
46	0x3e0bbf14	0.1364711
47	0x3deae6af	0.11469781
48	0xbc8fd220	-0.01755625
49	0xbd601b6a	-0.054713644
50	0xbdb46d9c	-0.08809969
51	0xbe7ec99a	-0.24881592
52	0x3d7414d0	0.05959016
53	0x3d600daa	0.05470053
54	0x3c1f5417	0.009724638
55	0xbe686da7	-0.22698079
56	0x3d8d157c	0.068888634
57	0xbee8c73e	-0.4546451
58	0x3e002bdb	0.1251673
59	0xc002dcb2	-2.0447202
60	0x3cf7e501	0.030260565
61	0xbdf3b937	-0.11900561
62	0xbf24dbce	-0.64397895
63	0x3dc47d92	0.09594263
64	0xbd9d04b3	-0.07666912
65	0xbdc8936b	-0.09793743
66	0x3d9f650e	0.077829465
67	0x3df850ea	0.12124808
68	0x3be4324e	0.0069640046
69	0xbe0debd5	-0.13859494
70	0xbd90369c	-0.07041666
71	0x3ce784b0	0.028261513
72	0xbe87fd83	-0.26560602
73	0xbcabb6d8	-0.02096121
74	0xbd9897fb	-0.07450863
75	0xbdde5084	-0.10855201
76	0xbe53926d	-0.20661326
77	0xbd1e0988	-0.03858331
78	0x3da6a162	0.0813625
79	0xbea34a69	-0.31892708
80	0xbe02bdb5	-0.1276768
81	0x3e0c5e89	0.13707937
82	0x3c814362	0.015779201
83	0x3d5cfb14	0.053950384
84	0xbe2a69c8	-0.16641915
85	0xbe67a150	-0.2262013
86	0xbd877c10	-0.0661546
87	0xbc1673f0	-0.009182915
88	0xbe190b5c	-0.1494574
89	0xbe02ece0	-0.12785673
90	0xbe2cfb6b	-0.16892783
91	0x3cc862a8	0.024461105
92	0xbe4ddce4	-0.20103794
93	0x3c874a00	0.016514778
94	0xbd06f818	-0.032951444
95	0x3c9ed6dc	0.019389562
96	0xbd97523d	-0.073887326
97	0x3cc6c420	0.024263442
98	0xbc994a28	-0.018712118
99	0xbe26ff40	-0.16308308
100	0xbe4298a8	-0.19003546
101	0x3d050c08	0.032482177
102	0x3e08ccad	0.13359328
103	0xbac71f65	-0.0015191851
104	0xbd07a323	-0.033114564
105	0xbd2fec74	-0.04295011
106	0xbd9941cf	-0.07483255
107	0xbca92ea8	-0.02065213
108	0xbdcb4880	-0.09925938
109	0x3e164bdd	0.14677377
110	0x3e2cff67	0.16894303
111	0xbe8f4bf4	-0.27987635
112	0xbe294ba8	-0.16532767
113	0x3de734d2	0.112893716
114	0xbe19b7c3	-0.15011506
115	0xbe7f8a25	-0.24955042
116	0x3ca3d829	0.020000534
117	0xbe8a3d44	-0.26999867
118	0x3cd6c6d8	0.026217863
119	0xbddb3d98	-0.107051075
120	0x3df48ef6	0.1194133
121	0x3d1bfe74	0.038084462
122	0xbc1bd080	-0.0095101595
123	0xbe27b4a6	-0.16377506
124	0xbe3f33a2	-0.1867204
125	0xbe253d0e	-0.16136572
126	0x3deee4e6	0.11664753
127	0xbd7cd7ac	-0.06172912
128	0xbd8f0bc7	-0.06984668
129	0x3ddbc63e	0.10731171
130	0x3e126e72	0.14299944
131	0x3d80652c	0.06269297
132	0xbe2ba14e	-0.16760752
133	0x3d6a92f3	0.057269048
134	0x3c4ec730	0.012620732
135	0xbe973171	-0.29529908
136	0xbdea7f74	-0.11450091
137	0xbe169ed6	-0.14709029
138	0xbe7e526b	-0.24836127
139	0x3bb38062	0.005477951
140	0xbe096f50	-0.13421369
141	0xbd92706c	-0.07150349
142	0xbe23228a	-0.15931144
143	0xbdc12155	-0.09430186
144	0xbbb53dc6	-0.0055310456
145	0x3d8417ac	0.064498276
146	0xbd02b003	-0.03190614
147	0xbe5612e4	-0.20905644
148	0xbd1aef4d	-0.03782587
149	0x3dc530e2	0.09628464
150	0x3dd700c9	0.10498197
151	0x3caafdcb	0.020872971
152	0xbd95cc3c	-0.07314345
153	0xbe589b98	-0.21153104
154	0x3e0be2c9	0.1366073
155	0xbe67f6bf	-0.2265272
156	0xbebac34c	-0.36477125
157	0x3ea17f34	0.3154236
158	0xbd96b065	-0.07357863
159	0xbd2917b5	-0.041282374
160	0xbd7c2c3e	-0.06156563
161	0xbd71f348	-0.0590699
162	0xbdd1de2c	-0.10247454
163	0xbdf8c5ca	-0.121471
164	0xbea0560d	-0.31315652
165	0xbdbe2f44	-0.09286359
166	0xbdf52c8e	-0.11971389
167	0xbe9e757f	-0.30949017
168	0xbe6be232	-0.23035505
169	0xbeb0e7a8	-0.3455174
170	0xbe6eaeed	-0.23308916
171	0x3ccdce88	0.025122896
172	0xbe3e722f	-0.18598245
173	0xbe339d02	-0.17540362
174	0xbd93dc25	-0.072197236
175	0xbd87654a	-0.06611116
176	0x3dc193d6	0.094520256
177	0xbe0abab0	-0.13547778
178	0xbe1f85cc	-0.15578383
179	0xbe0f7471	-0.14009263
180	0x3cf47a3c	0.029843442
181	0xbe652987	-0.22379123
182	0x3dc7266a	0.09724124
183	0x3cbda1d8	0.023148462
184	0xbd6d307e	-0.057907574
185	0xbc863f52	-0.016387615
186	0xbd00782d	-0.03136461
187	0xbd643639	-0.055715773
188	0xbe0e9df2	-0.13927439
189	0x3d25a2b8	0.040438384
190	0x3de862a3	0.113469385
191	0xbe19a3da	-0.1500391
192	0x3df3ae9a	0.11898537
193	0xbe1f98ef	-0.15585683
194	0xbc740860	-0.014894575
195	0xbe7574c5	-0.23970325
196	0xbd6e3afc	-0.05816172
197	0xbe903a76	-0.28169602
198	0xbde90688	-0.11378199
199	0xbd037289	-0.03209165
200	0xbdefdec6	-0.117124125
201	0xbe1dcf07	-0.15411006
202	0xbddf58b6	-0.10905592
203	0x3c49dd2d	0.012320799
204	0xbd544eca	-0.05183295
205	0xbdbbb029	-0.09164459
206	0xbd61939a	-0.055072404
207	0xbcae9910	-0.02131322
208	0xbe0ebecc	-0.1393997
209	0xbda92897	-0.08259695
210	0xbdff6fe2	-0.12472512
211	0xbc49a4a7	-0.012307323
212	0x3b616e30	0.0034397952
213	0xbdaf79ef	-0.08568179
214	0x3ddedfee	0.10882555
215	0x3d9d4752	0.07679619
216	0xbd868f5c	-0.065703124
217	0x3e0e302b	0.13885562
218	0xbb77ba14	-0.003780012
219	0xbe8b5635	-0.27214208
220	0xbd123e68	-0.035704046
221	0xbde86cf3	-0.113489054
222	0xbe85d6c1	-0.26140407
223	0x3e2a1d13	0.16612653
224	0x3da60814	0.081070095
225	0x3ddaeed7	0.10690086
226	0xbd7c2b8a	-0.06156496
227	0x3c00a9d3	0.007852989
228	0x3b9f2c72	0.004857593
229	0xbea87305	-0.32900253
230	0x3e84a26d	0.2590517
231	0x3e826c14	0.25473082
232	0xbf0aabb9	-0.5416828
233	0x3c1ef905	0.009702926
234	0xbd687508	-0.056752235
235	0x3e5d9eb6	0.21642575
236	0xbe066c7a	-0.13127318
237	0xbe0a12fd	-0.13483806
238	0xbd2749b6	-0.04084178
239	0xbe916f7f	-0.28405377
240	0xbdab4c5d	-0.083641745
241	0xbd95a42a	-0.073067024
242	0xbd62686a	-0.05527536
243	0xbe767ec5	-0.24071796
244	0x3df64ec8	0.12026745
245	0x3d6bf38b	0.057605308
246	0x3d708e70	0.05872959
247	0x3e9a6548	0.30155396
248	0xbec122ca	-0.37721854
249	0xbc7d588d	-0.015463007
250	0xbbe089e9	-0.0068523777
251	0xbdae00c8	-0.08496243
252	0xbe086399	-0.13319243
253	0xbe50f2e6	-0.20405158
254	0xbe038b5b	-0.12846129
255	0x3d68309a	0.056686975

linearSequential.6.bias f4 [16]
0	0xbda7e761	-0.08198429
1	0xbe0b5c25	-0.13609369
2	0xbe9910e6	-0.29895705
3	0xbe996754	-0.29961646
4	0xbd48db40	-0.049037218
5	0xbe09e9d3	-0.13468103
6	0xbe9214fc	-0.28531635
7	0x3e942640	0.28935432
8	0x3e7f4792	0.24929646
9	0x3e81bea8	0.25340772
10	0xbd9d5136	-0.076815054
11	0x3e77d37c	0.24201769
12	0xbdcf2e13	-0.1011621
13	0xbda46659	-0.08027334
14	0xbd64afca	-0.055831708
15	0xbe04cf4c	-0.12969702

linearSequential.9.weight f4 [2, 16]
0	0x3c982bac	0.018575512
1	0x3c9add41	0.01890433
2	0xbe8308db	-0.25592694
3	0xbda36648	-0.07978493
4	0xbb9ee19e	-0.004848673
5	0x3e6bd3b4	0.23029977
6	0x3db32ce3	0.08748796
7	0xbccf67a8	-0.025317982
8	0x3cdb87ac	0.026798092
9	0xbd0c9c1b	-0.03432856
10	0x3cb0ed6b	0.021597585
11	0x3b6e7d10	0.003639046
12	0xbdb14b9d	-0.08657
13	0x3c99efb5	0.018791059
14	0x3e75559b	0.23958437
15	0x3e5f875d	0.2182898
16	0x3e59efa9	0.2128283
17	0x3e4e4ed3	0.20147257
18	0xbda3bfd8	-0.07995576
19	0x3d21e32a	0.03952328
20	0xbc82dd51	-0.015974673
21	0x3deb756f	0.11497008
22	0xbd4d2efa	-0.05009363
23	0xbe5daa7a	-0.21647063
24	0xbe6547d0	-0.22390676
25	0xbe57694b	-0.2103626
26	0x3e399ced	0.18126269
27	0xbe64d6fd	-0.22347637
28	0xbe1c0edb	-0.15240042
29	0x3e568ee1	0.20952941
30	0x3d8b0e8f	0.06789886
31	0x3d4498bf	0.047997233

linearSequential.9.bias f4 [2]
0	0x3e85398b	0.26020464
1	0x40608c04	3.5085459
