src/nets/state_dicts/nnwf01.pt (torch, 53651 bytes, 10 tensors)

linearSequential.0.weight f4 [128, 11]
00000000: 3928 5b3e 51ab f73e d6c3 54be 7c24 0fbe
00000010: a00b 72be 3c52 203d 2810 88bc e578 2cbd
00000020: 0166 843e 2901 e2be 5fec d23d c3e6 0dbd
00000030: 84df 0abe b038 e8bc df76 8d3d 4b82 b6bc
00000040: 73ed 0bbe 1bb7 79be fca4 4d3e 6fbf 943e
00000050: d04a cfbe 94f1 163e 0992 623e 7860 c4bd
00000060: 9400 4f3e 72b2 0c3e abb6 303e a54c 36bd
00000070: fa5d d7bd 006a f7bd fbf2 963c e368 b4bd
00000080: 684d b7bd a969 2e3e 1dce 58be 6477 553e
00000090: 8703 823e a31f 65bc 4795 dabd 6832 10be
000000a0: 4f5d 6d3e 433c 37bd 0baa e0be 761d f23d
000000b0: 5979 3e3f 5a7c e5be cd28 213e 17c0 a7bc
000000c0: 51c2 ab3c 942c 12be ac20 c0bc d792 7a3e
000000d0: f153 ba3c 5e0f c9bb ff59 f83d b14a 233f
000000e0: 9106 063e 764c 26be 4208 f6bc e777 2bbe
000000f0: da40 bf3e a524 f3bd 3a76 08be 5b7a 32be
00000100: 4c21 023f 3f02 503e 31cc 283d 38e5 46bd
00000110: ae66 50be 31c6 39be 4a04 b6ba be37 9ebe
00000120: 2646 d73e 7cd4 4b3d 633e 7b3e b836 73bd
00000130: 789b 4dbd 1d9f 323d 83f7 1a3e 76ef 143e
00000140: 6ad3 f1bd 5c3d b2be bd8c 99bc a9bf 2dbe
00000150: 268e dc3d 2c3e 9b3d d222 133e 9379 55bd
00000160: b94a 053d 629c 8c3d b7f8 683e c6ce 66be
00000170: 6c28 0fbe 9735 08be f704 56be a934 d4bd
00000180: 2702 833e cffa 7c3e a747 983d c366 15bd
00000190: 34f2 813d edf8 a0be cb1f 6d3c 2709 9c3e
000001a0: caed 0f3e cc22 38be c1e9 f0bd ada8 713e
000001b0: 3977 bf3d bfc3 663d a567 35be 3b8e 81bd
000001c0: a99d 38be c7c9 f33d 5068 813e 3b7a 833e
000001d0: 9833 41be 4d8c 1fbe ee44 7c3e 4871 543d
000001e0: 5372 4f3e 6225 b5be c5a5 b4bc 05f5 e43d
000001f0: 616c 91be 7616 9c3e 9c6e 0b3e a624 903e
00000200: e547 7a3e 9428 3bbe 8255 0cbd bf1b 12bf
00000210: 6ee1 82bd c927 c3bd 2a3c 13be 5d52 8abe
00000220: 1822 56bd d49f cc3e e1c9 74bd aa79 f3bd
00000230: 556f 1b3e 6126 1c3e 8e64 b0bd c836 4abe
00000240: 1ae8 adb9 3f00 35be dea0 3a3e 537b 77be
00000250: 18c0 823d c057 2dbe b614 923e e6af 86bd
00000260: 3d5a 1a3e f6ac bb3c 71b9 e9bd f78e 9f3d
00000270: 1440 09be 2a4f 313e fac4 633c a3b8 3ebe
00000280: cf79 9c3d 7e9c 483e 0e5f 63bd 204c 663e
00000290: 1e3c 9d3e 8748 ee3e feab afbe 60ce 2c3e
000002a0: 4329 edbe fad2 963e 517a 5d3e 0e90 c9be
000002b0: 768c bebe 6a7f 493e 4071 923e d291 56be
000002c0: 6adc 153e 18b2 98bd 45c1 533d ed8e 76bd
000002d0: 5166 313d 3fd1 b23c 854b 1ebe e22f 39bd
000002e0: 89d8 d5bc 6c88 9e3d 5279 a23d ec36 dbbd
000002f0: c88b b13e 5306 7c3e 8e75 883e c7d5 e13d
00000300: 5a3d b83e f9d5 52be f9a7 71bd 30a9 433e
00000310: 8a7e 20be 19a1 89bd a3d5 053d fa70 913d
00000320: affa 4abe f244 fe3e 66fc 8a3e 97b0 86be
00000330: 5c9c 313e c9a4 1f3e f870 0dbe a781 d13d
00000340: da55 9fbd dcee 99be 4ec9 6e3e fc6a 9e3d
00000350: da03 77bd ffda 3dbe 7c61 233e 0f5c a03e
00000360: 5f1f 03be 16e5 303e 5677 24be e5f8 0fbe
00000370: d856 e1bd 9302 ce3d 36ad 1b3e 6f5d 2c3e
00000380: 8b12 c4ba f539 443e e9c7 d3be 85b5 40be
00000390: 7b3a 513e ca0e 91bd 4ac7 bdbd 4a6f b83d
000003a0: 6e09 f33e 43d1 fbbd 7ef4 97be 0088 293e
000003b0: d975 67be a159 763e 3132 81be 29aa 60bd
000003c0: 0648 aebe b6f5 8d3e 478f 2c3e 731e bd3e
000003d0: 1b1e ffbd ac4f 9e3d 8977 b9be f2e9 d6bd
000003e0: d27d a93e c4bb b8be 2da2 57be 1098 1f3e
000003f0: 95d2 5a3e 81bb e23d b761 063f 3888 37bd
0.21402062 0.48372892 -0.2077783 -0.13978761 -0.23637247 0.039140925 -0.016609266 -0.04210748
0.25859073 -0.4414151 0.102989905 -0.0346439 -0.13561827 -0.028347343 0.069074385 -0.022278925
-0.13664798 -0.24386255 0.20082468 0.29052302 -0.40486765 0.14740592 0.2212602 -0.095887125
0.20215064 0.13739946 0.17257182 -0.044506688 -0.105159715 -0.12080765 0.018426409 -0.08809068
-0.08950311 0.17032494 -0.21172376 0.20846325 0.25393316 -0.013984594 -0.10673004 -0.14081728
0.23180126 -0.044735204 -0.43879732 0.118220255 0.7440391 -0.44821435 0.1573822 -0.020477338
0.02096668 -0.14274818 -0.02345308 0.24470077 0.022745105 -0.006135865 0.121265404 0.63785845
0.13088442 -0.16240105 -0.030033235 -0.16744958 0.37354165 -0.11872224 -0.1332635 -0.17429487
0.50832057 0.20313357 0.041210357 -0.048558444 -0.20351669 -0.1814201 -0.0013886776 -0.30901903
0.42045707 0.049763188 0.24535517 -0.059378356 -0.050197095 0.043608773 0.1513348 0.14544472
-0.11807902 -0.34812438 -0.018743867 -0.16967644 0.107693 0.07580218 0.14368752 -0.052117895
0.032541964 0.06865765 0.22751127 -0.22539815 -0.13980263 -0.13301693 -0.20900331 -0.10361607
0.2558758 0.24705051 0.074355416 -0.036474954 0.06345025 -0.31439915 0.014472912 0.30475733
0.14055553 -0.17982024 -0.11763335 0.23599501 0.09348912 0.05633902 -0.17715319 -0.063259564
-0.18028893 0.1190372 0.25274897 0.25679192 -0.18867338 -0.15580864 0.2463567 0.051865846
0.20258455 -0.35380083 -0.022051701 0.11179546 -0.28403 0.30485886 0.13616413 0.2815296
0.24441488 -0.18277198 -0.034261234 -0.5707359 -0.063906536 -0.09529073 -0.1437842 -0.27015963
-0.052278608 0.3996569 -0.05976284 -0.1188844 0.15179189 0.15249015 -0.08612929 -0.1974746
-0.0003317006 -0.17675875 0.18225428 -0.24168138 0.06384295 -0.16928005 0.28531426 -0.06576519
0.15073486 0.022909623 -0.11412323 0.0779094 -0.1340335 0.17315355 0.013901943 -0.18625121
0.07640421 0.19590947 -0.055510573 0.22489977 0.30709928 0.4653971 -0.34310907 0.16875601
-0.46320543 0.29457837 0.21628691 -0.39367718 -0.37216538 0.19677511 0.28602028 -0.20954064
0.14634863 -0.07455844 0.051697988 -0.0601949 0.043310467 0.021828292 -0.15458496 -0.04521168
-0.026104229 0.07740864 0.07933296 -0.10703835 0.34676957 0.24611787 0.26652187 0.11027103
0.35984308 -0.20589437 -0.05899808 0.19107509 -0.15673271 -0.0672018 0.032674443 0.07101627
-0.1982219 0.49661976 0.2714569 -0.26306602 0.17344803 0.15590204 -0.13812625 0.10229807
-0.07780047 -0.30065048 0.23318979 0.077352494 -0.060306408 -0.18540572 0.15955156 0.31320235
-0.12804936 0.1727489 -0.16061148 -0.1405979 -0.11002892 0.10059085 0.15202793 0.16832517
-0.001495914 0.19162734 -0.41363457 -0.18819244 0.20432465 -0.07082899 -0.09266527 0.09005602
0.47468132 -0.12295773 -0.2967872 0.16555786 -0.22603549 0.24057628 -0.25233606 -0.054849777
-0.34039325 0.27726525 0.16851531 0.36937293 -0.12456914 0.0773004 -0.3622401 -0.1049384
0.33103806 -0.36080754 -0.21057959 0.15585351 0.21369393 0.1107092 0.5249285 -0.044807643

linearSequential.0.bias f4 [128]
00000000: 2971 83bd 74ea 0dbe 6518 773e c88f 0e3e
00000010: 28b8 cbbe 2abe 2ebf b819 99bd 8d65 80bd
00000020: ad08 a7be 964e 553e 004e 713e 734c bfbd
00000030: 982a 16be cac6 793e 0d15 20be 446d e8be
00000040: a725 4f3e a28b 603e c7d7 4dbe f5da 0dbe
00000050: b701 80be fcd5 5cbd b425 d0be ed1a b6be
00000060: e8a5 abbe 60e4 8c3e 7546 b13e 2f75 c2be
00000070: 79e3 77be 3608 dc3d 9a49 d6bb e3cf 953e
00000080: c075 49bf 4f38 9abe 7b8b 41be 9c2f bb3e
00000090: 11fa a93e f75d b7bc fcfa 63be e14d f6be
000000a0: 19cc 2a3e beeb c7be a47b 76be df3f e2be
000000b0: 2d79 5ebe 6cfb 373b 7f17 22bf c5f5 0ebf
000000c0: 9ff2 803c 3b07 473d 05b8 be3b 9919 6b3e
000000d0: 1afa ccbb 1370 83bd 60e1 9abe 768e 78bf
000000e0: f1cd b5be 9997 46be a9ec 19bf 0c1d 0fbf
000000f0: 1552 debe a11f 2dbe e551 f3be 02ef 0f3d
00000100: 5930 563d 0840 04be 30f4 183e b1bc 82be
00000110: cb90 a2be abe7 05bf 528f 2dbf 5110 0cbf
00000120: 306c 2abe f75b 17bf c26a e4be 6c91 6abe
00000130: 6c35 533e 2c7e 7c3e 438d a03c 1579 4abe
00000140: 441c 793e 9d93 05bd 37b3 eebe 0498 95be
00000150: fa58 d3bd a79e 2cbe d2fe e53d 6af7 46be
00000160: 7a21 d8be 3ce0 97bc c35f 363c 44fc afbe
00000170: 9a5e 33bf 5245 0fbf b4d1 9dbe 5566 3ebf
00000180: fcb7 d1be 94dd a23d df61 a3be e005 cdbe
00000190: f19f 803c 71f3 5abe fdf3 ffbc d647 11bc
000001a0: e491 02bf 2623 60be 406d 0f3e c057 76bd
000001b0: 5a21 f9be 3df3 3b3e 00eb 403d 3156 95be
000001c0: bcf9 883d db21 0e3e 48d8 21be 9dae 4ebe
000001d0: 5752 d9be dc00 9cbd 1fc5 f1be 32c6 78be
000001e0: 9614 2ebf 4f37 2a3b 37f0 bf3d 115a 18bf
000001f0: f3e8 f2be d841 15bf dd53 8bbe bb72 1f3b
-0.06418068 -0.13858968 0.241304 0.13922036 -0.39788938 -0.6825892 -0.074756086 -0.06269369
-0.32623807 0.2083076 0.23564911 -0.093407534 -0.14664686 0.24392238 -0.1563303 -0.45395863
0.20229207 0.21928266 -0.20101844 -0.13853057 -0.25001308 -0.05391501 -0.40653765 -0.35567418
-0.33525014 0.27517986 0.34624067 -0.3798003 -0.24207868 0.107437536 -0.0065395357 0.29260167
-0.786953 -0.30121085 -0.18900864 0.3655976 0.33198598 -0.022383673 -0.22263712 -0.48106292
0.1667942 -0.39047045 -0.24070603 -0.44189355 -0.21725912 0.0028073443 -0.633171 -0.55843765
0.01574069 0.04859088 0.0058202767 0.22958983 -0.0062554004 -0.06417861 -0.30250072 -0.9709238
-0.35508683 -0.19393767 -0.6012674 -0.55903697 -0.43422 -0.16906597 -0.47523418 0.035140045
0.0522922 -0.12915051 0.149369 -0.25534585 -0.31751093 -0.5230662 -0.67796814 -0.54712397
-0.16642833 -0.591247 -0.446127 -0.22907037 0.20625848 0.24657506 0.019598609 -0.19772752
0.24327189 -0.032611478 -0.46621105 -0.2921754 -0.10319705 -0.16857396 0.11230244 -0.19430318
-0.4221304 -0.01853954 0.01113123 -0.3437215 -0.70066226 -0.5596515 -0.30824053 -0.74374896
-0.4096068 0.07952419 -0.31910607 -0.40043545 0.015701266 -0.21381928 -0.031244272 -0.008867225
-0.5100386 -0.21888408 0.1400652 -0.06014228 -0.48658258 0.18354507 0.047099113 -0.2916732
0.06688258 0.13880102 -0.15805161 -0.20183797 -0.42445633 -0.076173514 -0.47220704 -0.24294356
-0.6800016 0.0025972908 0.09371989 -0.5951243 -0.4744335 -0.58303595 -0.2721242 0.002432986

linearSequential.2.weight f4 [64, 128]
00000000: 91ab 313d 4c5c 993d 93c7 47bd 10d3 823d
00000010: a8cb e7bd d57b 5a3d 33cb dcbc 2881 bebc
00000020: 10b3 d4bd c791 99bd 0ec6 cd3d 3cf3 c7bc
00000030: af41 c5bd d0e2 a03b 5240 4abd 74a2 06be
00000040: 2a65 a73d 5b2e 6cbd 150a 733d e140 3a3c
00000050: 14f6 663d 8df8 18bd 5577 6ebc 59f4 29be
00000060: 6da0 b4bd 5373 123d b4fa d93d 70d7 49bd
00000070: 5d65 56bd 358d 553d 0972 a43d 3ba5 973d
00000080: 1b6d c3bd 1040 033d dd78 86bd c5c4 9f3d
00000090: a194 9c3d c2ac 363c a1d0 a2be 1728 82be
000000a0: 0b39 8bbd 9805 46be e3a5 ccbc 4c75 5dbe
000000b0: d6e3 e2bd 38e4 84bd 6619 87be 4f7b 39be
000000c0: bf82 1abd 0033 2ebe c51f 20bd 6ae8 0ebd
000000d0: 5d71 59bd 2881 c7bd fc65 6cbe 6fea 0cbe
000000e0: 7bff 583d 7ad0 b93d c825 43bd 9cfc 1a3e
000000f0: be16 3b3e 8ba1 013b 7c2d f3bd 00b5 79bd
00000100: f6e9 083c 5358 36be e5ea 853d 48f6 1f3c
00000110: a7f7 943d 5c62 3dbe 776a 9ebd f561 49be
00000120: a0fb ffbc 07c1 c53c e553 a1be 46d0 823d
00000130: aca0 493b 7120 33bb 696e 9c3d 0414 413d
00000140: 1935 ff3b d9ab 723d 5c9b e73d 22ce 6fbc
00000150: 336e a03c 3284 1dbe 8cb1 193d c6d2 1ebe
00000160: ab98 f53c 2917 80bd 182f 04bd e39d 343d
00000170: b62b 7dbe d9d1 8bbd 6f8a 03be 2182 0dbb
00000180: b832 42be 808f 2bbd e2a7 30bd 5a8b 51be
00000190: 8f0d 75bd f45f 15bd fa1c 29bd 0ef2 f03d
000001a0: d59b 943d 2620 07bd 2f61 9b3d 66ff 69bd
000001b0: 77f5 a93d 62bd 96bd ae78 5cbe 7ddd 91bc
000001c0: ac00 ab3d 5dcd 42bd f190 7b3d 90df 3bbd
000001d0: dd22 d43d 758d 3cbe 3e81 a0bd 9b3d b7bb
000001e0: 45ff 083d 983a 08be 83b4 63be b75f 0f3e
000001f0: d314 34be b8d2 9dbc fec1 8abd 19f6 47bd
00000200: 053d 4bbd 4d7c e6bd f82c b9bd 255f 8cbd
00000210: 1c81 72bd 3dd3 d9bb 2268 0cbd 187c a3bd
00000220: 27b8 b3bd 844a eabc 71a3 7bbd 2fa8 b7bd
00000230: c9ec 45bd 6192 dc3c a0bb d8bc 4352 1bbc
00000240: ccff d2bd 4559 a1bc 172c b33c c7fb 0ebd
00000250: 1616 f6bd e6b4 1dbd 89bc abbd d9a9 003d
00000260: 2a3d c13c be81 213c 576b 653c 26ca 12bd
00000270: 5877 53bd 73be 54bc 410e d9bd 1726 3dbc
00000280: 184e 0cbd 382a c8bd 41ff b03c 22db 423c
00000290: 6ca9 a03c 92f1 143c 376f 54bc 2d4f b3bd
000002a0: 9c9a 88bc b790 82bb 29ef 3c3d 97cc 1cbd
000002b0: 0053 b1bd 4599 adbd acf0 89bd 2f69 80bd
000002c0: 74fb c23c f322 e63c 03f4 90bd 95f3 3cbd
000002d0: 836f 4ebc 1f2e 763c 9334 9bbc facb 173d
000002e0: b20e 553c 3bf9 c1bd 344e ba3c 965f 5b3b
000002f0: 2ef3 2bbd db50 00bd d761 cbbd 7c74 433d
00000300: a77c 9dbd ce3e 60bd 9632 763d 599b d3bd
00000310: e34d bd3b 846f e63b a4f8 db3c 34ae 953a
00000320: 2add f5bc ebd2 92bd 2df7 c7bd 9226 aebd
00000330: ae31 86bd 4e9c a2ba cb04 3a3b b079 14bd
00000340: 1f10 98bd 7848 943c 6add 0e3c a163 d9bd
00000350: c455 e7bd 770f 443d d846 c4bc 93ce 85bd
00000360: 64c1 df3b 923a aebd bde3 7dbd c1c7 a3bd
00000370: 9387 0b3d 0779 b73c 9468 f5bb 00da 1bbc
00000380: 48a2 bc3b c031 0ebd e7c3 61bc e6eb d5bd
00000390: db7d 7abd bf4d 36be 58c5 a2bc 3339 37bc
000003a0: ac6b 48bd 6090 ccbd 2cf0 16bd e93a 27bd
000003b0: 6a22 d8bd f036 713d 2c01 d83b b4e0 20bd
000003c0: 3d24 a43c 3d6e 253d 33da 423c 216d acbd
000003d0: 34cb 93bc 11e6 0a3d cf58 b2bc d384 a9bc
000003e0: 11aa 573c 4061 163d 9cb6 163c 71b0 8ebc
000003f0: c860 8bbc b229 2dbd a293 48bd 1f4b 47bd
0.04337651 0.07488307 -0.048774313 0.06387913 -0.11318141 0.05334075 -0.026952362 -0.023254946
-0.10385716 -0.07498508 0.100475416 -0.024407975 -0.09631669 0.0049098507 -0.049377747 -0.13147908
0.081735924 -0.057661396 0.059335787 0.011368007 0.056387022 -0.03734641 -0.014554818 -0.16597117
-0.08819661 0.035754513 0.10643521 -0.049277723 -0.05234276 0.05213662 0.08029563 0.07404562
-0.095422946 0.032043517 -0.065660216 0.07801203 0.07645536 0.011149587 -0.31799796 -0.2542121
-0.067979895 -0.19338071 -0.024981445 -0.21626776 -0.110786125 -0.06488842 -0.26386565 -0.18113445
-0.037722345 -0.17011642 -0.039092798 -0.034889616 -0.053086627 -0.097414315 -0.23085779 -0.13761304
0.05297802 0.09072967 -0.047643453 0.15135425 0.18270394 0.0019780125 -0.1187391 -0.06096363
0.008356562 -0.1780713 0.06538943 0.009763308 0.072737984 -0.18494552 -0.0773515 -0.19666274
-0.031247914 0.024139894 -0.3150932 0.06387381 0.0030765934 -0.002733257 0.076382466 0.04713823
0.007788312 0.059245918 0.11308929 -0.014636548 0.019583797 -0.1538246 0.037522838 -0.15510091
0.029980024 -0.062544174 -0.032271475 0.044095885 -0.24723706 -0.06827135 -0.12845777 -0.0021592455
-0.1896466 -0.0418849 -0.043128856 -0.20463315 -0.059827384 -0.03646846 -0.0412874 0.11764918
0.07256285 -0.032989644 0.07586896 -0.057128333 0.08298772 -0.07360341 -0.2153041 -0.01780581
0.083497375 -0.04755913 0.061417524 -0.045867503 0.10358212 -0.18413337 -0.07837151 -0.0055920607
0.03344657 -0.13303602 -0.22236829 0.14001356 -0.17586069 -0.019265518 -0.06775282 -0.04881868
-0.04961874 -0.11254177 -0.0904178 -0.06854085 -0.05920516 -0.006647496 -0.034278996 -0.079826534
-0.08775359 -0.028599985 -0.061435167 -0.08967625 -0.04832152 0.026925268 -0.026456654 -0.009480062
-0.10302696 -0.019695887 0.02187161 -0.034908082 -0.12015931 -0.038502596 -0.083855696 0.03141198
0.023588736 0.009857593 0.014002643 -0.035837315 -0.051627487 -0.01298486 -0.10598422 -0.011544726
-0.034254164 -0.097736776 0.02160609 0.011893066 0.019612037 0.009090798 -0.012965969 -0.08755336
-0.016675286 -0.0039845365 0.04612652 -0.03828105 -0.08658409 -0.084764995 -0.06735358 -0.06270062
0.023801543 0.028092837 -0.070777915 -0.046130735 -0.012599829 0.015025645 -0.018945968 0.03705976
0.013003992 -0.09471365 0.022742368 0.0033473722 -0.04197996 -0.03132711 -0.09930771 0.04771851
-0.07689791 -0.054747395 0.060106836 -0.103323646 0.005777107 0.0070323367 0.02685196 0.0011419714
-0.030012686 -0.07169136 -0.09763942 -0.085034505 -0.065524444 -0.0012406202 0.0028384204 -0.036248863
-0.0742495 0.018100962 0.008719781 -0.10614706 -0.11295655 0.04786631 -0.023959562 -0.065335415
0.006828474 -0.08507265 -0.061984766 -0.079970844 0.03406484 0.022396578 -0.0074892733 -0.0095124245
0.00575665 -0.034715414 -0.013779617 -0.10445385 -0.06115518 -0.17803095 -0.019869491 -0.011183071
-0.04893081 -0.09988475 -0.03685014 -0.040827665 -0.10553439 0.058890283 0.0065919366 -0.039276794
0.020036811 0.040388335 0.011892843 -0.08419252 -0.01804123 0.033910815 -0.021770863 -0.020693218
0.013163106 0.03671384 0.009198811 -0.017418118 -0.017013922 -0.042276092 -0.04896892 -0.048655625

linearSequential.2.bias f4 [64]
00000000: d262 0f3e 6c8e 483c 2678 153e c829 21bd
00000010: b023 35be d60f 22be 188e ba3c 061a 7c3e
00000020: cce8 173e 93cb c7bd 788d 8f3c 3347 c9bb
00000030: efe7 27bd af1a 5abc a410 853c 1fc7 833e
00000040: 0436 8ebd 8014 77bd 4774 bfbd e084 dd3d
00000050: d9fb a2bd 4d74 b33c 336c d0ba dab6 513e
00000060: d226 5d3e 0122 f6bc 1466 08bd a01a 433e
00000070: 778b ac3c 7a06 0a3c aeb5 bcbd 9eca 883d
00000080: 2286 f8bd 2980 943e 3bfd 583e 5849 103c
00000090: fcac 3b3e a755 46bd c316 1bbc 3b24 4abc
000000a0: 4edd 253e fb5d 2e3e 98fe a03e 1729 d3bd
000000b0: 27eb db3d b6f5 383e a411 f23c aee9 7d3d
000000c0: 4786 27bd 2f36 31bd 1f6a 6cbd 0d29 a93e
000000d0: 421d 96bd 23df 6e3e 8210 ff3d d7f3 313e
000000e0: 271f 013d f7dc 383e 3043 1d3e 5cb0 583d
000000f0: ac18 503d 7aed 2fbd f070 ccbc 982b 6a3e
0.1400254 0.012240987 0.14596614 -0.039346486 -0.17689395 -0.15826353 0.022772834 0.24619302
0.14834899 -0.097556256 0.017523512 -0.006142521 -0.040992673 -0.013312026 0.016243286 0.25737855
-0.069438964 -0.060322285 -0.0934835 0.108163595 -0.079581924 0.021906042 -0.0015901387 0.20479909
0.2159684 -0.030045511 -0.033300474 0.19053125 0.021062596 0.008424396 -0.0921434 0.06679271
-0.12134959 0.29004028 0.2119035 0.008806549 0.18327707 -0.04842153 -0.009465876 -0.01233774
0.16197702 0.17028038 0.3144424 -0.10310572 0.10738211 0.18062481 0.029549427 0.061990432
-0.04089954 -0.043264564 -0.057718392 0.33039132 -0.07329799 0.23327307 0.124543205 0.17378174
0.03152385 0.18053041 0.15357661 0.052902564 0.05080478 -0.042951085 -0.024956197 0.22868192

linearSequential.4.weight f4 [32, 64]
00000000: f72c cfbd 4d31 bc3c 13ed a7bd 7478 fcbd
00000010: 9188 b4bd 1acd 903e 501f 86bd aee6 c2bd
00000020: 0702 ac3d 3142 e63d 0a30 b5bd 72fc 493a
00000030: b8f0 b7bb 21a9 003e e903 3b3d 722d e63c
00000040: 9aac 0a3d f85a be3c e06e 853d 6643 65bd
00000050: c57f 2cbe 7e5a efbd baa0 1f3d a2f8 06be
00000060: 5d01 943d c873 473d 56ab 583d f940 d73b
00000070: 417f a0bc 1bb6 533d 490e 5c3d d9e4 9bbc
00000080: 5fb2 12bd 884a 59bc 2f9b b6bd 74f2 993d
00000090: 5be2 533d a4d4 2ebd bbba 14be 6d51 3b3d
000000a0: 2c8c db3c 60ae a83d aef0 173d ee4d d3bd
000000b0: b755 0fbe 82bf 7c3d f71e bebd ae16 72bd
000000c0: 5a91 1ebd c00f c13c e5df 15be 3b93 063b
000000d0: e145 9bbd bb4f efbd d2b9 383c ebba e6bd
000000e0: d34a e6bd b81b edbd 97e5 2c3c e5e3 3d3d
000000f0: 8fb4 bcbc b3b3 1e3d 2f65 dfbd 387c 06be
00000100: d171 d9bd 8628 89bc 342c 1cbd db3d 19be
00000110: c07d 62bd 1eed 673e 98ab e8bd 3e2f 3e3d
00000120: 9339 13be b5ed 08bd 9b28 423d 0f8d 933b
00000130: fd5c 1abe 9006 a73d 86d7 d3bd 0565 17bd
00000140: 7c7b 6a3d e585 243d 3a94 5b3b 7f25 10be
00000150: e5d0 3dbd 2e36 05bd cdf7 883d 55fb 6bbd
00000160: c52e a4bd d908 aa3d 2614 be3d 1adb c4ba
00000170: 1f24 24be e8a9 17bd 7458 77bb d810 a6bd
00000180: eb2f 4d3c 0b88 cabd fdae 1cbe 35c6 0cbe
00000190: a6b3 30be 16b0 4dbe e74c af3d 40a1 a43c
000001a0: 42be 8cbd 71ae ed3c 5b8a babd c044 88bc
000001b0: 943e 1f3d ba5a 263d fbb7 203d 6b95 11bd
000001c0: 089f 05bd 9cb3 183d 2b22 a23d b043 2fbe
000001d0: 89d1 03be d43d 873c 85b0 bfbd f83d 85bd
000001e0: abdd 44bd f95d 8e3c 75b3 2abd 6ab1 0dbd
000001f0: b149 b8bd 99cd 84bd 5537 d8bc bdf7 38bd
00000200: 3945 1c3d 1ca8 973c 7bbc 1f3c 34a5 a3bd
00000210: f450 0e3f 8e52 b43e 1263 393d 2d9f 9e3d
00000220: 92c8 df3d 46b7 193d 0c57 4c3e 9af9 aebd
00000230: f12c babc f207 623d 442a 013d fb9b 4a3e
00000240: 9f12 843d 2f42 c6ba 52d2 b83c 6b6c 033d
00000250: b9c0 17bb e371 a73d a97e 073c f90a db3c
00000260: cba3 f63d 206d 0c3b 58fb 2a3d 8298 f9ba
00000270: 5570 bcbd 98b9 aa3d 35ad ce3d 646a e23e
00000280: b7fe 703a 9a47 ffbd 62f8 dd3d 78b8 223e
00000290: f9e5 7e3e f9ff ca3d 9f57 f8bc 9def 743c
000002a0: e789 bcbc 1d79 533e 324a cdbd 4c06 b43d
000002b0: 6f00 483d 7783 d73d a046 cebb 831b a73e
000002c0: ce8c 95bd b245 3cbd 4a0d 503d baed bf3c
000002d0: 92a5 92bd c0c6 b53d b268 803d b370 ab3e
000002e0: fd58 e0bc 4f08 1d3d c2b1 023e 9617 2c3e
000002f0: 7919 0ebd 59c5 6fbd f0b3 4a3f fb02 e0be
00000300: 1c08 5bbe 6a7e f13c dcb3 033b 92fe 143e
00000310: 7f7f 813e 67c4 b5be 3dce 39bd 1b58 3dbe
00000320: 77ab 08be 7c26 3abd 2709 7b3d 75de b2bc
00000330: d4c3 31bd f370 54bd e00d bc3e a1f9 36be
00000340: 8abc 11bd bf04 a83d 14af b13d 58b9 80bd
00000350: 9ade 26bd b2d4 7fb9 6194 01bd ccca e2bd
00000360: 6a9f 20be 1e92 f2bc 1310 c93c 84e9 4b3d
00000370: 16b5 a1bd fc74 99bd 91cf 6e3d 3628 bbbd
00000380: e196 9f3d eaaa 3abe 2a2e aabd f318 4cbe
00000390: 4e8e 20be bbf1 e63d 6958 733d 68bb aebd
000003a0: e628 803d 71c8 2abe 0b85 2bbe a979 cbbb
000003b0: 4386 7abe e190 6dbe b45f 68bd 1c0d fbbd
000003c0: 4251 10bd e423 93bd e2d0 9c3d f993 043e
000003d0: 53c1 9fbd 87e8 47be b550 673e 91ac 0cbd
000003e0: d9ec 723d 9e7e 803d 0cde b1bc ea69 16be
000003f0: 879d 49bd 7a34 68bc 0330 833e 1d42 093e
-0.10115998 0.022972727 -0.08199515 -0.12327662 -0.088151105 0.2828148 -0.06548941 -0.09516655
0.08398824 0.11243094 -0.08847053 0.0007705159 -0.0056134127 0.12564518 0.045658026 0.028097842
0.033856012 0.023236737 0.06515288 -0.05597248 -0.16845615 -0.11687182 0.03897164 -0.13180783
0.072268225 0.048694402 0.052897774 0.0065690246 -0.01959193 0.05168734 0.05372456 -0.019030022
-0.03581464 -0.013262399 -0.08916318 0.075169474 0.05172954 -0.04268326 -0.14524357 0.04573195
0.026800238 0.082363844 0.037094764 -0.10317598 -0.13997541 0.061706074 -0.0928325 -0.05910366
-0.038712837 0.02356708 -0.1463619 0.0020534534 -0.07581688 -0.11685129 0.011274772 -0.112661205
-0.1124474 -0.115775526 0.010552785 0.046359915 -0.023035316 0.038745593 -0.10907971 -0.13133323
-0.10617412 -0.016742956 -0.038128093 -0.14965002 -0.055295706 0.22649047 -0.11360854 0.046431772
-0.14377432 -0.03342982 0.047402006 0.0045028995 -0.15074535 0.081555486 -0.10343842 -0.036961574
0.05724667 0.040166754 0.0033505098 -0.14076804 -0.046341795 -0.032522373 0.06687889 -0.057612736
-0.08016733 0.08302469 0.09281187 -0.0015018911 -0.16029404 -0.03702727 -0.003774193 -0.081086814
0.012523632 -0.098892294 -0.15301128 -0.13747485 -0.1725603 -0.20086703 0.0855959 0.020096421
-0.06872226 0.029013844 -0.091084205 -0.016634345 0.03887804 0.040613867 0.039237957 -0.035542887
-0.032622367 0.037280664 0.07916673 -0.17115664 -0.128729 0.016508974 -0.0935984 -0.0650596
-0.04806296 0.017378794 -0.04167505 -0.034593023 -0.089984305 -0.06484527 -0.026393572 -0.045158137
0.038151953 0.018512778 0.009749527 -0.07990494 0.55592275 0.35219234 0.045260496 0.07745204
0.109269276 0.0375283 0.19955081 -0.085437015 -0.022726508 0.05518336 0.03153445 0.19786064
0.06448864 -0.0015125925 0.022561226 0.032085817 -0.0023155643 0.08176019 0.008269944 0.02673863
0.1204296 0.0021427348 0.041743606 -0.0019042643 -0.09201113 0.083361804 0.1009163 0.44221795
0.0009193229 -0.12464829 0.10838391 0.15890682 0.24892415 0.09912104 -0.030315218 0.014949706
-0.023014976 0.2065167 -0.10023917 0.087902635 0.04882854 0.10523122 -0.0062950402 0.32638177
-0.07302247 -0.045964904 0.050793923 0.023428787 -0.07160486 0.08875799 0.06269969 0.3348442
-0.027386183 0.038338 0.12763122 0.16805872 -0.03469226 -0.058537815 0.7918081 -0.43752274
-0.21389812 0.029479224 0.0020096218 0.14550236 0.25292584 -0.35501406 -0.0453627 -0.18490641
-0.13346659 -0.045446858 0.061288025 -0.021834591 -0.043399647 -0.05186553 0.36729336 -0.17868663
-0.035580195 0.0820403 0.086759716 -0.062853515 -0.040739633 -0.0002439793 -0.031635646 -0.11073837
-0.15685812 -0.02961069 0.024543798 0.049783245 -0.078958675 -0.07493016 0.05830342 -0.09138529
0.0779245 -0.18229261 -0.08309586 -0.19931392 -0.15679285 0.11276575 0.059410486 -0.08531839
0.06257801 -0.16678025 -0.1674997 -0.0062095714 -0.2446528 -0.23199798 -0.056731895 -0.1225836
-0.035233743 -0.0718458 0.07657029 0.12947072 -0.078005455 -0.19522296 0.22589381 -0.03434426
0.059307907 0.0627415 -0.021712326 -0.1468884 -0.049222495 -0.014172668 0.25622568 0.13404126

linearSequential.4.bias f4 [32]
00000000: cbff aabd fb90 0cbd 2bb8 103e 7a89 363e
00000010: 97a1 833e abff 8b3d 7186 d8bd d0fc 933d
00000020: 88bd 4e3e e1f4 073e 025f c4bd bee9 623e
00000030: 066c 1ebe 4917 47be 45b7 983e add9 86bd
00000040: ca01 0a3f e145 4e3e c03a 04be 7366 ff3d
00000050: 270f 20bd d68d 943e 1ac7 0bbd c08f cdbc
00000060: 7163 03bd b8bc 8e3e 3db0 8f3e 4ced 963d
00000070: 68bc ebbd 92d3 27bd 03bb b9bd 3dc3 5c3d
-0.0834957 -0.03431795 0.14132755 0.1782588 0.2570922 0.06835874 -0.10572518 0.072259545
0.20189488 0.13277008 -0.09588434 0.22159478 -0.15470895 -0.19442476 0.29827324 -0.06584487
0.5390898 0.20143844 -0.12913036 0.124707125 -0.03907695 0.29014462 -0.034125425 -0.02509296
-0.032077257 0.27878356 0.28064147 0.073694795 -0.11510545 -0.040973254 -0.09068873 0.05389713

linearSequential.6.weight f4 [16, 32]
00000000: 095a 1ebe ecc9 98bd eb09 6b3e 0fc9 83be
00000010: 8a30 b4bd 4195 84bd 1f75 033e 6476 e1bb
00000020: c8d8 d9bd b0be d73d 94fa 0fbe 3899 28bd
00000030: 3018 a7bd d4c1 debc b1a6 07bf 9d63 a2bd
00000040: e342 9ebe 3351 e3bd ff7c 9fbd 1eca 553c
00000050: 2a49 e8bd 8199 9b3d 5a39 c83d 4225 93bd
00000060: 5399 98bd 5e60 af3c dd6e 24bd db90 46bd
00000070: 354b 543c 3a03 fcbd 3f67 e83d 057c 98bd
00000080: 78e2 9fbd ce63 6dbd 8135 7d3e 9d3d 37be
00000090: 4d6c c33d 97db a7bd 65bd 9cbe 08fd 21bf
000000a0: 4e8a 453e 6735 4abe 6b27 0f3e 067b b2bd
000000b0: eeba 20bd b858 913c 4320 cebe 8866 5dbc
000000c0: 689a 94be 5e77 753d 4a8c 27be 0248 9f3d
000000d0: 95ff 06bc 4f2a d13d c932 dd3e 91d4 56be
000000e0: 805b 31bf b58d d23d 20e8 6bbd 1e9b 93bd
000000f0: 8ea1 e13d 44e0 05be 5b82 003f a66d b0bd
00000100: 5f3e fa3c ca1d 4e3e 3e5f 0a3e 67a5 a63c
00000110: ff90 b93c 01e3 8cbd ad3c 27be 8d08 a93d
00000120: 31b8 ac3d 988e cf3d 4f27 553e 05b7 a1bd
00000130: 4e73 87be f624 163e 23c1 bfbe fc8a 12bc
00000140: 3b8b bbbd 87b0 00be c1c9 623e 8cd2 f53d
00000150: 5785 c5bd b07a 2dbe ba6d a03e e4af 75bd
00000160: 2094 5e3c b036 3e3c a4de 573b f8ea 99be
00000170: 1eec 81be 429a 2bbe 00c7 eb3d cb97 f03d
00000180: 48dd 93bd 7d99 51bd b325 89be 63be 54be
00000190: abee 873c 22f3 1b3d beba e93d 1752 083c
000001a0: 55b7 d6bc 8b54 23be 50de 5c3c bc54 19be
000001b0: b304 1e3e 9089 7a3d f8d6 7fbe be4a 09be
000001c0: 34c5 023d 9807 78be b078 c4bc d94f b8bd
000001d0: 8f8d 2c3e 7e01 31be 1b08 003e fe73 8cbd
000001e0: c0c4 77be 9599 87be 9334 44be 38be a7bd
000001f0: 25e5 8e3e 0c32 333d 2618 6ebe 5650 a3bd
00000200: d149 a43d 8cb3 34bd 6a05 163e 2c1c 8cbe
00000210: 2e01 fc3d 8b12 c43d d28d 2fbd e40b 733c
00000220: 7475 f13d 75ee afbd c112 633d 8f15 7dbd
00000230: b074 af3d c83b 93bd 7950 3dbf 10d1 0e3e
00000240: 7d4d 16bf 4957 f93d a36c bcbd f819 0e3e
00000250: 89f7 2abe af93 973c cab5 773e 5a78 153e
00000260: d04f a6bd a2e2 57be 51e7 143e 4d23 4abe
00000270: a5cf debd c491 c23d 6af5 21bc f1e9 2b3e
00000280: 8cb5 42bd 2ca8 77be 58f8 223e 9ee0 1cbe
00000290: 5d49 f9bd 1df9 233d 1c5e c9bd b70a 0fbe
000002a0: b7b7 a7bd f9aa c83d ecf3 f33d 3898 81bd
000002b0: a947 05be f9f0 123e 9f39 0cbf d341 03bf
000002c0: 71fe b2be 0d6d 023d 782e 1c3e c192 0d3e
000002d0: 5544 2a3e dbab e43d 4861 8c3c 920e cdbd
000002e0: 35dc 87bd 983e 49bd f4e0 21be e303 79be
000002f0: 0457 d6be 70e5 c4bd 98d8 28be 7087 1cbd
00000300: 3f12 5fbd 6421 81bd fc91 7cbd 68dc 40be
00000310: 99f5 963c 6914 d2bd 9d6a 89be be53 82be
00000320: fb01 32be 5633 98be 0600 0abe 9c67 15be
00000330: 7013 38be 0037 fdbb 822c 2a3d 625a efbd
00000340: bf1e 87bd c6a8 5ebe b046 3c3c 57e2 92bd
00000350: 0e3a e5bd f35e cabd bee5 da3d 7958 2dbd
00000360: 4f70 b6bc 016c e33d ed5f e0bb 0304 e9bd
00000370: fddb d03d c122 023e a99d c93d fe64 cabe
00000380: 7671 afbd 74d9 293c d933 3b3c 2a8b 313e
00000390: 77bc a2bd 0cc0 a3bc 35bc 9d3d fc0a e2bd
000003a0: e2da 6dbe 514e e73d ffd7 1d3b 74b7 0cbe
000003b0: 6092 27bd a679 8c3b a6c6 c7be 7904 cb3b
000003c0: 6451 ccbd be90 44bd 62e4 32be 9c26 463e
000003d0: 4e59 2c3e 1374 5ebd 7786 483d 4e7f a43c
000003e0: a8da d33d 8cc3 91be 5ae5 a43d 0ca2 0dbe
000003f0: 0b8d d8bd dd0d acbc 1717 6c3d d762 0dbe
-0.15464033 -0.074603885 0.22953002 -0.25739333 -0.087983206 -0.064737804 0.12837647 -0.0068805683
-0.10637051 0.10534418 -0.14060432 -0.041161746 -0.0815891 -0.027192034 -0.52988726 -0.07929156
-0.30910406 -0.11099472 -0.07787513 0.013048677 -0.1134208 0.07597638 0.09776564 -0.07184841
-0.07451119 0.021408256 -0.04014479 -0.04847799 0.012957384 -0.12305303 0.11347818 -0.0744553
-0.07806867 -0.05795651 0.24727441 -0.17894597 0.09542141 -0.0819618 -0.30613247 -0.6327672
0.1929104 -0.19746934 0.1397988 -0.08714871 -0.03924077 0.0177425 -0.4025899 -0.013513215
-0.29024053 0.05992829 -0.1636211 0.07777406 -0.008239646 0.10213148 0.43202808 -0.20979525
-0.6928024 0.10280935 -0.05759442 -0.07207321 0.11017142 -0.13073832 0.50198907 -0.08614664
0.030547319 0.20128551 0.13512895 0.020342542 0.022652147 -0.06879235 -0.1633174 0.08253584
0.08433569 0.101346195 0.20815776 -0.07896236 -0.26455158 0.14662537 -0.3745204 -0.008944269
-0.091574155 -0.1256734 0.22147276 0.12003049 -0.09644573 -0.16941333 0.31333715 -0.059982195
0.01358512 0.011609718 0.00329391 -0.3006208 -0.25375456 -0.16758063 0.115125656 0.11747702
-0.072199404 -0.05117177 -0.26786575 -0.20775752 0.016593298 0.038073666 0.11412571 0.008320353
-0.026210466 -0.1595022 0.013480738 -0.1497373 0.1543148 0.061166346 -0.24984348 -0.13407418
0.03192635 -0.24221647 -0.02398333 -0.08999605 0.16850875 -0.17285725 0.12503092 -0.06858061
-0.24196148 -0.2648436 -0.1916068 -0.08190578 0.27909198 0.0437489 -0.232514 -0.07974307
0.08021892 -0.04411654 0.14650503 -0.27365243 0.123049125 0.09573849 -0.04285986 0.014834378
0.117899805 -0.08590404 0.055437807 -0.061788138 0.08567178 -0.07189137 -0.73950917 0.13946939
-0.5871199 0.121748514 -0.09200408 0.13877094 -0.1669599 0.018503038 0.24190441 0.14596692
-0.08120692 -0.21082547 0.14541365 -0.19740029 -0.10879449 0.09500459 -0.009885171 0.1678846
-0.047536418 -0.24185246 0.15915048 -0.1532006 -0.12172196 0.040032495 -0.09832403 -0.13968931
-0.08189338 0.097982354 0.11911759 -0.063278615 -0.13015617 0.14349736 -0.5477542 -0.51272315
-0.34959748 0.03184228 0.15252101 0.13825513 0.16627629 0.11165591 0.017136231 -0.10012545
-0.06633798 -0.04913196 -0.15808469 -0.24317889 -0.41863263 -0.09614074 -0.16488874 -0.0382151
-0.05446076 -0.06305197 -0.06166266 -0.18834078 0.018427657 -0.10257799 -0.26839152 -0.25454515
-0.17383568 -0.29726666 -0.13476571 -0.14590305 -0.17976165 -0.007727504 0.041546352 -0.11687161
-0.06597661 -0.2174407 0.011491463 -0.07172077 -0.11192714 -0.098813914 0.10688351 -0.042320702
-0.02227035 0.111045845 -0.0068473727 -0.11377718 0.101982094 0.1270857 0.098445244 -0.39530176
-0.08566563 0.010366786 0.011425936 0.17338243 -0.07946103 -0.019989036 0.07701913 -0.11037251
-0.23228028 0.112942345 0.0024085043 -0.13741857 -0.04091108 0.0042869626 -0.39018744 0.0061956015
-0.099764615 -0.0479896 -0.17469934 0.19350666 0.16830942 -0.054309916 0.04895636 0.020080235
0.1034444 -0.28469503 0.08051558 -0.13831347 -0.10573777 -0.021002704 0.057639208 -0.13807236

linearSequential.6.bias f4 [16]
00000000: 28f2 be3e bf15 183e 5723 253e 2cfe 4abe
00000010: edbb c53e 095b c03e 6f4f 90bd b2e2 643e
00000020: 2025 0ebe 52d3 ac3e 8973 1a3e 868e 883e
00000030: cfb4 923e be2d bd3e 1952 1a3e 5aff 33be
0.37294126 0.14852045 0.16126762 -0.19823521 0.38619938 0.37569454 -0.07046401 0.22352102
-0.1388135 0.33754975 0.15083136 0.26671237 0.2865357 0.3694896 0.1507038 -0.17577878

linearSequential.9.weight f4 [2, 16]
00000000: 8efd 17bd 85eb d8bc 0e05 5a3d 2ecb 03be
00000010: ab02 3bbd dcca 6bba 943c 8fbc f896 d53d
00000020: 3e20 30be af19 13bd 8048 733d 6ba6 b33d
00000030: 8141 973c ed94 0abd f110 a03d 09d9 2cbe
00000040: 32f9 3a3e cdc4 1a3e 4a58 363e 4803 0f3d
00000050: 2b64 0a3e 12d4 183e fd88 c63d 2d4d dc3d
00000060: 2ca9 eabd 1653 2f3e 0966 2c3e d0e6 ff3d
00000070: 0b9d f23d 72a1 003e d970 0a3e d87b 37bd
-0.037107043 -0.026479492 0.053227477 -0.12870476 -0.04565684 -0.0008994767 -0.01748494 0.10429186
-0.171998 -0.035913166 0.059395313 0.08771976 0.018463852 -0.033833433 0.07815731 -0.16879667
0.18259123 0.15114136 0.17807117 0.03491524 0.13514774 0.14924648 0.09694097 0.107569076
-0.11458048 0.17121539 0.16835798 0.12495196 0.1184636 0.12561586 0.1351961 -0.04479584

linearSequential.9.bias f4 [2]
00000000: ce07 8a3e ff28 4240
0.2695908 3.0337522
