src/nets/state_dicts/nnwf01.pt (torch, 53651 bytes, 10 tensors)

linearSequential.0.weight f4 [128, 11]
00000000: 4c5a 383d d1e4 ae3e ae88 7f3c f1c4 183e
00000010: 7e98 dabd 6fd0 a2be 8322 16bf d28c 81be
00000020: 01eb e83d 9bff bdbd b6c2 2fbe 5d05 23bf
00000030: b71c 4ebe eb20 b7be 2bbc 8b3e 306d b1bd
00000040: 9e4c 94bd bc59 713e 69d7 00bf 4085 1d3e
00000050: 5264 f13d 3b0c 123e b4b2 d13e c0be da3e
00000060: f214 44be 83a5 fd3c 268a ad3e 6c6b 3bbe
00000070: 27d2 cc3e 55b5 11be 7244 abbe 9ef3 93be
00000080: 3ca4 833e ab4f 84be 54de 99bd 0002 243e
00000090: 195e d03e ba58 2b3f 40a4 b83d a531 05bd
000000a0: 1c55 63be 8430 c7be 6687 d5be cf81 a13d
000000b0: ad2f 553e 5876 103f 9e2c 00be 60b6 c7be
000000c0: 42f3 433c fc23 8c3e de3d e13e c9ee fd3d
000000d0: 8674 92be 0277 28bf 83f0 c53d 37ba 86be
000000e0: 0bb9 393d a353 4e3e 7f82 8d3b 39b1 813e
000000f0: 1057 fabd eb94 5e3e 1b1a bdbe 861d 72bd
00000100: a674 6cbf d046 2abd 2a98 d3be 5014 053f
00000110: 9e8e 0cbd 0e85 643d 726e 9e3e 3185 d8be
00000120: c720 02bf 3b19 38bf 3d84 4abd f783 efbd
00000130: 2b8e 7f3e 3a14 5d3b 19b3 133e 0f98 04bd
00000140: 4c68 b33c 3117 12be f4a3 21bd b354 843c
00000150: b20f 4b3d 45f3 78bd 4ae3 50be b803 30be
00000160: 6f81 37bd 44fd 7cbf 2f25 0fbe 05ac 943e
00000170: ff82 aa3e 6c14 4ebe d45b 60be 882c 2d3f
00000180: c27a 823e 519d 943d ef91 b63c dde3 e93d
00000190: c4d3 2a3e 55e5 6c3e dd6f cbbf d36a a8be
000001a0: 7b2d 8fbe 66cd 6c3e 80df 8c3e ac02 c4be
000001b0: aa8d 79bf 11c1 013f 1964 013f ce05 b8bd
000001c0: 8b42 84be 6353 463e e201 523e 5447 823e
000001d0: f413 a9be 6c83 34be ddae ff3d 1870 433e
000001e0: a03e 73be 00b6 acbe d817 b93d ebfb 533e
000001f0: fd58 2a3e ba2c 12bc 298a a83e f46e 0fbf
00000200: d1d8 3fbe 6c13 b8bd 62ea f43e db35 3e3e
00000210: 4285 c2be 5e7b aabe ec64 6ebe fe14 2abf
00000220: f8b7 d8be 7f32 f83e b4b2 95bd 81e6 063e
00000230: 01d5 a33e 9a5d ab3e feb4 26bf f06d 55be
00000240: 2c59 8abe da03 823e e080 183e 989e 9e3e
00000250: 2be2 883c c209 e63d 3c11 82bd 3652 23be
00000260: 680c 6fbe 566e 87be 0c60 8c3f ec94 0dbf
00000270: 9169 54be 9ca2 efbe 91b2 b1be 6219 4abf
00000280: 8e68 6a3f 2d93 2d3e 4516 b1be 8a2f 1f3f
00000290: f313 b2be b726 3bbe 9f79 873e ae32 81be
000002a0: ff63 90bc 0bd5 153d de6a 943e 3218 0a3e
000002b0: 9f12 aebe 15d8 30be 28a0 6bbf b12c 723e
000002c0: 4e15 d13e 53ae 2d3f d064 1abd 1fff 993c
000002d0: 0127 383e 9248 e93e 9272 f4be ea2a bc3d
000002e0: 8253 0b3f 276a 6d3a fa9f 943e c79a 69be
000002f0: 185c fbbe d09c 1f3e 7281 293e 7a93 ed3e
00000300: fd10 e23b e1c1 d03d 1bfb 073f ae89 e4be
00000310: c23c bc3e b70a 7e3e 7a03 09bd 887b 9cbd
00000320: af02 033d 701d d2be 3bba 913e f698 0d3e
00000330: 7b69 023e afd0 d5bd 28d6 71bd 889e a6be
00000340: 3599 a8be 3b1b 1dbe a7ca adbe 558a 303e
00000350: be3f 0b3f fa4a 183f 0678 b63e 5ae1 e1be
00000360: d7a3 183e 27f3 453e 2dfa bdbf 933c f2bc
00000370: 500b 4ebe 35db e93e 2de0 1d3d 36e4 8e3e
00000380: 7a8b cfbd dd26 a7bd ec29 f83d 0083 053e
00000390: ac68 4d3e 2a4a 16be 1522 13be 167d f5be
000003a0: bbbb 57bd 4933 aebe 2b0c 58be 7d77 30be
000003b0: 84ee 5bbe 2264 ae3c 01c5 503e 14c7 cfbd
000003c0: 033c ea3e 00cc 43be 15e1 d3be 73f9 bf3d
000003d0: f271 b33c c134 79bb 5d14 ce3e 4415 68be
000003e0: 9fe8 ecbd b750 103f 6716 4a3e 3a76 36bf
000003f0: 7ea7 c03c 99e3 ebbe 9054 9c3e 2355 923e
0.04500799 0.34158948 0.015596552 0.14918877 -0.10673617 -0.31799647 -0.5864641 -0.2530275
0.113729484 -0.092772685 -0.1716412 -0.6368006 -0.20128141 -0.35767302 0.27291998 -0.08663404
-0.07241176 0.23569387 -0.5032869 0.15382862 0.11786713 0.14262478 0.40956652 0.42723656
-0.19148615 0.030962711 0.3389446 -0.18302697 0.40004084 -0.14229329 -0.33450657 -0.28896803
0.25711238 -0.25842032 -0.07513109 0.16016388 0.4069679 0.6693226 0.09015703 -0.032518048
-0.22200435 -0.38904202 -0.41704863 0.07886087 0.20818968 0.5643058 -0.1251702 -0.3900633
0.011959853 0.27371204 0.43992513 0.1239906 -0.28604525 -0.6580659 0.096650146 -0.26313946
0.045342486 0.20149092 0.004318535 0.25330523 -0.12223637 0.21736495 -0.3693398 -0.059110187
-0.9236549 -0.04157144 -0.4132703 0.5198412 -0.034315698 0.055790953 0.30943638 -0.42289117
-0.50831264 -0.719135 -0.04944252 -0.11695092 0.24956577 0.003373398 0.14423789 -0.032371577
0.021900319 -0.1426666 -0.039463 0.016153669 0.049575515 -0.060778875 -0.20399204 -0.17188919
-0.044801172 -0.9882395 -0.13979028 0.2903749 0.33303067 -0.20124978 -0.2191003 0.67646074
0.25484282 0.07256568 0.022286383 0.114204146 0.16682345 0.23134358 -1.5893513 -0.32894
-0.27964386 0.23125228 0.27514267 -0.38283288 -0.9748179 0.5068522 0.5054336 -0.08985482
-0.25832018 0.19367747 0.2050853 0.25445044 -0.33023036 -0.17628258 0.124845244 0.19085729
-0.23754358 -0.33732605 0.09037751 0.20701568 0.16635509 -0.008921796 0.32917908 -0.56028676
-0.18735053 -0.089880794 0.4783507 0.18575232 -0.37992293 -0.33297247 -0.23280686 -0.6643828
-0.42327857 0.48476025 -0.073094755 0.13173868 0.31998447 0.3346985 -0.6511992 -0.20842719
-0.27021158 0.25393564 0.14892912 0.30980372 0.016709408 0.1123233 -0.063509434 -0.1594933
-0.23344576 -0.26451367 1.0966811 -0.5530536 -0.20743395 -0.4680375 -0.34706548 -0.7894498
0.9156579 0.16950674 -0.34587303 0.62181914 -0.34780845 -0.18276487 0.26459977 -0.25233978
-0.017625807 0.036580127 0.28987783 0.13485792 -0.33998582 -0.17269929 -0.92041254 0.23649861
0.40836567 0.6784412 -0.0376938 0.018798409 0.17983629 0.4556318 -0.4774366 0.09187873
0.544243 0.00090566505 0.29028302 -0.22812949 -0.490937 0.15587163 0.16553286 0.46401578
0.006898998 0.101932295 0.5311753 -0.4463629 0.36765105 0.24808775 -0.03345058 -0.07640749
0.03198498 -0.41038084 0.28462395 0.13827881 0.1273555 -0.10440194 -0.059042126 -0.32542825
-0.32929388 -0.15342419 -0.33943674 0.1724027 0.5439414 0.59489405 0.35638446 -0.44117242
0.1490625 0.19331037 -1.4841973 -0.0295699 -0.20121503 0.45675054 0.03854387 0.27908486
-0.10134025 -0.081617095 0.12117371 0.13038254 0.2005946 -0.14676729 -0.1436847 -0.47946995
-0.052669268 -0.34023502 -0.21098392 -0.17233081 -0.21477705 0.021287981 0.20387651 -0.10145393
0.4574891 -0.19120789 -0.4138266 0.093737505 0.02190492 -0.0038025829 0.4024991 -0.22664362
-0.115678065 0.5637316 0.19735108 -0.7127415 0.023517366 -0.4607208 0.30533266 0.2858058

linearSequential.0.bias f4 [128]
00000000: b83d f6bd c5cb 3fbf d9a7 24bf 9232 2dbf
00000010: 6929 0bbf cf0e 903c 7c30 4fbf 5e90 08be
00000020: a8ea 3ebe 0a83 34bf 0dd3 1cbf 73e1 9ebf
00000030: 2642 6bbf 6189 44be 91a4 4abe 8cfc 1cbf
00000040: 6c7b 9fbf ddac 4dbf 0744 173e e177 5dbf
00000050: b90b 7e3d da5f 9dbf f2b7 ecbe d95a 9cbe
00000060: 4a09 6dbf bc4d b4be 1e59 5abd fc2d febd
00000070: 6ff3 693d af4d 51bf c2e2 66be 59fb f3be
00000080: 17e5 babe b68f f4be e682 31bf d617 ffbe
00000090: 13b0 2cbf 86d0 8d3c 5429 80be 60db 8bbf
000000a0: 2e8b f9be 6e0e 4abf f9b9 c5be 052e 4a3e
000000b0: 1bb4 6ebf 55bf 87be db09 78bf 985a 91bf
000000c0: 7afb f7be 123b 88bf 74fe 96be 8ed4 1bbe
000000d0: e427 16bf 9bff bdbd f608 a3bf 23da 7cbf
000000e0: e976 c7be dacc 99bf 46ea 73bf 5786 9bbf
000000f0: 2a0f 15bf e92c 60be a880 15bf 76a6 1fbf
00000100: 0f44 53bf ada0 3ebf e969 abbe 7d83 08bf
00000110: f8ab 3dbf f547 10bf ef70 d13c 6289 7dbe
00000120: 1030 d0be 02d1 11bf 0c0b 7ebf 9d10 9fbe
00000130: b876 43bf 5298 89be 62ce 18bf e6f0 3dbe
00000140: fe39 9cbe 6416 97bd 08d1 53be f0cc 0dbf
00000150: 3faf 0dbf f05d 1bbf 7f39 77bf 6742 94bd
00000160: 4564 0cbf 3310 62be 0f19 90bf 3eb6 09bf
00000170: 230f 873c a7f9 00c0 3170 c3bd 0259 cb3c
00000180: 2937 6cbf d8c1 53bf 48b9 e5be d82a 86be
00000190: 5a71 98be fac4 0cbe 5e31 fbbe 9395 4bbf
000001a0: 05ac d93e b2db 45bf 8339 56be bd1b d2be
000001b0: c071 04be 3b62 b93d b24d 52bd 60cf 32bf
000001c0: 0859 6fbf d65a 10be a082 eebe 349f 1abf
000001d0: 3e7f 71bf cb04 18bf 78b8 58bf 1ece 04bf
000001e0: d542 68be b770 55be a062 e3be f72f aabe
000001f0: ecb9 3abf 9095 58bd 0f98 66bc fac6 ecbe
-0.12023491 -0.749203 -0.64318615 -0.6765529 -0.5436006 0.017585186 -0.80933356 -0.13336322
-0.18644202 -0.7051245 -0.6125954 -1.2412552 -0.9189781 -0.19193031 -0.1978934 -0.61322856
-1.245954 -0.80341893 0.14772044 -0.86511046 0.0620229 -1.2294877 -0.4623409 -0.3053806
-0.925923 -0.35215557 -0.053307645 -0.124111146 0.057116922 -0.8175916 -0.22547439 -0.476527
-0.36502907 -0.47765893 -0.6934036 -0.49822873 -0.6745617 0.017311346 -0.2503153 -1.0926323
-0.48738998 -0.7892827 -0.38618448 0.19744118 -0.9324357 -0.26513162 -0.9689004 -1.1355772
-0.4843405 -1.0643027 -0.29491007 -0.15217802 -0.5865462 -0.092772685 -1.273711 -0.9877035
-0.3895791 -1.2015641 -0.9527935 -1.2150372 -0.58226264 -0.21892132 -0.5839944 -0.62363374
-0.82525724 -0.7446392 -0.3347924 -0.53325635 -0.7409053 -0.563598 0.025566546 -0.24759439
-0.4066167 -0.56959546 -0.99235606 -0.31067362 -0.76353025 -0.26874024 -0.59689915 -0.18548927
-0.30512995 -0.073773175 -0.20685208 -0.55390835 -0.5534553 -0.6069021 -0.9657211 -0.07239228
-0.548405 -0.22076492 -1.1257647 -0.53793705 0.01648671 -2.0152376 -0.09542883 0.024822716
-0.9227167 -0.8271766 -0.4486792 -0.26204562 -0.2977398 -0.13747016 -0.49061102 -0.7952511
0.42514053 -0.77288353 -0.20920376 -0.41036788 -0.12934017 0.09051939 -0.051343627 -0.6984768
-0.93495226 -0.14097151 -0.46584034 -0.60399175 -0.9433478 -0.59382313 -0.84656477 -0.5187701
-0.22681744 -0.20843779 -0.44411182 -0.3323972 -0.72939944 -0.05287701 -0.0140743395 -0.46245557

linearSequential.2.weight f4 [64, 128]
00000000: 737e e9be 243f 173e 6ae8 90bd af6e d83c
00000010: 9d67 08be 3efa bc3e d73f ddbd 3203 6cbd
00000020: b7ff 9fbf 5e4d 743f c478 44be 89c3 0abe
00000030: 3fe0 a2bf 8dbe bf3e ef2b 8e3e 3236 323e
00000040: 1ce3 8cbf 4bac 08bf 6ab8 7f3e 623c a2be
00000050: a118 83be 4bbc e43e 7d4e 8abf 516d d8be
00000060: 1fef e3be 7f15 85be 6d62 593e df93 a3bd
00000070: c06a 0f3f a55b 7bbe e110 2a3e 3583 ecbe
00000080: 9705 f0be 00a7 26bf a4f5 18be a2d9 653c
00000090: b838 8cbf 5ff2 36be ee63 39bd 70de 73be
000000a0: 7bf1 883e 87a8 23be 0181 19bf 13aa cdbf
000000b0: cd7a e3be a3f6 a2be 2d6d 6ebf a338 39be
000000c0: 0dfc 0bbf a856 33bf ed73 fd3d 5531 12be
000000d0: b9ca 78bc 6378 b6bd addc 3bbd 06db 0dbf
000000e0: 3b7d a93d c230 44bf d617 22bf 36bf 633f
000000f0: 1d7f 17bf 230b 93be fbdd 5ebc f1eb ed3e
00000100: 7506 efbe 392e d83a 19db b33c dfc6 20bf
00000110: def9 3cbf 2261 91be 68ec 683d ca09 26bf
00000120: 81f1 1dbf db82 8fbd 7c4c acbe 2323 d3be
00000130: cc1d 013e 723f 89bf 0587 5dbe 72ce 59bd
00000140: 3416 143d d2f3 0f3e 10a8 283e df1b 113f
00000150: a1a6 873e 919a adbf 316e 7dbf 9a31 9ebd
00000160: a6a6 ac3e 4cce 14bf 6d69 55bf 5c17 9ebd
00000170: 9ddc c2bd 7655 09bf 4c77 4ebe 394e 003e
00000180: 0c22 3cbf c51b 27bf 17ac 043e 7b37 05bf
00000190: 27ad 83bf 26c4 6e3e bc94 363d eff3 963e
000001a0: a82b d3bd 8edb a1be b2fc bfbb 1f17 debd
000001b0: ff68 8abe c4c7 cb3e ab90 ec3e 48c2 d93e
000001c0: a4d2 26bf 3380 7dbe 1489 f3be ec99 953e
000001d0: d4a1 86bf a066 563e 1fd7 3fbe 97c5 e6bc
000001e0: 6573 b7be b7c4 0dbf 5668 c53e f8d4 90be
000001f0: d941 11bf 7d62 9dbe 9dee b9be 7f2c 9bbe
00000200: abde 3ebe a65a 78bc 0f5a 153c b7e7 863c
00000210: dd0b 063d 7220 fa3d 5784 b7bd c094 3dbe
00000220: 4245 20be 974e 48be 67fc 2fbd ac3d 67be
00000230: 4a9c 5ebd f020 acbd 5ef6 69be 4539 46bc
00000240: 6d60 17bd 5470 823d 301c c3bd 3aaf d8bd
00000250: 437d 8fbe b516 f0bc 000a c4bd c662 78be
00000260: 34d4 bdbd 1c7e 1ebc cc55 ecbc 415e b9bc
00000270: f090 f5bc f101 0abb 62ce 343d 7b9a dabd
00000280: 8209 f8bd 76ef fbbc 5553 0dbe e42e 38bd
00000290: f012 8cbe 0f87 263c f5cc 82be 6ab2 bf3d
000002a0: dea1 6d3c 5819 e2bd dc1e 1cbe e176 93bd
000002b0: 2e5f cfbd 8d2c 68bd ae49 55be e650 96bd
000002c0: 81ac 1ebe bc24 16be e12f 94bd 8d19 d4bd
000002d0: 1b75 1fbd 928c c0bd 1bd1 2fbe afd2 2f3d
000002e0: c4ce a7bd d40a 95bc 5ea7 7ebd e0df 2bbe
000002f0: 81d9 8cbd f1ed 03be 88f8 5fbc 5293 6fbe
00000300: 248c 4bbe 0fa2 29bd 2f23 98bd cc0b 76bd
00000310: e70f 25be f3ad 46be 1f7e 9bbe 9e37 d0bd
00000320: ca64 c8bc dff5 01be da72 2abd b51e d1bd
00000330: 3874 d93c af6e 47be 3c0c 8d3a 8efb 53be
00000340: c615 97bd dde4 65be 4f18 3bbd 3a5d b8bd
00000350: 6fee 0f3d 15fd 86be 3cca bfbd 1f53 50be
00000360: 8088 b63d 7d2d 25bd 3315 d0bd ea3e 9bbd
00000370: d3c6 a2bd 2a9f febc 93bc ecbd 2ec4 32be
00000380: fbfb 5fbd 2f7a 8ebd 385d 2fbe 1ffc 19be
00000390: 2871 47bd 964f fcbd 4ba6 8cbe 645d 4b3d
000003a0: 4e2e 46be 7d37 62bd e34e 36be 7a90 cfbd
000003b0: 4fc9 49be 3f04 4cbe eab1 103c 6672 5abe
000003c0: 9d9f 4ebe ac0c 8fbe 0f4c abbd ffe9 0a3d
000003d0: 1a4e 84bd ca37 dbbd 1028 8ebd f31d 07be
000003e0: 662c 93bd 9d05 9fbd ebec bf3b 150f 12be
000003f0: a429 99bd cfe6 e8bd 51fd f7bd d566 efbd
-0.45604286 0.1477018 -0.070755795 0.026419966 -0.13320775 0.3690967 -0.10803192 -0.057620235
-1.2499913 0.9543055 -0.19186693 -0.13551153 -1.2724684 0.37450066 0.27767894 0.17403486
-1.1006808 -0.533879 0.24972692 -0.31686693 -0.25604728 0.44674906 -1.0805203 -0.42270902
-0.44518372 -0.25992963 0.21228953 -0.079871885 0.5602226 -0.24546678 0.16608001 -0.46193853
-0.46879265 -0.6509857 -0.14937454 0.0140289385 -1.0954809 -0.17865895 -0.045261316 -0.23815322
0.26746735 -0.15982257 -0.5996247 -1.6067528 -0.44429627 -0.31828794 -0.9313534 -0.18088011
-0.54681474 -0.700541 0.12375627 -0.14276631 -0.015185052 -0.08909681 -0.04586475 -0.5541233
0.08275839 -0.766369 -0.6331762 0.8896364 -0.59178334 -0.28719434 -0.013602729 0.46469072
-0.46684614 0.0016493268 0.02195506 -0.62803453 -0.7381877 -0.2839442 0.05686608 -0.64858687
-0.6169663 -0.070073806 -0.33652103 -0.41237745 0.12609023 -1.0722487 -0.21633537 -0.053175397
0.036153987 0.14057854 0.16470361 0.5668315 0.26494315 -1.3562795 -0.98996264 -0.077243045
0.33720893 -0.58127284 -0.8336399 -0.07719299 -0.09514735 -0.5364603 -0.20162696 0.1252984
-0.7348945 -0.6527675 0.12956272 -0.5203778 -1.0287217 0.23317012 0.044575438 0.29482982
-0.10311061 -0.3161282 -0.005858981 -0.10844254 -0.2703323 0.39800847 0.46204123 0.42531037
-0.6516516 -0.24755935 -0.4756552 0.29218996 -1.0518136 0.20937586 -0.18734406 -0.02817039
-0.35830227 -0.5537829 0.38556165 -0.28287482 -0.567411 -0.30739203 -0.3631486 -0.30307385
-0.18639629 -0.015158331 0.00911571 0.016467912 0.032726157 0.1221322 -0.08960789 -0.18513775
-0.1565142 -0.1956123 -0.04296532 -0.2258212 -0.054348268 -0.0840472 -0.22847888 -0.012098615
-0.036957193 0.06369081 -0.09526861 -0.10580297 -0.28025255 -0.029307703 -0.0957222 -0.24256429
-0.0926899 -0.0096736215 -0.028849505 -0.022627952 -0.029976338 -0.0021058286 0.044142134 -0.10673996
-0.121111885 -0.030753832 -0.1380132 -0.044966593 -0.27358198 0.010164036 -0.25546995 0.09360202
0.014503924 -0.1103999 -0.15246147 -0.07200409 -0.10125576 -0.056683112 -0.20828888 -0.07339649
-0.15495493 -0.1466245 -0.07235695 -0.10356436 -0.03893004 -0.09401812 -0.17169611 0.042925533
-0.08193734 -0.01819364 -0.062171333 -0.1678462 -0.06877423 -0.12883736 -0.013670094 -0.23396042
-0.19877678 -0.041414317 -0.07428586 -0.060069844 -0.16119348 -0.19402294 -0.3036966 -0.10166858
-0.024462122 -0.12691449 -0.041613437 -0.10210935 0.026544675 -0.19475816 0.0010761092 -0.20701429
-0.073772 -0.22450586 -0.04567748 -0.090021566 0.035139497 -0.2636496 -0.09364745 -0.20344208
0.08912754 -0.040326584 -0.101602934 -0.07580359 -0.07948079 -0.031081755 -0.11559405 -0.17457649
-0.054683667 -0.069568984 -0.17125404 -0.15037583 -0.0486919 -0.12319867 -0.2747062 0.04964961
-0.19353601 -0.0552287 -0.1780353 -0.101349786 -0.197057 -0.19923495 0.0088314805 -0.21332702
-0.20178075 -0.27939355 -0.083641164 0.033914562 -0.06460209 -0.10704 -0.06941235 -0.13195018
-0.07186203 -0.077647425 0.0058571002 -0.14263566 -0.074786454 -0.11372148 -0.12108863 -0.116895355

linearSequential.2.bias f4 [64]
00000000: 4688 873e c1d0 23be 0473 d9bd 0a14 e7bd
00000010: 3587 dc3e 1245 d13e c7b6 63be 1cbe 443e
00000020: d22f a5bd 21cc 1a3c 4853 1b3f 0b81 f93c
00000030: fed7 98bd a81a 47bd 30cb 763e 69f5 5fbd
00000040: b63c dc3d c1ec c2be 27b3 2abd d38b 8bbe
00000050: af5f 72be 1a8e b5bc 6f30 903e 32ed 923e
00000060: e8c0 2c3e 3256 a3bd 9c10 26be eb44 723f
00000070: d3fa 74be c044 a0bd 53bf 6bbd a3e7 45be
00000080: 2b47 32be d36e 313e 7c22 84ba 5529 99bd
00000090: 0b79 67be ad13 59be 79b3 783e aa4d b23e
000000a0: 281f 4c3f 93ac 66be 5f12 16be ce9e 4b3f
000000b0: f492 94bd b9fd 2fbe dc32 123e 8a83 1cbd
000000c0: eb82 b93e 5078 61be 715b 56be 764b 08bd
000000d0: 855e 66bd 7f8a 73be 2cf1 b03e 6872 59bd
000000e0: 7fc7 43be f847 bbbc b4bb f3bc b20f 8f3e
000000f0: 131f e0be a5a0 a5bd 16f4 023e 7f68 143f
0.26471156 -0.15997602 -0.106176406 -0.11283119 0.43071905 0.4087301 -0.22237693 0.19213146
-0.080657616 0.009448082 0.6067395 0.03045704 -0.07463072 -0.048609406 0.24100947 -0.0546774
0.10753767 -0.38071254 -0.04167476 -0.27255115 -0.23669313 -0.022162486 0.28161952 0.2869659
0.16870463 -0.07975425 -0.16217273 0.9463641 -0.23923807 -0.07825613 -0.057555508 -0.19326644
-0.17409961 0.17327432 -0.0010081078 -0.074785866 -0.22604768 -0.21198912 0.24287213 0.34824878
0.7973504 -0.2252677 -0.14655446 0.7953919 -0.072545916 -0.17186631 0.14277214 -0.038211383
0.36232695 -0.22018552 -0.2093332 -0.03327509 -0.056242485 -0.23783301 0.34559 -0.053087622
-0.1911907 -0.022861466 -0.02975259 0.27941662 -0.43773708 -0.08087281 0.12788424 0.5797195

linearSequential.4.weight f4 [32, 64]
00000000: efa6 87bc 22ec 9dbd 5f9c 9c3d 8504 8bbc
00000010: d087 cdbd 4e5b bcbd 3236 89bc c4e9 abbd
00000020: 9553 0bbd 2db6 413d a37f 0abd b0ad 00bd
00000030: 7525 10bd 8010 e8bd 0edf a0bd 5db6 223e
00000040: 08f4 22be 0cc9 56bd 386a e83d 6321 ac3c
00000050: 98fb 8d3d 7975 183d e6bc 0fbe c8a5 ee3d
00000060: a7ee a13e 6a22 adbe 94eb 693c 7280 873d
00000070: 8a83 5cbb 466a 363d f599 11bd 0363 063b
00000080: f7f7 723d 06d4 08bd f825 88bb 2120 3ebe
00000090: 7d6e f6bd 547f 8c3d ff2b 2ebe 4084 9ebd
000000a0: 50d2 eebd 51b9 1cbd 2ea1 d73d ff5b 093e
000000b0: e70c 1f3d 3fcb 04be 579c 25be a6dd 97bd
000000c0: a12b e6bd 26ce 36bd 4090 39be 61e4 c6bd
000000d0: 21b0 68bd acf9 fd3d 8ed6 afb9 d5d8 8a3c
000000e0: 3d18 063d 78ad d83d 25a9 e7bc b559 5fbd
000000f0: d28c c73e 5faf 05be fafa 2ebc de0a febd
00000100: 2620 5b3d 03c2 dd3c f2a7 a3bd 5acd 303c
00000110: b5cd b9bc 5a1e 4bbe 8a64 563d 396b 17bd
00000120: 44f2 a33d 98b1 873c ad14 f7bd e3de bc3d
00000130: a9da 2fbb 6428 93bd 55fe 46bd 5268 843d
00000140: 8561 d8bb b0b3 293d 066f 6ebd bbfd 04bf
00000150: 0503 193e 0f80 28bd 493c 893e a96e b53a
00000160: 4ae1 ce3e 0386 5f3b a5e2 67be dcc5 9b3d
00000170: 176e 963e c04c 0f3e 216d cc3d d3d9 183d
00000180: 8ada a63e 2e80 92bd 1bfe d0bd 7093 d2bb
00000190: 855b 8abd 9a5e 83be 4718 d9bc bac7 4ebd
000001a0: f77d 7ebd f9a0 8a3c a0b2 2bbd 6c8c 863e
000001b0: 48d6 063e 0d95 393c 80a0 e93d 9061 0cbe
000001c0: 416b 883d 7773 bdbd dca9 11be eedf 31bd
000001d0: 3cf4 f83d fc56 dcbd 7a40 9ebd 30fa 3abb
000001e0: fd62 c6bd 5ede 64bd 4f67 08bc 5885 03bb
000001f0: 5a2c d43e 977b 1dbd 3b8f 7ebd 110c 30be
00000200: 15cb 8a3d 50b2 27bc db00 cd3c ec26 d73c
00000210: 2082 07bd eb0f bcbd 50af bdbd 23f0 2bbc
00000220: 9e99 be3d 571e 06be c97f 56bd 4170 92bd
00000230: 0906 f23c 3a71 f8bc 7074 833d 007c 3c3d
00000240: d68c 55bd 81de 89bd 4a8d ec3d 1aaa e9bd
00000250: 9f21 acbb 7d3a 06be 6c89 30be 6a60 28bd
00000260: e2c4 8a3a 3d5d 1b3e 7a7a 96be fb49 d33d
00000270: f4ec d5bd d29e 70bb b636 86bc 7d0f d03d
00000280: d0f5 5bbd 76c6 e8bb 3085 023e 6609 6a3b
00000290: d6d8 c8bc d8df 80bb aab3 39bd bc91 16be
000002a0: 93de 8abe 298b 123d d2c0 8d3d 64ce 13bd
000002b0: 72a8 df3d 2a6d 05be 186d 07be 7e69 07be
000002c0: 3ba6 ecbb 2220 983d 57ee 153e d5e6 783d
000002d0: 6743 c33d d32a 923e c85e 0fbe b617 a4bd
000002e0: b94a 5ebd f979 413d 260f 1d3c f1bf 0bbe
000002f0: 8ae5 8abd 9179 633d 48d1 cbbd d13f e5bd
00000300: 5e44 c9bd 229d 0cbe 28ac 18be 2202 a6bd
00000310: 2dca 6cbd 7b04 3bbe a81f dfbc 20f7 0fbc
00000320: 6fcf 8cbd 336f d7bd f226 5abe d213 d33c
00000330: 1058 c5bd 08d0 c0bc bf57 66be b040 36be
00000340: 487a efbd 0af0 733d 33c0 473d 28d6 bfbc
00000350: bb25 c7bc b03d 82bb 20e5 82bd f855 13be
00000360: c9ee 55bd 28bb 48bd 9961 c7bd f20b 98bd
00000370: b6e0 14be 8cd9 2f3d 230c 073c 60b6 b33d
00000380: 9d0c 14be ed0b 27be 8f95 a0bd 9059 15be
00000390: 485c e2bd dcf4 063d 7290 0fbc 1818 b6bd
000003a0: 3ce7 08be 0736 8dbd 186d b1bd bfed 45bd
000003b0: 7110 373c 13bc 06bd 4db1 dfbd acd0 00be
000003c0: 4a97 d6bc e769 b4bd b132 0bbe edf7 833d
000003d0: 56fd d6bd 81d8 833d e3bb 85be c52b a8bd
000003e0: 7831 063d 5f1f abbc b11c 92bd ec36 09be
000003f0: e7c1 373d 0ce9 d3bd 81bb eebd f4e0 a0bc
-0.016559092 -0.077110544 0.07647013 -0.016969929 -0.1003567 -0.091971025 -0.016749475 -0.08394197
-0.034015257 0.047292877 -0.03381313 -0.03141564 -0.03519197 -0.11331272 -0.07855044 0.15889879
-0.15913403 -0.052437827 0.113483846 0.021012014 0.06932753 0.037221406 -0.14036903 0.11652714
0.3162739 -0.33815318 0.014277358 0.06616296 -0.003364774 0.044534944 -0.035547215 0.0020505793
0.05931851 -0.033405326 -0.004154917 -0.18566944 -0.12032793 0.068602234 -0.1700897 -0.077400684
-0.11661208 -0.03826267 0.105287895 0.13414 0.038830664 -0.12968157 -0.1617292 -0.07415323
-0.1123879 -0.044630192 -0.18121433 -0.097115286 -0.056808595 0.12401137 -0.00033538457 0.016949097
0.03273796 0.105799615 -0.028278897 -0.05452891 0.38974625 -0.1305518 -0.010679955 -0.124044165
0.053497456 0.027070051 -0.079910174 0.010791147 -0.022681097 -0.19835797 0.052341975 -0.03696749
0.08005193 0.016564175 -0.120644905 0.092222 -0.0026833212 -0.07185438 -0.048582394 0.0646521
-0.006603422 0.04143113 -0.05821135 -0.5194966 0.14942558 -0.04113775 0.26803806 0.0013842183
0.40406257 0.0034106977 -0.22645052 0.07606098 0.29380867 0.13994122 0.09981752 0.03731711
0.32588607 -0.071533546 -0.10204717 -0.0064262673 -0.06755737 -0.25658113 -0.026500834 -0.050483443
-0.06213185 0.01692246 -0.041918397 0.26279008 0.1316768 0.01132704 0.11407566 -0.13709092
0.06661082 -0.09250539 -0.14224952 -0.043426447 0.12155959 -0.107587785 -0.07727142 -0.002853047
-0.09686849 -0.05587613 -0.008325412 -0.0020068493 0.41440088 -0.038447943 -0.062148314 -0.17192103
0.06777016 -0.010235384 0.025024822 0.026263677 -0.03308308 -0.091827236 -0.09261954 -0.010494265
0.09306644 -0.13097511 -0.05236796 -0.07150317 0.029543893 -0.030327428 0.06418693 0.046016693
-0.052136265 -0.067318924 0.11550386 -0.114093974 -0.0052530314 -0.13108249 -0.17239922 -0.041107573
0.001058724 0.15172286 -0.29390317 0.10316845 -0.10445586 -0.0036715758 -0.01638351 0.10159204
-0.053701222 -0.0071037365 0.1274612 0.0035711168 -0.024517458 -0.0039329343 -0.045337357 -0.14704031
-0.27122936 0.035777245 0.06921543 -0.0360855 0.109208 -0.13029924 -0.1322521 -0.13223836
-0.0072219647 0.07428004 0.146417 0.060767014 0.0953434 0.28548297 -0.14001 -0.08012335
-0.05427048 0.047235463 0.009586131 -0.13647439 -0.06782062 0.055535857 -0.099520266 -0.11193813
-0.09827493 -0.13731816 -0.14909422 -0.081058756 -0.057809997 -0.18263428 -0.027236775 -0.008786947
-0.06875502 -0.105192564 -0.21303919 0.025766287 -0.09635937 -0.023536697 -0.2249441 -0.17798114
-0.11693245 0.05955509 0.04876728 -0.023417547 -0.024309983 -0.003974639 -0.063913584 -0.14388263
-0.052229676 -0.04900661 -0.09735412 -0.074241534 -0.14538845 0.04293208 0.00824264 0.0877502
-0.14457937 -0.16313143 -0.07841026 -0.14584947 -0.110527575 0.03294836 -0.008762466 -0.08891314
-0.13369459 -0.068950705 -0.08663386 -0.048322435 0.0111733535 -0.032894205 -0.10922489 -0.12579602
-0.026195187 -0.08809262 -0.13593556 0.064437725 -0.10497539 0.06437779 -0.2611991 -0.082114734
0.03276202 -0.020888982 -0.07134379 -0.13399857 0.044862654 -0.103471845 -0.11656857 -0.019638516

linearSequential.4.bias f4 [32]
00000000: 061c 1dbe 9a1e abbd 21d8 68bd df83 a3be
00000010: 027f 5bbb 0a78 1c3e 2bfa 8abe 833c e8bd
00000020: d407 8bbe 6d67 ab3e d1f7 3cbe f208 bdbe
00000030: c171 c8be 84c5 5e3f 848a b33e ed2c e6bd
00000040: af7e bbbe 6fa2 02bf 3426 0abe bb01 18be
00000050: b287 c1be ae29 523c 771a 1fbe cfb8 8abe
00000060: ecc6 09bf 729c 24bd ce6a 603f d595 1abe
00000070: 326f 31bd 55a7 a9be b676 4a3c d694 2dbe
-0.15342721 -0.08355446 -0.05684674 -0.31936547 -0.003349245 0.15280166 -0.27143988 -0.11339667
-0.2715441 0.33477345 -0.1845391 -0.36920887 -0.39149287 0.87020135 0.35066617 -0.11239038
-0.3662009 -0.51029104 -0.13491136 -0.1484441 -0.3779884 0.01282732 -0.1553744 -0.27094123
-0.53819156 -0.04018826 0.8766297 -0.15096219 -0.043318935 -0.33135477 0.012357404 -0.16951308

linearSequential.6.weight f4 [16, 32]
00000000: ff35 b23d f1be b83d f16d 0dbd 125c 33be
00000010: 7ceb 8e3e cd4d 49bd dc4a cabd 54e4 cebd
00000020: 15c4 0f3e 3bc0 adbd f0d2 f93b bc6c 033d
00000030: 0d9a 0d3e 552d ffbe e180 3f3e 60c7 a73d
00000040: aca5 993e ca7e e2be 6ef9 a4bb 5933 1abd
00000050: 94e4 be3d 8c16 2c3d 689c 2e3d ef6f 033e
00000060: 8f39 9dbe 08bb ae3c 5bc3 2bbf ba82 a7bd
00000070: a0ac a3be 1507 a13d d3a6 5abe 07fc b0bc
00000080: f00a 38be de77 6abe fe01 05be 2680 db3d
00000090: c87c 0fbe 4340 29be 340a 783d fe7f c4be
000000a0: 514e 3bbe 69f8 d13c 199a 1abd 3754 05be
000000b0: d080 23bd 022f 2dbe f9b2 903d 9029 babe
000000c0: aa57 e33d ffce cbbd 5593 1abe 6127 dd3d
000000d0: 2d3a 163e 4338 00bc 8aac 8abe b045 813d
000000e0: a96b ed3c 9de9 eebd f26e d83b 3264 3cbe
000000f0: a238 61be f0a7 0d3e 1873 93be 9d20 7fbd
00000100: eb89 1e3c d71e e6bd 303f c2bd 1591 17be
00000110: 8082 2ebe 8d08 2bbe 8854 debd 8e6c 86be
00000120: 7786 0dbf 0249 bd3e 9bc1 0ebe 181c 2bbd
00000130: d811 a83e 476c 433c abba 333f aec9 a8bd
00000140: 9507 d5bd 3047 d9bd 683f adbd d0d9 33bd
00000150: 6bbb 0a3e 223a 08be 4a15 fcbd 45d3 b9bd
00000160: 11dc bf3d 1cd7 53bd 3311 203f 3153 ffbd
00000170: fe5a a8be a067 1f3e 046e bdbd 1bab 39bd
00000180: ffc4 98be f8e5 48be 2da6 8abe b0be 2a3c
00000190: 2d42 58be 0233 0bbb b561 6a3d 8efe e23d
000001a0: 062a 9c3e bc01 22be 50b7 3bbe 57bd 99bd
000001b0: b8f7 8dbe 598f 69be f46b cc3d d184 0dbe
000001c0: f5cc 443e aea4 37be 388a b6bd 210e e8bd
000001d0: 3898 d0bd 1e4c 22bf 9da4 b3be 25a6 963c
000001e0: 60ce ecbc 7c01 b63e ef88 7c3d 51cb a1be
000001f0: 9b45 33be faf0 983d bc65 dc3c 98b0 c93c
00000200: b97d 133e 95df 0b3e 6163 11be 7071 f53b
00000210: 8e5c 193e 2a9b 5dbf 58c4 d8be 05d5 1ebf
00000220: 5228 09bf 5984 a53e 6e8a 92bd 33d4 333e
00000230: b310 153f c601 f3be e804 46bf 91b7 853d
00000240: be3d dd3e 0e33 c8be 6770 f83c 34d8 243d
00000250: 6096 18bd 828f 993e 97a7 223d 5c15 9abe
00000260: a005 a8bc 5f99 63be 9977 29bf c5e3 d83d
00000270: bd89 82bf 49be 3bbe 6391 c6be 721d 7dbd
00000280: 75cf 21be 4cdf 97be c450 abbe 288c f7bd
00000290: bd18 c3bc 9634 bcbd fd0e 133e d2f5 b1bd
000002a0: 1a2e 47be 34a7 02bd dc7b 7dbc 9252 b8bd
000002b0: fd01 a4bd a32f 2abe b866 0fbe 83f9 eabd
000002c0: 286e 453d 4aac d23d b81a 8abd 9b61 2ebe
000002d0: 405f e5bc 2679 58bd 4597 44be 5839 8fbd
000002e0: fbe5 c9bd 1687 8a3d de0d e9bd b469 81be
000002f0: f35d 8fbd ff1c dcbd a513 28be ea23 debd
00000300: 8b0a 13be 649d f23c af55 5cbd e8bc b23d
00000310: dbc7 8a3e bd84 03be bc4f 59be 8f42 843d
00000320: e66b ab3d 9162 c0be fc9e f13d 018d 4e3e
00000330: c87a 1bbe 289f 32bf 5c27 5bbf 49a9 413c
00000340: c1e3 a53e 681b e4be e2f2 a43d be9c 9dbe
00000350: d546 883d 60a3 cb3b 37b6 5c3d 234a 433e
00000360: c446 48bd de36 a93d 0d92 4cbf 4291 503d
00000370: 5e91 30be f255 c6be 98fa 183e 161b b53c
00000380: 9a8c 023e 2e4b e13d 4841 253e 0414 45be
00000390: a1df 7e3e 50d3 6cbe 90b3 223d cc33 c7bd
000003a0: 7e7a 763d b66f 7bbe a04f 1b3e b4ae 953e
000003b0: 3bae 3c3c af27 59bf 0fce 4fbe 5747 063e
000003c0: 61c5 cebe 467b 49be 7477 0d3e 6736 c03d
000003d0: 3b49 8bbd 1a01 c93d 8027 c83d 7ae6 cd3e
000003e0: 276d c9bd daee bdbd d604 33bf e8bf f43d
000003f0: 2c12 01bf a68b 453e 423f 12bd 6fbd 34bd
0.08701705 0.09020794 -0.034528676 -0.17515591 0.27914035 -0.049146462 -0.098775595 -0.10102144
0.14039643 -0.08483931 0.0076240227 0.03208612 0.13828297 -0.49839273 0.18701507 0.08192325
0.3000921 -0.44237357 -0.005034617 -0.037646625 0.093209416 0.04201369 0.04262963 0.12835668
-0.30707976 0.021329418 -0.67094964 -0.08179231 -0.3196764 0.07862679 -0.21352701 -0.021604551
-0.17972922 -0.22897288 -0.12989041 0.10717802 -0.14012444 -0.1652842 0.060556605 -0.383789
-0.18291594 0.025631147 -0.037744615 -0.13020407 -0.039917767 -0.16912463 0.07065386 -0.36359835
0.11100705 -0.09951591 -0.15095265 0.107985266 0.1467063 -0.007825914 -0.27084762 0.0631212
0.028982 -0.11665652 0.0066050226 -0.18397596 -0.2199426 0.13833594 -0.28798747 -0.06228696
0.009676437 -0.11236351 -0.09484708 -0.14801438 -0.1704197 -0.1670248 -0.10855967 -0.26254696
-0.552833 0.36969763 -0.13941042 -0.04177484 0.32826114 0.011927671 0.7020671 -0.08241592
-0.10401837 -0.10609281 -0.084593594 -0.043908894 0.13548057 -0.13303426 -0.12308748 -0.090734996
0.09368146 -0.051718816 0.62526244 -0.124670394 -0.32881922 0.15566874 -0.092494994 -0.045329195
-0.29837796 -0.19618976 -0.27079907 0.01042144 -0.21118994 -0.002124012 0.057222087 0.11083709
0.3050081 -0.15820974 -0.18331647 -0.07506817 -0.27728057 -0.22808589 0.09981528 -0.13820197
0.1921881 -0.17933914 -0.08913082 -0.1133082 -0.101852834 -0.63397396 -0.35086527 0.01838977
-0.028907001 0.35548007 0.061654028 -0.3160043 -0.17507021 0.07467838 0.02690398 0.02462034
0.14403428 0.13659509 -0.14198066 0.0074903294 0.14976713 -0.86564887 -0.42337298 -0.6204379
-0.5357715 0.32327536 -0.071553096 0.17561416 0.58228606 -0.4746229 -0.77351236 0.06529153
0.43211168 -0.39101452 0.030327035 0.04024525 -0.037252784 0.299923 0.039710607 -0.3009442
-0.020510495 -0.22226475 -0.66198117 0.105903186 -1.0198284 -0.18334307 -0.38782796 -0.06179566
-0.15801795 -0.2966255 -0.33460057 -0.120872796 -0.023815507 -0.091897175 0.14361186 -0.08689465
-0.1945118 -0.03189774 -0.015471425 -0.09000124 -0.08008192 -0.16619734 -0.14004028 -0.11473372
0.048200756 0.10286768 -0.067433774 -0.17029421 -0.02799952 -0.05284991 -0.1919833 -0.06993359
-0.098583184 0.06764047 -0.11379598 -0.25275958 -0.07000341 -0.10747718 -0.16413744 -0.10846694
-0.1435949 0.029616065 -0.05379265 0.08727437 0.27105603 -0.12843604 -0.21221823 0.064580075
0.08370189 -0.375752 0.11797902 0.20170976 -0.15183556 -0.69774103 -0.8560693 0.011820146
0.32400325 -0.4455216 0.08054139 -0.30783647 0.06654135 0.006214544 0.05388471 0.1907125
-0.048895612 0.08262418 -0.79910356 0.05091978 -0.17242953 -0.38737446 0.14939344 0.022107642
0.12748948 0.110006675 0.16138184 -0.19245917 0.24889995 -0.23127484 0.039722025 -0.09726676
0.06017541 -0.24554333 0.15167093 0.2923485 0.011516149 -0.8482618 -0.20293449 0.13113151
-0.40384963 -0.19675931 0.13815099 0.093853764 -0.06801077 0.09814663 0.09773159 0.40214902
-0.09835272 -0.09274073 -0.69929254 0.11950666 -0.50418353 0.19291553 -0.03570486 -0.04412597

linearSequential.6.bias f4 [16]
00000000: f916 b23e 1b87 3ebd 5678 c33b a188 20be
00000010: 7ecd bc3e de60 91be b1c3 a93e a43c c53e
00000020: ace4 a73e 85a9 80be 62c0 6cbe ab55 3f3d
00000030: 9276 2fbe 5a06 a73e 4921 66bd 0871 77bc
0.34783152 -0.046515565 0.005965273 -0.1567712 0.36875528 -0.28394216 0.33157113 0.38522828
0.3279165 -0.25129333 -0.23120263 0.04671256 -0.17135075 0.32622033 -0.056184087 -0.015102632

linearSequential.9.weight f4 [2, 16]
00000000: e6c6 e43b 4b63 003e b993 1e3c 12b1 22bd
00000010: cadc 813d 7035 773d be33 b6bb 8da2 0a3c
00000020: ca2d 953c cbc3 593d b9b2 d5bd 39a9 6c3e
00000030: ce3d 9fbd 8ebc 07bd 101c 2eba 9f32 86be
00000040: 02a2 593e 53ed 65bd 0934 60be b393 debd
00000050: 535b 163e 2e6f 8e3d d913 2e3e 91fa 343e
00000060: c230 3f3e 85ac cb3d 2206 573d 55a4 2a3d
00000070: 0ae5 1fbe 76f0 463e 3364 73be 9749 6dbd
0.0069817184 0.12537877 0.0096787745 -0.03971965 0.0634094 0.060353696 -0.0055603674 0.008461607
0.01821031 0.05316524 -0.10434479 0.23111428 -0.0777546 -0.033138804 -0.0006641755 -0.26210496
0.21253207 -0.056134533 -0.2189485 -0.10868015 0.14683275 0.069547996 0.16999759 0.17673708
0.18670943 0.09945015 0.052496083 0.041660625 -0.15614715 0.19427666 -0.23768692 -0.05793151

linearSequential.9.bias f4 [2]
00000000: 4239 833e d561 5640
0.25629622 3.3497212
