src/nets/state_dicts/nnwf01.pt (torch, 59283 bytes, 10 tensors)

linearSequential.0.weight f4 [128, 22]
000000 d8 4f 8c be 4b 2c 1e be ae e6 cb 3e 0d 7d 25 bf
       -0.27404666 -0.15446584 0.39824432 -0.6464394
000010 a3 a7 cc be 3d b1 18 3d 31 ca a8 be 0d 44 be bb
       -0.39971647 0.037278403 -0.3296676 -0.005806452
000020 5b ec c0 bd 87 fc 82 bf d8 8c 3e bd 49 0d e7 bd
       -0.09420081 -1.0233315 -0.046521038 -0.11281831
000030 13 88 88 3d 8a 6e 46 3e 2d 4b ee 3e 6c bf a3 3d
       0.06666579 0.19378105 0.4654173 0.07995495
000040 41 f8 62 bc 4a ea 7f 3f 2c cf c4 3e 59 bc 06 be
       -0.013853134 0.9996687 0.3843931 -0.13157786
000050 f2 a6 34 bd 98 9e 32 bf 01 e4 79 3f c3 27 63 3f
       -0.044104524 -0.69773245 0.9761353 0.88732547
000060 ad 9c 03 3e 68 c9 2c bc b5 f3 82 3f f7 1b 98 3e
       0.12852736 -0.010546066 1.0230623 0.29708835
000070 d2 0b 40 3f e9 7d 81 3e 33 4a f6 be 44 01 1d bc
       0.75018036 0.25291374 -0.48103485 -0.009582821
000080 bd 48 17 bd 22 80 17 bf d2 06 8f bd 50 00 7f 3e
       -0.036934603 -0.5917989 -0.06983723 0.24902463
000090 64 8d 13 3f 47 68 91 be 7f f9 f3 3e 6d a3 97 3f
       0.5763762 -0.2839987 0.47651288 1.1846749
0000a0 b2 15 5b 3f 9f 24 8b be 30 4a 7b 3f 03 95 11 be
       0.8557998 -0.27176377 0.98160076 -0.14217
0000b0 bd 8d a1 be e7 21 75 3f b6 0e 82 bb e2 90 b7 3e
       -0.3155345 0.95754856 -0.003969039 0.35852724
0000c0 3d f2 03 3f dc 3f 6c bd 8e 7d b1 be 2a 78 50 bf
       0.515415 -0.05767809 -0.34666103 -0.81433356
0000d0 c8 e2 c4 bd 14 20 3c be 97 58 ca be 44 f9 c7 3e
       -0.096135676 -0.18371612 -0.39520714 0.39057362
0000e0 39 36 1e 3f b9 b8 ae 3d e5 23 80 be be c0 cb be
       0.6180149 0.08531327 -0.25027385 -0.39795488
0000f0 c4 ce 8b be c3 a8 a6 bd 2f fb 87 bf 99 ba 02 bd
       -0.27306187 -0.081376575 -1.062353 -0.031916235
000100 86 2f 27 bf b0 e5 b4 be 2f 3b c5 3d d2 ca 96 bd
       -0.6530689 -0.35331488 0.09630429 -0.07362904
000110 c9 a0 c9 3d ff 01 6e bd cb d5 b4 3d fc 5c 5a 3e
       0.098451205 -0.058107372 0.0882984 0.21324533
000120 d4 08 99 bc 30 29 33 be 0e d6 02 3e a6 05 4c bd
       -0.018680967 -0.1749618 0.12776968 -0.049810074
000130 f7 b2 83 be 60 c2 89 3d 11 c4 3e be a4 cc dc bd
       -0.25722477 0.06726527 -0.18629481 -0.107812196
000140 4d 34 11 be b7 5b 69 3e 49 ba da bd 1f 48 bd 3d
       -0.14180107 0.22788893 -0.10680062 0.09242272
000150 1b eb 52 3e ab cc e2 bd 95 f9 e0 bd 0d c8 ef bd
       0.20597498 -0.110741936 -0.10985104 -0.117080785
000160 7a 06 8d bd 0e 58 2e bf 62 9b b4 3e 8a 53 0a bf
       -0.06886001 -0.6810311 0.35274798 -0.5403372
000170 a9 58 7f bf 2f 2b f5 bd aa 0f ac 3d 88 49 76 ba
       -0.9974466 -0.11971127 0.08401425 -0.0009395112
000180 5e 0e 93 be f4 2d fc 3e 91 4c 3b bf 03 34 7f 3f
       -0.287219 0.4925381 -0.73163706 0.9968874
000190 a6 d4 33 3f 20 a3 a7 3d 39 0d d2 be 2c 25 2e 3f
       0.7024635 0.081854105 -0.41025713 0.6802547
0001a0 b7 16 33 be 51 25 d4 3e 32 06 02 3f d7 a6 5f be
       -0.17489134 0.4143472 0.50790703 -0.21840988
0001b0 2b 01 e2 be b9 0d e5 3e 94 1f be be 03 80 7f be
       -0.44141516 0.44737032 -0.37133467 -0.24951176
0001c0 22 bf 05 be 62 3c 49 bb be da 22 3f ca e3 e6 bd
       -0.13061193 -0.0030706157 0.63615024 -0.11273916
0001d0 ad 03 0e 3e 70 c3 a1 bd 54 a2 5c bd a4 cc 80 bf
       0.1386859 -0.07898605 -0.053865746 -1.0062451
0001e0 38 ed 0f 3e 4c d6 e7 bd f2 e6 15 3e cc 41 8c 3e
       0.14055336 -0.11320171 0.1463888 0.2739395
0001f0 c2 27 e1 be 54 af ac bf bb 6d 98 be e6 a9 04 bf
       -0.43975645 -1.3491006 -0.29771218 -0.51821744
000200 52 28 86 3f 85 73 05 be 6a f9 cc 3d 19 61 77 3d
       1.0481055 -0.13032348 0.100085095 0.060395334
000210 71 50 10 3d e3 c2 f7 3e 80 ed 98 be a3 48 eb be
       0.035232965 0.48390874 -0.29868698 -0.45953855
000220 09 95 09 3f a6 a5 eb bd 3c a9 87 3e 1d 8b a6 3e
       0.53743035 -0.11506204 0.26496303 0.3252801
000230 90 02 07 bf bd 49 99 be 93 7e 6c be 13 9f 16 3f
       -0.52738285 -0.2993907 -0.23095159 0.5883648
000240 10 2f d5 be 1f 89 f8 3e 6a cb 1b 3c 87 75 ec be
       -0.41637468 0.48542115 0.009508947 -0.46183416
000250 f8 88 26 be 11 80 5c 3d b8 35 5e 3f 3b 04 bb be
       -0.16263187 0.05383307 0.8680072 -0.36526665
000260 89 ee 54 be 97 45 b8 bd 21 18 16 3f 6c 52 cf 3e
       -0.20794119 -0.08997648 0.5863057 0.4049257
000270 ec b9 0a bf 82 4c ec be 84 1b 28 bf d4 ec d3 be
       -0.54189944 -0.4615212 -0.65666986 -0.41391623
000280 a2 a4 a8 bd 02 2b f8 3d 97 8e 29 bf ed 02 0e c0
       -0.08234526 0.12117578 -0.662332 -2.2189286
000290 fc 35 bf bf d7 62 96 bd c8 8a 96 be 42 da f3 3e
       -1.493835 -0.07343071 -0.29402757 0.47627455
0002a0 62 f9 b5 3d 41 28 dd 3e e7 90 41 3f bf 58 b9 3e
       0.088854566 0.43194774 0.7561173 0.3620052
0002b0 dc 82 08 3f aa 0d 55 3e 0a c6 9d 3f e7 44 22 3f
       0.53324676 0.20805994 1.2326062 0.63386387
0002c0 44 b0 b4 3e 8a 24 1f 3f ae c1 ee 3a 74 46 ff 3b
       0.3529073 0.6216513 0.001821568 0.007790381
0002d0 e9 18 3c 3f 5f 55 24 3e e9 26 3b bf e7 62 32 be
       0.7347551 0.16048191 -0.7310625 -0.17420541
0002e0 82 aa dd bb 57 c8 29 be 31 d8 84 bf 7b fc 31 bf
       -0.006764711 -0.1658033 -1.0378476 -0.6952588
0002f0 72 77 77 bf 74 ac 38 be b8 83 93 be 50 f7 24 3d
       -0.96666634 -0.18034536 -0.2881143 0.040274918
000300 ec 21 91 be ce a4 71 3e f7 b4 ca be a8 ea 86 be
       -0.28346193 0.23598024 -0.3959119 -0.26350904
000310 68 47 01 3e 73 78 af 3e 28 5a 23 3f a1 53 ec be
       0.12624896 0.34271583 0.6380944 -0.46157554
000320 2f 92 b7 be c6 bf e3 be c6 2f 69 be e8 52 47 bf
       -0.35853717 -0.4448225 -0.2277213 -0.7786088
000330 d4 20 cb 3e 58 54 89 be d7 f3 5f be e8 de 40 be
       0.39673483 -0.26822162 -0.21870361 -0.18835032
000340 0e 05 9c be 77 2b 65 bf d7 24 8e bc 77 b2 e9 bd
       -0.30472606 -0.8951945 -0.017351551 -0.114109926
000350 b9 df ae be bc d0 c4 3f e0 29 fb 3d 7f 8f 67 3f
       -0.34155062 1.5376201 0.122638464 0.9045333
000360 31 9c f0 3e 10 38 2a 3f 5d 7d 6d 3f 05 73 83 bf
       0.46994165 0.66491795 0.92769414 -1.0269476
000370 6a a1 e6 3e a5 27 a4 3e e0 77 0d bf 08 f7 9a 3d
       0.45045024 0.32061496 -0.5526104 0.07566649
000380 d6 f4 80 bf 9d a2 df be 0a df 95 bf b7 e9 75 3e
       -1.0074718 -0.43678752 -1.1708691 0.24014936
000390 9b 4a 8c be 82 9a aa bf a1 84 d3 3d 9d 87 00 bf
       -0.2740067 -1.3328402 0.10328031 -0.5020693
0003a0 e5 f8 e1 3f 05 15 3c 3f eb 1a ef be 24 4e 00 3f
       1.7654082 0.73469573 -0.46700224 0.50119233
0003b0 77 ed d5 3e ec 00 16 bf 90 c5 7f be 37 12 f1 3d
       0.41782734 -0.58595157 -0.24977708 0.11771052
0003c0 ff 3b 39 bf 49 09 2d bf b6 ce ae be cc bd 51 be
       -0.7235717 -0.67592293 -0.34142083 -0.20482558
0003d0 fa 1a d8 3e fb 3a 6d be 23 62 08 3e ce c6 c0 3e
       0.4220808 -0.2316703 0.13318686 0.37651676
0003e0 27 b1 c2 be 3a 21 4a bf 5f 8b 8a 3e 38 bc 50 be
       -0.38025782 -0.7895695 0.27059457 -0.203843
0003f0 d4 de d1 3e f4 36 df 3e e7 bf 1f 3f 99 4e 81 3e
       0.40990317 0.43596613 0.62402195 0.25255278

linearSequential.0.bias f4 [128]
000000 a7 7a d8 bf 17 b5 a2 bf 4c 75 b8 bf ad 30 c8 bf
       -1.691243 -1.2711514 -1.4410796 -1.5639855
000010 7d 16 0b c0 b3 d3 ef bf 82 8f ab bf 7c b8 e6 be
       -2.1732476 -1.873648 -1.340317 -0.45062625
000020 e4 4e 5b bf e3 cf 8e be cb 08 c1 bf a8 3c e3 bf
       -0.8566725 -0.2789298 -1.5080808 -1.7752886
000030 29 c7 c9 bf b9 b0 bb bf 33 48 d1 bf ba e4 82 bf
       -1.5763904 -1.4663306 -1.6350158 -1.0226052
000040 6c d5 cd bf 05 bb 04 c0 9c f9 d9 bf 94 54 2e bf
       -1.6080756 -2.0739148 -1.70293 -0.68097806
000050 c0 65 6e bf 96 4a b9 bf 83 4f 69 be cb ff 35 bf
       -0.9312401 -1.4475887 -0.22784238 -0.71093434
000060 f2 13 dd bf 18 9c c2 bf 51 5d 3e bf 03 df af bf
       -1.7271712 -1.5203886 -0.7436114 -1.3739933
000070 df fa 00 bf c8 66 d8 bf 02 ca a1 bf 4e 27 0c c0
       -0.503828 -1.6906366 -1.2639773 -2.189899
000080 49 2a 89 bf ef 65 a3 be ef 93 bf bf 8e f0 87 bf
       -1.071603 -0.31913707 -1.4967021 -1.0620286
000090 24 04 ab bf bd b1 9c bf c0 77 d5 bf 2d 64 ce bf
       -1.3360639 -1.2241741 -1.667717 -1.6124321
0000a0 81 14 95 bf 94 07 1f c0 e8 a8 50 bf 3f 3c 2b bf
       -1.1646882 -2.4848375 -0.8150773 -0.66888803
0000b0 24 91 ec be 6c 48 b9 be 77 4c 02 c0 54 a6 ab bf
       -0.46204484 -0.36188066 -2.035917 -1.3410134
0000c0 d9 ff ee bf b4 79 94 bf 6e 69 5c bf b7 c4 c8 bf
       -1.8671829 -1.1599641 -0.8609837 -1.5685033
0000d0 95 70 7d bf d7 80 8e bd c3 57 8b bf 7a 97 ca bf
       -0.9899991 -0.06958168 -1.0886158 -1.5827477
0000e0 44 07 23 3f cc ce a7 bf 4b 7e 30 be 75 1b cc bf
       0.6368296 -1.3109984 -0.17235677 -1.5945879
0000f0 a7 df 75 bf 03 00 13 c0 7f 49 dd bf a2 0e 43 bd
       -0.9604439 -2.2968757 -1.7288054 -0.047621377
000100 ba fb ef bf 46 b0 87 bf 41 b8 96 bf e0 2f d1 bf
       -1.8748696 -1.0600669 -1.177498 -1.6342735
000110 b4 d5 8e bf b2 a3 68 bf 69 e9 c3 bf 8f 05 72 bf
       -1.1158967 -0.9087478 -1.5305606 -0.9453973
000120 4e d6 8c bf 32 d8 18 c0 4d 7d e4 bf 96 7a 90 be
       -1.1002901 -2.3881955 -1.7850739 -0.28218526
000130 5a 6d d3 bf b8 6f 29 bf 7a fe 93 bf 42 cf 9c bf
       -1.6517746 -0.66186094 -1.1562035 -1.225075
000140 b1 af 3e be 02 3f 01 c0 f1 d8 da bf df 19 c0 bf
       -0.18621708 -2.0194707 -1.7097455 -1.5007895
000150 18 c8 dc bf 03 c2 e6 bf 5c de 60 bf b2 ea 14 c0
       -1.7248564 -1.8027958 -0.87839293 -2.3268247
000160 55 c6 ea bf f1 54 d0 bf f3 8c 3c bf 19 a2 9f bf
       -1.8341776 -1.6275922 -0.7365257 -1.2471343
000170 1b 3d af bf 1e 9c 83 bf 26 ff d5 bf 5f 4f 87 bf
       -1.3690523 -1.0282018 -1.671849 -1.0571097
000180 b8 87 63 bf 6b 35 43 bf f0 05 b6 be 40 9f 0b c0
       -0.88878965 -0.76253384 -0.35551405 -2.1815948
000190 fa f5 9e be 83 4b bb 3e 26 78 cf bf 8d 9e c9 bf
       -0.3104704 0.36581048 -1.6208541 -1.5751511
0001a0 b6 e3 ae bf 6b c1 ac bc 98 93 3d be a0 9e 99 bf
       -1.3663242 -0.021088323 -0.18513334 -1.2001534
0001b0 d4 0e ce bf bd a6 ce bf a4 05 a4 bf 61 eb b0 bf
       -1.6098275 -1.6144634 -1.2814221 -1.3821832
0001c0 c9 fb 48 bf 97 b1 75 bf 26 19 77 bf 8a 40 06 c0
       -0.78509194 -0.95974106 -0.9652275 -2.0976892
0001d0 b3 8c 80 bf 93 d3 da bf e4 33 7e bf 5b c9 71 bf
       -1.0042938 -1.7095817 -0.9929793 -0.9444787
0001e0 e0 b5 ef bf 8f ef 22 c0 6f 05 07 c0 cb 30 cf bf
       -1.8727379 -2.5458715 -2.1097066 -1.6186765
0001f0 44 7c 83 bf 39 70 82 bf 67 77 11 bf e5 aa 40 bf
       -1.0272298 -1.0190498 -0.5682282 -0.75260764

linearSequential.2.weight f4 [64, 128]
000000 11 1e f1 bc 42 4b c4 be 98 e3 c6 be e1 69 c3 3c
       -0.029433282 -0.38338667 -0.38845515 0.023854198
000010 ef b8 12 bf 4d e2 3c 3e c0 7c 5e 3d be 22 8f be
       -0.57313436 0.18445702 0.05431819 -0.27956194
000020 3d e9 9e 3c f8 89 f8 3d 65 c5 93 3e e4 c4 5e 3f
       0.019398326 0.121356905 0.28861538 0.8701918
000030 dc 2c bd be 62 86 4d bd 72 3c 9d be 2e 52 49 3c
       -0.36948287 -0.050176986 -0.3071018 0.01228766
000040 77 1a ab 3e ae bb 75 3f 9c 07 10 bf c0 b8 60 bf
       0.3341863 0.959895 -0.5626161 -0.87781906
000050 3f ca dd bd a7 a8 60 bd 99 56 58 3d e1 c0 18 bd
       -0.10829591 -0.05484834 0.05281696 -0.03729332
000060 80 89 ef be 13 95 ad be b9 40 6c bd 5a a9 61 3e
       -0.46784592 -0.33902797 -0.05767891 0.22037259
000070 1b 89 02 bf 1f b8 2e 3e c7 a7 7e bd f3 fe 02 c0
       -0.50990456 0.17062424 -0.062171724 -2.0468109
000080 5c db fc 3d a6 c2 a3 bd 1a 28 e9 bd 57 61 a9 be
       0.12346527 -0.079961106 -0.11384602 -0.33082077
000090 35 a2 35 bf 7f 8e cb be 38 df d2 3e f6 f0 3a bc
       -0.70950633 -0.39757153 0.41185927 -0.011409989
0000a0 a1 ec df 3d 8d 9d a6 3f 4b 62 ca bc ea b4 83 be
       0.10933805 1.3016831 -0.024705073 -0.25723964
0000b0 14 51 95 be 33 36 13 be 96 57 93 3c a6 09 4a 3f
       -0.2916342 -0.14376144 0.0179861 0.7892097
0000c0 46 7e 19 3f db b7 26 3f d2 34 05 bf 7c 55 4d be
       0.599583 0.6512429 -0.5203372 -0.20052141
0000d0 2e 25 2b 3e b6 7c 79 bf 88 c0 04 3f e5 b0 b5 3e
       0.16713402 -0.9745592 0.5185628 0.35486522
0000e0 e2 b7 60 be 8d 2d 17 be a4 54 c6 3c f4 2a 98 3d
       -0.21945146 -0.1476347 0.024210282 0.07430068
0000f0 8c b6 81 3e 2c b8 bf bf 67 70 00 3f aa 7a 43 be
       0.25334585 -1.497808 0.5017151 -0.19089761
000100 a3 7f 48 be 97 4b 04 bd 03 f7 12 be 50 21 47 bf
       -0.1957994 -0.03229865 -0.1435204 -0.77785206
000110 47 14 ac bd 66 c3 70 3e 5f 8d db be a4 04 ce bc
       -0.08402305 0.23512039 -0.42881295 -0.025148697
000120 be ff 1b 3f 3f ac 85 be eb 3c ea be 4c 60 8e 3e
       0.60937107 -0.26107976 -0.45749602 0.27807844
000130 e2 08 87 3e 22 52 95 3d 33 52 b9 bc f2 96 a8 bf
       0.26373965 0.07291056 -0.022622203 -1.3171065
000140 32 5f 59 3e 9e 2b 29 c0 c8 15 1e 3e a9 28 06 3f
       0.2122772 -2.6432872 0.15437996 0.5240579
000150 a5 19 30 3d 7a a7 ae bc 0e 96 c4 3d 9c b8 27 3f
       0.042993207 -0.021320093 0.09598933 0.65516067
000160 57 7e 37 3f 10 f3 8b 3d e5 39 a7 3e 0a 01 0b 3e
       0.71677154 0.0683347 0.32661358 0.13574615
000170 af 78 43 3e d7 b0 28 3d 4a c1 c0 3e bf ad a2 3e
       0.19089006 0.041184273 0.37647468 0.31773183
000180 67 93 14 bd ee ab 2b 3f 54 6a 14 bf 99 c3 f9 3e
       -0.036273386 0.6705922 -0.57974744 0.48782042
000190 90 70 a2 3f ac 23 da bf 4b 87 bf 3d 7e 5a a3 3f
       1.2690601 -1.7042136 0.09351977 1.2761991
0001a0 bb 1c 16 3e e4 e9 25 3e 27 81 9f bf 1a bc fa 3d
       0.14659397 0.16202503 -1.2461289 0.12242909
0001b0 65 59 e3 be 28 1a 00 3e 4f bb 31 3e 68 a9 03 3e
       -0.4440414 0.12509978 0.17356609 0.12857592
0001c0 45 ad a4 be ac 40 bc be b6 2a 31 bc 5a b6 d5 be
       -0.32163444 -0.3676809 -0.010813406 -0.41740686
0001d0 d8 4c 98 3d 3b c5 14 3f 88 80 1a bf 6c 5e 0d be
       0.07436532 0.5811345 -0.60352373 -0.1380555
0001e0 a0 14 b0 be 28 6a fd be 53 d0 46 bf 21 c8 00 3e
       -0.34390736 -0.49495053 -0.7766163 0.12576343
0001f0 bf b0 9a 3c 2a af e0 3c ba 7d 4f 3d a1 4c 5f be
       0.018883107 0.027427275 0.05065701 -0.21806575
000200 a1 bd 22 3d 76 91 df be 83 90 25 bd 7e a8 e2 bd
       0.039731625 -0.43665665 -0.04042102 -0.110672936
000210 07 a0 53 be 08 ee 7b 3e af ef 98 be 1f d4 0a bf
       -0.20666514 0.2460252 -0.29870364 -0.5422992
000220 e9 15 3d be 7f 40 91 be 41 8b cb be 1c 85 33 be
       -0.1846539 -0.2836952 -0.3975468 -0.17531246
000230 4b 6d f5 3d e1 e9 39 be c3 d3 fe be 70 c1 98 be
       0.119837366 -0.18155624 -0.49770936 -0.2983508
000240 7b ce 02 be f7 99 27 be 7a ea 24 be 79 25 81 be
       -0.12774079 -0.16367327 -0.1610507 -0.25223902
000250 4e ef d0 be 22 7f ca be 17 76 ec be 16 63 e2 be
       -0.40807575 -0.3955012 -0.46183845 -0.44216222
000260 2e 88 da bd 4e 9b 9c 3d 3c 91 ec be 44 22 85 be
       -0.106705055 0.076468095 -0.46204555 -0.26002705
000270 9c 18 3e 3c e6 63 c9 3e 65 b7 01 be 75 d0 b6 be
       0.011602547 0.3933403 -0.12667616 -0.35705915
000280 26 3f b9 bc d3 be fc bd 41 0a 9b 3e 65 68 40 be
       -0.02261312 -0.12341084 0.3028126 -0.18789823
000290 37 22 ec bc c1 c5 d1 be b7 23 13 bf 76 e8 a1 3c
       -0.028824909 -0.40971187 -0.5747637 0.019764166
0002a0 20 e3 53 be d2 0b b6 be b5 97 a0 be 98 69 9f bc
       -0.2069211 -0.35555893 -0.31365743 -0.01945953
0002b0 b3 8a 79 be bc 13 47 be f8 11 e9 be 8b 35 ba 3d
       -0.24369316 -0.19441122 -0.45521522 0.09092244
0002c0 b9 93 bc be 57 6c f5 be fb 7a 48 bd 81 c6 e7 bc
       -0.36831453 -0.4793422 -0.04894541 -0.028292896
0002d0 72 89 c4 be 2e ab ff bd 4b be 81 be 42 f5 60 bd
       -0.38386112 -0.12483822 -0.25340495 -0.054921396
0002e0 ab e4 95 be 86 81 1b bd 1e 9f 90 be 77 55 96 bd
       -0.29276022 -0.03796532 -0.28246397 -0.0734052
0002f0 67 04 ad be 1b e8 7c be ec d5 8b bc 73 61 6d be
       -0.3379242 -0.24697916 -0.01706978 -0.23181705
000300 40 1c 26 bd df 4c 49 be 9e 79 06 bd 87 7f c6 bd
       -0.040554285 -0.1965823 -0.032830827 -0.09692293
000310 dc c9 88 bd af 13 61 be 2c 7f 8a bd 5e 1b 9d be
       -0.066791266 -0.21980165 -0.06762537 -0.30684942
000320 d7 6c 3d be fa 57 2b 3e e5 99 0d be d0 7c 30 bf
       -0.1849855 0.16732779 -0.13828237 -0.6894045
000330 b8 e2 04 bb a2 42 c2 be 32 61 24 be 40 a0 34 be
       -0.0020276736 -0.37941462 -0.16052702 -0.17639256
000340 55 35 80 3e 18 92 9f be 74 8c 17 bf 9a 46 95 bd
       0.2504069 -0.31166148 -0.5919869 -0.07288857
000350 9d ef cb bd a2 06 2b be 8a a1 42 bc 27 57 86 bd
       -0.09957812 -0.16701749 -0.011879334 -0.06559592
000360 6e cc 7d 3d cd 4f bd be d6 27 82 3e e7 7c 6a bd
       0.061962537 -0.36974946 0.25421017 -0.057248022
000370 98 70 62 be d1 06 3d 3e 8f 98 05 be 01 06 c3 bd
       -0.22113264 0.18459632 -0.13046478 -0.095226295
000380 93 a7 97 be fa a2 2d be 59 c3 1c 3b c0 05 94 be
       -0.29620036 -0.16956702 0.0023920147 -0.28910637
000390 36 a5 f8 be ee 7e 03 be 2b 94 72 be 5c e7 8e be
       -0.48563546 -0.12841389 -0.23689334 -0.27910888
0003a0 90 05 3b be d3 40 ae be f1 87 3f be 79 fb 23 bd
       -0.1826384 -0.34033832 -0.18704201 -0.040034745
0003b0 fd ff a1 be 51 c3 21 be 4c 3b a5 bd 22 99 41 3e
       -0.31640616 -0.15797164 -0.080679506 0.18906072
0003c0 62 0b 09 be 3d c1 fb bd 61 a8 70 be 35 a1 52 bd
       -0.13383248 -0.12292717 -0.23501731 -0.05142327
0003d0 0d 36 78 be 8c 17 f5 bc 00 c4 3b be cc ee 5a be
       -0.24239369 -0.029918455 -0.18336487 -0.21380156
0003e0 00 0a 09 bd 45 60 a9 be d8 e6 4d 3d 98 67 ef bb
       -0.033456802 -0.3308126 0.050268978 -0.0073060505
0003f0 06 ac a7 be bf 8e be bd 29 20 f9 be b2 66 b1 be
       -0.3274843 -0.093045704 -0.4865735 -0.34648663

linearSequential.2.bias f4 [64]
000000 dc 88 20 bf 0d 9a 82 bd c6 dc 94 bd eb e6 13 be
       -0.6270883 -0.06377039 -0.07268672 -0.14443557
000010 da eb b5 3e 82 e3 b0 bd 2e c1 8d 3d fa 24 52 be
       0.35531503 -0.08637144 0.06921612 -0.20521918
000020 e8 73 cb bd 5b 43 aa bf 92 ef e8 be d8 3c c8 be
       -0.09934217 -1.3301805 -0.45495278 -0.3910892
000030 53 c5 2f 3f c6 4b f7 bc e0 9a 08 bd 64 b7 17 be
       0.6866047 -0.030187499 -0.033350825 -0.14816052
000040 0c 17 a3 bb 8b 27 92 bc e6 63 99 be 80 af 22 be
       -0.0049771126 -0.017841121 -0.2995903 -0.1588726
000050 64 cc 91 3e 48 6c c5 bd 8c e1 22 be 30 a1 13 bd
       0.2847625 -0.09639794 -0.15906352 -0.036042392
000060 91 54 9c bd e4 e1 e4 bd 2f 75 ab 3d 1b 91 8c bd
       -0.07633317 -0.11175898 0.0837196 -0.06863614
000070 6e 18 ff 3b 45 84 b9 bd 7e db c1 bd c3 30 ac be
       0.0077848947 -0.090584315 -0.09465693 -0.33630952
000080 ce 59 3e be 77 3a ec 3e c7 ff bb 3b 7c 02 22 3e
       -0.18588945 0.46138355 0.005737278 0.1582126
000090 8e 1a 66 be 52 c9 1a be 4e 41 e8 3e 11 bd ad bc
       -0.22471067 -0.1511586 0.45362324 -0.021208318
0000a0 e7 d5 c7 be 5a d1 b8 be 98 75 d1 3f 8f 05 7a 3f
       -0.39030382 -0.36097223 1.6364012 0.9766473
0000b0 c3 ee 98 3e 0c 99 a4 bd e9 c1 50 be d4 c2 9f be
       0.2986966 -0.08037004 -0.20386471 -0.3120333
0000c0 dc 90 dc 3e 7a e1 d6 3e 63 1f 1d be e2 3d 81 3f
       0.4307927 0.419689 -0.15344004 1.009701
0000d0 b7 0e 85 3d 3e a2 a2 3e 69 46 87 be df 2b 1e be
       0.06496947 0.31764406 -0.26420906 -0.15446423
0000e0 96 02 33 be 83 20 e4 be 85 f3 c7 bd ef ff f0 be
       -0.17481455 -0.44556054 -0.097632445 -0.47070262
0000f0 b8 0b 8e be 27 f3 f1 be d8 0e e7 bd 7a b6 20 be
       -0.27743316 -0.47255823 -0.11282128 -0.1569461

linearSequential.4.weight f4 [32, 64]
000000 50 cd ee bd 81 b9 73 3c e0 4d 96 bd 4c 30 4a bd
       -0.11660254 0.014875771 -0.07339072 -0.049362466
000010 88 96 fe bd bc 41 54 bd 94 b5 e3 bd 75 b5 98 3d
       -0.12431055 -0.0518205 -0.11118618 0.07456485
000020 2c e3 69 bd 47 08 32 bc a1 b5 02 be 88 36 c3 bd
       -0.057101414 -0.010866231 -0.12764598 -0.095318854
000030 e9 d2 94 be 56 f5 e8 bc 70 9b 91 bd 32 7d b5 bd
       -0.29067162 -0.028437298 -0.071097255 -0.0886177
000040 8c 4e b8 3c 5e e8 b4 bd a8 71 58 3d 04 60 85 bd
       0.022498392 -0.08833383 0.052842766 -0.06512454
000050 82 f7 a6 3d c0 c4 11 bb b0 9a 5d 3c f0 49 e6 bc
       0.08152677 -0.0022242516 0.01352565 -0.028111428
000060 95 d9 94 3c 0c 98 5f 3d 0c 23 f9 3b be bf 96 bd
       0.018170157 0.054588363 0.007603055 -0.07360791
000070 ec 77 90 bd 31 79 ad bd 3d 48 bf 3d 38 4e 09 be
       -0.07054123 -0.08470381 0.0933995 -0.13408744
000080 a6 06 96 bd 2e 7d 62 be 38 43 14 be 40 95 9f bd
       -0.07325487 -0.22118065 -0.14478767 -0.07792139
000090 ab 29 b6 3c 21 56 98 3d 92 e5 89 3d 54 dd a1 bd
       0.022236666 0.07438303 0.0673324 -0.07903543
0000a0 82 b8 aa 3d f6 aa d9 bd 98 40 12 bd c1 50 fa bd
       0.08335973 -0.10628311 -0.035706133 -0.12222434
0000b0 6e 09 06 bc c4 26 76 bb 20 a7 48 bd 22 5e 53 3d
       -0.008180959 -0.0037559727 -0.048987508 0.051603444
0000c0 bf b8 7e be eb 57 e1 bc ac 5e d6 bb 96 de 0e be
       -0.24875163 -0.027507743 -0.0065420475 -0.13952097
0000d0 a8 ab 1a be 8d 24 03 be ac 1f ad bd 99 aa 14 3e
       -0.15104544 -0.12806912 -0.084533066 0.14518203
0000e0 ee c7 ff bd 9e 38 03 bd 20 09 a9 bb 07 62 1c be
       -0.124893054 -0.032036416 -0.0051585585 -0.1527177
0000f0 f0 73 2b 3d 0c d9 14 be 84 1f 21 3d 77 f9 2c bb
       0.041858613 -0.14535922 0.039336696 -0.002639381
000100 77 84 27 be bc 1c b8 bb f5 25 ad bd cf 48 26 be
       -0.16359125 -0.00561866 -0.08454505 -0.16238712
000110 b1 27 96 bd ba dd 54 3d 2c 83 f5 bd d2 f9 96 3d
       -0.07331789 0.051969267 -0.1198791 0.07371868
000120 47 34 d8 3d 87 ce cd bb 74 9b 12 bd f9 c7 10 3e
       0.10556846 -0.0062807235 -0.035792783 0.14138784
000130 01 dc 6d 3c 97 d0 14 3d 32 4a 8d bd 09 3b 30 3d
       0.014517785 0.03633174 -0.06898917 0.04302505
000140 a8 e9 7f 3d f2 32 1b be 2c f7 0a 3d cb c6 ae bc
       0.06247869 -0.15156153 0.033927128 -0.021335026
000150 8d e6 6a bd f7 b0 aa bc e4 8f df bc 6c 02 00 bd
       -0.057348777 -0.020836337 -0.027290292 -0.03125231
000160 07 59 2a bd 49 66 2d bd a4 e4 ae bd 5a 48 0d be
       -0.04158881 -0.042333875 -0.085397035 -0.13797131
000170 59 86 d9 3d c7 ff cf bd fa da 88 3d 68 77 0a 3c
       0.10621328 -0.101562075 0.066823915 0.00845132
000180 9b 71 0e 3d 45 61 3d bc 8d b2 05 3e cc 5d e2 bc
       0.03477631 -0.011558835 0.13056393 -0.027632616
000190 45 17 09 be 32 4b fe bd f7 92 ea bd 39 7b 3d be
       -0.13387783 -0.12416686 -0.114538126 -0.18504037
0001a0 53 33 a2 bd 88 59 d0 bd 0e fa a7 bd 26 91 da bd
       -0.079199456 -0.10173327 -0.08201991 -0.10672216
0001b0 3b e6 da bd 98 86 f8 39 18 79 aa bd 48 4b 04 bd
       -0.10688444 0.00047402526 -0.08323878 -0.032298356
0001c0 35 4f e9 bd 14 3a 9e bd 5b 99 d3 3d 70 38 0a be
       -0.11392061 -0.07725921 0.103319846 -0.13498092
0001d0 31 59 8a bd 91 03 ea bc d4 b6 25 3e 49 db a1 3d
       -0.06755293 -0.028566154 0.16183025 0.079031534
0001e0 60 64 9c 3d f8 3b e4 bd 90 70 28 3c 85 e7 64 bd
       0.076363325 -0.11144251 0.010280743 -0.055884857
0001f0 36 6c db 3d 30 8c af bd ba cd 9e bd e4 16 9e bc
       0.10713999 -0.085716605 -0.07754083 -0.019298024
000200 fe 1d a9 bd 15 c8 a6 bd 02 20 9c 3d b3 60 00 3d
       -0.08257674 -0.08143631 0.076232925 0.03134222
000210 7a 8d 32 3e 02 cb d7 3b ff 44 54 bd b2 d3 43 be
       0.17436782 0.0065854797 -0.051823612 -0.19123724
000220 dc 4a 8e bd af 1f 0a 3d f0 d0 f0 be b7 de 1c 3e
       -0.06947872 0.033721622 -0.47034407 0.15319334
000230 09 dc 18 bf 7e c9 46 3d ec 36 87 be 90 13 b5 3c
       -0.59710747 0.048532 -0.2640909 0.022104055
000240 0a 7d 42 3e fa 37 e8 bd 39 76 d4 bd cd 35 80 3b
       0.18993011 -0.11338802 -0.10374112 0.0039126636
000250 2f b8 9f bd 12 45 4c bd fc 14 c3 bc ed 8b 33 bd
       -0.07798802 -0.049870558 -0.023813717 -0.043834615
000260 66 96 7c bd 27 c8 2f bd 98 4a 7e be d8 ac 13 3e
       -0.06166687 -0.04291549 -0.24833143 0.14421403
000270 0d 92 0e 3e 33 ba 6d be a7 e7 58 3d 42 e0 22 bd
       0.13922901 -0.2321556 0.052955296 -0.03976465
000280 46 d7 a7 bd e2 ca cd bd ac 0c 91 3d c2 7a 37 be
       -0.08195357 -0.100484625 0.07082495 -0.17917922
000290 6a 97 4f bd 73 25 3b bc 7f 67 83 3e ab a5 75 3e
       -0.05068151 -0.011422503 0.256649 0.23988979
0002a0 bd fa f8 3d e7 2d 1c bc 84 eb 41 be 33 39 92 bd
       0.121571995 -0.009532428 -0.18937498 -0.07139816
0002b0 86 00 6d be de 59 fa bd b4 7a 95 bd 7f 8f 3a 3d
       -0.23144731 -0.12224172 -0.072987944 0.045547005
0002c0 00 c9 2e be e5 37 96 be 87 11 97 bd ea df 42 be
       -0.17068863 -0.2933952 -0.0737639 -0.19030729
0002d0 1d 6b 38 bd 07 3e b5 be 05 62 96 3d 8e 40 bc 3c
       -0.045024026 -0.35398886 0.073429145 0.02298
0002e0 3a de 13 3d 3c 17 18 be 4e e8 0e bd 41 15 26 3e
       0.036100604 -0.14852613 -0.03488951 0.16219045
0002f0 44 83 eb b9 91 4a 0a be 27 e6 dd bd 81 a3 ea ba
       -0.00044920493 -0.13505007 -0.10834914 -0.0017901511
000300 1d 38 16 be 91 6c 95 3c 4d 1f 9e 3d ce f8 96 3d
       -0.14669843 0.018240245 0.07720814 0.073716745
000310 a9 49 a4 bc 5b cb ac 3b 49 a6 70 3d 56 ac 9e 3d
       -0.020054655 0.0052732653 0.058752332 0.07747714
000320 78 5f 87 bc 86 6e bf bd d6 3c 5a be 58 e2 81 bd
       -0.016525015 -0.093472525 -0.2131227 -0.06342
000330 c1 6f 03 be 3d d3 a5 3d 4e dc b4 bd db 50 31 3d
       -0.128356 0.08096931 -0.08831082 0.04329
000340 95 cf 15 be 02 4b 03 be d8 2a bc bd f6 b3 ab 3c
       -0.14629968 -0.12821582 -0.09187859 0.020959835
000350 06 c4 f1 3d c8 42 de bd 00 7e 10 3b 03 bf ea bd
       0.11804967 -0.10852581 0.0022047758 -0.11462214
000360 1e 3a f6 3d e4 57 46 3d 30 1c f9 bd c1 57 06 3d
       0.12022804 0.048423663 -0.121635795 0.032798532
000370 a0 da a4 bd 41 98 25 be c4 09 20 bd f3 fd fd bd
       -0.08049512 -0.16171362 -0.039071813 -0.124019526
000380 11 cf 99 3d 73 93 0d be b8 1a 66 3d 83 d6 26 be
       0.07510198 -0.13825779 0.056177825 -0.16292767
000390 aa cd ad 3d e0 ee 7e bd d4 88 39 bd 9d 63 50 bd
       0.08486493 -0.062239528 -0.045296505 -0.05087625
0003a0 b0 82 bb 3d 11 6b 79 bd 6b 50 1a 3d 39 39 1f be
       0.09155786 -0.060893122 0.03767435 -0.15549172
0003b0 c9 60 54 be 5b 4f be bd 58 f1 13 bd af 2f 79 3d
       -0.20740046 -0.092924796 -0.036118835 0.06083649
0003c0 eb 59 1e be 53 c7 35 be 4e 02 b1 3d 89 3a d0 bd
       -0.15463988 -0.17751817 0.08643018 -0.10167415
0003d0 80 34 c1 bd 7d 2e 29 be 44 ec c0 3d ac e9 a7 3d
       -0.09433842 -0.1652164 0.09420064 0.08198866
0003e0 28 7e da bd ad d1 20 bd 3c f2 65 3d c0 bc 11 bd
       -0.10668594 -0.039262462 0.056139216 -0.035580397
0003f0 40 2e 0b bc 27 34 a7 bd ae a3 07 3d 02 38 d9 3c
       -0.008494914 -0.08164244 0.03311508 0.026515964

linearSequential.4.bias f4 [32]
000000 6a 99 51 be 41 51 4b be 8c f7 78 be 49 3f 85 be
       -0.20468679 -0.19855215 -0.24313182 -0.26024845
000010 3c d6 5a be b4 cd 7c be 95 5b 50 be fa f6 1c bf
       -0.21370786 -0.24687845 -0.20347436 -0.61314356
000020 20 f7 81 be 31 49 78 be 5b 8e 8a 3e 22 83 83 be
       -0.25383854 -0.2424667 0.27061734 -0.25685984
000030 61 38 07 be 62 59 15 3e 6e 80 c1 be b2 09 b8 be
       -0.132051 0.14584878 -0.37793297 -0.35944897
000040 19 f9 e4 be 30 09 78 be 8a 94 d9 be 6e 50 13 bf
       -0.44721296 -0.24222255 -0.4249614 -0.575446
000050 a7 49 ca be c3 e0 ca be a8 e7 2a be 8c bd 5e be
       -0.39509317 -0.39624605 -0.16689932 -0.21751994
000060 5d 0d 4b be 1a 22 bd be ed bc 06 3e b2 52 dc be
       -0.19829316 -0.3694008 0.13158007 -0.43031842
000070 bb ad de 3e bc 8d 18 3f f4 28 7b 3e a9 48 ba be
       0.4349192 0.5959127 0.24527341 -0.3638356

linearSequential.6.weight f4 [16, 32]
000000 51 3f 81 3e 51 d7 09 be b3 ee 02 3e 4f d6 67 be
       0.2524362 -0.13461043 0.12786369 -0.22640346
000010 41 51 cd 3c 6c 78 2c 3e 3e 9e 7e 3e 7c 79 ce 3c
       0.025063159 0.16842812 0.24865052 0.025204413
000020 98 8d 97 3e b6 79 9b bd 36 c9 1f be 05 61 10 bd
       0.29600215 -0.07591574 -0.156041 -0.035248775
000030 60 c9 2f be 86 25 a0 bd 00 b5 28 3e b0 5c 81 3d
       -0.17166662 -0.07819657 0.16475296 0.06316507
000040 be e2 d5 3b 36 05 03 3d 69 09 ce 3d 87 94 22 be
       0.006527274 0.03198739 0.100603886 -0.15876971
000050 15 93 f1 3d 18 f9 13 bd d4 de 46 3e 36 15 bb 3d
       0.11795632 -0.036126226 0.1942094 0.09134905
000060 fd 0c 1a bd f7 c1 dd bc d4 9f 8d bf 3d 98 7a bc
       -0.037610043 -0.027070029 -1.1064401 -0.0152950855
000070 46 96 05 3e 72 3a d2 bd 0f 3f 6d bf 5a 59 2d 3e
       0.13045606 -0.10265054 -0.92674345 0.16928616
000080 c5 eb 2c 3e 84 35 8b 3d 4b fd 31 be 05 f3 83 bd
       0.16886814 0.06797317 -0.1738178 -0.06442837
000090 ac 56 0f 3d 58 f1 08 3d 79 5c bc be c4 c5 81 3d
       0.034994766 0.03343329 -0.367893 0.06336549
0000a0 7d b9 06 bd a6 e2 80 be 89 a7 8f bc b4 2c 18 3d
       -0.03289174 -0.2517292 -0.017535942 0.037152007
0000b0 2f 56 0a 3e ac 20 1b be 76 e0 97 3d c0 73 4d 3d
       0.13509439 -0.15149182 0.074158594 0.050159216
0000c0 50 e1 cb 3c 70 eb 10 bc e4 42 84 3d 24 e8 af bd
       0.02488771 -0.008845195 0.06458071 -0.08589199
0000d0 c6 ea 5c 3c 70 1e 40 bc 58 63 d9 bc e3 27 18 3e
       0.013483709 -0.011726007 -0.026536629 0.14858966
0000e0 37 cd 08 be 82 f4 0b be 20 9b 04 be 04 a2 d2 bd
       -0.13359533 -0.13667491 -0.129498 -0.10284808
0000f0 16 f0 16 be 8e 03 99 be b7 72 f9 bd 20 14 c6 3c
       -0.14740023 -0.29885525 -0.12180083 0.024179518
000100 81 29 6a bc 50 62 35 be 7b b3 a4 be 68 0d 5f 3d
       -0.014292122 -0.17713284 -0.32168183 0.054456145
000110 f5 bf d6 3d f7 c0 46 3e e3 65 85 3e c7 2a 23 be
       0.10485832 0.19409548 0.26054296 -0.15934287
000120 ab 9e 3c 3e 09 49 05 3d de e3 49 bf 39 8c 89 be
       0.18419902 0.032540355 -0.7886332 -0.26864794
000130 46 36 21 3d 46 84 27 bd 8b 0c 3b 3e 20 72 7c bd
       0.0393584 -0.04089763 0.18266504 -0.061632276
000140 d4 d9 6f 3b 3a 18 41 bc d6 48 79 3e 25 d3 4e bf
       0.0036598342 -0.011785561 0.24344191 -0.8079093
000150 72 9d f8 bd 91 1e e5 3d 3e 72 c3 3c 14 58 84 3d
       -0.12139405 0.11187471 0.023858186 0.06462112
000160 36 69 19 bd be 6d 82 3d 3b 26 7b bd ae ed 41 3e
       -0.037453853 0.06368588 -0.061315756 0.18938324
000170 d4 ee 74 3d 63 36 57 be fe c1 32 bf ef a5 ac bd
       0.059798077 -0.2101684 -0.6982726 -0.08430087
000180 0e 80 f1 bd 26 6e 85 3c bf e6 dd 3d f5 23 3e 3d
       -0.117920026 0.016287874 0.10835027 0.04642101
000190 25 3d 15 3e 99 c4 23 be 12 55 6f 3e 29 6b 3e be
       0.14574106 -0.15992965 0.23372295 -0.18595566
0001a0 9c f3 2b 3d 7d 0c af bd 20 9a 10 be d2 46 3a bd
       0.04198037 -0.08547304 -0.14121294 -0.045477696
0001b0 c0 3c bf 3d 78 3b 56 3d 65 18 bc bd 63 8d 2f 3b
       0.09337759 0.052302808 -0.091843404 0.0026787154
0001c0 ea 97 f9 3d 76 04 3a bd c2 6d d6 3c 2d f0 de bb
       0.121871784 -0.04541441 0.026175383 -0.0068035335
0001d0 65 fe e0 3d 37 65 98 3c 37 1e ca 3d 04 e8 86 3e
       0.10986022 0.01860295 0.09869044 0.2634889
0001e0 e0 bd 5a bd da 20 db 3c 2c 78 83 bf 55 0d 28 be
       -0.053403735 0.026749063 -1.0271049 -0.16411336
0001f0 3b c6 38 3d ed d8 c0 3b 73 a0 7a bf d5 75 b5 be
       0.045110922 0.0058852346 -0.97901076 -0.3544146
000200 5a 95 68 3d 30 30 b3 bc 67 52 e7 bd 1f dc 00 3e
       0.056783058 -0.021873564 -0.11295014 0.1258397
000210 f6 0f c9 bd d8 c1 59 be 71 c2 cd bf cd 4f 26 3e
       -0.098174974 -0.21265352 -1.6074964 0.16241379
000220 43 10 aa bd d4 84 ef 3b eb 72 9c 3d 2c 2c ef 3c
       -0.08303883 0.0073095355 0.07639106 0.029195867
000230 aa 3e 1d 3d 24 03 aa bf 17 7d 7c bd 20 aa 8b bd
       0.03838984 -1.3282208 -0.061642732 -0.06819558
000240 a0 5d 97 bd de 7e 6c 3e 18 ad fd 3e 05 ce 15 3e
       -0.073909044 0.23095271 0.49546123 0.14629371
000250 e6 b7 9c be 94 92 c0 bd 30 96 1b 3c 7f db 41 bd
       -0.30609053 -0.094029576 0.009496257 -0.04732847
000260 5d 3c 6b be c6 c9 c0 bd 0f 39 f3 bb b0 3b fd be
       -0.22972246 -0.09413485 -0.0074225734 -0.494596
000270 02 8c d7 be 9d 9f 10 bf 23 7b 37 3e 97 bf b9 3d
       -0.42099005 -0.5649355 0.17918067 0.09069746
000280 67 d4 22 3e 33 06 bd 3c f4 7e 0d be 02 17 45 be
       0.15901338 0.023074245 -0.1381796 -0.19247058
000290 ac 9a 85 bd 59 4c 93 3e 86 ac 4c 3e c8 c9 5e bc
       -0.06523642 0.28769186 0.19987687 -0.013597913
0002a0 be 2f 92 bd f5 20 bc bd 0b 17 80 bd 44 85 15 bd
       -0.07138012 -0.091859736 -0.06254395 -0.036504045
0002b0 a6 7a 52 3e a4 e4 f8 bb 32 13 ba 3d a4 14 4c 3e
       0.20554599 -0.0075956155 0.090856925 0.19929749
0002c0 77 5f 20 3d 20 2d 88 bd 80 f0 e4 3b 51 fb 93 3d
       0.039153542 -0.06649232 0.0069866776 0.07225669
0002d0 05 10 1d 3e 94 da 4f bd d5 dc 01 bd d0 8a 4a 3c
       0.15338142 -0.05074556 -0.031704742 0.012362197
0002e0 41 7a 72 bd bf 19 39 bd 7a 70 a1 be 62 3a 25 bd
       -0.05919862 -0.04519057 -0.31531125 -0.04033888
0002f0 7c 74 a5 bc 58 59 db bd 12 69 23 c0 c7 10 4b 3e
       -0.020197146 -0.107104 -2.553288 0.19830619
000300 f8 74 d2 b9 5a 8c 2a 3d 8d 7a b5 bd c9 2e 12 bb
       -0.0004014147 0.041637756 -0.08861265 -0.0022305718
000310 95 8e 05 be 75 bb 7e bd eb 22 83 3e d9 90 9f bd
       -0.13042672 -0.06219049 0.25612578 -0.077912994
000320 55 5e 00 3f 6a 28 09 bd 81 c8 a0 be 84 95 09 be
       0.5014394 -0.033485807 -0.31402972 -0.13435942
000330 2d 4a e7 bd 14 9a 82 3d a8 a8 2f bc 47 24 14 3e
       -0.11293445 0.06377044 -0.010721363 0.14466964
000340 d2 40 91 bd e9 e8 09 bd 60 6b 9b bb 92 ca 87 be
       -0.070924416 -0.033669386 -0.0047430247 -0.26521736
000350 86 92 29 3c 95 ac 55 3c 83 8e 58 3e fc fb 2f be
       0.010349875 0.013041635 0.21148114 -0.17185968
000360 e2 a6 17 3d 93 ea b3 3d e6 df 33 3e 65 a4 81 3e
       0.037024386 0.08784976 0.17565879 0.25320736
000370 c4 a3 31 be 58 84 cb be 04 75 4b be 03 cf 20 be
       -0.17347628 -0.39749408 -0.19868857 -0.15703969
000380 03 88 36 3e 75 4e a0 3d 87 63 7e bd 57 f1 01 3e
       0.17825322 0.078274645 -0.062106635 0.1268972
000390 a3 8b 3f be 47 f7 ba bd da f9 8c bf b7 f0 21 3e
       -0.18705611 -0.09129196 -1.1013749 0.15814482
0003a0 6e e2 aa be 55 4e f1 bd 23 5d c9 bc 85 f7 71 be
       -0.33375877 -0.11782519 -0.024580544 -0.23629577
0003b0 0c b1 c9 3d 29 b7 8c bf 88 2b ae bd e1 cc 4a be
       0.09848222 -1.0993396 -0.08504397 -0.19804718
0003c0 52 a8 53 be 7b 79 8d 3d fc 0d ef be 81 7f d6 be
       -0.20669678 0.06907936 -0.46690357 -0.41894153
0003d0 0a 8a 63 bf d1 df 97 bd 15 7e 1e 3e 51 0c a3 bd
       -0.88882506 -0.074157365 0.15477784 -0.079613335
0003e0 01 39 c3 bd f9 ef e4 be df e2 d0 bd 70 f1 c2 be
       -0.09532357 -0.44714335 -0.10199522 -0.38074827
0003f0 d3 af 13 bf 76 73 a5 bd 7f 91 5f 3e c8 55 b2 3d
       -0.5769016 -0.08078663 0.21832846 0.08707768

linearSequential.6.bias f4 [16]
000000 a8 c2 56 3e e2 e0 14 bf 7c b6 26 3e 17 62 4c 3e
       0.20972693 -0.58155644 0.1628055 0.19959293
000010 cd c9 27 3e 89 c5 27 3e 62 be 4a 3e 38 5f 00 3e
       0.16385575 0.16383947 0.19799188 0.12536323
000020 7b 05 29 3d f6 59 1b bb ee ab 3e 3e 8f 22 29 3e
       0.041264992 -0.0023704744 0.18620273 0.1651709
000030 b0 ed 09 3e c2 98 92 be 01 85 55 bd 79 97 74 3e
       0.13469577 -0.2863217 -0.052128796 0.23885907

linearSequential.9.weight f4 [2, 16]
000000 71 53 bf 3c 5f 6a 9e 3d 51 0c d1 bc 07 b1 b5 3c
       0.023355218 0.077351324 -0.025518568 0.02217914
000010 6e b8 27 3c 9b 2e e6 3c ec 61 b7 bc 0f 38 9f bc
       0.010236843 0.028098395 -0.02238556 -0.01943591
000020 4e a3 1c 3e 06 72 69 3e b4 8f cc bc 10 bf a3 3c
       0.15296671 0.22797403 -0.024970867 0.019988567
000030 55 e9 89 bb 54 4f 05 3e af 84 89 be 1d bd b1 3b
       -0.0042087235 0.13018543 -0.26859042 0.0054241554
000040 8c aa 34 3e 75 d6 f7 bc e0 29 48 3e 30 3e 26 3e
       0.17643183 -0.030253628 0.19547224 0.1623466
000050 00 11 33 be d1 d6 24 3e 6a f5 3a 3e cf ef 37 be
       -0.17486954 0.16097571 0.1825768 -0.17962573
000060 2a 1d db 3d 61 be af 3c 6a e9 4a 3e f3 6c 48 3e
       0.10698922 0.021453084 0.19815603 0.19572811
000070 b0 4d 32 be 64 3e 14 bc 24 aa f6 bb 29 f8 34 3e
       -0.17412448 -0.009048078 -0.0075276066 0.1767279

linearSequential.9.bias f4 [2]
000000 b4 a6 72 3e 04 f5 57 40
       0.23696405 3.3743296
