src/nets/state_dicts/nnwf01.pt (torch, 53651 bytes, 10 tensors)

linearSequential.0.weight f4 [128, 11]
000000 33 25 fb be 0d 01 83 3f bf 2d ff be ea b4 dc 3e
       -0.49051818 1.0234696 -0.4983959 0.43106776
000010 86 e1 41 bf e3 1d b7 3e 42 1e c0 be 9a 5d 54 bd
       -0.75734746 0.3576499 -0.37523085 -0.051847078
000020 c1 5c a6 be bf c7 e0 be b0 be 3f bf d6 df bf be
       -0.3249264 -0.43902394 -0.7490034 -0.3747546
000030 5c d1 19 be 19 f8 fd 3d 45 1a f7 bd 8b f7 4f 3d
       -0.1502127 0.124008365 -0.120655574 0.050773185
000040 07 16 7c 3e 43 64 90 bc 95 f3 80 3d e9 d5 fa 3c
       0.24617778 -0.017625934 0.062964596 0.030619578
000050 fb 1c bd be 6e 82 25 3f 12 86 69 bc 31 b9 11 be
       -0.36936173 0.64652145 -0.014253156 -0.14230801
000060 c7 2a a3 bf 81 07 1f be f4 9f 32 bf eb 06 0f bf
       -1.274743 -0.15530206 -0.6977532 -0.5586993
000070 46 d2 e3 bc 18 ff 63 3e a1 88 0d be bc 1c c4 3e
       -0.027810227 0.2226528 -0.13821651 0.38303173
000080 0d 26 83 bf 8a 88 01 be f1 bd 3d bb 00 a7 5c 3e
       -1.0245987 -0.12649742 -0.0028952325 0.2154808
000090 85 c3 3f 3e ff 75 20 3e e3 fa 0a be 4a 73 22 3e
       0.18726929 0.15670012 -0.13572268 0.15864292
0000a0 a5 22 93 bd 48 cd 30 be a4 87 28 bf cd a6 6e bd
       -0.07184342 -0.17265809 -0.6583197 -0.058264542
0000b0 65 22 1c bd a3 ad fc be b3 ae b6 3e aa a5 c3 3e
       -0.03811874 -0.49351224 0.3568016 0.3821233
0000c0 c1 71 d4 3e 5c 1e d3 3e b3 72 2e 3e f0 fb 6a 3f
       0.41493037 0.412341 0.17035942 0.91790676
0000d0 c0 e3 8b be c8 df b5 bf 9e 4a 83 bf ae 8b 92 bd
       -0.27322197 -1.4208918 -1.0257146 -0.07155548
0000e0 05 cd cf be 48 d4 f4 3a b9 92 8c be 08 ba 8c bc
       -0.40586105 0.0018678987 -0.2745569 -0.01717855
0000f0 2e 6a 23 3e 99 d8 c5 3e b0 02 a9 3e c3 ec fe 3c
       0.15958473 0.38641813 0.33009863 0.031118756
000100 e6 a2 70 3f 9d ea 0b c0 e0 90 a8 be 95 ef f7 3e
       0.93998563 -2.1861947 -0.3292303 0.48424974
000110 81 b8 a4 3d 12 38 8f 3e 17 b2 e6 3e d9 16 8a 3d
       0.08043004 0.27972466 0.45057747 0.06742639
000120 15 6e 54 bf 89 06 6a 3e ad d8 ae 3e cc 48 63 bf
       -0.8298047 0.22854055 0.34149686 -0.88782954
000130 d6 b6 b0 be 6c 60 ed 3e 4f b0 32 3e e1 f8 12 bf
       -0.34514493 0.46362627 0.17450069 -0.5741101
000140 2c 43 0d be b8 be 59 3d 0c 12 be 3d 91 7e 86 3c
       -0.13795155 0.0531604 0.09280786 0.016417773
000150 ea cb 06 bf 76 cc 71 3e 94 57 d3 3c e4 eb 62 be
       -0.526549 0.23613152 0.025798596 -0.22160298
000160 47 cb 1c 3c 72 c4 7f 3f a1 69 b6 be 25 8b 35 bf
       0.0095699495 0.99909127 -0.35627463 -0.7091544
000170 17 77 8a 3e a1 82 ec bb 26 23 7c bd b0 de 7f bf
       0.27043983 -0.0072177206 -0.061556958 -0.9994917
000180 80 df 1f 3f 93 1b dc be d7 77 f1 3d bc 4d 05 3d
       0.6245041 -0.42989787 0.11790436 0.032544836
000190 e7 bb 49 be fc d5 7b bd ac 57 a3 be af 18 bc bd
       -0.19700585 -0.06148337 -0.31902826 -0.091843955
0001a0 a3 d7 0b bd 05 35 aa 3e 89 08 b8 be bb a9 e6 3e
       -0.034141194 0.33243576 -0.35944012 0.4505137
0001b0 cc 28 e7 3d bb 63 b1 3e 53 a9 31 3e 8b f0 62 3f
       0.11287078 0.346464 0.17349748 0.8864829
0001c0 f6 3f e6 3d 3b b5 41 bf 2a 59 b2 3d 97 99 81 be
       0.11242668 -0.7566716 0.08708413 -0.25312492
0001d0 92 30 a1 3e 66 36 05 bf 30 8e f9 3e 80 d8 be bf
       0.3148237 -0.5203613 0.48741293 -1.490982
0001e0 19 06 20 bd c7 59 35 bf 58 59 c0 bd ce f3 7d be
       -0.039068315 -0.70840114 -0.09392041 -0.24800035
0001f0 19 59 91 3e 82 ee 9a 3e 2e 94 f9 3d 9a 69 f7 3e
       0.2838829 0.30260092 0.12186466 0.48322755
000200 1a 2b b5 3e 04 14 a7 3e 3c 7b f0 3e d3 7e 2f c0
       0.35384446 0.32632458 0.4696902 -2.7421157
000210 45 a0 4b bf 59 ed 3d 3c 7a 00 4f be 96 23 d4 bd
       -0.79541427 0.011592233 -0.20215026 -0.1035835
000220 ee 4d ad be 5c ef 08 3f b8 9b 32 bf db c2 08 3e
       -0.33848518 0.53490233 -0.6976886 0.13355581
000230 8b 24 a7 bd 60 bc 36 bf b0 87 91 bf 58 d1 29 be
       -0.08161267 -0.7138119 -1.1369534 -0.16583765
000240 8d cf 2f be 6a c3 43 be c1 ba 46 3e a7 f1 eb 3e
       -0.17169018 -0.19117513 0.19407178 0.46082804
000250 b7 49 07 3d 7d cb b5 3d 7c 5d 05 3e b8 32 b5 be
       0.033029284 0.08876703 0.13023943 -0.35390258
000260 1b 22 91 be 79 30 61 bd c8 3b 2f bf 36 d1 b8 3e
       -0.28346333 -0.054977868 -0.68450594 0.36097115
000270 03 de 62 3e 27 ef 02 3f 1a d2 bd be ee c2 1f bd
       0.22155003 0.5114617 -0.37074357 -0.03900426
000280 47 8a 03 be 33 4d 79 3e ab f6 ac be 1c 92 60 3e
       -0.12845717 0.24345855 -0.33781943 0.21930736
000290 6e 23 87 be f5 da ab 3f 8d fc 41 3f 04 de 98 be
       -0.26394218 1.3426195 0.75775987 -0.29856884
0002a0 ae 4b e8 bd c9 85 01 3f dc d1 35 be b7 3f d0 be
       -0.1134256 0.50594765 -0.17755836 -0.4067361
0002b0 10 70 1b bf a0 21 93 3e 1e 1f 90 bd 99 fa a4 bf
       -0.6071787 0.2873659 -0.07037185 -1.2888976
0002c0 6d fb d4 bd 32 ac 76 bf ce 48 f1 3e 8f 52 d4 3e
       -0.10399518 -0.963565 0.47125858 0.41469237
0002d0 18 ca 27 3f 23 3f 79 3e 06 50 77 3e 09 e2 f0 3d
       0.65542746 0.24340491 0.2415162 0.11761863
0002e0 1d 18 a2 3e 34 64 7a be e6 07 5c be 59 19 70 bf
       0.31659022 -0.24452287 -0.21487388 -0.9378868
0002f0 a6 16 cd 3e 02 20 0a 3f d1 cf 82 3f 50 11 24 3e
       0.40056342 0.5395509 1.021967 0.16022229
000300 a3 a3 e8 3e a6 25 fe 3d a9 d4 2f 3f 23 9a c9 be
       0.45437345 0.124095246 0.6868387 -0.3937541
000310 32 2e 8a 3e d0 d2 1c be 6c 8c a6 3e c1 2f 7e be
       0.2698837 -0.15314794 0.32529008 -0.24822904
000320 a9 0c e4 be ea cf 0f 3f 20 d8 ce be 2e 4e bd 3d
       -0.4454091 0.56176627 -0.40399265 0.09243427
000330 d3 16 1e 3f c8 ed 74 3e a7 ab dc 3d 70 79 ac bb
       0.61753577 0.23918831 0.107749276 -0.0052635
000340 5a 16 48 bf 6d 9c 2c bf f8 4b 8f 3d 0c b9 7e be
       -0.78159106 -0.67426187 0.06996912 -0.24875277
000350 21 68 0c bf fc b7 89 3e 04 6c b2 bd e2 c6 4c be
       -0.5484639 0.2689818 -0.087120086 -0.19997743
000360 46 ca 7c 3b b2 9d af 3e a2 80 b3 be 25 c5 4f be
       0.0038572713 0.343 -0.35059077 -0.20290048
000370 a3 e1 db 3e 2a 47 10 3e 62 e4 58 3d 92 90 81 3e
       0.42945585 0.14089647 0.052952178 0.2530561
000380 c6 9f 31 be 79 fb 9f bc b5 ae 28 3e 82 02 0c 3d
       -0.17346105 -0.019529091 0.16472895 0.03418208
000390 8c da 3b 3e 1a 52 d5 3e 20 18 09 3f ea f4 39 be
       0.18345088 0.416642 0.53552437 -0.18159834
0003a0 60 f8 bd 3e d8 ee 16 3e 51 c1 2a bf a0 55 47 3c
       0.37103558 0.14739549 -0.6670123 0.012166411
0003b0 f4 0a a0 3d b1 14 55 be a9 53 00 bf 8b d2 c8 be
       0.07814589 -0.20808674 -0.50127655 -0.39223132
0003c0 9d 0d 19 bf 68 f4 12 be bb 93 52 3f 50 8a 19 bd
       -0.597864 -0.14351046 0.8225667 -0.03748542
0003d0 0d ba fd be d5 51 e1 be 1d db 67 be c4 d8 8c 3e
       -0.49556008 -0.44007745 -0.22642179 0.2750913
0003e0 7c 57 dd 3d b0 c7 e4 bd ee 20 23 be c1 4c 3e 3d
       0.10807702 -0.111709 -0.1593053 0.046459917
0003f0 ad 18 ee be 61 c6 b5 3e 8f 1f 09 3f df f5 32 bf
       -0.465032 0.35502914 0.5356378 -0.6990642

linearSequential.0.bias f4 [128]
000000 ca 5c 24 3e 48 bd 84 bd d9 75 d1 be 11 68 ca be
       0.16051021 -0.06481415 -0.40910223 -0.3953252
000010 8e b2 61 bf a4 7b fa 3d 37 de c2 be ee 25 40 bf
       -0.8816308 0.12230614 -0.3806016 -0.75057876
000020 4c 05 25 bf 3b 35 07 bf ea 30 1b bf cf 94 03 bf
       -0.6446121 -0.528156 -0.6062151 -0.5139894
000030 3e 2e 9d bf 98 75 39 bf 89 a9 9c bf e0 73 3c bf
       -1.2279737 -0.7244506 -1.2239238 -0.7361431
000040 55 e0 c6 bf 34 1c 72 bf 4e ed e1 bf 37 8d c7 be
       -1.5537211 -0.94574285 -1.7650545 -0.38974926
000050 a6 45 a3 be 4e 8a 1b bf 45 82 97 3f e8 60 41 be
       -0.31889075 -0.6075791 1.183663 -0.18884623
000060 73 a1 aa bf b1 f1 35 bf 5c 9b 0d bf a6 87 98 be
       -1.333052 -0.71071917 -0.55315185 -0.29790992
000070 be 54 d8 bf 72 10 29 be e4 ec 8d bf db ec 42 bf
       -1.6900861 -0.1651018 -1.1087918 -0.7614266
000080 0a 01 3a bf e0 ca eb bf 11 1e 85 bf 5d 53 58 be
       -0.72657835 -1.8421288 -1.03998 -0.2112555
000090 1e 86 93 bf 36 78 47 bf 1c 7f 21 bf 58 3f fb bf
       -1.1525304 -0.779178 -0.6308458 -1.9628706
0000a0 27 f7 8a be d9 c2 94 bf 53 8c eb be 3c bb 99 bf
       -0.27141687 -1.1621963 -0.46005496 -1.2010264
0000b0 20 c1 b8 3d fd 8e 50 3d 8a 08 e0 be 51 c0 05 bf
       0.09021211 0.050917614 -0.43756515 -0.52246577
0000c0 da 41 c7 bf d3 34 66 bf 1e b4 d2 bd 93 0a ab bf
       -1.5566971 -0.89924353 -0.10288261 -1.3362602
0000d0 e5 84 16 bf 8b 6a 44 bf 34 19 13 bf aa 51 88 bf
       -0.5879653 -0.7672507 -0.5746033 -1.0649922
0000e0 10 5d a7 bf a6 26 f1 be 66 e3 88 3e d6 16 a0 be
       -1.3075275 -0.470998 0.2673599 -0.31267422
0000f0 88 70 50 bf 41 1a b5 be e9 b9 96 be af f2 8b bf
       -0.8142171 -0.35371593 -0.29438713 -1.0933436
000100 47 81 0e bf 3e d3 87 bf 90 2a a8 bf ef b8 8c bf
       -0.5566601 -1.0611341 -1.3137989 -1.0993937
000110 53 a0 92 bf 17 08 b5 bf 56 c8 2a bf 21 ab 74 bf
       -1.1455177 -1.4143094 -0.6671194 -0.9557362
000120 63 ae a6 bf b4 e3 a1 bf 99 a1 17 bf 39 ad a4 be
       -1.3021969 -1.2647614 -0.59230953 -0.32163408
000130 96 3e b7 bf 0d 4c 4a bf 83 bc ca be b7 1b 7b bf
       -1.4315975 -0.79022294 -0.39596948 -0.98089164
000140 2a 7a bc bf 7a 2e 4e bf ca 03 80 bf 18 42 50 be
       -1.4724782 -0.8053967 -1.0001156 -0.20337713
000150 4c 14 62 3f 98 5e 76 bf c8 c0 e1 bf 63 46 10 bf
       0.8831222 -0.9623809 -1.7636957 -0.563574
000160 c9 77 1d bf 72 78 2f bf a7 28 32 be e9 28 8b bf
       -0.615109 -0.6854316 -0.1739832 -1.087186
000170 26 fd 96 bf 9f e5 d8 be 37 de 92 be 0a a8 27 bf
       -1.1796005 -0.42362687 -0.2868516 -0.6549078
000180 aa 66 3e bf 50 f1 36 bf 7d 97 49 bf bf 7d 5d bf
       -0.743754 -0.71461964 -0.7874678 -0.8652
000190 44 1b 3c bf 46 bd 4d bf 09 b8 88 bf 6f a3 a6 bf
       -0.73479104 -0.80366933 -1.0681163 -1.3018626
0001a0 2a eb 85 bf 41 24 4f bf 4e f5 ee bf a4 3c 98 bf
       -1.0462391 -0.80914694 -1.8668611 -1.1893506
0001b0 bf 6d 5b bf 1d ab 88 bf 67 85 6d bf 7d 2a 74 bd
       -0.85714334 -1.067722 -0.9278168 -0.059610832
0001c0 d8 0d c6 bf c7 94 0f bf 1d 39 9a bf fc f6 44 bf
       -1.5472975 -0.5608639 -1.204868 -0.7693937
0001d0 78 2d 95 bf 67 a5 e5 bf 4d 57 98 bf b3 35 ac be
       -1.1654501 -1.7941102 -1.1901642 -0.3363472
0001e0 c1 1b c1 be 6e c9 9d be 73 02 84 be 92 df 40 bf
       -0.37716487 -0.3081774 -0.2578312 -0.7534114
0001f0 ff ad 81 bf b1 36 9e bf 7e a7 a4 bf 51 22 04 bf
       -1.0131224 -1.236044 -1.2863615 -0.5161486

linearSequential.2.weight f4 [64, 128]
000000 23 f0 fb ba ec ed 20 be 12 5c 1c 3b cb 63 8d be
       -0.0019221347 -0.1571576 0.002385859 -0.27615198
000010 2a 8c 02 bc 9b d7 15 be 8f 55 f8 3a fb f9 8d bc
       -0.007967988 -0.14633028 0.0018946397 -0.017331114
000020 5f 80 b6 3d f2 7c d6 bd ae 38 47 be 2d 87 44 3c
       0.089112036 -0.1047305 -0.19455215 0.011995119
000030 0a c4 20 bd d1 73 e2 bd 00 8c 68 bb 3e 25 02 be
       -0.039249457 -0.110572465 -0.0035483837 -0.1270952
000040 af 6c ac be d1 30 20 be 18 d0 de ba 22 d8 0d 3d
       -0.3367667 -0.15643622 -0.0016999273 0.03462995
000050 91 68 f7 bd 4d cf 82 be ee 19 5d be 36 96 90 be
       -0.12080491 -0.25548783 -0.21591923 -0.28239602
000060 cf 51 10 3d 12 ae df bb 75 37 34 bd c8 ec 5a be
       0.03523427 -0.0068261707 -0.0439982 -0.21379387
000070 00 01 fe 3c 52 e7 20 3e 21 1b 86 3d e1 4b 7f be
       0.031006336 0.15713242 0.06548143 -0.2493129
000080 98 70 1c 3d 85 6b 1e bc b0 57 82 be 70 ad 0b be
       0.038193315 -0.009669189 -0.25457525 -0.1364038
000090 20 fe 98 3c 64 99 3e be 5f 97 20 3d 97 9d a9 be
       0.018675864 -0.18613201 0.03920686 -0.33128044
0000a0 40 65 b2 be fe 5f b5 bd c9 7b 04 be 4b 7f 32 be
       -0.34842873 -0.088562 -0.12937845 -0.17431371
0000b0 7d a5 16 bb e9 37 ea bd bd 37 b1 bd c3 52 0f be
       -0.0022986822 -0.11436445 -0.08653209 -0.13996415
0000c0 b6 6a f5 bd 6a e9 2e 3d de ca 59 be 79 e6 6e bc
       -0.11983244 0.04270307 -0.21268794 -0.014581316
0000d0 3b cd 63 bd 8d 89 22 be 94 fb 8f be 0b be 97 be
       -0.055615645 -0.15872784 -0.28121626 -0.2963718
0000e0 ed 1a 55 bd b6 f1 54 bc c2 38 b6 3c 12 db 1b be
       -0.05202763 -0.0129970815 0.022243861 -0.15220287
0000f0 1c d8 14 bd 24 ca 72 be 62 7a 11 be aa d7 5a bd
       -0.03633891 -0.23709923 -0.14206842 -0.05342833
000100 00 aa 78 3d af 81 e2 3d 3b c3 b1 bd c8 e7 62 be
       0.060709 0.110598914 -0.086798154 -0.2215873
000110 96 4f c7 3c 73 8c 63 bd 5c d1 13 bd b3 54 6d bd
       0.024329942 -0.055553865 -0.036088333 -0.057942104
000120 42 c7 37 bd c8 ba d8 3d 13 1d 11 be 4b ee a9 3c
       -0.04486776 0.10582501 -0.14171247 0.02074351
000130 61 95 41 bd c5 34 9f bc 17 f5 02 be ef 96 21 3d
       -0.0472616 -0.019434342 -0.12788807 0.039450582
000140 41 eb 1c be 28 28 69 bd b3 ef a7 bd 52 9c ad bd
       -0.15324117 -0.05692306 -0.08200016 -0.08477081
000150 e3 4e 84 be 61 ad b2 bd 8a 78 29 be ef 22 5b bd
       -0.25841436 -0.08724476 -0.16549888 -0.053500112
000160 a8 a7 6a bd 1c a3 53 be a2 49 74 be 6c a1 13 bd
       -0.057288796 -0.2066769 -0.23856214 -0.036042616
000170 43 07 0b be 64 70 60 be 59 fd 36 be 00 ec c6 bd
       -0.13576989 -0.21917874 -0.17870082 -0.09712982
000180 50 50 0a bd 84 ed 79 be 05 50 d5 bd 07 8f ed bd
       -0.033768 -0.24407011 -0.10415653 -0.11599546
000190 ee 7d 40 bd f6 62 33 bd a9 0f 01 be cc 7a 3a 3d
       -0.046995096 -0.04379555 -0.1260363 0.045527264
0001a0 94 86 8f be 9f 13 a7 bd ee f4 48 3e 5e 0e e7 bd
       -0.28032362 -0.08158039 0.19624683 -0.11282037
0001b0 27 e9 ea bc 6d 57 01 3e f9 c2 71 bd 83 36 f8 bd
       -0.028675629 0.12631007 -0.05902383 -0.12119772
0001c0 c5 b9 5d be a8 98 0d be c1 40 a3 bc c2 f3 0d be
       -0.21652897 -0.13827765 -0.019928338 -0.13862517
0001d0 c2 2b 34 bb 80 1e 6f be a7 1d 65 3b 4f fc a2 bd
       -0.0027491902 -0.23351479 0.00349603 -0.0795828
0001e0 b2 ea 1f ba 46 58 3b be 74 c2 1d 3c 3e ec 08 be
       -0.0006100341 -0.18295392 0.009628881 -0.13371369
0001f0 40 85 29 3b ad cf 9d 3d ff e4 86 be c2 d5 09 bd
       0.0025866777 0.07705627 -0.26346585 -0.03365112
000200 d6 c2 13 3e cf a2 b9 be b7 d2 22 bf b1 e4 c3 be
       0.14429793 -0.36257026 -0.63602775 -0.38260415
000210 18 18 d0 bd 09 ab 88 be 55 53 b1 be b7 86 8f 3b
       -0.101608455 -0.2669299 -0.3463389 0.004380073
000220 f2 0d ff bc 54 f2 a4 be a5 ee 01 bf 9e da f9 bb
       -0.03113458 -0.32216132 -0.5075477 -0.007624938
000230 58 6e ca be 78 f2 19 be 70 cc 9a be 32 d8 05 3c
       -0.3953731 -0.150339 -0.30234098 0.008169221
000240 82 bb 05 bd 0a ff ce be cb 9a 20 3c 9b 4d 1c be
       -0.032649525 -0.40428954 0.0098025305 -0.15263979
000250 85 f5 ca be 4f a9 f6 bd 05 28 56 3d e6 4b d3 be
       -0.39640442 -0.12044012 0.05228426 -0.41268843
000260 68 ad 66 be 09 30 c3 bd 9d 2d 26 bf 76 8b c8 bd
       -0.22527087 -0.09530646 -0.6491335 -0.09792225
000270 0c 43 62 be e3 fc 18 3f 02 c5 19 be 8b 1a 3b be
       -0.22095889 0.59760875 -0.15016559 -0.18271844
000280 1b 95 07 3d 63 3b 2e be b9 84 21 bc e0 1c 4d bf
       0.033101182 -0.17014842 -0.009858304 -0.80122185
000290 9c 42 12 bf 95 c5 5e be 4c da bb be 49 e1 d7 be
       -0.5713289 -0.21755059 -0.36689985 -0.42164066
0002a0 43 c2 e7 bd 30 73 88 be 10 9e cf be 93 45 39 be
       -0.11316349 -0.2665038 -0.4055028 -0.18092947
0002b0 9a b1 81 bc 3c 2f e9 bd 21 2e 92 3e 5d 6d a9 3d
       -0.015831757 -0.11385962 0.2855082 0.082728125
0002c0 44 a5 95 bd c5 51 d3 bd f5 95 b0 be 42 4f 0a bf
       -0.073069125 -0.10318331 -0.34489408 -0.5402719
0002d0 ee 34 92 be de 2f 45 be 99 35 48 3d 56 02 32 be
       -0.28556007 -0.19256541 0.04887924 -0.17383704
0002e0 10 69 a5 be 4c a2 3c bf 13 70 95 be 8d 16 8c be
       -0.3230672 -0.73685145 -0.29187068 -0.27360955
0002f0 d6 ad 57 be 05 3a 18 bf 7d 75 79 3d 01 da 8e bd
       -0.21062407 -0.5946353 0.06090306 -0.06975175
000300 19 09 d8 bd b9 56 3b be 11 4f cf bd 0d 11 68 be
       -0.1054861 -0.18294801 -0.101225026 -0.22662754
000310 3c 78 e8 bd a0 4f e1 bd 8f 1c d7 bc eb 13 17 bf
       -0.11351058 -0.110015154 -0.026258735 -0.5901477
000320 fc 68 26 3e db 34 34 be 49 b3 ae be d4 f3 67 bf
       0.16250986 -0.17598288 -0.3412116 -0.9060643
000330 21 5b 60 be 0f f0 09 be 3b 5f a0 be 9d fc ef be
       -0.21909763 -0.13470481 -0.31322655 -0.46872416
000340 29 57 48 be 3c 14 01 3e e7 5a 1a bd 8b e0 85 be
       -0.19564499 0.12605375 -0.037684347 -0.26147875
000350 cc bb 64 be 41 4f 93 3c 02 76 04 bf c4 ec 89 be
       -0.22337264 0.017982127 -0.51742566 -0.2693845
000360 68 17 ac 3c d0 34 4d be b2 42 24 bf 75 7e f5 3e
       0.021007255 -0.20039678 -0.6416427 0.47948042
000370 2d 7a ba be cf b5 ea 3e 95 7f 71 bd 18 70 1b 3e
       -0.36421338 0.45841834 -0.058959562 0.15179479
000380 ac 77 7d be be a4 98 be 7d 3f 30 be 69 e6 9d bd
       -0.24752682 -0.29813188 -0.17211719 -0.07709963
000390 96 f7 16 be 45 51 8a be 6b fe 85 be e4 ae ec bb
       -0.14742884 -0.2701513 -0.26170668 -0.007222997
0003a0 05 22 39 be 77 8c 23 be 1c ee 69 bd 29 c3 71 3c
       -0.18079384 -0.15971552 -0.057111844 0.014756002
0003b0 b8 5b 56 3c 3f 24 00 bf 84 a1 34 3e 85 7a cc 3d
       0.013083391 -0.5005531 0.17639738 0.09984306
0003c0 f3 0d 31 be c7 13 57 be ce 2b 0a be e2 22 4e bf
       -0.17290477 -0.21003638 -0.13493273 -0.80521977
0003d0 10 66 0f be d9 2b ec be 67 f8 8e be 48 1f 75 3e
       -0.14003778 -0.46127203 -0.2792389 0.23937714
0003e0 ed 35 c5 bd 4b 5c 49 be b3 ce 10 be 8e 7a 54 bd
       -0.09629426 -0.19664113 -0.1414135 -0.05187469
0003f0 22 21 71 bd fe f8 88 bd ba a6 47 bf 83 70 a3 bb
       -0.05886949 -0.066881165 -0.7798878 -0.0049877777

linearSequential.2.bias f4 [64]
000000 06 3b 6a be 78 8b b0 be 29 00 c2 be de 6c bc bd
       -0.22874078 -0.34481406 -0.37890747 -0.09200452
000010 11 ec b4 3e 29 63 72 3d 03 fe 88 3e 12 5e a6 bd
       0.35336354 0.059176598 0.26756296 -0.08123411
000020 30 9e 1c 3e 10 ce 3a 3e e5 ed f9 3d ab b0 47 bd
       0.15294719 0.18242669 0.12203578 -0.048752468
000030 24 06 13 3c 83 8a 44 3d ee fe 8f bd 49 63 a5 bd
       0.008973632 0.047983658 -0.07031046 -0.08075578
000040 40 4f 85 3d 3e 16 d4 3e f2 ba b4 bd f0 98 b4 3e
       0.06509256 0.4142322 -0.088247195 0.35272932
000050 a0 20 af bd 91 26 37 bf 6a d5 2a be 1e 6c 43 3c
       -0.085511446 -0.7154322 -0.16682974 0.011927633
000060 71 1d c9 bd ea ab 04 be 1f 21 88 3c 50 22 27 be
       -0.09820069 -0.12956205 0.016617356 -0.16321683
000070 40 89 17 be c3 40 94 be b9 55 04 be 60 12 b9 3d
       -0.1479845 -0.2895566 -0.12923326 0.09036708
000080 0b b8 62 bd ce d0 18 3d 63 b8 4b 3e fc e6 01 be
       -0.0553513 0.037308507 0.19894557 -0.1268577
000090 6e b4 d3 3e 63 29 d8 ba fc 72 c4 bd 55 94 13 bd
       0.41348594 -0.0016491826 -0.09592244 -0.036030132
0000a0 fb 06 7c 3e 4f a0 50 be d6 3e 96 bc 0b 9c 83 bd
       0.24612038 -0.20373653 -0.01834051 -0.06426247
0000b0 8a 59 45 3e b3 34 a4 bd 7f 55 cf bd cf fd 9a bd
       0.19272438 -0.08017864 -0.10123729 -0.075679414
0000c0 03 52 50 bc 27 a6 12 3d 9d a2 36 be 80 98 ab 3d
       -0.012714866 0.035802986 -0.1783547 0.083786964
0000d0 f3 cd 23 3e af 05 87 be e9 83 9b bd 3d fe ba 3e
       0.15996532 -0.26371524 -0.07593519 0.36522093
0000e0 8d 4c de bc 80 44 28 be a0 5d ef bd 48 eb 9f be
       -0.027136112 -0.1643238 -0.116877794 -0.31234193
0000f0 90 a9 7d be 8f f1 93 3d 08 8d 89 3e fd ea 78 3c
       -0.24771714 0.07223808 0.2686541 0.015192744

linearSequential.4.weight f4 [32, 64]
000000 ed 10 8d bd fa 23 55 bd 27 1f 75 3d 87 ad 9c 3b
       -0.06887994 -0.052036263 0.059844162 0.0047814283
000010 df 54 91 3c c2 92 b6 bd 48 70 41 be bc 8b 04 3e
       0.017740665 -0.089147106 -0.18890488 0.1294393
000020 d9 4f 2c bb 71 ce 91 bd 26 b0 58 be 01 bc 29 3e
       -0.002629271 -0.07119454 -0.21160945 0.16575624
000030 ed 1a 38 bd e4 06 55 3c 0a bf 7a bd ad 76 0f 3e
       -0.044947553 0.013002131 -0.061217345 0.14010115
000040 2a fc 86 bd cf be 8f be 72 e1 8c ba 6a e8 9e be
       -0.06591065 -0.28075263 -0.001074834 -0.31036693
000050 b8 f9 37 bb 91 f5 7a 3e 33 7d 53 bc ea 6d 20 3e
       -0.0028072428 0.24507739 -0.012908268 0.15666929
000060 8b b3 3d bb 5b 1b 61 bd a7 00 b1 3c 55 6c 7d bd
       -0.0028946127 -0.05495773 0.021606756 -0.06187089
000070 94 2f 87 bd 70 93 38 bd ff bf 07 be 6b 4a 16 be
       -0.06600872 -0.045062482 -0.13256834 -0.14676826
000080 48 a5 a4 3c 8d e7 7a ba 9b ef bb bd 20 51 85 3d
       0.020098343 -0.0009571247 -0.091765605 0.06509614
000090 a0 98 b9 bb 18 c5 d8 3d 0d a9 71 3d 34 36 6d bc
       -0.0056639463 0.10584468 0.05899911 -0.014478255
0000a0 98 23 05 bd ef 36 3b bd 15 7a 0d bd ea c7 a1 3d
       -0.032504648 -0.045706686 -0.034540255 0.07899459
0000b0 7f e4 f3 bd f4 3b 46 bd 38 5c 55 be a3 c7 2e 3c
       -0.119088165 -0.04839702 -0.2083596 0.010667714
0000c0 6a a4 85 bc b1 8b 6b 3c bb 9a 2e be 1e 4d ac bd
       -0.01631375 0.014376567 -0.17051212 -0.084131464
0000d0 3e e2 7c 3c 80 b0 02 3e e1 60 03 bc 8b 9a 88 bc
       0.0154348 0.12762642 -0.008018703 -0.016675254
0000e0 3a c0 a4 3c df ae 9a bd 85 8d 05 3d 2c ee 93 be
       0.020111192 -0.07552885 0.032605667 -0.28892648
0000f0 57 df 2a 3c 6e d9 2e bd 03 5b 67 be 62 56 63 bd
       0.010429225 -0.042687826 -0.22593312 -0.055502303
000100 b8 84 3f be ec ed 35 3e 99 f4 f5 bd 9d 4c 7c 3c
       -0.18702972 0.17766541 -0.12009544 0.015399125
000110 75 50 94 bc b2 4c 16 3e fa 29 2b be e7 4c 01 3b
       -0.018104771 0.14677694 -0.16715232 0.0019729675
000120 5d 9c 43 3d 48 60 cb 3c 20 96 a4 3d 80 56 0d 3e
       0.04775654 0.024826184 0.080364466 0.13802528
000130 7a cf f9 3d 1f 58 14 3d a3 66 30 3e d9 de 04 bd
       0.12197776 0.03621685 0.17226653 -0.032439087
000140 cd 29 a3 3d 2c d4 3e 3e ab 31 33 be c8 6f ad bc
       0.07966957 0.18635625 -0.17499416 -0.021171466
000150 82 41 b2 bc 6a 01 7e bd ff 57 61 3d 53 6c 0a 3e
       -0.021759752 -0.062013067 0.05501556 0.13517885
000160 89 81 67 3c a6 7d d2 bc 52 2f 21 3d c0 2d ed 3d
       0.014130005 -0.02569468 0.03935177 0.11580992
000170 95 4e 89 bd 9a ba cc bc 2f 52 15 bc ee 2a a6 b9
       -0.067044415 -0.024991322 -0.009113832 -0.00031693972
000180 dd 11 b2 ba c0 75 b4 3d 60 7f 2a be e3 4e d9 3d
       -0.0013585646 0.088115215 -0.16650152 0.106107496
000190 e7 9e 8d be b0 d6 c0 3d 20 93 79 bd 7d 44 97 3d
       -0.27660295 0.094159484 -0.060931325 0.0738611
0001a0 66 a9 a2 3c 20 a9 e4 3c b0 3e 6e bd 43 48 ae bd
       0.019856166 0.027912676 -0.058165252 -0.085098766
0001b0 c8 ef 8a be e9 9f c2 bc 13 3f 00 bd 11 ea 8a bd
       -0.27136064 -0.023757892 -0.031310152 -0.06782926
0001c0 c7 2c a1 3d ee 5b 3e bd b3 c0 31 be 5d 93 2e be
       0.07869869 -0.04647439 -0.17358665 -0.17048402
0001d0 75 2d c4 bd 8b 52 3e be f4 73 a3 3d 04 28 ac be
       -0.09578983 -0.18586175 0.07981101 -0.3362428
0001e0 5b a8 c4 3d 73 1d 0b 39 8e d7 f8 3d d9 81 ef 3d
       0.09602424 0.00013267044 0.12150489 0.11694688
0001f0 7e 40 b7 3d 75 9e 81 3c 5d 61 e8 be 5a 2c a7 bd
       0.08947848 0.015822629 -0.45386782 -0.08162756
000200 a3 11 9d 3d a4 42 26 bd fd 76 af 3d 6e 70 be bd
       0.076693796 -0.040590897 0.08567617 -0.09298788
000210 20 5d 12 3f ec 23 da bd fb 99 8d bd 37 59 01 3d
       0.5717335 -0.10651383 -0.06914135 0.031579223
000220 6e e5 e3 bd f4 00 26 be a9 8a a1 bd 7a f4 5a 3d
       -0.111277446 -0.16211301 -0.078877755 0.053455807
000230 61 27 0c 3e 5c 32 8f 3e 09 1e 47 3d f3 0b 01 3e
       0.13686897 0.2796811 0.048612628 0.12602215
000240 6c 26 9c bd 3b 09 22 3e 09 0b 84 bd 4f 1a 6e 3e
       -0.07624516 0.15823834 -0.06447417 0.23252223
000250 5c 02 fa 3d e7 b0 cb bb 76 69 1d bd 0c 43 d1 3d
       0.12207481 -0.0062161568 -0.038430654 0.10217866
000260 28 2e 0f be 5f e3 b2 bc 2e 91 c3 bd c3 fe 69 bd
       -0.13982451 -0.021836935 -0.09549175 -0.057127725
000270 95 f7 06 3d 6d 56 6e 3d 86 63 09 3e a7 63 ee bc
       0.032950956 0.05818789 0.13416871 -0.029100252
000280 34 26 f1 3d 19 2c af 3d 4d 8f 05 be 4f ce 3e be
       0.11774865 0.08553333 -0.13042946 -0.18633388
000290 4c 22 c9 bd b4 ce 2a 3f 6d 94 b2 3d 06 d5 b0 3e
       -0.09820995 0.66721654 0.08719716 0.34537524
0002a0 3a 7c 82 3e a0 63 f3 3b f7 8a 0c 3c 3c 1e df bd
       0.25485402 0.0074276477 0.008578054 -0.108944386
0002b0 97 bb 33 be 2c fd 16 3d 4f 7e 60 be e3 e7 c0 3e
       -0.17552029 0.036862537 -0.21923183 0.37676916
0002c0 3e 85 e6 3d 00 50 7e be 2e cb b6 bd 1c 27 99 bd
       0.11255883 -0.24835205 -0.08925472 -0.07478163
0002d0 46 8e d7 be 8a 3c 2f be 5a 59 04 be b4 32 e5 bd
       -0.42100734 -0.17112938 -0.1292471 -0.111913115
0002e0 2f bd 08 3e 27 cc cf bd 91 a6 60 be b1 a0 4a 3d
       0.13353418 -0.10146361 -0.2193854 0.049469654
0002f0 98 7b a8 3d 43 87 99 bd 05 bd 4a be 84 cc e4 3d
       0.08226699 -0.07496502 -0.19798668 0.11171821
000300 e1 8c ee bd 61 53 4b 3e cc 7c bf 3d 00 98 73 ba
       -0.11647964 0.19856025 0.09349975 -0.0009292364
000310 b4 d7 f5 be 74 b5 60 bf ae fe b3 be d1 a9 ac 3d
       -0.4801613 -0.87776875 -0.35155243 0.084308274
000320 fb 2d 88 bd c5 c8 43 bf e9 d6 c9 be 66 d3 c9 bd
       -0.06649395 -0.76478225 -0.39421776 -0.09854774
000330 7b 0e 00 3e d3 cf 70 bd 30 4f a4 bc 74 f6 00 3f
       0.12505524 -0.058791947 -0.02005729 0.5037606
000340 55 00 7c be 1a da 45 bf c9 85 a9 3d f1 6b ac 3d
       -0.24609502 -0.7728592 0.082774706 0.08419026
000350 cb f4 07 be e8 10 ce bd 8c 62 01 3e 50 b8 66 bd
       -0.13276975 -0.10061818 0.12635249 -0.056328118
000360 c8 bb d4 3d cb d7 d7 bd 09 6b a8 bd 6b 38 fb 3d
       0.10387379 -0.10539206 -0.0822354 0.1226662
000370 e8 c0 b6 3d 52 8e 9e 3e 24 fd 85 3c f8 08 52 be
       0.08923513 0.30967957 0.016356058 -0.20511234
000380 1a 98 b5 3d d8 f1 7b bb 34 20 06 be 0a 89 04 3f
       0.08866902 -0.003844371 -0.13098222 0.51771605
000390 c9 e2 6a bf 2d 6c 86 be c0 4c 35 bd a8 41 7c 3d
       -0.91752297 -0.26254407 -0.044262648 0.061586052
0003a0 3c f6 12 3f 28 fb 1c 3d d8 6b 88 bd 8c 85 bc bd
       0.57406974 0.03832546 -0.066611946 -0.092051595
0003b0 d3 d0 2c bd b2 14 d2 3d 9e b6 dd 3d 91 3e 47 be
       -0.042191338 0.102578536 0.10825847 -0.19457461
0003c0 d9 a1 38 3e fc 14 ba be 98 ab 09 3c 8a 34 11 be
       0.1803049 -0.36344135 0.008402728 -0.14180198
0003d0 20 52 72 bf 45 95 48 3d c7 94 8a 3d 1e 47 1b bf
       -0.9465656 0.04897048 0.06766658 -0.6065539
0003e0 f6 b4 6b bd 1c 1f e3 bd 57 80 47 be c7 f4 2d 3d
       -0.057545625 -0.11089918 -0.19482552 0.042469766
0003f0 a6 23 9b 3d 8f 8c 28 be f2 9b 71 3e ab a2 80 be
       0.07575159 -0.16459869 0.23594645 -0.25124106

linearSequential.4.bias f4 [32]
000000 90 06 4d be bb 12 2a be 58 48 9f be 86 ee 9c 3d
       -0.20022035 -0.16608708 -0.3110988 0.07662682
000010 6b 83 e2 be 05 12 ac be d9 89 b8 be fc 2c 97 3e
       -0.4424089 -0.33607498 -0.3604267 0.29526508
000020 f7 1c c9 be f4 d6 5b be af 24 08 be fb 70 3c be
       -0.3927991 -0.21468717 -0.13295244 -0.18402474
000030 50 96 c3 be ec 06 80 be 44 16 b3 be 52 81 cc be
       -0.38200617 -0.2500528 -0.34977925 -0.39942414
000040 7d dc 80 be cd 90 f0 bd 16 20 90 be 9a 12 7c be
       -0.2516822 -0.117463686 -0.2814948 -0.24616471
000050 c0 6d 07 be 33 73 fe 3e 88 49 4c be 74 dc 58 be
       -0.1322546 0.49697265 -0.19949925 -0.21177846
000060 33 49 08 be 23 4c 6e be 61 36 09 be 28 e7 2d be
       -0.13309173 -0.23271231 -0.1339965 -0.1698271
000070 d9 21 94 be 32 25 80 be 44 04 56 bd 5f da a0 be
       -0.28932074 -0.25028378 -0.05225016 -0.31416604

linearSequential.6.weight f4 [16, 32]
000000 a0 23 a0 3d 7a 09 22 be 89 46 35 be cd b5 d5 bd
       0.07819295 -0.15823928 -0.17702688 -0.10435066
000010 a0 60 1e be bb 57 19 3e 00 51 6b ba 9e 62 02 be
       -0.15466547 0.14974873 -0.00089766085 -0.12732932
000020 91 f0 9d bb fb 66 07 be 62 63 c2 be 31 82 31 bd
       -0.0048199375 -0.13222878 -0.37966448 -0.04333705
000030 2b 18 08 3e cc e7 4b bd d5 72 0c ba 41 ed 22 be
       0.1329047 -0.049781606 -0.00053576875 -0.15910818
000040 95 b9 c3 bd 7d 4e e3 bd 95 ed 8c 3d a0 cf 07 be
       -0.09556881 -0.11098955 0.06881253 -0.13262796
000050 1f 85 57 3c 14 fa 0d be ff 27 45 be c0 65 b4 3c
       0.013154297 -0.13864928 -0.19253539 0.022021174
000060 f4 1b f3 3d 25 0f fb bd 00 0e b3 bb 26 4b b2 3d
       0.11870566 -0.12258748 -0.0054643154 0.0870574
000070 b8 20 e2 3c f2 6e be 3d 9e 8b 6e bd cd c2 6d 3c
       0.027603492 0.09298505 -0.058238618 0.014511776
000080 7f 2e 96 be b1 c1 45 be d0 f2 8c bd e0 22 55 bd
       -0.2933235 -0.19312169 -0.0688225 -0.052035213
000090 6e 3e d9 3d de 21 c3 bc 03 25 7e bc e4 66 70 be
       0.10607611 -0.02381986 -0.015511754 -0.2347675
0000a0 51 33 11 be 68 ee 00 be e2 15 3b be 98 a1 0b 3e
       -0.14179732 -0.12590945 -0.18270066 0.13635862
0000b0 16 1f 04 3e b1 b2 82 bd 0d 52 0f 3e bf a5 20 bb
       0.12902483 -0.06381739 0.13996144 -0.0024512855
0000c0 de 5f 8f be 61 4d 77 be ec c0 45 be 48 f3 93 3d
       -0.28002828 -0.24150611 -0.19311875 0.072241366
0000d0 51 71 1b be 23 d5 03 bd 8b 08 c3 bd 83 06 a3 bc
       -0.15179946 -0.032185685 -0.09523114 -0.019900566
0000e0 02 97 82 3b 45 97 1b be 83 a7 16 be fe aa 8c 3d
       0.0039852867 -0.15194423 -0.14712338 0.06868552
0000f0 80 ce cc bc f2 cc 09 be dc dc 1e bd 89 6c d5 bd
       -0.02500081 -0.13457087 -0.038784847 -0.10421092
000100 c0 dc 92 3b 8d 87 38 3e c5 6d 9d 3e 22 10 ef bd
       0.004481882 0.18020459 0.3074781 -0.11672999
000110 b1 a5 ba 3d 6b 1e b4 be 11 36 a6 3e 59 e1 98 3e
       0.091136344 -0.35179457 0.32463124 0.29859427
000120 b2 47 1b be ac 25 c0 be 4a 2c 9c be 6c 82 a8 3e
       -0.15164068 -0.3752874 -0.3050254 0.32912004
000130 70 de 0d be 61 78 21 be e0 ec 75 be 31 fb 4a be
       -0.13854384 -0.15768577 -0.24016142 -0.19822384
000140 df 63 28 3c d2 23 66 bc e3 a3 21 bd 16 f4 2b 3d
       0.010277717 -0.014046626 -0.039462935 0.041980825
000150 d8 73 3c 3c 83 88 00 be 63 ad db 3c 50 46 2c be
       0.011502229 -0.12552075 0.026816076 -0.16823697
000160 68 6a aa bd 8b 08 53 bc d6 b5 d2 be 11 f2 8d bb
       -0.08321077 -0.012880455 -0.41154355 -0.004331835
000170 ff a4 a9 3d 55 ee 2e 3d 45 db 10 bd 9c 3b 3a bf
       0.08283424 0.04270776 -0.03536536 -0.72747207
000180 15 aa 30 bd 25 f8 7b be 2b 1b 94 bd 73 a1 e6 bd
       -0.043130953 -0.24606378 -0.072317444 -0.11261263
000190 8e 65 01 be 50 69 5c 3d b1 d4 fb bd 34 cc fe b9
       -0.12636396 0.05381137 -0.12296427 -0.00048598798
0001a0 f5 70 ab bd 21 9f a9 bd 90 76 99 be cd 38 32 3e
       -0.08371154 -0.082823046 -0.29973269 0.1740448
0001b0 b4 a5 0c 3d 9e 04 18 be b0 49 4e bd 50 ce 64 3c
       0.034337714 -0.14845511 -0.050363243 0.013965204
0001c0 fd 09 da bd f0 bb 27 3c 53 4a 52 be d8 35 82 3d
       -0.10646436 0.010237679 -0.20536165 0.06357926
0001d0 f5 e0 ad bd 3f 8e 25 be c5 d9 bf 3c be 8b ca bd
       -0.08490173 -0.16167544 0.02341927 -0.09889935
0001e0 a4 94 9f be 64 e0 75 bd 1a 70 33 be e5 92 a1 bd
       -0.3116809 -0.06002845 -0.17523232 -0.07889346
0001f0 01 17 26 be 70 39 0d 3d 03 a5 8f bd 3c 90 38 bd
       -0.16219713 0.034478605 -0.07013895 -0.045059428
000200 4a c1 96 3d 19 3e e8 3d 7d a3 6f 3d 85 56 80 be
       0.07361086 0.11339969 0.058505524 -0.2506601
000210 9c 50 ae 3d 9d ff e5 bd ac 4d 11 be 6b 7c 95 3e
       0.08511469 -0.11230395 -0.14189786 0.29196486
000220 d0 e7 c0 bd 30 d1 d0 bd 94 6e 56 3c 0b 45 07 3e
       -0.09419215 -0.10196149 0.013087887 0.13209932
000230 82 83 9c bd bc d8 d3 bd 1e ec bd bc f8 4d 99 3d
       -0.076422706 -0.10344073 -0.023183879 0.074855745
000240 95 66 00 bd 5e ee 85 3d 43 83 81 bd 16 ee 21 be
       -0.03134783 0.065396056 -0.06323864 -0.15813479
000250 c1 fa 28 bb a1 09 2e be bd 5f e9 3d 8a a8 f5 bd
       -0.0025784227 -0.1699586 0.11395214 -0.11995037
000260 a8 78 79 3d fe 0a 49 be 4c f1 61 be 07 65 98 3d
       0.060906082 -0.196331 -0.22064704 0.074411444
000270 46 08 00 3e b4 7e 02 be bc 83 e7 bd 6d 98 cd 3d
       0.12503156 -0.12743646 -0.11304423 0.100388385
000280 82 15 fe 3c 28 96 06 be 89 fe e1 bd 00 29 04 be
       0.031016115 -0.13143218 -0.11034877 -0.12906265
000290 5b 30 4e bb ba 9c 77 3e 54 57 12 3e 63 c3 96 3e
       -0.0031461928 0.2418088 0.14291126 0.29445943
0002a0 c9 09 be bc b6 2d 8f be b0 18 5e bd d3 d0 a9 3e
       -0.023198025 -0.27964562 -0.054222763 0.33167133
0002b0 49 94 67 bd 68 9d 41 bd dd 52 19 be eb f5 72 3e
       -0.0565379 -0.047269255 -0.14973016 0.23726623
0002c0 ce 02 da 3d 07 cd a1 3d 6a 6a 21 bd 8b e3 bb 3d
       0.10645066 0.07900434 -0.039408125 0.0917426
0002d0 15 23 ab bc 16 12 58 be 54 11 cb 3d 44 ea cb 3b
       -0.020890752 -0.21100649 0.099154145 0.006222995
0002e0 98 d3 46 3d 93 2f 96 bd 9d 7e 8c be 51 2d 86 bd
       0.048541635 -0.07333293 -0.27440348 -0.06551612
0002f0 32 b6 74 3c 17 f9 d0 bd bf 73 05 bd c0 35 7a bd
       0.014936017 -0.1020376 -0.032581087 -0.061086416
000300 75 c7 f0 3d 2d 75 49 3d 02 50 10 bd 2c 25 50 bf
       0.117567934 0.049184013 -0.03523255 -0.8130672
000310 83 aa 7e 3e 37 d9 db bc 0d 35 a3 3d 40 6c 3c 3e
       0.24869733 -0.026836975 0.07969103 0.18400669
000320 01 f5 86 3e 96 bf 05 3f f9 aa 96 bc 4c c8 52 3e
       0.26358798 0.5224546 -0.018392073 0.2058422
000330 48 95 a5 be eb 78 17 bd 9b cf 8a 3d 00 5c 3c 3e
       -0.32340455 -0.03698055 0.06777879 0.1839447
000340 09 c1 85 3d 43 ca 9b bd e6 53 a3 3d 56 44 1c 3e
       0.06530959 -0.07606938 0.07974987 0.15260443
000350 63 a0 02 3c 8c cf c8 bd 6a f5 16 be 16 6c 0c 3c
       0.0079728095 -0.098052114 -0.14742056 0.008570692
000360 1f c5 35 bd 39 44 9d 3d 61 38 de be 80 0e 55 3d
       -0.044377442 0.07679028 -0.4340239 0.05201578
000370 66 eb 3e 3e 3e 7b 88 3e 94 87 7c 3d 3f 92 f6 3d
       0.18644485 0.26656526 0.061652735 0.12039613
000380 d6 9b 85 bd ba 76 b9 bd 25 b3 5c 3e a9 ad 3b be
       -0.06523864 -0.090558484 0.21552713 -0.18327965
000390 17 0d ed 3d 0a 14 6b be d3 e9 0a be bc b5 92 3e
       0.11574762 -0.22956863 -0.1356576 0.28654277
0003a0 cd 93 8d 3c f8 ec 82 be ac 0f dc bc 03 cd 54 3e
       0.017282391 -0.25571418 -0.026862942 0.20781331
0003b0 e5 9b 4c 3e 74 69 a1 3d 2c 66 39 bd 30 8b b8 3e
       0.19981344 0.07881442 -0.045263454 0.36043692
0003c0 2a 00 83 3b 77 33 3f 3d 85 4e b0 3b a2 94 74 3d
       0.0039978223 0.04667994 0.005380454 0.05971206
0003d0 bc 98 b2 3d 3b 31 e1 bd a7 53 72 3d 86 50 24 3e
       0.08720538 -0.10995718 0.05916181 0.16046342
0003e0 8c c8 90 bd 0c 7c 56 3d e1 7e 87 bd 9a 1c 5b 3d
       -0.07069501 0.052364394 -0.06615997 0.053494073
0003f0 e4 e4 29 3d 87 ef 82 3e 37 31 d0 3d 72 1c 80 3c
       0.041478053 0.2557337 0.10165637 0.015638564

linearSequential.6.bias f4 [16]
000000 e9 9d 00 bf 2f 8c 4f be 9a c7 bd 3e 63 4a 95 be
       -0.5024095 -0.2026832 0.37066346 -0.29158315
000010 12 33 af 3e 0d dc c9 3e c8 15 ab 3e ba 70 c9 3e
       0.3421865 0.39425698 0.33415055 0.39343816
000020 3a ab 4b 3e d2 4b bd bd b5 b4 21 be a7 34 e0 3e
       0.19889536 -0.09242977 -0.1579159 0.4379017
000030 2e 8b 98 3d 1c 38 b3 3e 2e 0a d3 be c7 96 ce 3e
       0.074484214 0.35003746 -0.41218704 0.4034941

linearSequential.9.weight f4 [2, 16]
000000 fe 47 86 bc 9d 33 b1 3d b6 a0 65 bd b6 40 9e 3c
       -0.01639175 0.086524226 -0.05606147 0.019317966
000010 72 6e cb 3c 53 b2 5f 3a 4b 18 5d 3d be 08 bc 3a
       0.024832938 0.0008533347 0.053978246 0.0014345867
000020 0e 68 7f 3d a7 78 1e be f4 ef 0d ba 6f 8d 53 bd
       0.062355094 -0.15475713 -0.0005414479 -0.051648553
000030 6a 98 13 3e bd c4 31 bd 09 c6 2d 3e d4 63 53 bd
       0.1441361 -0.043400515 0.16970076 -0.051608875
000040 12 fc 74 3d 4a be 60 be 85 2b 54 3e c7 d7 b0 3d
       0.059810705 -0.2194759 0.20719726 0.08634906
000050 7a 1e 59 3e 50 12 24 3e 52 a0 3f 3e 7d 09 26 3e
       0.21203032 0.1602261 0.18713501 0.16214557
000060 fe 76 14 3e c7 0f 95 3d 8f 97 db bd 38 cd 41 3e
       0.14498517 0.072784 -0.10722267 0.18925941
000070 0b 4c 0c 3e f5 4f 86 3e a2 f2 da bc b3 bd 2c 3e
       0.13700883 0.26232877 -0.026727024 0.1686924

linearSequential.9.bias f4 [2]
000000 0a af 87 3e 48 cb 46 40
       0.26500732 3.1061573
