src/nets/state_dicts/nnwf01.pt (torch, 53651 bytes, 10 tensors)

linearSequential.0.weight f4 [128, 11]
0.9948459 -0.6158926 0.16481546 -0.7137855 -0.54083186 0.21910384 -0.24806117 0.45713073
-0.36500114 -0.2841758 0.003145727 0.5758936 0.43023214 -0.17393366 -0.27035445 0.21780173
0.13200226 0.61124206 -0.3360386 -0.14374694 -0.3499866 -0.15003866 0.07207591 0.20013182
0.056659214 0.094217815 -0.1704023 0.16097678 0.037118345 0.058271166 -0.094029106 -0.18712066
-0.030771105 -0.24307254 0.27926043 0.43174076 0.3357823 -0.3230678 0.2730585 0.0104699265
-0.31289208 -0.30493626 -0.008490125 -1.7815804 0.5086034 -0.6505207 -0.0047094836 -0.038026914
-0.5023876 -0.16669647 0.42599142 0.7840185 -0.19830932 -0.5407224 0.018470384 0.7387775
0.41773376 0.19348612 -0.026395697 -0.13813382 -0.26082888 0.07255147 -0.75775254 -0.34493306
-0.20482 0.12408211 -0.19479236 -0.7881647 -0.70313865 0.24850945 0.27165854 -0.47999483
0.33897188 0.93151504 -0.56137604 -1.0129038 -0.44169876 -0.42537674 0.20338908 0.14381737
0.727148 0.35045704 0.17430449 0.4966594 0.24547787 -0.28050026 0.15933758 -1.6162231
-0.14603959 0.0689539 0.124391586 0.17094125 -0.13368657 -0.14963989 0.06614378 0.12773378
-0.18395643 -0.18526468 -0.19163556 -0.99013907 0.0032966956 -0.02397908 -0.5350872 0.8327452
-0.2599815 0.33239552 0.17224729 -0.2895148 -0.72853976 0.17915544 -0.372666 0.42492735
0.25361115 0.3131538 0.6712139 0.6369851 -0.8367783 0.07769385 0.4597617 -0.68166965
-0.16102965 0.17258577 -0.22349483 0.4378596 0.4685716 1.0320429 0.21586744 0.06757779
0.26987672 0.34239662 -0.7961191 -0.84337896 -0.2943665 0.27978677 -0.115107544 -0.02252332
0.268165 -0.29733106 0.24078944 -0.029424531 0.14562485 -0.08873643 0.07598127 0.30322686
-0.0027623507 0.58372676 -0.18115525 -0.00058919255 -0.036349714 0.012333794 0.4106076 -0.21502624
-1.049665 0.15002425 0.15982859 -0.17546253 -0.19093026 0.060504053 0.15375035 0.28947577
-0.39446768 0.06758358 0.3881327 0.15191698 0.015866112 0.2093933 0.12054403 -0.10356306
-0.2724633 -0.14742902 -0.24085315 0.08886365 0.124025665 0.44023088 -0.17063913 0.061010897
0.10481843 0.44019887 0.27083206 0.010563198 -0.5324838 -0.26052696 0.6078425 0.7042384
-0.31464088 -0.59019613 0.2531506 -0.10996569 0.08898748 -0.07023227 0.15820996 0.111157805
-0.6098707 0.31371835 -0.96906656 0.3360181 -0.7805585 0.62564355 -0.362405 0.47702315
-0.53598565 0.21341234 0.46973446 0.03758224 1.0059 -0.6288445 -0.31886008 -0.064014785
0.1690087 -0.13733613 0.016777823 0.19506861 -0.17931531 0.3905784 0.1621327 -0.46689686
-0.005265964 -0.07118872 -0.3955656 -0.17543331 0.23812692 1.0669163 0.23925455 -0.92230225
-0.46364108 -0.044529755 0.06322476 0.10763616 -0.5457863 -0.89532286 0.14106736 0.28691223
-0.10981252 0.5540899 0.17688061 0.57750696 0.37884274 -0.22297755 -0.17836171 0.3189656
-1.0021311 -0.57639635 -0.3731416 -0.65148365 -0.46258727 0.6188755 0.7941874 0.5958919
0.5158409 0.5061591 -0.083545715 -1.065475 -0.17806138 -0.724019 -0.6004344 -0.17414144
00000000: 39ae 7e3f 23ab 1dbf 62c5 283e a6ba 36bf
00000010: f573 0abf c25c 603e bf03 7ebe 0a0d ea3e
00000020: 6ee1 babe 7e7f 91be 8b28 4e3b c36d 133f
00000030: 6347 dc3e aa1b 32be e66b 8abe 6b07 5f3e
00000040: 9a2b 073e 5c7a 1c3f 400d acbe 6632 13be
00000050: 7231 b3be bca3 19be 899c 933d 5bef 4c3e
00000060: 7e13 683d 45f5 c03d f17d 2ebe 19d7 243e
00000070: 6809 183d bfad 6e3d 5592 c0bd 8f9c 3fbe
00000080: af13 fcbc 02e8 78be 39fb 8e3e 200d dd3e
00000090: a8eb ab3e 2569 a5be 53ce 8b3e 0e8a 2b3c
000000a0: 6433 a0be 9b20 9cbe 2a1a 0bbc d40a e4bf
000000b0: d533 023f 8688 26bf 0352 9abb 1cc2 1bbd
000000c0: 799c 00bf 7bb2 2abe 8c1b da3e 70b5 483f
000000d0: 9911 4bbe c96c 0abf 344f 973c 8620 3d3f
000000e0: 33e1 d53e 3a21 463e ca3b d8bc f472 0dbe
000000f0: 5d8b 85be dd95 943d 12fc 41bf 119b b0be
00000100: 56bc 51be c31e fe3d a677 47be 29c5 49bf
00000110: e500 34bf 4379 7e3e d416 8b3e e2c1 f5be
00000120: b98d ad3e c577 6e3f 57b6 0fbf d5a6 81bf
00000130: 5726 e2be fbca d9be 3a45 503e dc44 133e
00000140: 5f26 3a3f 1b6f b33e e07c 323e 244a fe3e
00000150: 8d5e 7b3e bb9d 8fbe 6429 233e 66e0 cebf
00000160: 678b 15be b437 8d3d 04c1 fe3d 390b 2f3e
00000170: 22e5 08be 333b 19be 6476 873d a5cc 023e
00000180: 135f 3cbe 06b6 3dbe 1d3c 44be c179 7dbf
00000190: 600d 583b c76f c4bc 7afb 08bf ca2e 553f
000001a0: 4c1c 85be bf2f aa3e 9861 303e 493b 94be
000001b0: 9581 3abf 8674 373e 14ce bebe 1490 d93e
000001c0: 52d9 813e b255 a03e add4 2b3f 7511 233f
000001d0: 1a37 56bf f41d 9f3d e365 eb3e e781 2ebf
000001e0: f5e4 24be 53ba 303e d4db 64be 222f e03e
000001f0: 9ee8 ef3e fb19 843f 5b0c 5d3e 3966 8a3d
00000200: 482d 8a3e 9c4e af3e 76ce 4bbf afe7 57bf
00000210: 35b7 96be 3640 8f3e 81bd ebbd d382 b8bc
00000220: ec4c 893e c73b 98be 8291 763e b70b f1bc
00000230: ae1e 153e 72bb b5bd 119c 9b3d 8d40 9b3e
00000240: 8e08 35bb 1e6f 153f c380 39be 0b74 1aba
00000250: 70e3 14bd ae13 4a3c 293b d23e d72f 5cbe
00000260: 6c5b 86bf f59f 193e 1baa 233e 73ac 33be
00000270: 3983 43be 19d3 773d bb70 1d3e 2b36 943e
00000280: abf7 c9be 4369 8a3d 54b9 c63e 2090 1b3e
00000290: a6f9 813c 326b 563e cadf f63d df18 d4bd
000002a0: 4f80 8bbe a2f7 16be 35a2 76be 25fe b53d
000002b0: 2b01 fe3d f165 e13e 06bc 2ebe 90e6 793d
000002c0: 0cab d63d bf61 e13e 80aa 8a3e 4311 2d3c
000002d0: dc50 08bf ca63 85be 919b 1b3f f848 343f
000002e0: 9c18 a1be 1817 17bf f59c 813e b135 e1bd
000002f0: 113f b63d f0d5 8fbd cb01 223e b4a6 e33d
00000300: 7c20 1cbf b19f a03e bf14 78bf 900a ac3e
00000310: afd2 47bf 2d2a 203f 268d b9be 613c f43e
00000320: 5b36 09bf c488 5a3e 0981 f03e d6ef 193d
00000330: 55c1 803f f4fb 20bf a141 a3be 2f1a 83bd
00000340: 9e10 2d3e d8a1 0cbe a571 893c 11c0 473e
00000350: 6f9e 37be e4f9 c73e 1d06 263e 1b0d efbe
00000360: 1c8e acbb 64cb 91bd 9387 cabe caa4 33be
00000370: 8bd7 733e b790 883f 25ff 743e 001c 6cbf
00000380: 5d62 edbe d564 36bd fc7b 813d 5970 dc3d
00000390: a7b8 0bbf e133 65bf f673 103e 29e6 923e
000003a0: 63e5 e0bd d6d8 0d3f 3120 353e 7fd7 133f
000003b0: adf7 c13e 3a54 64be 74a4 36be 764f a33e
000003c0: d545 80bf b68e 13bf 6a0c bfbe a2c7 26bf
000003d0: 3dd8 ecbe a06e 1e3f de4f 4b3f 5f8c 183f
000003e0: 260e 043f a593 013f 041a abbd 7c61 88bf
000003f0: b955 36be 4f59 39bf 12b6 19bf 2252 32be

linearSequential.0.bias f4 [128]
-0.87697667 -1.7637888 -1.0655283 -1.1974331 -1.5175991 -1.3390273 -1.6547055 -0.40131986
-1.1758382 -1.2490262 -1.162122 -1.8821882 -1.0981383 -1.1122726 -0.84122735 -1.1434685
-0.9598741 -0.6201422 -1.310634 -0.8561556 -0.5870729 -1.5100625 -1.812916 -1.0819037
-1.0131512 -1.4514648 -0.2169318 -0.8415067 -1.5094297 -0.42272255 -0.6274166 -1.5761205
-1.3054795 1.6651548 -0.7596542 -1.3332319 -1.4456972 -0.93193185 -0.93845296 -1.2863575
-1.6226872 -1.7295746 -1.5958544 -0.46286678 -1.3727032 -0.9483381 -1.2809818 -1.1692753
-1.1058863 -1.8073097 -0.10284609 -1.2009544 -1.5171987 -1.3476603 -0.3544785 -0.75771534
-1.867124 0.27611187 -1.0870475 -1.2745028 -1.8513781 -1.4087867 -1.5569702 -1.7299954
-1.3456246 -0.6196847 -1.0069414 -1.58681 -1.8651211 -0.93555754 -0.36533922 -1.0154065
0.25860012 -0.9388304 -0.48970485 -1.4608119 -0.47196144 -0.09429843 -0.87703365 -1.3056042
-1.7799597 -1.866796 -1.7931129 -1.1969482 -1.5041375 -1.7200958 -0.9180284 -1.1722795
-0.89945924 -0.3840815 -1.4264585 -1.568126 -0.85958934 -1.0089833 -1.112835 -1.1569402
-2.3245397 -0.627256 -1.5812514 -1.4148872 -1.5653937 -1.4323606 -0.9288894 -1.0396234
-2.0035489 -1.5418994 -1.5966172 -0.21290638 -0.79273283 0.46583635 -1.7099814 -1.1695399
-0.85632837 -1.4029324 -0.67855567 -0.7441491 -1.8292295 -0.66107893 -1.0432714 -1.6938616
-0.60908145 -1.9158447 -1.084671 -0.507802 -2.1256719 -0.92158544 -0.5674762 -1.4283773
00000000: 8b81 60bf d5c3 e1bf 3b63 88bf 7d45 99bf
00000010: b040 c2bf 3f65 abbf 64cd d3bf cc79 cdbe
00000020: de81 96bf 17e0 9fbf 6ac0 94bf 8beb f0bf
00000030: cc8f 8cbf f35e 8ebf ad5a 57bf 2d5d 92bf
00000040: 4fba 75bf a4c1 1ebf dbc2 a7bf 032d 5bbf
00000050: 694a 16bf ba49 c1bf a20d e8bf d27b 8abf
00000060: f0ae 81bf 99c9 b9bf 5f23 5ebe fc6c 57bf
00000070: fe34 c1bf 176f d8be 609e 20bf 51be c9bf
00000080: f419 a7bf cb23 d53f b378 42bf 58a7 aabf
00000090: 9b0c b9bf 1693 6ebf 743e 70bf 5da7 a4bf
000000a0: 37b4 cfbf b362 ddbf f544 ccbf e0fc ecbe
000000b0: bdb4 afbf 49c6 72bf 36f7 a3bf d0aa 95bf
000000c0: af8d 8dbf ed55 e7bf f9a0 d2bd e0b8 99bf
000000d0: 9133 c2bf 2280 acbf 357e b5be a2f9 41bf
000000e0: ebfd eebf 895e 8d3e 5f24 8bbf e822 a3bf
000000f0: f5f9 ecbf 1f53 b4bf cd4a c7bf 7d70 ddbf
00000100: 6d3d acbf a8a3 1ebf 75e3 80bf 971c cbbf
00000110: 4abc eebf b380 6fbf be0d bbbe d7f8 81bf
00000120: 3c67 843e 3057 70bf 98ba fabe e2fb babf
00000130: eea4 f1be 891f c1bd 4785 60bf 0a1e a7bf
00000140: b8d5 e3bf 2cf3 eebf b984 e5bf 9935 99bf
00000150: 9487 c0bf 192c dcbf e903 6bbf 410d 96bf
00000160: f642 66bf 55a6 c4be 3196 b6bf 5ab8 c8bf
00000170: 0c0e 5cbf 5d26 81bf 6171 8ebf 9e16 94bf
00000180: 42c5 14c0 d993 20bf 7266 cabf 061b b5bf
00000190: d25e c8bf 9857 b7bf b2cb 6dbf 6112 85bf
000001a0: 253a 00c0 f65c c5bf f45d ccbf 2104 5abe
000001b0: 8af0 4abf 1a82 ee3e ace0 dabf 7cb3 95bf
000001c0: 5638 5bbf 4a93 b3bf d3b5 2dbf 8e80 3ebf
000001d0: 3124 eabf 783c 29bf eb89 85bf 75d0 d8bf
000001e0: c3ec 1bbf 663a f5bf 80d6 8abf 50ff 01bf
000001f0: 020b 08c0 06ed 6bbf 1f46 11bf 11d5 b6bf

linearSequential.2.weight f4 [64, 128]
-0.08767552 -0.22874376 -0.11902472 0.0038702537 -0.1327692 0.03911997 -0.15681577 -0.4274141
-0.029513275 0.119120315 -0.23777032 -0.10664541 -0.11034284 -0.0011760369 -0.06977338 -0.16097972
-0.32017666 0.028377557 0.104073286 0.03350095 0.16124032 -0.12905626 -0.03838302 -0.18080191
-0.040127166 0.0997954 -0.24182504 -0.14406063 -0.04493429 -0.12404949 0.21386659 -0.108693026
0.17760803 -0.30768588 -0.005658026 -0.2890736 -0.12304135 -0.096204646 -0.46886748 -0.06982917
-0.038953006 0.03413559 -0.0760553 -0.2922651 -0.23164524 -0.11105768 0.034985844 -0.039059184
-0.024521576 -0.12514316 -0.28280455 -0.118917175 0.1061544 -0.22896454 -0.26174617 -0.10038256
-0.11608721 -0.25694883 -0.30623713 -0.10338599 -0.046523623 -0.08366859 -0.090702295 -0.13031173
-0.01737083 0.0037819964 -0.086614296 0.0056600054 -0.07919327 0.13144742 -0.26399383 -0.17885731
-0.31636098 -0.29735023 -0.102240786 -0.24268727 -0.3260012 0.016615536 -0.25986642 -0.13393442
-0.09230916 -0.2011813 -0.16195832 0.04281629 -0.24890727 -0.027930338 -0.22617494 -0.076738395
-0.0048884256 -0.24285193 -0.08891294 -0.2727183 -0.26587984 -0.22523442 -0.2112208 -0.046364583
-0.11977941 0.0147391325 -0.1718415 0.07456208 0.16706182 -0.11194628 -0.026626494 -0.14404999
-0.12037945 -0.09277233 -0.06603458 -0.19463058 -0.13428336 -0.15606184 -0.16705903 -0.11995242
0.04903614 -0.16458827 0.091882065 -0.07768304 -0.09683212 0.019951146 -0.07763173 0.030091409
-0.27027336 -0.10310116 -0.1788157 0.017253824 -0.09217661 -0.046479903 -0.10529561 -0.08609273
1.111738 0.3784281 0.056187175 -0.14661483 -0.22986054 -0.46140954 0.8616293 -0.5973953
-0.13647279 0.05432972 -0.028464269 -0.55913955 -0.17164849 0.22022466 -0.41899446 -0.009330438
-0.52422 -0.54745924 -0.24101755 0.1456499 0.15008585 -0.520483 0.6464493 0.17117985
-0.02773063 1.2128087 -0.30011228 0.47100052 0.26865748 0.17444018 -0.21840107 -1.1764135
0.014170944 0.07639501 0.06680172 0.32382 0.5783462 0.0155342035 -1.149171 0.17896193
0.4057273 0.06414474 -0.14798963 -0.13628824 0.6571026 -0.3115493 0.2020081 -0.22268395
-0.2824387 -0.39135733 0.13689354 -1.7763433 -0.4758675 -0.73068756 -0.16665094 -0.47309947
-0.22313371 -0.044467717 -0.21028496 -0.14709309 -0.1322666 -0.30497798 0.10577924 0.9785092
-0.23351276 -0.3953796 -0.23482397 -0.10091444 -0.40136325 -0.8880267 -2.2461286 0.18759714
0.12775984 0.75331473 -0.21989414 -0.24836299 -0.4554506 0.055367947 -0.06703758 0.25779244
0.76980984 0.13174142 0.16747639 -0.24431132 0.2964408 -0.51870906 0.15504102 -0.029164685
0.21083184 -0.6276919 -0.3363008 -1.0630612 -0.15999629 -0.42163134 -0.6873197 -1.5833094
-1.1555618 -0.039022863 0.59769154 -0.052909683 0.47860968 0.2769847 0.05556675 0.5234177
-0.45543322 0.18945107 0.28590143 0.1461469 -1.1336949 -1.1084484 0.14662112 0.116051875
-0.12048356 0.6103676 0.17516172 -0.774314 -0.014941222 -0.05879204 0.1295326 -0.532846
0.07906084 -0.4180548 0.31693226 -0.17214127 -0.18837495 -0.42902297 0.07444515 0.080059774
00000000: 398f b3bd ce3b 6abe 3bc3 f3bd 15a4 7d3b
00000010: a6f4 07be 433c 203d 5094 20be 05d6 dabe
00000020: d3c5 f1bc 5af5 f33d 107a 73be e968 dabd
00000030: 6dfb e1bd 4025 9aba 59e5 8ebd ded7 24be
00000040: 32ee a3be 0d78 e83c 6024 d53d 4b38 093d
00000050: 2f1c 253e 5327 04be 8337 1dbd 2324 39be
00000060: 625c 24bd 8861 cc3d fca0 77be a184 13be
00000070: 050d 38bd a90d febd d8ff 5a3e 739a debd
00000080: e1de 353e 0189 9dbe f666 b9bb 7401 94be
00000090: 1afd fbbd f106 c5bd 660f f0be 9902 8fbd
000000a0: 308d 1fbd c3d1 0b3d e2c2 9bbd c5a3 95be
000000b0: 6934 6dbe 3572 e3bd 514d 0f3d 86fc 1fbd
000000c0: 79e1 c8bc 8725 00be c2cb 90be d98a f3bd
000000d0: 7a67 d93d ae75 6abe 9803 86be 5f95 cdbd
000000e0: 22bf edbd cc8e 83be 1dcb 9cbe 09bc d3bd
000000f0: 8e8f 3ebd 705a abbd 20c2 b9bd 7070 05be
00000100: 454d 8ebc 5fdb 773b d662 b1bd 9177 b93b
00000110: 1530 a2bd 279a 063e 332a 87be 5f26 37be
00000120: 11fa a1be 4a3e 98be 9e63 d1bd 0383 78be
00000130: a1e9 a6be 4e1d 883c 360d 85be 1b26 09be
00000140: 960c bdbd 7902 4ebe 67d8 25be 2260 2f3d
00000150: 8ce1 7ebe 2ace e4bc 679a 67be 0529 9dbd
00000160: 162f a0bb 2dae 78be fd17 b6bd bca1 8bbe
00000170: 6721 88be daa3 66be 444a 58be cae8 3dbd
00000180: e84e f5bd 677c 713c 38f7 2fbe 01b4 983d
00000190: 4112 2b3e 1744 e5bd ce1f dabc d781 13be
000001a0: 8089 f6bd 6bff bdbd 233d 87bd 3d4d 47be
000001b0: 9481 09be adce 1fbe 8611 2bbe 9da9 f5bd
000001c0: 1fda 483d d489 28be aa2c bc3d 4918 9fbd
000001d0: eb4f c6bd 9670 a33c 62fd 9ebd 4282 f63c
000001e0: 4561 8abe b326 d3bd 761b 37be e457 8d3c
000001f0: 17c7 bcbd b661 3ebd 3aa5 d7bd 6351 b0bd
00000200: 6e4d 8e3f 54c1 c13e 8624 663d 3322 16be
00000210: 9060 6bbe df3d ecbe bd93 5c3f e6ee 18bf
00000220: 86bf 0bbe d788 5e3d e62d e9bc c523 0fbf
00000230: 9fc4 2fbe 9382 613e 7186 d6be b2de 18bc
00000240: 4833 06bf 4a26 0cbf 4ecd 76be 3f25 153e
00000250: 1bb0 193e 603e 05bf b47d 253f c549 2f3e
00000260: 592b e3bc 513d 9b3f 51a8 99be fb26 f13e
00000270: 798d 893e 72a0 323e 88a4 5fbe b894 96bf
00000280: 3f2d 683c fd74 9c3d 57cf 883d bccb a53e
00000290: 7f0e 143f 2c83 7e3c 0918 93bf cc41 373e
000002a0: 7dbb cf3e 515e 833d 988a 17be 258f 0bbe
000002b0: e037 283f 6483 9fbe 36db 4e3e 4307 64be
000002c0: ce9b 90be fd5f c8be d22d 0c3e 385f e3bf
000002d0: e8a4 f3be 570e 3bbf 8ba6 2abe 183a f2be
000002e0: 2a7d 64be c823 36bd f154 57be 929f 16be
000002f0: e570 07be 1326 9cbe c9a2 d83d 947f 7a3f
00000300: f81d 6fbe 326f cabe b275 70be 3bac cebd
00000310: 7c7f cdbe b855 63bf 92c0 0fc0 7719 403e
00000320: 7ad3 023e 3cd9 403f ee2b 61be de52 7ebe
00000330: d230 e9be 80c9 623d 004b 89bd 5ffd 833e
00000340: 4212 453f 39e7 063e ee7e 2b3e bf2c 7abe
00000350: 17c7 973e 1eca 04bf 13c3 1e3e c7ea eebc
00000360: 4de4 573e 6bb0 20bf 9e2f acbe 6412 88bf
00000370: 11d6 23be 10e0 d7be 2ff4 2fbf e2a9 cabf
00000380: 73e9 93bf 70d6 1fbd 5002 193f d3b7 58bd
00000390: 540c f53e f0d0 8d3e f699 633d b4fe 053f
000003a0: 8b2e e9be 76ff 413e ac61 923e 88a7 153e
000003b0: ea1c 91bf a3e1 8dbf d923 163e 9bac ed3d
000003c0: 16c0 f6bd 0d41 1c3f 985d 333e 7139 46bf
000003d0: 07cc 74bc eccf 70bd 32a4 043e 9868 08bf
000003e0: a6ea a13d 470b d6be f244 a23e cd45 30be
000003f0: 5de5 40be e6a8 dbbe b376 983d 61f6 a33d

linearSequential.2.bias f4 [64]
-0.31330124 0.406464 -0.097928844 0.010126832 -0.033328652 0.036290772 -0.11808611 -0.25881356
0.064300686 -0.10984795 -0.24598888 -0.2645087 -0.26785716 0.55182827 -0.3927519 0.024993345
0.0038232794 -0.29020295 -0.08188807 0.078404985 -0.094974846 0.011790579 0.04501194 -0.15645394
-0.5932021 0.18641272 0.02049783 0.009555121 -0.028715914 -0.1092985 0.0950241 -0.0689909
-0.12926021 -0.12061408 -0.21171139 -0.08336511 0.050028183 -0.1397256 -0.07658452 -0.22031477
-0.33941832 -0.032799613 0.5298792 -0.13513944 0.029352803 -0.49788097 -0.115103215 -0.3384501
-0.041471254 -0.4045031 0.40315193 -0.11183777 1.2910717 0.3782633 0.28254414 -0.109562665
0.06286982 -0.024171902 -0.15632151 -0.08967976 1.9094512 0.5232491 -0.05216411 -0.055662416
00000000: 0569 a0be 0d1c d03e eb8e c8bd 03eb 253c
00000010: a083 08bd a2a5 143d 21d7 f1bd 3683 84be
00000020: 14b0 833d f6f7 e0bd 82e4 7bbe af6d 87be
00000030: 9324 89be 9e44 0d3f c716 c9be d8be cc3c
00000040: fc8f 7a3b 7b95 94be efb4 a7bd cb92 a03d
00000050: 2c82 c2bd 462d 413c 715e 383d 7635 20be
00000060: 18dc 17bf fae2 3e3e 11eb a73c 158d 1c3c
00000070: a33d ebbc e4d7 dfbd ff9b c23d 1a4b 8dbd
00000080: ca5c 04be 8404 f7bd dfca 58be 54bb aabd
00000090: 5aea 4c3d 3a14 0fbe 58d8 9cbd 329a 61be
000000a0: 3dc8 adbe e358 06bd 2aa6 073f fe61 0abe
000000b0: 4a75 f03c 41ea febe 3cbb ebbd 5549 adbe
000000c0: c3dd 29bd 081b cfbe ee69 ce3e 330b e5bd
000000d0: d641 a53f baab c13e a0a9 903e 6462 e0bd
000000e0: e4c1 803d 2704 c6bc bf12 20be 06aa b7bd
000000f0: e668 f43f a7f3 053f 09aa 55bd 46fe 63bd

linearSequential.4.weight f4 [32, 64]
0.059997626 -0.190523 -0.14308807 0.0015083117 0.10777158 0.09003716 0.040888775 -0.023117544
0.0042959712 -0.07671061 -0.038098916 0.063857324 -0.09095089 0.012530189 0.037792206 0.070819885
-0.13897069 -0.0040842127 -0.019398458 -0.054220673 -0.029594038 0.1264156 -0.010487258 -0.03011955
-0.18861519 -0.036328115 -0.021280164 0.016682567 -0.11116522 -0.120566435 -0.0067186905 -0.013616722
-0.040601075 -0.119079426 -0.046400886 -0.10478738 -0.12041463 0.033086773 0.06678483 -0.0027743506
0.036814593 -0.008115962 -0.0591426 -0.049963973 -0.0124757895 -0.038491897 0.064896844 0.05824641
0.08293682 0.04230163 0.04370001 -0.1671875 -0.111826025 -0.20846154 -0.092948735 0.09404243
-0.043415647 0.033979405 -0.032590184 -0.049609922 -0.20022145 -0.12025014 0.046691544 -0.1499645
0.12640887 -0.05472636 -0.043737367 -0.025903745 -0.020499736 -0.035219233 -0.091521725 -0.079426
0.04533017 0.00866233 -0.05824282 -0.090640105 -0.16335623 -0.05111017 -0.014831722 0.11113536
0.051068023 -0.14720604 -0.0023549944 0.042310722 -0.13654904 -0.0075123464 -0.09567504 -0.037438076
-0.0742986 -0.076364465 -0.026930526 0.041959576 -0.06712724 -0.12499775 -0.11736208 -0.18436895
0.021357382 0.0064358865 0.008093009 -0.04249233 0.077261426 0.020397285 -0.010376122 -0.10512309
-0.13593228 -0.08271938 -0.059135802 -0.061782505 -0.031056136 0.0186379 0.030940974 0.051907357
0.055938333 0.07040634 0.047066614 -0.05370017 -0.12824711 -0.34211588 -0.08531254 0.0026022813
-0.11298959 0.004760652 -0.05863794 -0.04782059 -0.24446525 -0.17393242 -0.097514674 0.11055771
0.1266997 -0.026961999 0.09804952 -0.0059480546 0.045446206 -0.030333074 0.048427097 -0.0016308709
0.0014112355 -0.15340205 -0.12894021 -0.02221501 0.3452935 -0.11567331 -0.0297288 -0.11827563
0.040904168 -0.09875396 0.08659533 0.022001287 -0.0341025 -0.0589237 -0.12880312 -0.15924208
-0.061990973 -0.024733312 -0.13274872 -0.049437895 0.009187341 -0.07490218 0.03821436 -0.13675229
-0.06798824 -0.16344567 0.03211261 0.027408332 0.03631827 0.07025281 0.0623156 -0.097261615
-0.059291784 -0.033729173 0.029840263 -0.12508234 0.026675189 0.021907203 -0.018270241 -0.058829945
0.08526916 -0.027747212 -0.14982183 -0.109717675 -0.014329598 0.0045575937 0.011307995 -0.114169754
-0.028005285 0.012601826 0.058543943 -0.095855 -0.12282601 -0.11457109 0.031102458 0.0023644257
-0.106319904 -0.08069245 -0.06806464 0.07865398 -0.084415406 0.07863808 -0.086546026 -0.057973668
-0.109206505 -0.13852449 -0.13750578 -0.12365605 -0.090530306 -0.21967328 0.07239707 -0.024024846
0.048590876 -0.05506824 -0.015322372 0.09517016 -0.005614286 -0.14051627 -0.112004526 -0.15929265
-0.024130536 -0.015508225 -0.03713443 0.10643616 -0.032105796 0.011040963 0.013914582 -0.12417259
0.069286 -0.085238494 -0.08261467 -0.08038043 -0.121016935 -0.049307343 0.060289025 -0.13227403
-0.1153537 -0.071813375 0.019988416 -0.16318984 -0.02110745 -0.031343598 -0.026577761 0.023302667
-0.03361229 -0.099491626 -0.07886206 -0.052008647 -0.09149256 -0.12909426 -0.07572458 -0.08366619
0.03153984 0.07363702 -0.04606259 -0.044142485 -0.291264 -0.16199964 0.026007913 0.038850505
00000000: 12c0 753d 7618 43be ae85 12be 8bb2 c53a
00000010: 59b7 dc3d 6765 b83d fd7a 273d 0161 bdbc
00000020: 38c5 8c3b 741a 9dbd 9c0d 1cbd a1c7 823d
00000030: 7644 babd 6c4b 4d3c 00cc 1a3d 040a 913d
00000040: 554e 0ebe dcd4 85bb 84e9 9ebc 7f16 5ebd
00000050: 326f f2bc 1773 013e c0d2 2bbc 46bd f6bc
00000060: 5724 41be cacc 14bd bd53 aebc e1a9 883c
00000070: 97aa e3bd 89eb f6bd 7628 dcbb ac18 5fbc
00000080: 504d 26bd eadf f3bd db0e 3ebd c49a d6bd
00000090: f29b f6bd ff85 073d 7cc6 883d e1d1 35bb
000000a0: e6ca 163d d0f8 04bc 833f 72bd 06a7 4cbd
000000b0: 4167 4cbc aea9 1dbd a3e8 843d ca93 6e3d
000000c0: c8da a93d 7944 2d3d c8fe 323d 3333 2bbe
000000d0: 0b05 e5bd f176 55be e85b bebd 5199 c03d
000000e0: 9bd4 31bd fd2d 0b3d 497d 05bd c633 4bbd
000000f0: da06 4dbe b545 f6bd a23f 3f3d 4b90 19be
00000100: 5471 013e bf28 60bd f425 33bd 1734 d4bc
00000110: 10ef a7bc 0b42 10bd be6f bbbd 19aa a2bd
00000120: 21ac 393d 72ec 0d3c 0690 6ebd 85a1 b9bd
00000130: db46 27be e658 51bd c000 73bc f09a e33d
00000140: b42c 513d 2ebd 16be 4056 1abb 024e 2d3d
00000150: 83d3 0bbe 212a f6bb 46f1 c3bd ab58 19bd
00000160: dd29 98bd f964 9cbd 689d dcbc cedd 2b3d
00000170: 027a 89bd d2fe ffbd 885b f0bd 37cb 3cbe
00000180: adf5 ae3c 21e4 d23b 8a98 043c 700c 2ebd
00000190: 3d3b 9e3d 3518 a73c 9c00 2abc c64a d7bd
000001a0: d531 0bbe c768 a9bd 6238 72bd a70f 7dbd
000001b0: 7069 febc 82ae 983c ed77 fd3c cf9c 543d
000001c0: 981f 653d 3331 903d ecc8 403d b6f4 5bbd
000001d0: 3653 03be d029 afbe 57b8 aebd 098b 2a3b
000001e0: 1667 e7bd 3eff 9b3b 562e 70bd 86df 43bd
000001f0: 1955 7abe 571b 32be c6b5 c7bd 156c e23d
00000200: 91bd 013e 69df dcbc 30ce c83d e6e7 c2bb
00000210: cd25 3a3d 117d f8bc 7e5b 463d f2c2 d5ba
00000220: 35f9 b83a 6d15 1dbe e708 04be 41fc b5bc
00000230: 4fca b03e 21e6 ecbd d089 f3bc 7e3a f2bd
00000240: 218b 273d 843f cabd e458 b13d 0b3c b43c
00000250: 10af 0bbd fa59 71bd f7e4 03be 5b10 23be
00000260: 3fea 7dbd 849d cabc 48ef 07be 647f 4abd
00000270: 8086 163c 5066 99bd a986 1c3d cb08 0cbe
00000280: 6b3d 8bbd 4d5e 27be 8388 033d 7087 e03c
00000290: 77c2 143d b5e0 8f3d a53e 7f3d 1931 c7bd
000002a0: f1db 72bd 9a27 0abd 9173 f43c 9615 00be
000002b0: ed85 da3c bc76 b33c 79ab 95bc abf7 70bd
000002c0: 99a1 ae3d 1f4e e3bc e56a 19be a9b3 e0bd
000002d0: b1c6 6abc de57 953b 2b45 393c d5d1 e9bd
000002e0: 576b e5bc e477 4e3c c6cb 6f3d a04f c4bd
000002f0: 348c fbbd 3fa4 eabd 95ca fe3c 7bf4 1a3b
00000300: 40be d9bd 1542 a5bd 7965 8bbd 5615 a13d
00000310: fce1 acbd 000d a13d 0b3f b1bd cc75 6dbd
00000320: a9a7 dfbd 5dd9 0dbe 51ce 0cbe 623f fdbd
00000330: f467 b9bd 08f2 60be ea44 943d c1cf c4bc
00000340: 3a07 473d 3c8f 61bd b00a 7bbc 93e8 c23d
00000350: 0bf8 b7bb 7fe3 0fbe a162 e5bd 9d1d 23be
00000360: 67ad c5bc 3616 7ebc 461a 18bd 34fb d93d
00000370: 5e81 03bd 28e5 343c fdf9 633c 334e febd
00000380: d2e5 8d3d 8591 aebd e131 a9bd 7f9e a4bd
00000390: bad7 f7bd 7ff6 49bd a0f1 763d d872 07be
000003a0: 903e ecbd e412 93bd bfbe a33c 3d1b 27be
000003b0: 88e9 acbc 2562 00bd 9bb9 d9bc 3ce5 be3c
000003c0: 0aad 09bd 44c2 cbbd 6f82 a1bd 0507 55bd
000003d0: 7460 bbbd 4931 04be 7d15 9bbd 2e59 abbd
000003e0: eb2f 013d 02cf 963d 20ac 3cbd c0ce 34bd
000003f0: 8e20 95be 3ce3 25be 8c0e d53c b521 1f3d

linearSequential.4.bias f4 [32]
-0.3078033 -0.24906792 -0.11262515 -0.49271852 -0.38230804 -0.43219006 0.6201501 -0.34885404
-0.11244904 -1.0300932 -0.82163614 -0.4540958 0.0006331762 -0.021102998 -0.14209388 -0.2412364
-0.28485483 -0.17255032 0.411308 -1.0344223 -0.09886747 -0.5134247 1.0954765 -0.28030986
-0.041460693 -0.08024079 0.30142966 -0.01354767 -0.4649217 -0.24001762 -0.26162967 -0.023240663
00000000: 6598 9dbe a90b 7fbe 04a8 e6bd 9a45 fcbe
00000010: e1bd c3be 0448 ddbe 28c2 1e3f ff9c b2be
00000020: af4b e6bd 18da 83bf bf56 52bf 3f7f e8be
00000030: bcfb 253a 32e0 acbc 0f81 11be ad06 77be
00000040: 7ed8 91be 08b1 30be f696 d23e f367 84bf
00000050: 077b cabd cd6f 03bf 9338 8c3f c684 8fbe
00000060: b0d2 29bd 4955 a4bd fd54 9a3e 0cf7 5dbc
00000070: 380a eebe 2ec7 75be 53f4 85be 3463 bebc

linearSequential.6.weight f4 [16, 32]
0.011141603 -0.15273364 0.013547344 -0.19652541 0.13553756 -0.050531603 -1.0458493 -0.008863391
0.006038629 -0.114672676 -0.29065126 -0.3838425 -0.064424895 0.1883981 -0.10404214 0.028392626
-0.048374254 -0.169253 -1.0331929 0.03832227 0.2005087 0.07437978 -0.5959867 0.07679449
0.038771167 0.021699421 -0.1560803 -0.06505418 -0.09027439 0.14927465 0.20190401 0.12885056
-0.27608824 0.11854558 -0.15985967 0.009831296 0.03438139 -0.012085742 -0.34386992 0.15722121
-0.121762834 -0.06575008 -0.1935292 -0.0633918 -0.12353702 0.02929367 -0.030518109 -0.30882588
-0.15614164 0.06735708 -0.29230675 0.007698956 -0.27313715 -1.3053328 -1.1603755 -0.11595112
0.09409507 -0.005031815 0.15599816 -1.1343448 -0.04438373 -0.12566717 0.19718686 -0.8276102
-0.05060813 -0.024957165 -0.011386117 -0.109623 -0.013658211 -0.22563817 -0.024045799 -0.092138864
-0.13844597 -0.29468092 -0.10267307 0.038686782 -0.049784265 -0.05125835 -0.2743477 0.11233939
-0.14064537 -0.21191849 0.006150394 0.010897681 -0.12090795 0.0067065954 -0.09554058 -0.27800852
-0.16239321 -0.0783025 -0.034439523 -0.14537315 -0.13916151 -0.20572264 -0.23492208 -0.11249155
0.008629237 0.05251106 0.10059393 0.088007286 0.005410107 -0.3622732 -0.17684376 -0.19199857
-0.1466945 0.032299154 0.058598492 0.08832262 -0.21677631 -0.031085407 -0.13145958 0.03368088
-0.122999564 0.014934793 -0.17599218 -0.09479255 -0.10185909 -0.15509887 0.035999678 -0.118810005
-0.057311133 -0.11049233 0.06342911 -0.06879192 -0.2210526 0.09934981 -0.07345893 -0.31530762
-0.17686562 0.1817201 0.1262373 0.14619252 0.40466812 -0.49651676 0.055696942 0.14697292
-0.17921337 -0.41028917 -0.46206135 -0.32404923 -0.009759273 -0.031323653 0.19144377 0.12284808
0.041042473 0.30430573 0.26081976 -0.1307126 -0.07238682 -0.22788887 0.4528494 -0.12657109
0.024528963 -0.16046368 0.49875146 -0.14555897 0.054506708 -0.116005056 -0.9608633 0.14982024
0.12493705 -0.19681793 -0.1430253 -0.13310215 -0.10975762 -0.30240655 -0.08285344 -0.116498396
0.12622327 -0.3325061 -0.10975733 -0.30013254 0.37467808 -1.541418 0.051046718 -0.42983052
-0.024225386 0.051357165 -0.5874951 0.05996128 0.17567433 -0.99086255 -0.17531064 -0.24577652
0.17417969 0.019434765 0.8154116 -0.42464006 0.37545356 -0.16898394 0.1024879 -1.0121248
-0.00023958087 -0.12654065 0.14124595 0.12981449 0.0333526 -0.3185671 -0.035369486 -0.005595103
-0.16560993 -0.00031876823 0.07870151 -0.14977534 -0.080018856 -0.0047494224 0.050823033 -0.03708166
0.054833364 -0.007213637 -0.33173597 -0.32122615 -0.31373915 -0.23162314 -0.14217512 0.02539589
-0.25795668 -0.033980977 0.026808586 0.018986525 -0.056983486 0.15955319 -0.2583053 0.023293147
-0.0759675 0.112684056 -0.112895645 0.054207504 0.014388919 0.04717143 -0.10986298 -0.045629025
-0.17023933 -0.15344949 -0.16218694 0.021167634 -0.15885067 -0.24904306 -0.028596386 -0.11967233
-0.06042724 -0.16264778 -0.24893221 0.07565974 -0.06967238 -0.409801 -0.20365223 -0.0721854
-0.27353764 0.14594539 0.11121527 -0.092124134 -0.17246087 0.040839076 -0.22629501 -0.33146915
00000000: 458b 363c 3566 1cbe aef5 5d3c f53d 49be
00000010: 5cca 0a3e 3afa 4ebd 64de 85bf c237 11bc
00000020: b1df c53b 82d9 eabd 3ed0 94be 0187 c4be
00000030: 33f1 83bd 6eeb 403e 0c14 d5bd a797 e83c
00000040: 1524 46bd a950 2dbe aa3f 84bf d0f7 1c3d
00000050: 2752 4d3e 6d54 983d 9692 18bf 6e46 9d3d
00000060: 84ce 1e3d fcc2 b13c 84d3 1fbe 203b 85bd
00000070: c8e1 b8bd 74db 183e edbf 4e3e 67f1 033e
00000080: 705b 8dbe 06c8 f23d 41b2 23be 7213 213c
00000090: 80d3 0c3d 4703 46bc b80f b0be 99fe 203e
000000a0: cb5e f9bd faa7 86bd 852c 46be 8fd3 81bd
000000b0: fa00 fdbd 47f9 ef3c 1d01 fabc 6d1e 9ebe
000000c0: 98e3 1fbe 82f2 893d 3ba9 95be 8647 fc3b
000000d0: a2d8 8bbe 2515 a7bf 2f87 94bf c877 edbd
000000e0: ebb4 c03d ece1 a4bb fbbd 1f3e 3632 91bf
000000f0: b7cb 35bd e5ae 00be 5aeb 493e 43de 53bf
00000100: 784a 4fbd f872 ccbc d68c 3abc 0682 e0bd
00000110: b0c6 5fbc b10d 67be b2fb c4bc 4db3 bcbd
00000120: c8c4 0dbe 6be0 96be 4246 d2bd 0876 1e3d
00000130: 96ea 4bbd 47f4 51bd 4d77 8cbe 3212 e63d
00000140: 5705 10be 2901 59be 3f89 c93b 308c 323c
00000150: 969e f7bd 00c3 db3b c8aa c3bd 2257 8ebe
00000160: 684a 26be 105d a0bd 7510 0dbd b3dc 14be
00000170: 5b80 0ebe f5a8 52be 6a8f 70be f861 e6bd
00000180: a561 0d3c d615 573d 3104 ce3d 2a3d b43d
00000190: 4447 b13b df7b b9be 8816 35be 469b 44be
000001a0: 1537 16be 1e4c 043d f904 703d 7de2 b43d
000001b0: 9cfa 5dbe d3a6 febc 579d 06be f6f4 093d
000001c0: 32e7 fbbd 10b1 743c 4b37 34be 9922 c2bd
000001d0: 809b d0bd 3dd2 1ebe 6674 133d a952 f3bd
000001e0: 14bf 6abd cd49 e2bd 1fe7 813d c7e2 8cbd
000001f0: 9d5b 62be ea77 cb3d a371 96bd 0070 a1be
00000200: 431c 35be d514 3a3e 5a44 013e 7eb3 153e
00000210: a930 cf3e 7237 febe 7a22 643d 1280 163e
00000220: b683 37be 6c11 d2be 4e93 ecbe c8e9 a5be
00000230: 5ce5 1fbc 3b4d 00bd d609 443e c697 fb3d
00000240: 271c 283d f6cd 9b3e 2b8a 853e 86d9 05be
00000250: 8b3f 94bd b35b 69be e0db e73e da9b 01be
00000260: f7f0 c83c 9750 24be 5a5c ff3e 690d 15be
00000270: 6d42 5f3d 0f94 edbd 23fb 75bf 7a6a 193e
00000280: ffde ff3d a48a 49be 3975 12be ee4b 08be
00000290: 9ac8 e0bd 08d5 9abe 10af a9bd b696 eebd
000002a0: ac40 013e 3d3e aabe 73c8 e0bd f9aa 99be
000002b0: ced5 bf3e 2f4d c5bf 5d16 513d bf12 dcbe
000002c0: 5174 c6bc e45b 523d 1466 16bf f699 753d
000002d0: f9e3 333e 2ba9 7dbf a284 33be d7ac 7bbe
000002e0: 295c 323e a835 9f3c d1be 503f 6c6a d9be
000002f0: 733b c03e 200a 2dbe 2de5 d13d 4e8d 81bf
00000300: 0038 7bb9 df93 01be c7a2 103e 17ee 043e
00000310: bc9c 083d 3a1b a3be 98df 10bd 2057 b7bb
00000320: a695 29be 5920 a7b9 422e a13d b55e 19be
00000330: ede0 a3bd 0ba1 9bbb d02b 503d f0e2 17bd
00000340: f398 603d 6060 ecbb 4cd9 a9be c177 a4be
00000350: 6ba2 a0be 9e2e 6dbe 5b96 11be 0b0b d03c
00000360: e612 84be a32f 0bbd ae9d db3c a189 9b3c
00000370: 8467 69bd e961 233e 9840 84be 45d1 be3c
00000380: d994 9bbd e6c6 e63d d535 e7bd b008 5e3d
00000390: 80bf 6b3c d436 413d d8ff e0bd 80e5 3abd
000003a0: 3853 2ebe dd21 1dbe 5514 26be bf67 ad3c
000003b0: c0a9 22be 2505 7fbe f842 eabc c416 f5bd
000003c0: 8e82 77bd 248d 26be 16e8 7ebe 7ef3 9a3d
000003d0: 65b0 8ebd 70d1 d1be 368a 50be f0d5 93bd
000003e0: 200d 8cbe b572 153e d5c4 e33d 94ab bcbd
000003f0: 9599 30be e046 273d e1b9 67be 53b6 a9be

linearSequential.6.bias f4 [16]
0.11522537 0.13401109 -0.18212236 -0.39361164 0.15140434 0.044537723 -0.4485356 -0.26306546
0.17220925 0.13948806 0.21019645 0.09416058 0.116909176 0.14536849 0.18213563 0.03002192
00000000: 47fb eb3d 343a 093e 497e 3abe 7787 c9be
00000010: bd09 1b3e 306d 363d 75a6 e5be 84b0 86be
00000020: 9f57 303e f5d5 0e3e bd3d 573e 43d7 c03d
00000030: 146e ef3d 7adb 143e c381 3a3e 88f0 f53c

linearSequential.9.weight f4 [2, 16]
-0.022464849 -0.026671832 0.32346073 -0.17776416 -0.0052236123 0.10169893 -0.016887337 0.018534899
-0.011329966 -0.008574604 0.009534309 -0.029343203 -0.035797566 0.004724757 -0.0044531715 0.28224975
0.1945508 0.2047126 -0.017063 0.014846495 -0.18960404 0.1369939 -0.14382686 0.16240019
0.20455532 -0.18914337 -0.20103598 0.18611301 0.19226418 0.17792706 -0.18271269 0.02606471
00000000: 3408 b8bc e37e dabc a59c a53e cf07 36be
00000010: d62a abbb 8747 d03d 5057 8abc 80d6 973c
00000020: 52a1 39bc 7f7c 0cbc ca35 1c3c 2861 f0bc
00000030: 78a0 12bd 22d2 9a3b e9eb 91bb 0a83 903e
00000040: 5338 473e 2ea0 513e b4c7 8bbc b73e 733c
00000050: 9027 42be 2148 0c3e 5947 13be 3c4c 263e
00000060: f376 513e cdae 41be 60dc 4dbe 6994 3e3e
00000070: e7e0 443e 8332 363e 0919 3bbe a985 d53c

linearSequential.9.bias f4 [2]
0.23892976 3.4436655
00000000: 01aa 743e 0465 5c40
